Saved_data_files/helpdesk/lr_all_variants/laplacianOnWeighted/EventPredictor_parameters_laplacianOnWeighted_1e-05.pt (torch, 286727 bytes, 8 tensors)

layer1.weight f4 [4, 1]
0	0x3f02e666	0.5113281
1	0x3f55ace0	0.8346691
2	0xbf69f3e5	-0.9138778
3	0x3f72d65d	0.9485834

layer1.bias f4 [9]
0	0x3e88a9c2	0.26692015
1	0xbe80fc21	-0.2519236
2	0x3ccd819d	0.025086218
3	0xbe9e40f7	-0.3090894
4	0xbe558d33	-0.20854644
5	0xbec61c7c	-0.38693607
6	0x3edf162d	0.43571606
7	0xbe45fe97	-0.193354
8	0x3f047b10	0.5175028

layer2.1.weight f4 [256, 9]
0	0x3c4a0b7b	0.012331839
1	0x3eb3a39f	0.3508577
2	0xbe8159b7	-0.2526376
3	0x3ee7d223	0.4527751
4	0xbc7d7cbb	-0.015471633
5	0xbd064b95	-0.032786924
6	0xbea72dd9	-0.32652166
7	0xbed520a0	-0.41626453
8	0xbef8eed4	-0.4861971
9	0xbe4267f8	-0.18984973
10	0x3e550f0a	0.20806518
11	0x3dfbfb14	0.12303749
12	0xbe11ad13	-0.14226179
13	0xbec913ff	-0.39273068
14	0x3e0cb742	0.13741782
15	0xbe090fca	-0.1338493
16	0x3e383d73	0.17992191
17	0x3ebe0666	0.37114257
18	0xbe5f18de	-0.2178683
19	0x3e4ad764	0.19808728
20	0x3d9f7b73	0.07787218
21	0x3df37f6c	0.11889538
22	0xbea43a59	-0.32075766
23	0x3c801155	0.015633265
24	0x3dbef1d3	0.09323468
25	0x3e2ed4d6	0.17073378
26	0xbe4d6090	-0.20056367
27	0x3e1baa2c	0.15201634
28	0xbc764a12	-0.015032308
29	0xbdda4f74	-0.10659686
30	0xbe069512	-0.13142803
31	0xbe5795d0	-0.21053243
32	0xbcaf1e6b	-0.02137681
33	0xbe7effe9	-0.2490231
34	0xbe17c76b	-0.14822166
35	0x3e02e01a	0.127808
36	0x3deb9e51	0.11504806
37	0xbe12bdec	-0.14330262
38	0x3e4e2f3f	0.2013521
39	0x3e4ed329	0.20197739
40	0xbe25d92a	-0.16196123
41	0xbdbc1a1c	-0.091846675
42	0xbd892224	-0.06695965
43	0xbc2b95b1	-0.010472701
44	0x3d304df7	0.043043103
45	0x3d3f8a08	0.046762496
46	0x3e700b61	0.2344184
47	0xbe817d3c	-0.2529086
48	0x3e67fabf	0.22654246
49	0xbe048aa6	-0.12943515
50	0xbe55afbb	-0.20867817
51	0xbe5b2805	-0.21401985
52	0xbd4dd801	-0.050254826
53	0x3e1eb621	0.15499164
54	0x3d6514e0	0.05592811
55	0x3ed425c0	0.4143505
56	0xbd6d3886	-0.057915233
57	0x3db3b85c	0.08775398
58	0x3f1225fe	0.5708922
59	0xbcb31ce4	-0.021864362
60	0xbe547fbb	-0.2075185
61	0x3b4d88e2	0.0031362106
62	0xbcb8cdd8	-0.022559091
63	0xbe817171	-0.2528186
64	0x3c875c1c	0.016523413
65	0xbd9e0858	-0.07716435
66	0x3ddde064	0.10833815
67	0x3eb19a74	0.3468815
68	0xbe6e2b62	-0.23258737
69	0xbe2f04ad	-0.17091627
70	0xbe21b999	-0.15793456
71	0x3e412a10	0.18863702
72	0x3d0a9022	0.033828862
73	0x3e03ea36	0.12882313
74	0xbe6b83b2	-0.22999457
75	0x3ea292a0	0.3175249
76	0x3e4c12c2	0.1992903
77	0xbd9a7f57	-0.075438194
78	0xbe29e217	-0.16590153
79	0xbc01acb3	-0.00791471
80	0x3c621a82	0.013800265
81	0x3d7b648e	0.061375193
82	0xbd37f66c	-0.04491274
83	0x3ea03df9	0.3129728
84	0x3cbca79a	0.023029137
85	0xbd411332	-0.047137447
86	0x3ea97165	0.33094326
87	0x3bc80b23	0.006104843
88	0xbe8f455d	-0.27982607
89	0xbe8044ad	-0.25052395
90	0x3dc85dd8	0.09783524
91	0x3d01565d	0.031576503
92	0x3e02a51d	0.12758298
93	0x3e43334e	0.1906254
94	0x3e5286f3	0.20559292
95	0xbeb00446	-0.3437826
96	0xbe238471	-0.15968491
97	0xbe2b21b8	-0.16712081
98	0xbe22cb5c	-0.15897888
99	0x3e0c62af	0.1370952
100	0xbba6554b	-0.0050760857
101	0x3e5aea4d	0.21378441
102	0x3ca86998	0.020558164
103	0xbdc9cd67	-0.098536305
104	0xbdc3cb80	-0.09560299
105	0xbdbca019	-0.09210224
106	0x3e92a4cc	0.28641355
107	0x3e92a45a	0.28641015
108	0xbe070511	-0.13185526
109	0xbd18a760	-0.037268996
110	0x3e98876b	0.29790816
111	0x3eb266a4	0.34843934
112	0xbdb21bdc	-0.0869672
113	0x3ea6d946	0.3258764
114	0x3e937f8a	0.28808242
115	0x3e3cdd52	0.18443802
116	0xbc5cebee	-0.013483984
117	0x3e38d023	0.18048148
118	0xbd677964	-0.05651225
119	0xbdea495d	-0.11439774
120	0xbe08ecd1	-0.13371588
121	0x3e06590b	0.13119905
122	0x3e8aed0d	0.2713398
123	0xbed31893	-0.41229686
124	0xbe67a939	-0.22623147
125	0x3e275219	0.16339912
126	0xbe84ea29	-0.259599
127	0xbe02df27	-0.12780438
128	0xbe394073	-0.18090992
129	0x3dc4eb2e	0.096151695
130	0xbe71244b	-0.23549001
131	0xbdf80e04	-0.12112048
132	0xbc4b9dcf	-0.012427761
133	0x3e2ce5a0	0.1688447
134	0xbe2739e4	-0.16330677
135	0xbdc9a3cd	-0.09845696
136	0x3e2aaf5a	0.16668454
137	0xbdf95cda	-0.12175913
138	0xbdfe4b79	-0.12416739
139	0xbc475305	-0.0121657895
140	0x3d5c1436	0.053730212
141	0x3e9a53fa	0.30142194
142	0x3db6f37a	0.08933158
143	0xbde5c372	-0.11218919
144	0x3e6f440c	0.23365802
145	0xbe20865f	-0.15676259
146	0x3e9ac989	0.30231884
147	0x3e382a20	0.1798482
148	0x3e3b65b7	0.1830052
149	0x3ad56cce	0.0016283037
150	0x3eb43d07	0.3520281
151	0xbe55c3cc	-0.20875472
152	0xbe531ab8	-0.20615661
153	0xbe828a95	-0.25496355
154	0xbe2a8faa	-0.16656366
155	0xbe7d1dff	-0.24718474
156	0xbe2786ce	-0.16360018
157	0x3ebcc1ae	0.36866516
158	0x3e497de5	0.19676931
159	0xbe37b2e2	-0.17939332
160	0x3a84720e	0.0010104792
161	0x3e12fb4b	0.14353673
162	0x3e6cb054	0.23114139
163	0x3e8afd5a	0.27146417
164	0xbdbcc6a3	-0.092175744
165	0xbac375e3	-0.0014912452
166	0xbdefd983	-0.11711409
167	0x3ea861d1	0.32887128
168	0xbe6f147c	-0.23347658
169	0x3e228aaa	0.15873209
170	0xbe14f1af	-0.1454532
171	0xbe3b840f	-0.18312095
172	0xbe1fbcd9	-0.15599383
173	0xbdf71436	-0.12064402
174	0x3e42eb80	0.19035149
175	0xbea751e6	-0.3267967
176	0x3be35dfa	0.006938693
177	0xbd8cab59	-0.068686195
178	0xbe3180ba	-0.17334262
179	0xbdcbedd6	-0.09957473
180	0xbe4268c3	-0.18985276
181	0x3db2a6fb	0.08723255
182	0x3e61a2aa	0.22034708
183	0xbd4a160d	-0.049337436
184	0x3f13fb52	0.5780536
185	0x3c940204	0.018067367
186	0xbe73cf64	-0.23809582
187	0xbd0e2feb	-0.034713667
188	0xbe035888	-0.1282674
189	0x3d54acea	0.051922716
190	0xbe90933c	-0.2823733
191	0x3cd49e55	0.025954405
192	0xbebe7971	-0.37202027
193	0x3e735709	0.2376367
194	0x3df483da	0.11939211
195	0xbea63d11	-0.32468465
196	0xbe10da15	-0.14145692
197	0x3cac9c2e	0.021070566
198	0xbd587e11	-0.0528546
199	0xbeb04f38	-0.3443544
200	0x3cea04c4	0.028566726
201	0xbe59b2c0	-0.21259594
202	0xbed096cc	-0.4074005
203	0xbea6a3d5	-0.3254687
204	0x3e0950ed	0.13409777
205	0xbe10eb15	-0.14152177
206	0xbe8ea89d	-0.27863017
207	0x3d82b945	0.063829936
208	0xbd8a7103	-0.067598365
209	0x3d8c7776	0.06858723
210	0x3d265664	0.040609732
211	0xbe5b896b	-0.2143914
212	0x3e094a86	0.13407335
213	0x3ecf95f1	0.40544084
214	0x3de63253	0.11240067
215	0x3f19de76	0.60105073
216	0xbe4ec1d7	-0.20191132
217	0xbe846897	-0.25861046
218	0x3e649e4c	0.2232601
219	0x3e81a209	0.25318936
220	0x3e2ac6e5	0.16677435
221	0xbd3c2355	-0.045932133
222	0x3dc0c9db	0.09413501
223	0x3e098907	0.13431178
224	0x3d6db3b2	0.0580327
225	0xbec9dc86	-0.3942606
226	0x3defee69	0.11715395
227	0xbdbcbe5c	-0.09215996
228	0x3e57b4c8	0.21065056
229	0x3eaaca56	0.33357495
230	0x3ce7946e	0.028269019
231	0x3e426399	0.18983306
232	0xbe0f5988	-0.13998997
233	0x3d0d1fd1	0.03445417
234	0xbecbceb3	-0.39806136
235	0xbe265f61	-0.16247322
236	0x3e7523fb	0.23939507
237	0xbeb657e6	-0.35613936
238	0x3e6072f4	0.21918851
239	0x3c94f1a3	0.018181628
240	0x3e27df05	0.16393669
241	0x3e130ed8	0.14361131
242	0xbe45f607	-0.19332133
243	0x3e27a139	0.16370095
244	0xbe1a05f7	-0.15041338
245	0xbdfef481	-0.12448979
246	0x3e30d16e	0.17267391
247	0x3e9bb92f	0.3041472
248	0xbe395cf9	-0.18101873
249	0xbe52afe5	-0.20574911
250	0xbabe57d8	-0.0014522029
251	0xbea84e78	-0.32872367
252	0x3d88ef13	0.06686225
253	0xbdac8991	-0.08424676
254	0x3e9573f7	0.29190037
255	0xbdbb59c3	-0.0914798

layer2.1.bias f4 [256]
0	0xbc995cef	-0.018721072
1	0x3ea745d8	0.32670474
2	0xbe002df5	-0.12517531
3	0x3e2135ab	0.15743129
4	0x3d8e1dcf	0.06939279
5	0xbded53f6	-0.1158828
6	0xbee85699	-0.4537857
7	0x3e869c29	0.26291016
8	0xbe15cda9	-0.14629234
9	0xbeec9e2e	-0.46214432
10	0xbe8810a8	-0.26575208
11	0x3e272d4a	0.1632587
12	0xbe4596a9	-0.19295754
13	0xbde1835c	-0.11011383
14	0xbe2e14c5	-0.1700011
15	0x3ec21b68	0.37911534
16	0xbdffc04d	-0.1248785
17	0xbe0a0c02	-0.13481143
18	0xbea224f5	-0.3166882
19	0x3eddfe8b	0.43358263
20	0xbf1f0f54	-0.62132764
21	0x3dcf17be	0.1011195
22	0x3e3271ae	0.17426178
23	0x3ec3238f	0.38113067
24	0xbeb0ef39	-0.34557512
25	0xbda2ee11	-0.07955564
26	0x3e4e0e62	0.20122674
27	0xba6206e3	-0.0008622242
28	0xbe039b20	-0.12852144
29	0xbe66d158	-0.22540796
30	0xbdb49405	-0.08817295
31	0x3e409cc8	0.18809807
32	0xbe8543bb	-0.26028237
33	0x3f0003b2	0.5000564
34	0x3eeb7794	0.45989668
35	0x3d8e8300	0.0695858
36	0xbd8c2315	-0.06842629
37	0x3ed5b531	0.417398
38	0xbee85185	-0.45374694
39	0x3e552b66	0.20817336
40	0x3e994296	0.29933614
41	0x3bbbcf68	0.005731512
42	0x3ee2ad61	0.44272903
43	0xbccba8c1	-0.024860742
44	0x3e279515	0.16365464
45	0x3e6cd801	0.23129274
46	0x3e51e163	0.20496134
47	0x3d94142e	0.072304115
48	0x3e7df823	0.24801688
49	0xbed2b98d	-0.4115719
50	0xbe86e90b	-0.26349673
51	0x3b0816b6	0.002076549
52	0xbdd26a28	-0.10274154
53	0x3f2f8379	0.68559986
54	0xbe8077f4	-0.25091517
55	0xbef2bf62	-0.47411638
56	0xbc9a975e	-0.018871006
57	0x3f686efb	0.9079434
58	0x3f0f021c	0.55862594
59	0xbee19c7f	-0.4406471
60	0xbefb36db	-0.4906529
61	0xbe9e310c	-0.30896795
62	0x3f06d821	0.52673537
63	0xbec691e1	-0.38783172
64	0xbeff59e3	-0.49873266
65	0x3ebc0e44	0.36729634
66	0x3efd3a23	0.49458417
67	0x3ea44f26	0.32091635
68	0xbf72d54f	-0.94856733
69	0xbe792d7b	-0.24333756
70	0xbefade3a	-0.4899767
71	0x3efd555d	0.4947919
72	0xbed9c85a	-0.4253567
73	0x3e806eb6	0.25084466
74	0xbe515dca	-0.20445934
75	0xbe6eebac	-0.23332089
76	0xbe89428a	-0.26808578
77	0xbe5ff5bb	-0.21871082
78	0x3eb054dd	0.34439746
79	0xbf5e7487	-0.86896557
80	0x3e60daac	0.21958417
81	0xbebbee2b	-0.36705145
82	0x3e979806	0.29608172
83	0x3dfd6d35	0.12374345
84	0xbed5d5ff	-0.4176483
85	0x3e7f6f9c	0.2494492
86	0xbec56411	-0.38552907
87	0xbecd9a64	-0.40156853
88	0x3e6af379	0.2294444
89	0x3eabdc55	0.33566537
90	0xbe4e324d	-0.20136376
91	0x3ea750a7	0.3267872
92	0xbea9c059	-0.33154562
93	0x3dd35e08	0.103206694
94	0x3e4821ba	0.19544116
95	0xbf206eb4	-0.6266892
96	0x3ee9aa72	0.45637852
97	0x3e43089a	0.1904625
98	0xbd2ae815	-0.041725237
99	0xbe141bac	-0.14463681
100	0xbe8ba330	-0.2727294
101	0xbe5ed554	-0.21761066
102	0x3e165e76	0.14684471
103	0xbedd589d	-0.4323167
104	0xbcf14260	-0.029450595
105	0x3dea28af	0.11433541
106	0x3e056880	0.13028145
107	0x3e106841	0.1410227
108	0xbe8bc7be	-0.2730083
109	0x3d8060ac	0.06268439
110	0xbe3dcf39	-0.1853608
111	0xbeb46c66	-0.3523895
112	0x3da9542d	0.082680084
113	0xbe991503	-0.29898843
114	0x3e502bd7	0.20329224
115	0xbe11bceb	-0.14232223
116	0xbeab1a84	-0.33418667
117	0x3e6332c5	0.22187336
118	0x3ebcbeef	0.3686442
119	0x3e605178	0.21906078
120	0xbebc6103	-0.36792764
121	0x3e957c9c	0.29196632
122	0xbdc10bdd	-0.09426091
123	0x3d93d415	0.07218186
124	0x3e3e90e8	0.18609965
125	0xbe4b54b1	-0.19856526
126	0x3dd9de87	0.10638147
127	0xbd72e00f	-0.05929571
128	0x3dad91e3	0.08475091
129	0xbc614b48	-0.013750859
130	0xbed498fc	-0.41522968
131	0x3e432232	0.19056013
132	0x3c953ab6	0.018216472
133	0xbe7a1bce	-0.24424669
134	0x3e9f233c	0.3108157
135	0xbe39b4f0	-0.18135428
136	0x3e8fef46	0.2811224
137	0x3e6e69d1	0.23282553
138	0x3e509dfd	0.20372768
139	0x3e2d0e35	0.16899951
140	0x3e9d7977	0.30756733
141	0xbe1306b5	-0.14358027
142	0xbe087979	-0.13327588
143	0x3d856cae	0.0651487
144	0xbdd49aca	-0.10381086
145	0xbe6edd24	-0.23326546
146	0x3eb474bd	0.35245314
147	0xbeaaecf1	-0.33383897
148	0xbd86ecae	-0.06588112
149	0x3e56705e	0.20941302
150	0xbed1f912	-0.41010338
151	0xbeb0a085	-0.34497467
152	0x3e392e15	0.18083985
153	0xbd5b2cd7	-0.05350956
154	0xbd586149	-0.052827153
155	0x3e6a3fbe	0.22875878
156	0xbee3a891	-0.44464543
157	0x3ee78579	0.4521902
158	0x3d6473dd	0.05577456
159	0xbed2933e	-0.41127962
160	0xbe82d255	-0.25551096
161	0x3ed6139e	0.41811842
162	0xbea235d3	-0.3168169
163	0xbe87580c	-0.26434362
164	0x3e6877a0	0.22701883
165	0xbcd94da5	-0.026526282
166	0x3de9e753	0.11421075
167	0xbea65d57	-0.32493088
168	0x3e5ccd77	0.21562754
169	0xbf2d6fe3	-0.6774885
170	0xbeba861a	-0.36430436
171	0xbef2f73f	-0.4745426
172	0x3bef5dcc	0.0073048826
173	0x3d2e50fb	0.042557698
174	0xbdcbc476	-0.09949581
175	0x3e14d522	0.14534429
176	0x3dadbaec	0.08482918
177	0xbef50750	-0.47857141
178	0xbee24d78	-0.4419973
179	0xbe9ca703	-0.3059617
180	0xbe7c44f3	-0.24635677
181	0xbea5ec34	-0.3240677
182	0xbee4dfd3	-0.44702014
183	0x3d99d44a	0.07511194
184	0xbef0672e	-0.4695372
185	0x3d878b7c	0.066184014
186	0x3de647f9	0.112441964
187	0x3e064647	0.13112746
188	0x3da7b0fb	0.08188053
189	0x3f04b586	0.5183948
190	0x3cb3d3b9	0.021951543
191	0xbe91a16f	-0.28443477
192	0x3e192d07	0.14958583
193	0x3e9b04e2	0.30277163
194	0x3b2e619f	0.002660848
195	0x3e605366	0.21906814
196	0xbe5b79a5	-0.21433122
197	0xbe456561	-0.19276954
198	0x3e490ea2	0.19634488
199	0x3e346304	0.17615896
200	0x3ddc2a47	0.10750251
201	0x3ee5dc0b	0.44894442
202	0x3e96c9de	0.29450887
203	0xbe7a6ca9	-0.24455513
204	0xbe2408bd	-0.16018958
205	0x3e8150e8	0.2525704
206	0x3eb09b43	0.34493455
207	0xbc9dba5c	-0.019253902
208	0x3ca7d688	0.020488039
209	0xbe8111d9	-0.2520893
210	0xbeabcd6b	-0.3355516
211	0x3920ae69	0.00015323762
212	0x3f281231	0.6565276
213	0x3e577e67	0.21044312
214	0x3e84086b	0.25787672
215	0xbd470b24	-0.04859461
216	0xbe7fb8da	-0.24972859
217	0xbe1bbee0	-0.15209532
218	0x3ddefa9d	0.108876444
219	0xbd205a11	-0.039148394
220	0xbec6807d	-0.38769904
221	0x3f1396ce	0.57651985
222	0x3f135f97	0.57567734
223	0x3eb67438	0.35635543
224	0x3f3c6fe4	0.7360823
225	0x3e1b8dd3	0.1519082
226	0xbf1664d7	-0.5874762
227	0xbd77ff21	-0.060546044
228	0x3eb2ba21	0.3490763
229	0x3e99930a	0.29994994
230	0xbebd7744	-0.37005055
231	0x3e697d29	0.22801651
232	0x3f403897	0.7508635
233	0xbec5a237	-0.38600323
234	0xbe9c8f5f	-0.30578133
235	0x3e4f5723	0.20248084
236	0x3d71251d	0.058873285
237	0xbc78da6b	-0.015188794
238	0x3cd0b796	0.025478166
239	0xbeab31ea	-0.3343652
240	0xbf0b92ca	-0.5452086
241	0xbec09e56	-0.376208
242	0x3e98759e	0.29777235
243	0x3c9792da	0.018502641
244	0xbe67d3ee	-0.22639439
245	0x3f3368ac	0.7008159
246	0xbdecba96	-0.11559026
247	0x3e443c0c	0.19163531
248	0x3ee4cfe9	0.44689873
249	0x3e326f96	0.17425379
250	0xbd8a2d3d	-0.0674691
251	0x3d47b807	0.048759487
252	0xbe04dbd0	-0.12974477
253	0xbe1bea53	-0.15226106
254	0x3f386a91	0.7203761
255	0xbdfe2676	-0.124096796

layer2.3.weight f4 [256, 256]
0	0x3d61c9e3	0.055124175
1	0xbccb835d	-0.024842912
2	0xbd0245b6	-0.031804763
3	0x3d2937a9	0.041312847
4	0xbcb58c78	-0.022161707
5	0x3ce31018	0.027717635
6	0xbd8fbdc9	-0.070186205
7	0x3befb507	0.0073152813
8	0x3b2bf9a6	0.0026241331
9	0x3d3fc943	0.046822798
10	0x3d3c90c7	0.046036508
11	0x3cd0c81f	0.02548605
12	0x3c26098e	0.010134114
13	0x3d98bc32	0.074577704
14	0x3b55b00e	0.0032606157
15	0xbcf8fb3c	-0.030393235
16	0xbcaca87b	-0.021076431
17	0x3dbb23eb	0.0913771
18	0x3ce3e26b	0.027817925
19	0x3d4a41ae	0.049379043
20	0xbd7dbc9c	-0.06194745
21	0x3dac77f5	0.084213175
22	0x3d736c24	0.059429303
23	0xbd165085	-0.036697883
24	0xbc93118e	-0.017952707
25	0xbdc9f203	-0.09860613
26	0x3d8064fd	0.06269262
27	0x3ca07c4d	0.019590521
28	0x3d8dbcdd	0.069207884
29	0xbcdbe164	-0.026840873
30	0xbd886c07	-0.066612296
31	0x3cdf8608	0.02728559
32	0xbcf44560	-0.029818237
33	0x3c17c1a6	0.009262478
34	0xb990d66f	-0.00027625586
35	0x3d96e8e7	0.07368641
36	0x3cdfcf44	0.027320512
37	0x3ca93881	0.020656826
38	0xbc236339	-0.009972387
39	0x3c2f5d1e	0.010703353
40	0xbd52bcd4	-0.05144961
41	0xbc84266e	-0.016131606
42	0xbd56e2cc	-0.052462384
43	0x3cf71d19	0.030165242
44	0x3d0b834c	0.03406076
45	0x3a0563a7	0.0005088397
46	0xbd24a21d	-0.040193666
47	0x3c81ecdd	0.015860016
48	0xbd811f3b	-0.06304785
49	0xbdac364b	-0.08408793
50	0xbc7b8829	-0.015352287
51	0x3c268d4d	0.010165525
52	0xbd0bfced	-0.034176756
53	0xbc85b950	-0.016323715
54	0xbcc039a0	-0.023464978
55	0x3dbfa274	0.09357157
56	0x3cfaaaba	0.030598987
57	0xbcc452e9	-0.023965316
58	0x3d83238c	0.064032644
59	0xbd3992a6	-0.04530587
60	0x3c196623	0.00936273
61	0x3bab77c1	0.0052327816
62	0xbd8a9a4f	-0.06767713
63	0xbd61867c	-0.055059895
64	0xbce8c946	-0.028416287
65	0xbcfef734	-0.031123735
66	0x3d6b3b80	0.05742979
67	0xbdd769b0	-0.10518205
68	0xbc63705d	-0.01388177
69	0xbcec91fd	-0.028878206
70	0x3d1a835b	0.037722927
71	0x3c7f7f08	0.015594251
72	0x3ce98d25	0.028509686
73	0xbd95537e	-0.072913155
74	0xbd8e33ac	-0.069434494
75	0xbc69f960	-0.014280647
76	0xbb09a277	-0.0021001378
77	0x3cbbcd53	0.022925055
78	0x3d96a362	0.073553815
79	0x3d79157d	0.06081151
80	0xbd07a7f3	-0.033119153
81	0x3c0036c1	0.007825554
82	0xbd7deddb	-0.061994415
83	0xbd1734a3	-0.036915433
84	0xba8f52f7	-0.001093476
85	0x3bdafd78	0.006683048
86	0x3c1ebb24	0.0096881725
87	0xbb865351	-0.0040992876
88	0x3ca814d0	0.020517737
89	0xbcd4fd21	-0.025999608
90	0xbbda38fa	-0.006659624
91	0x3ca7c7d8	0.020481035
92	0xbd2bdc17	-0.04195794
93	0x3d48fbb1	0.049068157
94	0xbd1605cf	-0.036626633
95	0x3ca60135	0.020264247
96	0xbd5a95af	-0.053365406
97	0x3cfd1cb4	0.030897476
98	0x3cd9dc63	0.026594346
99	0x3ccf610a	0.025314827
100	0xbe05ad2a	-0.13054338
101	0xbd5d6cae	-0.054058723
102	0x3d6878c3	0.056755792
103	0xbbb91b28	-0.005648989
104	0xbc9b2b5e	-0.018941578
105	0xbd94ba10	-0.07262051
106	0x3d3515c6	0.044210218
107	0xbcd4ec4d	-0.025991583
108	0x3d8e3634	0.06943932
109	0xbda2184a	-0.07914789
110	0x3ce79750	0.028270394
111	0x3c896e27	0.016776158
112	0xbd9e4211	-0.07727445
113	0x3d8f5e61	0.07000423
114	0xbc43047c	-0.011902925
115	0x3d7f3cc3	0.062313806
116	0xbc50f3cb	-0.012753437
117	0xbd22981c	-0.039695844
118	0xbd066105	-0.03280737
119	0xbcb70986	-0.022343408
120	0x3c86f2f6	0.016473275
121	0x3b0dc221	0.0021630602
122	0x3d0f1319	0.034930322
123	0x3cd7a4bc	0.026323669
124	0x3bda916e	0.0066701686
125	0xbd007329	-0.031359825
126	0x3c8458af	0.016155569
127	0xbc5bb82d	-0.01341061
128	0xbd4242da	-0.047427036
129	0xbd8f8a80	-0.07008839
130	0xbc0de81c	-0.008661296
131	0x3d8e7b03	0.069570564
132	0x3b3cfae2	0.0028836061
133	0xbcbdca19	-0.023167657
134	0xbd372b5c	-0.044719085
135	0x3c9d13f8	0.01917456
136	0xbd8b5526	-0.0680335
137	0x3d4900e4	0.049073115
138	0xbcc97e7d	-0.024596447
139	0xbb96546d	-0.004587701
140	0x3c49664f	0.012292459
141	0xbdb2e0ef	-0.08734309
142	0x3cfba386	0.030717622
143	0x3cc336b9	0.023829805
144	0xbd14daa8	-0.03634134
145	0x3d575f88	0.05258134
146	0x3cbeabba	0.023275245
147	0x3cce8526	0.025209974
148	0xbd28bc92	-0.04119546
149	0x3dba0f1f	0.09084915
150	0x3d8c8ef5	0.068632044
151	0x3caa4aef	0.020787684
152	0xbc85baa4	-0.016324349
153	0x3cad7dfc	0.021178238
154	0xbb6d8fa9	-0.0036248958
155	0x3ae542c9	0.0017491217
156	0x3d43f99f	0.04784548
157	0xbcab0b97	-0.02087955
158	0xbdda5122	-0.10660006
159	0xbd50921b	-0.050920587
160	0xbd07e5ad	-0.03317802
161	0x3c800d9e	0.015631493
162	0xbcb2c67b	-0.021823158
163	0x3cad4faa	0.02115615
164	0x3cbbc44b	0.022920748
165	0xbdaf24c2	-0.08551933
166	0xbca0c54c	-0.019625328
167	0x3d2d9fbd	0.042388666
168	0xbc5ec01e	-0.013595609
169	0x3d92c365	0.07166175
170	0x3caeb0d7	0.021324558
171	0x3d11b0bb	0.035568934
172	0x3d5d3cc2	0.05401302
173	0x3c6b1127	0.014347351
174	0x3d3b8403	0.045780193
175	0x3d12e056	0.035858475
176	0xbcdad8e2	-0.026714746
177	0xbd002160	-0.03128183
178	0x3e31bc77	0.1735705
179	0x3c7ac7b4	0.015306402
180	0x3d2d5bbd	0.042323817
181	0x3d27179e	0.040794007
182	0x3c81ca29	0.015843468
183	0x3c8ca3f7	0.017168028
184	0xbbd76deb	-0.0065743825
185	0x3d6199da	0.055078365
186	0x3d8ebe58	0.06969899
187	0x3d151aa7	0.03640237
188	0xbcc58915	-0.024113217
189	0x3c95e15e	0.01829594
190	0xbd3458f3	-0.04403014
191	0xbd974104	-0.073854476
192	0x3d0c9951	0.0343259
193	0x3d8c2146	0.06842284
194	0xbd8fc2f9	-0.0701961
195	0x3e188a0c	0.1489641
196	0x3d39008b	0.045166533
197	0x3d8dc471	0.06922234
198	0xbbc3c976	-0.0059749437
199	0xbca83640	-0.02053368
200	0xbc0c72db	-0.008572306
201	0x3cbecbc0	0.023290515
202	0xbc6c4ebf	-0.014423071
203	0x3cd40b56	0.025884312
204	0x3af83d35	0.001893914
205	0x3d1edbb1	0.038783733
206	0xbd2d445c	-0.04230152
207	0x3bbfd4b6	0.0058542145
208	0xbd14dc87	-0.036343124
209	0x3bf623bc	0.007511584
210	0xbcbd96d4	-0.02314321
211	0x39f11d60	0.00045988988
212	0xbcbf31b6	-0.023339134
213	0xbd11e951	-0.0356229
214	0xbd6e5c03	-0.058193218
215	0xbc39a8fe	-0.011331795
216	0x3d17e6a3	0.037085187
217	0xbd07c458	-0.033146232
218	0x3d1c7432	0.03819675
219	0x3bed0996	0.0072338087
220	0x3cf766c5	0.030200372
221	0xbced431f	-0.02896267
222	0xbd5850e0	-0.052811503
223	0x3cf4f4a2	0.029901806
224	0x3bdf7a7d	0.0068200217
225	0x3c8e5947	0.017376555
226	0x3c84d967	0.016216947
227	0xbdcc57cd	-0.09977684
228	0xbd4fa884	-0.05069782
229	0xbd34b800	-0.04412079
230	0x3d2f73ca	0.042835034
231	0xbd173c6a	-0.03692285
232	0xbd1e5684	-0.038656726
233	0x3d7c5ebf	0.061613794
234	0xbdb036b5	-0.086041845
235	0xbcea9f7b	-0.0286405
236	0x3cf1630e	0.029466178
237	0x3c6e391d	0.014539984
238	0x3d2be7c9	0.041969094
239	0x3d586ff6	0.05284115
240	0xbc061b30	-0.008185193
241	0xbce1379f	-0.027492343
242	0x3c8ac506	0.016939651
243	0xbd98a995	-0.0745422
244	0xbdc60eed	-0.096708156
245	0x3d345668	0.044027716
246	0x3e1a2bb1	0.1505573
247	0xbcc5448b	-0.024080535
248	0xbc239a9f	-0.009985595
249	0x3d6dffb2	0.05810518
250	0xbd3c0478	-0.0459027
251	0x3b9f1a82	0.004855455
252	0x3d89fb78	0.06737417
253	0x3d80a18a	0.06280811
254	0x3e0a5f3c	0.13512892
255	0xbd11f1d8	-0.03563103

layer2.3.bias f4 [256]
0	0xbf0a2d1f	-0.539751
1	0x3ec03564	0.37540734
2	0xbef3895e	-0.4756574
3	0x3ede2dcc	0.43394315
4	0x3ea5fa52	0.32417542
5	0x3ed9ef75	0.42565504
6	0x3e5332c5	0.20624836
7	0xbd738f53	-0.059462857
8	0xbdd991d5	-0.106235184
9	0x3d21abaa	0.039470352
10	0xbc4857ea	-0.012227992
11	0x3d9c5560	0.076334715
12	0xbdb63ef5	-0.08898727
13	0x3e9d7ef2	0.30760914
14	0xbd0c761a	-0.034292318
15	0x3b70998b	0.0036712612
16	0xbe3712da	-0.17878285
17	0xbe8ae679	-0.27128962
18	0x3ed46b6d	0.4148821
19	0xbd5ab000	-0.053390503
20	0x3eb2b716	0.34905308
21	0x3cc0018d	0.02343824
22	0x3dec9408	0.11551672
23	0x3e4343cc	0.19068831
24	0x3edf045f	0.43558022
25	0x3ebf53c9	0.3736861
26	0x3e68c316	0.2273067
27	0xbe3f7c51	-0.18699767
28	0x3e1df73e	0.15426347
29	0xbe213d8d	-0.15746136
30	0x3efaea92	0.49007088
31	0x3e2c3dad	0.16820402
32	0x3e84a2f9	0.25905588
33	0xbc9fd298	-0.019509599
34	0x3e6e44b4	0.23268396
35	0xbca79f2b	-0.02046164
36	0x3f07f7e2	0.53112614
37	0xbe9eaf47	-0.309931
38	0xbe316480	-0.17323494
39	0x3ecbc745	0.39800468
40	0xbb649b4f	-0.003488261
41	0x3e91d897	0.28485557
42	0xbe25ae8e	-0.16179869
43	0xbd1a88cd	-0.03772812
44	0x3dcd3817	0.10020464
45	0xbe83b138	-0.25721145
46	0xbf28ee6f	-0.6598882
47	0xbd67c25c	-0.05658184
48	0xbcadbe8b	-0.021209022
49	0x3e075017	0.13214146
50	0xbdfe6975	-0.12422458
51	0x3c8a7fcc	0.016906641
52	0x3e415fa8	0.18884146
53	0x3d02854a	0.031865396
54	0x3d7a18ef	0.061058935
55	0xbe54f820	-0.20797777
56	0xbde1fc59	-0.110344596
57	0x3d5d2f35	0.0540001
58	0xbe739117	-0.23785816
59	0x3e84b065	0.25915828
60	0xbf1b5125	-0.6067069
61	0x3ce3e108	0.027817264
62	0x3d8b6635	0.06806604
63	0x3e599eb2	0.21251944
64	0x3e95b28a	0.29237777
65	0xbeb718f3	-0.35761222
66	0x3e8a3be5	0.2699882
67	0xbb739a14	-0.0037170695
68	0x3dc6e3bc	0.09711406
69	0xbe8d41f3	-0.27589378
70	0xbe62b666	-0.22139892
71	0x3e3010fd	0.1719398
72	0x3e24b8c4	0.16086107
73	0xbea701f8	-0.3261869
74	0xbef6a0b5	-0.48169485
75	0xbea2bebd	-0.31786147
76	0xbead0c7b	-0.33798584
77	0x3ead288a	0.3381999
78	0xbe4403c5	-0.19142063
79	0xbe881bdf	-0.26583764
80	0xbe65ed67	-0.22453843
81	0x3ec92503	0.3928605
82	0x3e5c7fdd	0.21533151
83	0x3c137d85	0.009002094
84	0xbe2dc274	-0.16968709
85	0x3e22ca77	0.15897547
86	0xbecbfdee	-0.3984217
87	0xbe137003	-0.14398198
88	0xbebeb5d6	-0.37248105
89	0xbe993f12	-0.2993093
90	0x3ec0d3e8	0.37661672
91	0xbde3947b	-0.11112305
92	0x3ec82c2d	0.39096203
93	0x3caf40f4	0.021393277
94	0x3e8ac1d8	0.27101016
95	0xbec38844	-0.381899
96	0xbce79088	-0.02826716
97	0x3f1ed6b3	0.62046355
98	0xbdc14827	-0.0943759
99	0x3e941004	0.2891847
100	0x3e8b4669	0.27202156
101	0x3ed01438	0.40640426
102	0xbd9fe2f7	-0.07806962
103	0x3ee22909	0.44171932
104	0x3eea2bbd	0.45736495
105	0xbeba6c26	-0.36410636
106	0xbe5a4337	-0.21314703
107	0xbd2dd66a	-0.04244081
108	0xbe5eb8aa	-0.21750131
109	0xbec1afc2	-0.37829405
110	0xbdb448bd	-0.08802936
111	0xbc8e0cd0	-0.017340094
112	0xbf12846f	-0.5723333
113	0xbe52daa3	-0.20591216
114	0x3e0da28c	0.13831538
115	0x3ea29169	0.31751564
116	0x3de1a91b	0.110185824
117	0xbd068a3a	-0.032846667
118	0xbeeb040f	-0.45901534
119	0x3e8dc98a	0.27692825
120	0xbe4f5e75	-0.20250876
121	0xbce5f472	-0.028070662
122	0x3eb0209d	0.34399882
123	0x3db9e047	0.09075981
124	0xbeb0440e	-0.34426922
125	0x3e810e2f	0.25206134
126	0x3ddb81bf	0.107181065
127	0x3e2d91f3	0.16950206
128	0xbd8a6585	-0.067576446
129	0x3e96e6b2	0.29472882
130	0x3e11e43e	0.14247224
131	0xbef228b2	-0.47296673
132	0xbec43efd	-0.38329306
133	0xbee5290d	-0.44757882
134	0x3e9d57ff	0.30731198
135	0x3ed00a30	0.40632772
136	0x3ed83084	0.42224514
137	0xbee6fbef	-0.45114085
138	0xbe7d65e2	-0.24745896
139	0xbee0e6fb	-0.43926224
140	0xbec4ae78	-0.3841436
141	0x3e858098	0.26074672
142	0x3cf5fb2f	0.030027
143	0xbe0b6c8d	-0.13615628
144	0xbe3d1fdf	-0.18469189
145	0xbe7ca8f1	-0.24673821
146	0x3ea74127	0.32666895
147	0x3ee8370a	0.4535449
148	0xbc356f95	-0.0110739665
149	0x3d89f2f6	0.06735794
150	0xbe37726b	-0.1791474
151	0xbe8cf1ab	-0.27528128
152	0xbe9f7257	-0.31141922
153	0xbd1b38f0	-0.037896097
154	0xbed01bab	-0.4064611
155	0xbdd06a98	-0.10176581
156	0xbe1a4827	-0.15066586
157	0xbe07004a	-0.13183704
158	0xbf007531	-0.5017882
159	0xbeb1668e	-0.34648556
160	0xbed35a2b	-0.4127973
161	0x3e7eda15	0.24887879
162	0x3ed335b5	0.41251913
163	0x3e0685fc	0.13137048
164	0x3df56981	0.11983014
165	0x3e1cae1c	0.15300792
166	0xbb4df06e	-0.0031423825
167	0xbe80d499	-0.251622
168	0x3c005382	0.00783241
169	0xbde86fa4	-0.11349419
170	0xbe77fc1f	-0.2421727
171	0x3ebae695	0.36504045
172	0xbc907047	-0.017631663
173	0x3e89bad4	0.2690035
174	0x3e8b4432	0.27200466
175	0xbd3f373b	-0.04668353
176	0x3e0e05fc	0.1386947
177	0x3d688b85	0.05677368
178	0xbea21ef8	-0.31664252
179	0xbeec3574	-0.46134531
180	0xbe8be0e7	-0.27320024
181	0xbf096bb8	-0.5367999
182	0x3d3943a0	0.045230508
183	0x3f1ec86a	0.6202456
184	0xbe8ee23c	-0.27906978
185	0x3ea6e815	0.3259894
186	0x3db0ea90	0.08638489
187	0x3e89e85c	0.2693509
188	0x3e676f9d	0.22601171
189	0xbdc09076	-0.09402554
190	0xbd8e5e2c	-0.069515556
191	0xbe8499c8	-0.25898576
192	0xbe6e9cc2	-0.23301986
193	0x3e1fa611	0.15590693
194	0x3eaf35c7	0.34220716
195	0x3d3715be	0.04469847
196	0xbd0fc8c0	-0.03510356
197	0xbdba0ff5	-0.09085075
198	0xbe0600f0	-0.13086295
199	0xbe9474fb	-0.289955
200	0xbe116b5e	-0.14201114
201	0xbd4c7b5e	-0.04992234
202	0xbe970963	-0.2949935
203	0x3ea59cf0	0.32346296
204	0xbee4ded4	-0.44701254
205	0x3eed3870	0.4633212
206	0xbe401c53	-0.18760805
207	0xbded259c	-0.11579439
208	0xbe3b6a16	-0.18302187
209	0x3d95fc54	0.073235184
210	0x3de694a3	0.11258819
211	0xbed643ab	-0.41848502
212	0x3c94edeb	0.018179854
213	0x3e731701	0.23739244
214	0xbdbc82e5	-0.09204654
215	0xbd9b4b46	-0.07582717
216	0xbf089082	-0.533455
217	0x3ea0ada0	0.31382465
218	0xbe01777e	-0.12643239
219	0x3e25a7e9	0.16177334
220	0xbe71bcdd	-0.23607202
221	0x3dc4f485	0.09616951
222	0x3c5d25d4	0.013497788
223	0xbe8f60f4	-0.28003657
224	0x3ec58f9c	0.38586128
225	0xbda6cab3	-0.081441306
226	0xbe704b00	-0.2346611
227	0x3e258221	0.16162921
228	0x3efc0fb7	0.4923074
229	0xbe673f6c	-0.22582787
230	0x3c6c4748	0.014421292
231	0xbe90bc20	-0.28268528
232	0xbe586b81	-0.2113476
233	0xbe5c433c	-0.21510023
234	0x3dae1c2d	0.08501468
235	0x3e2b31a1	0.1671815
236	0x3e95caeb	0.29256377
237	0xbedb7082	-0.42859274
238	0xbe8ef928	-0.27924466
239	0xbe179483	-0.14802746
240	0x3e2349c0	0.15946102
241	0xbd314f3d	-0.04328846
242	0xbea95bf4	-0.33077967
243	0xbef1cb14	-0.4722525
244	0x3eaf8e94	0.34288466
245	0xbdace6c2	-0.08442451
246	0x3dd37b4f	0.103262536
247	0xbdef322a	-0.1167949
248	0x3eb84852	0.35992676
249	0xbe85d607	-0.26139852
250	0xbe79b952	-0.243871
251	0xbea26160	-0.31714916
252	0xbe9da507	-0.30789968
253	0xbd975a0f	-0.07390224
254	0x3dcb5dc5	0.099299945
255	0x3ee01954	0.43769324

layer2.6.weight f4 [10, 256]
0	0xbda17f24	-0.07885578
1	0xbe063b6e	-0.13108608
2	0x3db5af88	0.088713706
3	0xbd07136d	-0.03297751
4	0x3cb32337	0.021867378
5	0xbdd48dd8	-0.10378617
6	0xbd248e7c	-0.040174946
7	0x3cc3ba0f	0.02389243
8	0x3c90abd7	0.017660065
9	0xbd82b90a	-0.0638295
10	0xbdc6a10e	-0.096986875
11	0xbd92b7c9	-0.071639605
12	0x3ce50926	0.027958464
13	0xbd724acd	-0.059153367
14	0x3c36dc11	0.011160866
15	0xbd9b6a69	-0.075886555
16	0x3d3f2538	0.046666354
17	0xbce4d351	-0.027932795
18	0x3cb50411	0.022096666
19	0x3c217a9b	0.009855892
20	0x3cf1a82a	0.029499132
21	0xbc9a7e57	-0.018859072
22	0xbda67104	-0.08127025
23	0xbcad3cde	-0.021147188
24	0xbe02d5b3	-0.12776832
25	0x3d8c9f61	0.068663366
26	0xbdb7fbf1	-0.08983601
27	0x3d8d11ea	0.068881825
28	0xbd3676a2	-0.04454673
29	0xbd4d4ff8	-0.050125092
30	0xbe27d35a	-0.16389218
31	0xbdb3de8f	-0.08782684
32	0xbd93be58	-0.072140396
33	0xbc9e0527	-0.019289566
34	0xbd16b154	-0.036790207
35	0xbcf9b25c	-0.030480556
36	0xbdb9b4df	-0.090677015
37	0x3de158af	0.11003243
38	0x3d3058ee	0.04305356
39	0xbdda44ab	-0.106576286
40	0xbbfab9b2	-0.007651531
41	0xbc5ac9e8	-0.013353802
42	0x3dcea423	0.100899
43	0xbab3ef8a	-0.0013728004
44	0xbc941250	-0.018075138
45	0x3daff83e	0.0859227
46	0xbd87b7b8	-0.066268384
47	0xbc0940e0	-0.008377284
48	0xbc1d41ec	-0.0095982365
49	0xbcca2296	-0.024674695
50	0x3d82a19d	0.063784815
51	0x3b9ed6b8	0.004847374
52	0x3da489dc	0.08034107
53	0x3b319251	0.0027095268
54	0x3d55a6ee	0.05216115
55	0xbcbd37b0	-0.023097843
56	0xbd1ebaec	-0.03875248
57	0x3d49c4c1	0.049259905
58	0x3e0affe5	0.13574179
59	0x3ca0d5f9	0.01963328
60	0x3dbef36b	0.09323772
61	0x3cfa20cb	0.030533215
62	0x3d0c9042	0.034317262
63	0x3d08b2a5	0.033373494
64	0xbdb21351	-0.086950906
65	0x3d0048c8	0.03131941
66	0x3b0178cc	0.0019755838
67	0xbd7325db	-0.059362274
68	0x3b5bbc6a	0.0033529052
69	0xbb734d93	-0.0037125095
70	0x3c686b98	0.014185809
71	0x3d495e2f	0.049162086
72	0xbd1d3223	-0.038377892
73	0xbbbcdb93	-0.00576348
74	0x3dca1d74	0.09868899
75	0x3d22bd0f	0.03973108
76	0x3d926cf2	0.07149686
77	0xbd654728	-0.055976063
78	0xbd757829	-0.059929047
79	0x3d149358	0.03627333
80	0x3d45ae1d	0.04826175
81	0x3b30500c	0.002690318
82	0xbc6d89d9	-0.0144981975
83	0x3d61c4de	0.055119388
84	0x3cec8d87	0.02887608
85	0x3c95eba0	0.018300831
86	0x3d6bb35e	0.057544105
87	0xbc27eacf	-0.010248854
88	0x3d9527a5	0.07282952
89	0x3d2f46d0	0.04279214
90	0xbcc69448	-0.024240628
91	0x3cb6c02b	0.02230843
92	0xbdef21cb	-0.11676367
93	0xbd051602	-0.03249169
94	0x3c42e972	0.011896478
95	0x3dd9255b	0.10602828
96	0xbd255ebe	-0.040373556
97	0xbdd598b7	-0.10429519
98	0x3cad589f	0.021160422
99	0xbd979e53	-0.07403245
100	0xbda5319c	-0.08066103
101	0xbc52569b	-0.012838031
102	0xbb8aae96	-0.004232238
103	0xbdbb5d70	-0.09148681
104	0x3d42b6ce	0.047537617
105	0x3d8ac084	0.06775001
106	0xbc5e5f60	-0.013572544
107	0x3d3d1f8e	0.04617267
108	0x3de2c149	0.110720225
109	0x3e29fd5f	0.1660056
110	0x3b32cef2	0.0027283994
111	0xbd1beff6	-0.03807064
112	0xbd6d1e7e	-0.057890408
113	0x3d4b2ca3	0.049603116
114	0xbd8f1191	-0.069857724
115	0xbd43d161	-0.0478071
116	0xbd76ec07	-0.060283687
117	0xbd26bf86	-0.040709995
118	0xbcd22f81	-0.025657417
119	0xbc28772f	-0.010282322
120	0x3d91a11f	0.071108095
121	0x3d2ad49e	0.041706674
122	0xbd32549f	-0.043537732
123	0xbd6e46a5	-0.05817284
124	0x3e0023b4	0.1251362
125	0x3c567b0b	0.013090859
126	0x3cd23ed5	0.025664726
127	0xbd8b02cd	-0.067876436
128	0xbd88b55a	-0.06675215
129	0xbd8dba5a	-0.06920309
130	0xbd475441	-0.048664335
131	0xbcda39ce	-0.026638892
132	0x3db6b109	0.089204855
133	0xbd93bbab	-0.07213529
134	0xbde4cad4	-0.11171499
135	0x3d3e8210	0.046510756
136	0x3c2db8a1	0.010603101
137	0x3d83d4c3	0.064370655
138	0x3cb55836	0.022136789
139	0x3d005f49	0.03134087
140	0x3d8e4fc2	0.06948806
141	0xbc7cd5bc	-0.015431818
142	0xbd916fa8	-0.07101375
143	0x3cddd479	0.027078854
144	0x3c132cad	0.0089828195
145	0x3bb37151	0.005476155
146	0x3d021018	0.03175363
147	0xbd925c94	-0.07146564
148	0xbd4d3995	-0.050103743
149	0x3cfd603b	0.030929675
150	0x3c2db56f	0.010602339
151	0xbb5e516e	-0.0033923048
152	0x3db379cc	0.08763465
153	0x3d42fcc0	0.047604322
154	0x3d8c0ca2	0.06838347
155	0x39bf8e03	0.00036536166
156	0x3d27e5ff	0.040990826
157	0xbd133373	-0.035937738
158	0x3dec3402	0.11533357
159	0xbc29a388	-0.01035393
160	0x3df44e90	0.11929047
161	0xbd3f81f5	-0.046754796
162	0xbe04ce84	-0.12969404
163	0xbcb4d379	-0.022073494
164	0x3c87e63d	0.016589278
165	0x3d99ed54	0.0751597
166	0xbb8e7dfc	-0.0043485146
167	0x3d99b9db	0.07506152
168	0x3d3271c3	0.043565523
169	0xbd735977	-0.059411492
170	0xbd720dc1	-0.059095148
171	0xbd2dc923	-0.042428147
172	0x3ce258f8	0.027630314
173	0xbe076d91	-0.1322539
174	0xbccf81d0	-0.025330454
175	0x3d4b449d	0.04962598
176	0xbd542b05	-0.05179884
177	0x3d29d90a	0.04146675
178	0x3c809a56	0.015698593
179	0x3d6b5e1f	0.057462808
180	0x3e041bff	0.12901305
181	0x3d367905	0.044549007
182	0xbdb4bbf4	-0.08824912
183	0x3d95596a	0.07292445
184	0x3d854c8f	0.06508743
185	0xbcc96fb9	-0.024589406
186	0xbd81bd3f	-0.06334924
187	0xbd886b3d	-0.06661079
188	0xbcd01a55	-0.025403181
189	0xbd3fa9c3	-0.046792757
190	0x3d46221e	0.04837238
191	0x3d7f84e7	0.062382605
192	0xbccc689d	-0.024952227
193	0x3d012f77	0.031539407
194	0xba07faa2	-0.00051871885
195	0xbc49c4bd	-0.0123149725
196	0xbd96d249	-0.073643275
197	0xbcd8a37e	-0.026445147
198	0x3bdd9c2d	0.0067630024
199	0x3dc9f3a7	0.09860926
200	0x3d400dbb	0.046888094
201	0xbcf0d1df	-0.02939695
202	0x3c1ae630	0.009454295
203	0xbd6e897a	-0.058236577
204	0xbd500f72	-0.05079598
205	0xbdafabb2	-0.0857767
206	0xbd8a6818	-0.067581356
207	0xbd624037	-0.05523702
208	0xbb95b518	-0.004568707
209	0x3cdd9cb0	0.027052253
210	0x3ca7036e	0.020387378
211	0x3d9448e3	0.072404645
212	0x3d837fe3	0.06420877
213	0xbd5827be	-0.052772276
214	0x3da53e24	0.08068493
215	0x3d13dc78	0.036098927
216	0x3cd3136b	0.025766095
217	0x3ce9702a	0.028495867
218	0xbd5454b6	-0.0518386
219	0xbd24d77b	-0.04024456
220	0xbd2ff9b3	-0.04296274
221	0xbd605cf2	-0.05477614
222	0xbb253675	-0.002520946
223	0x3d0ac615	0.033880312
224	0xbd105700	-0.03523922
225	0x3c6e60ab	0.014549415
226	0x3db236d5	0.08701865
227	0xbcd44f27	-0.025916649
228	0x3c34de80	0.011039376
229	0xbcfede69	-0.031111913
230	0x3d8f4442	0.06995441
231	0x3d25a537	0.040440764
232	0x3c6d4ca5	0.0144836055
233	0x3d93f1d5	0.0722386
234	0xbc9061f0	-0.017624825
235	0xbc28ee70	-0.010310754
236	0xbd37c3a6	-0.04486432
237	0x3d89f601	0.06736375
238	0x3dc626cd	0.096753694
239	0xbc194fde	-0.009357421
240	0x3dc7d5d5	0.09757582
241	0x3d823ffc	0.0635986
242	0x3dd986e3	0.10621431
243	0xbd86b594	-0.06577602
244	0xbdf17b55	-0.11791102
245	0x3d8493b8	0.064734876
246	0xbbc623db	-0.006046755
247	0x3cbf0d18	0.023321673
248	0xbcfa9910	-0.030590564
249	0x3ca692b9	0.020333635
250	0x3d2885ba	0.041143157
251	0x3d36318c	0.044480845
252	0x3db3a555	0.08771769
253	0x3cc5b2ac	0.024133049
254	0xbd64762c	-0.05577676
255	0xbe075353	-0.1321538

layer2.6.bias f4 [10]
0	0xbe20f7e5	-0.15719564
1	0xbec848c5	-0.3911802
2	0xbfc9923d	-1.5747753
3	0xbee8862b	-0.45414862
4	0xbf1875ae	-0.59554565
5	0x3e10bd3c	0.14134687
6	0xbf189598	-0.5960326
7	0x3dc3907e	0.09549044
8	0xbd1d4a3b	-0.03840087
9	0x3d497b87	0.04919007
