Saved_data_files/helpdesk/lr_all_variants/laplacianOnWeighted/TimestampPredictor_parameters_laplacianOnWeighted_0.0001.pt (torch, 277527 bytes, 7 tensors)

layer1.weight f4 [4, 1]
000000 f9 0a 16 3c 78 09 b7 bc d7 d8 f3 bf 54 7c a0 c0
       0.0091578895 -0.022343382 -1.9050549 -5.015177

layer1.bias f4 [9]
000000 34 40 6a c0 d3 c2 a4 c0 d2 c6 36 40 bb ca b2 c0
       -3.6601686 -5.1487823 2.855885 -5.5872474
000010 a6 7e d8 c0 48 35 f8 40 8b 27 c7 c0 43 05 93 c0
       -6.76546 7.756504 -6.223577 -4.5943923
000020 2e 69 e1 3f
       1.7610223

layer2.1.weight f4 [256, 9]
000000 33 8a 09 3e 79 da 48 3d 0e 3e 5f be 52 21 3a be
       0.13431625 0.049036477 -0.21801016 -0.18176773
000010 90 39 3d be 1a 74 97 3e 18 b3 e2 3d 5a 78 43 3c
       -0.1847899 0.29580766 0.11069316 0.0119305495
000020 55 ff 20 bd 86 bf 35 3d 5b 77 92 bd c1 73 31 be
       -0.039306004 0.044372104 -0.071516715 -0.17329313
000030 c9 0b c4 3c 0d 1d 39 be bc 37 e3 3e e6 e1 13 bd
       0.0239314 -0.18077488 0.4437846 -0.036104105
000040 e5 0e 7c 3e 7c e3 43 3c 6f 94 69 3d d8 0c 16 be
       0.24615057 0.011956092 0.057026323 -0.14653337
000050 0f 31 3f 3e 39 43 a2 bc 8f d4 69 be aa 53 02 be
       0.18671058 -0.019807445 -0.22834991 -0.12727228
000060 2c 7c f4 be 3c 1d cd 3d f5 30 62 3c e9 2a 7a 3d
       -0.47750986 0.10015342 0.013805618 0.06107608
000070 1d 1c 86 bb 93 11 d6 bd ba f8 2a 3f 95 bb d6 3f
       -0.004092707 -0.10452571 0.66785777 1.6775995
000080 7f f0 8a be 8e 95 8c 3f b7 20 d9 3d 6a df ec 3c
       -0.2713661 1.098314 0.10601943 0.028915126
000090 c5 de 60 3c 8f e8 e9 be 60 c4 77 bd 32 64 bf 3e
       0.013724987 -0.4568524 -0.060490012 0.3738113
0000a0 ce b5 21 3f 6b 43 77 bc 30 b2 1d 3f dd e2 4a 3d
       0.63168037 -0.015091757 0.6160002 0.04953276
0000b0 9a 9a 94 bd 64 b0 63 3d bb 02 fc bd de a5 65 3c
       -0.072560504 0.05558814 -0.12305208 0.014016597
0000c0 f7 6f 38 3f 6d 75 bc 3f c2 02 56 bf 1e 1e 12 3f
       0.72045845 1.4723336 -0.8359796 0.57077205
0000d0 94 12 0e 3e 69 55 b0 3c 41 8c 42 bd 9c 8f 16 bd
       0.13874274 0.021525102 -0.047497038 -0.03675805
0000e0 cf cb a1 be 43 19 2f bd 15 d0 5e bf 8d ac 86 3d
       -0.31600806 -0.0427487 -0.8703626 0.0657588
0000f0 78 73 41 3d 24 bd 1b bd 92 5b bb bd c5 81 ad bc
       0.04722926 -0.038022175 -0.09148325 -0.021180043
000100 0b b1 91 bd a4 0c 6e be a1 bc 43 3e aa c6 2d be
       -0.071138464 -0.2324701 0.19114925 -0.16970316
000110 83 06 d9 3e 6d aa e1 3b 98 2e b6 bc 0a 64 10 bc
       0.4238778 0.0068867714 -0.022239015 -0.008812914
000120 6b e6 14 bd 01 46 9f bd e8 da 06 3e 3d 6a 2e be
       -0.036352556 -0.07777024 0.13169444 -0.17032714
000130 6f 74 27 bf 17 2b 8d 3e 5c 62 81 be 3b 81 22 3e
       -0.6541204 0.27571937 -0.25270355 0.1586961
000140 03 44 59 3e b4 63 a4 bd eb 34 27 3d 59 a4 99 be
       0.2121735 -0.08026829 0.04082195 -0.300082
000150 51 7b b4 be 8f f9 b0 bd 88 24 02 3f 82 8f 25 be
       -0.35250333 -0.086413495 0.5083699 -0.16168025
000160 f8 f5 84 3d 2e 93 a3 bd ff bd 95 3d 52 62 93 bd
       0.06492227 -0.07987057 0.073116295 -0.071964875
000170 9a 86 82 bd 5b e0 8d 3d 9f 68 d8 bd da 57 e7 bd
       -0.063733295 0.06927558 -0.1056683 -0.11296053
000180 1c e9 bc bd 8f c3 cd 3d 33 1e 9c bd e7 cf 9e bb
       -0.092241496 0.100470655 -0.076229475 -0.0048465612
000190 c3 87 c8 3c 68 7a d9 3d 66 aa cf 3c b1 4f 7a be
       0.024478799 0.1061905 0.025349807 -0.24444462
0001a0 34 71 1d be 1a 81 49 bd 81 e1 dc 3c e9 84 bc bd
       -0.15375215 -0.049195386 0.026962997 -0.09205038
0001b0 2c 0d 03 3d 46 27 df bd 90 eb 2f be 0f d1 cd 3e
       0.031994984 -0.10896163 -0.17179704 0.40198562
0001c0 58 bd af bd 32 9f 17 bf 2a a7 61 3e e3 65 97 bd
       -0.08581036 -0.5922729 0.22036424 -0.0739248
0001d0 d8 a3 4a bd 90 f4 a4 3d 8d 85 f2 3c d1 ac f3 be
       -0.04947266 0.08054459 0.029604698 -0.47592786
0001e0 44 a4 96 be 0b 24 f1 bd cc ce ba be f9 42 82 be
       -0.294222 -0.11774453 -0.36485898 -0.2544172
0001f0 c0 58 9d bb a9 99 ea bd f7 9d 80 3b e2 9b 19 3c
       -0.0048018396 -0.114550896 0.003925081 0.009375544
000200 3d 08 24 bd 5b f7 20 3f 5e 3c ab 3f 6a a7 11 bf
       -0.04004692 0.62877434 1.3377798 -0.5689608
000210 4f f5 8b 3f c1 4f 47 3d ae de 48 3e 0d 32 e1 3d
       1.0934237 0.048660044 0.19616196 0.109958746
000220 54 f2 72 bd d4 3f aa bd b8 d7 44 be d3 ba 19 be
       -0.059313133 -0.083129555 -0.19222915 -0.15012674
000230 98 c7 a1 be 62 74 2c be 14 f5 88 3a 3e bb d9 bd
       -0.3159759 -0.16841272 0.0010449016 -0.10631417
000240 4b 9a 2c 3d 67 67 98 bd 15 0e e6 be 70 ca 07 be
       0.042139333 -0.074415974 -0.4493262 -0.13260818
000250 71 f5 ea be 16 71 c8 bd e6 b1 ab bc fb 34 a9 3d
       -0.45890382 -0.097871944 -0.020958852 0.08262058
000260 b8 ab f0 3c e4 23 f5 3a a5 07 4d 3f 4c 6e 1b bf
       0.029378757 0.0018702713 0.8008979 -0.60715175
000270 ec 68 49 be ac a5 1d 3f 8c 98 1a bf 7c 5a a0 be
       -0.19668931 0.6158092 -0.6038902 -0.31319034
000280 3e d3 92 3d c7 d3 96 3e fc 0e 04 bd dd 6b 64 be
       0.071691975 0.29458448 -0.032240853 -0.22306772
000290 29 d9 dc bd 2a d4 2d 3e f2 4f bd bd c8 70 b3 3e
       -0.107836075 0.16975465 -0.09243764 0.35046983
0002a0 68 b3 f6 3b c6 1f 06 3d 2f f1 70 bd 44 7e 54 3b
       0.007528711 0.032745145 -0.05882376 0.0032423893
0002b0 a0 93 33 be 9e d3 85 bd de d5 f9 bd b7 3d 59 bf
       -0.17536783 -0.065345034 -0.12198995 -0.84859794
0002c0 12 b5 e6 bd ae 3e cc be 6f ac d5 3c 93 bc a7 3d
       -0.11265005 -0.3989157 0.0260832 0.081902646
0002d0 04 10 a8 3d 0e 3a df bd 66 be c9 3e e6 25 9a 3c
       0.0820618 -0.10899745 0.39403075 0.0188169
0002e0 03 2f 3c be 9d eb 75 bc 33 22 06 bf 7c 08 88 3d
       -0.18377309 -0.015009788 -0.52395934 0.06642243
0002f0 9d 4d 8d 3c 4f 9e 19 3e f3 c7 49 bd 9a 3c a2 bd
       0.017248923 0.15001796 -0.049262952 -0.07921715
000300 11 93 61 3e 10 4e 0d be ca 1b d7 be 8f 23 f5 bd
       0.22028758 -0.1379931 -0.4201339 -0.11969673
000310 d3 64 f4 bd a6 41 e7 bd b8 46 55 bd 82 36 86 3e
       -0.11933293 -0.11291818 -0.052069396 0.2621346
000320 16 4f ce be 94 ea 3e ba 55 ba a5 be 42 f8 14 bf
       -0.40294713 -0.00072828797 -0.32368723 -0.5819131
000330 0f eb bf bd 33 a1 10 3c c3 96 5c 3e 7a be 23 3c
       -0.09371006 0.008827495 0.21541886 0.009994144
000340 0d 30 59 3f dc a8 36 bd 59 4b 1c 3f 65 c5 08 40
       0.84838945 -0.04459463 0.6105247 2.137048
000350 44 b9 c3 bd 68 c6 39 3f 0a 7a c0 3b 16 cb 7f 3c
       -0.09556821 0.7256837 0.005873923 0.015612384
000360 fe 2f 9b 3d b8 53 2c be ea 30 de 3e 36 e2 b9 bd
       0.07577513 -0.16828811 0.43396693 -0.090763494
000370 0c 5a 17 be 8b a9 ed bd 67 e7 b0 be 6b fc 61 3d
       -0.14780444 -0.116046034 -0.34551546 0.055172365
000380 4d fa 4d 3c 4f 02 dd bb b1 3a 7c 3c d8 b1 14 b9
       0.012571883 -0.00674466 0.0153948525 -0.00014180632
000390 da 50 5d 3f bd 55 b9 3f ec 64 11 bf a7 75 e8 3e
       0.86451495 1.447929 -0.5679462 0.45402262
0003a0 37 36 0d 3f 3f e5 75 3e 7b 75 94 3c 80 18 96 be
       0.5516085 0.24013232 0.018122425 -0.29315567
0003b0 17 83 d7 3b 03 ab be be 0f a3 da be ca 07 c6 bc
       0.0065769064 -0.37239847 -0.4270253 -0.024173636
0003c0 96 b0 b8 be 30 b6 2d bc 22 09 f0 bd 25 b5 e9 bc
       -0.36072224 -0.010602519 -0.11720492 -0.02852876
0003d0 31 c6 11 be 85 00 c4 3e 43 7b 85 3d ed a8 5a be
       -0.1423576 0.38281646 0.06517651 -0.21353503
0003e0 34 c5 87 be c0 7a 8f bd 0b 2a 1d 3d d4 d0 b1 bc
       -0.26517642 -0.070058346 0.038370173 -0.021706022
0003f0 b5 d1 8a 3d 28 65 59 bc ab 2e 7b 3e 1e eb d1 bc
       0.0677828 -0.013268746 0.24529521 -0.025624808

layer2.1.bias f4 [256]
000000 23 bb 11 41 8a 5c 27 41 9d 41 ac c0 dc f6 a9 c0
       9.108188 10.460093 -5.3830094 -5.311384
000010 6e 0c 44 c0 c0 9f b6 c0 ae 98 40 40 c3 9f 3b 41
       -3.0632586 -5.7070007 3.0093188 11.726504
000020 2d 67 1c 41 39 31 0e 41 b0 d6 ba 40 a1 b2 17 41
       9.775189 8.887017 5.838707 9.481111
000030 5d b8 11 40 da e8 e1 bf 9a 8b 62 c0 d3 f8 ce 40
       2.2768776 -1.7649186 -3.5397706 6.467874
000040 e5 85 55 c0 ba 25 ad c0 8b 0f 1f 41 2d 9a 04 41
       -3.3362973 -5.4108553 9.941295 8.287641
000050 5e 46 a0 c0 06 50 4a 3f 61 29 eb bf 59 0f 6d c0
       -5.0085897 0.79028356 -1.8372003 -3.7040617
000060 a9 ff ba c0 68 51 c6 c0 a5 b9 f2 c0 78 d3 03 41
       -5.8437085 -6.1974373 -7.5851617 8.239128
000070 55 2b d7 40 ef 4f a8 c0 f6 6e eb 40 5c ec a8 c0
       6.7240396 -5.2597575 7.357295 -5.2788525
000080 fa d3 b6 bf 9c f4 9c 40 ce 8d 03 40 14 35 1d 41
       -1.428344 4.9048595 2.05553 9.825459
000090 8d aa b3 c0 c7 d4 e5 bf 60 13 03 40 a9 cf b4 bf
       -5.614569 -1.795556 2.0480576 -1.4125873
0000a0 90 d7 bc c0 6c e3 dd 40 cb b5 6f c0 7b 09 85 c0
       -5.901314 6.9340115 -3.7454708 -4.1574073
0000b0 da c4 b1 c0 12 d1 05 c0 0a fd 7c 40 fe a6 ee 40
       -5.5552797 -2.0908856 3.9529443 7.457885
0000c0 2d 25 b0 c0 1a 21 28 40 c0 ba e1 40 5b 4f 2a 41
       -5.504538 2.6270204 7.0540466 10.644374
0000d0 97 f6 05 41 00 eb d3 c0 55 9f 11 41 c8 78 52 40
       8.372703 -6.6224365 9.101399 3.288622
0000e0 f6 f4 01 41 74 87 4c c0 3d 9d 9f c0 fb 30 5b bf
       8.122305 -3.1957674 -4.987944 -0.85621613
0000f0 2b 58 bc 3f 34 5b 37 c0 b1 75 3b 41 02 46 da c0
       1.4714407 -2.8649416 11.716233 -6.821046
000100 67 1a 59 c0 9f 93 e7 bf d6 26 e4 40 57 9d 23 41
       -3.3922365 -1.8091925 7.1297407 10.225913
000110 25 2d 8c 40 74 2c 72 c0 22 1d 86 c0 66 9e ed 40
       4.380511 -3.7839632 -4.1910563 7.4255857
000120 42 6e 95 c0 dc 83 36 41 8a f9 ae 40 85 49 9e c0
       -4.669709 11.407192 5.4679613 -4.9464746
000130 1c 58 f4 c0 26 93 31 41 ec 7f 21 41 d6 2e 68 3f
       -7.6357555 11.098425 10.093731 0.90696466
000140 12 2c cc c0 b6 b8 e5 c0 3e 0e 50 c0 3e 4b b1 c0
       -6.3803797 -7.1787977 -3.2508693 -5.540435
000150 8f 31 0f 40 41 37 8d 40 db 14 1e 41 be e3 26 41
       2.2373998 4.412995 9.880092 10.430601
000160 3c 63 5d c0 4c 5f 1c 41 9f 0a d8 c0 8d 04 28 41
       -3.4591818 9.773266 -6.7512965 10.501111
000170 dd e7 f5 c0 c2 8e d7 c0 61 d5 d2 c0 15 b6 08 41
       -7.6845536 -6.7361765 -6.588547 8.544454
000180 00 05 8f c0 74 af be c0 d6 52 7a 40 9c 68 48 40
       -4.4693604 -5.9589176 3.911306 3.1313848
000190 85 25 3f 3f e2 f4 65 40 12 1d e5 c0 b1 34 c2 c0
       0.74666625 3.5930715 -7.1597986 -6.068932
0001a0 e7 de 29 41 06 98 24 41 49 5b d3 40 82 36 b3 c0
       10.6169195 10.287115 6.604893 -5.600404
0001b0 a7 65 fd c0 11 62 25 41 f7 c0 b7 c0 7d 73 0f 41
       -7.9186587 10.336442 -5.7423053 8.965695
0001c0 62 a6 58 c0 d9 fc 1b 41 06 fd 08 41 01 3f 82 c0
       -3.3851552 9.74923 8.561773 -4.070191
0001d0 c2 0a 24 41 bb 3a b1 c0 85 51 1d 41 aa 31 25 41
       10.252626 -5.5384192 9.832402 10.324625
0001e0 0f 02 ce 40 4c e9 b7 c0 8e 37 01 41 ff 3f fe 40
       6.4377513 -5.7472286 8.076063 7.945312
0001f0 8b cf 06 c0 ca 5f 24 be bc 05 ad bf 99 a9 1a 3e
       -2.1064174 -0.16052166 -1.3517375 0.15103759
000200 8d 38 fb 40 ce d3 c5 c0 56 fb bd 3f 45 e2 a4 c0
       7.850653 -6.182105 1.4842327 -5.152621
000210 a1 87 96 c0 4d d9 3e 40 cd 73 b7 40 29 c5 99 c0
       -4.7040563 2.982013 5.732886 -4.8053174
000220 3d d0 1e 41 f6 1b 6c 40 5f d6 fe 40 e6 d2 ab c0
       9.925839 3.6892066 7.9636683 -5.3694944
000230 5f 38 3a 41 a3 b1 69 40 c8 e8 05 41 58 9c 14 c1
       11.638762 3.651467 8.369331 -9.28817
000240 a2 65 11 c1 5c 2a 7f 3f 53 97 36 41 64 3e b8 3f
       -9.087313 0.9967401 11.411944 1.439404
000250 53 92 7f c0 30 a5 0e 41 ba e9 f4 c0 72 44 0f 41
       -3.993306 8.915329 -7.653531 8.95421
000260 a9 ee 31 41 07 77 8d 40 b8 24 59 c0 47 ca c2 3f
       11.120767 4.4207797 -3.3928661 1.521798
000270 3c a2 47 40 73 6e 9b c0 a4 8b 9f 40 16 52 ea 40
       3.119277 -4.8572326 4.985796 7.3225203
000280 8e f5 2c 40 2b c4 39 40 19 4e 7d c0 50 2b c9 bf
       2.7024875 2.9025981 -3.9578917 -1.5716343
000290 31 f7 15 40 55 8c a1 c0 26 15 78 c0 e3 d5 25 c0
       2.3432124 -5.0483804 -3.8762908 -2.5911796
0002a0 97 e6 d7 40 d8 71 f9 40 b9 af ea c0 1d 5f ad bf
       6.746898 7.795147 -7.3339505 -1.3544651
0002b0 83 54 05 c1 84 b6 dc c0 1b a2 d5 40 e0 81 15 c1
       -8.333133 -6.8972797 6.6760383 -9.344208
0002c0 3d ed a3 c0 01 2b c1 c0 e6 82 c0 c0 c9 66 84 c0
       -5.1227098 -6.0364995 -6.015979 -4.137547
0002d0 ac f6 02 41 f3 83 8e 3f f3 41 01 c1 b4 9e f9 bf
       8.185223 1.1134018 -8.078601 -1.9501557
0002e0 3f dc 02 41 cb aa 1a 41 ea f6 1c 41 13 e7 93 c0
       8.178771 9.6666975 9.810282 -4.6219573
0002f0 00 7a 0f 41 f4 89 ca 3e 53 ed 95 40 a0 98 3c 41
       8.967285 0.39558375 4.6852202 11.787262
000300 61 8b da 40 44 dd ab 40 1d e5 7b be a9 66 27 41
       6.829514 5.37076 -0.24599119 10.4625635
000310 fa 59 cf 40 50 d6 eb 40 6a c0 86 c0 62 cb d4 40
       6.4797335 7.369911 -4.210988 6.649827
000320 dd 46 7d bf 40 31 11 41 33 72 65 40 ce e0 1c c0
       -0.98936254 9.074524 3.5850952 -2.451221
000330 0d f6 73 c0 4a a2 b4 c0 d4 6c b1 40 7c bf 1f bf
       -3.8118927 -5.6448107 5.5445347 -0.62401557
000340 b7 18 01 c1 b4 fb f8 40 41 32 d3 c0 83 4b 81 40
       -8.068534 7.7807255 -6.5998845 4.0404677
000350 43 61 92 bf 84 a6 88 c0 2a 6c 27 41 6a 6f 07 c0
       -1.1435932 -4.2703266 10.463907 -2.1161752
000360 69 0f 84 c0 51 f6 2b 41 6d 83 eb 40 37 f8 20 41
       -4.126881 10.747636 7.359793 10.060599
000370 10 9d a9 c0 49 5d 38 41 17 4f fa 40 76 23 34 41
       -5.3004227 11.522775 7.8221545 11.258657
000380 51 8e a9 3c 06 08 28 41 83 34 a8 c0 2d 1d f7 c0
       0.020697745 10.501959 -5.25641 -7.7223115
000390 7b a3 57 40 58 cf cd c0 cf 07 bd c0 84 7c ca 40
       3.369353 -6.4315605 -5.907203 6.3276997
0003a0 86 ac 14 41 b9 44 6d c0 08 48 8b c0 43 c9 05 41
       9.29212 -3.7073195 -4.352543 8.361636
0003b0 e4 0c 4a c0 40 1d 4b c0 12 92 18 c0 20 51 ae 40
       -3.1570368 -3.1736603 -2.3839154 5.447403
0003c0 b4 4e 58 c0 d0 7f 10 c1 80 f3 8b 40 f8 c8 cc c0
       -3.3798037 -9.031204 4.373474 -6.3995323
0003d0 d4 0e 27 40 97 f8 8f bf 12 60 9e 40 87 a2 95 c0
       2.61028 -1.1247739 4.9492273 -4.67609
0003e0 0a 74 92 40 28 72 a6 40 86 32 79 3e 2e 26 0e 41
       4.576665 5.201435 0.2433568 8.884321
0003f0 24 5d bf c0 27 ff 93 40 c7 49 2f c0 b5 de 83 40
       -5.9801197 4.6248965 -2.738878 4.120936

layer2.3.weight f4 [256, 256]
000000 1c 2f 54 3d 36 46 d4 38 f7 ce 86 bd 91 c4 91 bd
       0.05180274 0.000101220256 -0.06582444 -0.0711757
000010 5f fd a7 bd 09 b2 38 bd 36 4d 86 3c fa 93 82 bd
       -0.082026236 -0.045091663 0.016394239 -0.063758805
000020 16 62 ad 3c 19 cd 46 bd 17 33 ea 3c 85 28 4a bc
       0.021164935 -0.04853544 0.028588815 -0.012338762
000030 e6 3d a7 bc 90 fe 86 3c 6b 41 05 bc 55 ab 2a bd
       -0.020415258 0.016478807 -0.008133273 -0.0416673
000040 8a fa 19 3d 1f f8 8f bd c2 6c d1 bc bd 6a ca 3c
       0.03759245 -0.07029747 -0.025564555 0.0247091
000050 48 7d 99 bc 98 c2 1d bd ac ba b7 3b 46 4e 5d 3c
       -0.018736497 -0.038515657 0.00560697 0.013507431
000060 d5 9b 87 bd 0d 74 2a bc 92 e3 c4 bc b1 67 6b 3d
       -0.066215195 -0.010403645 -0.024034295 0.057471935
000070 b4 cd 66 bd fd 9c 7d 3c fa c5 98 bd 9d 7e 64 bb
       -0.056348518 0.015479323 -0.07459636 -0.0034865506
000080 ed b4 ca 3c 68 86 96 bd 9d a0 86 3c c9 cf 90 bd
       0.024744475 -0.07349855 0.016434008 -0.07070882
000090 b2 99 00 bd 99 f4 d1 bc 7f cf 98 bd 76 6a ae bd
       -0.031396575 -0.025629329 -0.07461452 -0.085163996
0000a0 fb 3b eb 3b 9b 31 e9 3c ea a2 8f bd ca f7 15 bd
       0.007178781 0.028466037 -0.07013495 -0.036613263
0000b0 d2 01 af 3c 1d 48 1c 3d ef 00 34 bd 83 e2 a0 bd
       0.021363173 0.03815471 -0.043946203 -0.07855704
0000c0 d4 df a5 bd dc e2 02 3d 80 1e eb bb 18 3a 80 bd
       -0.080993325 0.03195463 -0.0071752667 -0.062610805
0000d0 b9 91 7b bd f8 c4 cf 3c 25 ee 1e 3d 50 c4 e8 3b
       -0.06141827 0.025362477 0.03880133 0.0071034804
0000e0 30 9e 03 bd d7 13 8c bd ad 84 81 3c 9f e6 d8 3b
       -0.03213328 -0.06839722 0.015810335 0.006619289
0000f0 c6 22 86 bc b3 f6 4e bd f2 64 33 bc b9 47 a8 bd
       -0.016374003 -0.05052824 -0.01094936 -0.08216805
000100 cf 1a 99 bc 8a 02 9b 3c 07 fc bc bc 3e ce 5c bd
       -0.018689541 0.01892211 -0.023069395 -0.053907625
000110 e6 b6 b6 3c 0f 0f de 3c 85 9d 6b bd 83 c1 35 bd
       0.02230401 0.02710679 -0.05752327 -0.044374
000120 2f 05 9e bd 29 95 90 3c 32 c1 a5 bd 3d 18 62 bd
       -0.077158324 0.01764925 -0.0809349 -0.055198897
000130 ff 86 92 bb 2b 8c 69 3d aa c0 ec 3a 49 ca ab bd
       -0.004471659 0.05701844 0.001806279 -0.08388192
000140 28 ba 84 3b a1 88 21 3d be a3 e8 3c 17 ed 6d 3d
       0.004050512 0.03943694 0.02839839 0.058087435
000150 fb 12 e5 bc 52 12 67 bd 56 a8 92 3c 4d a6 a7 bc
       -0.027963152 -0.056413956 0.017902534 -0.02046504
000160 86 31 ea 3b 46 0f 31 bd fe f1 5b bd 60 3e 8b bd
       0.007147017 -0.043227457 -0.05369758 -0.067990065
000170 4d 1e 81 3b 4f fa f4 3c fe d0 64 bd 8e 0d 1e 3c
       0.0039403797 0.029904513 -0.055863373 0.009646786
000180 fb 93 ee 3c 01 fe 8a 3c 4f 72 9a bb 99 47 35 3c
       0.029123297 0.016966822 -0.0047133337 0.0110644335
000190 32 81 36 3d 90 bf 8c bd ef e4 5f 3d 75 10 51 bd
       0.044556804 -0.06872475 0.054661687 -0.051041085
0001a0 15 ea d6 bc 04 0a d1 3b ec 19 1a 3d fd 83 9b 3c
       -0.026234666 0.006379368 0.037622377 0.018983835
0001b0 c7 f5 51 bb 62 b1 ae bc 65 e2 17 bd 27 04 35 3c
       -0.0032037364 -0.021324817 -0.03708114 0.011048353
0001c0 10 3d 97 bb 33 bd f0 3c ed 34 aa bd 73 72 11 bd
       -0.0046154335 0.029387092 -0.08310876 -0.035509538
0001d0 b5 47 b4 bc f0 97 52 3c 51 19 9f bc ad 8e 84 bd
       -0.022006849 0.012853608 -0.019421251 -0.06472526
0001e0 24 2b 47 bd 09 39 2c 3d 93 e0 9b 3c 20 c0 90 bb
       -0.048625126 0.04204658 0.019027984 -0.0044174343
0001f0 30 97 61 bd ca aa 12 3d e2 54 26 bd 6c af 25 3d
       -0.055075824 0.03580741 -0.040608294 0.0404505
000200 e9 d0 3a bd 7b fb 45 bc 14 1a 75 3c 40 47 3c bd
       -0.04560939 -0.012083883 0.014959831 -0.045966387
000210 da d8 32 3c 3a ba cd 3c 91 74 8f 3c 2a a8 82 3b
       0.010915959 0.025113214 0.017511638 0.003987332
000220 40 85 1d bd d8 21 65 3b c9 f2 87 3c a5 ef f8 bb
       -0.038457155 0.00349628 0.016595261 -0.007596927
000230 9f 2e 7d bd d3 a3 55 3c 35 c9 df 3c bf d2 12 3d
       -0.06181204 0.013039547 0.027317623 0.035845514
000240 28 97 3c bd 6b c5 58 bd 63 a7 58 bd 1f dc b8 bd
       -0.04604259 -0.052922647 -0.052894007 -0.0902636
000250 6d 38 de 3c e2 23 8d bd ce ef 37 bd d4 d9 92 bd
       0.027126515 -0.0689161 -0.04490643 -0.07170454
000260 48 81 8d 3c 25 58 3c bd 9a 60 c2 3c ae 01 91 bd
       0.01727356 -0.0459825 0.023727704 -0.070803985
000270 b8 35 13 3d bd fc 3c 3d 74 0c 27 bd d4 f2 06 bd
       0.035939902 0.046139468 -0.04078336 -0.032946423
000280 bd d1 8c ba 93 90 70 bc 7e 04 bb bc c9 ea e4 bc
       -0.0010743659 -0.014682907 -0.02282929 -0.027943986
000290 ee fd c8 3c df c5 81 bb 72 bc 04 3d 90 45 04 bd
       0.024535146 -0.0039603557 0.032406278 -0.032292902
0002a0 de a4 0e 3d 8d 6e 35 3d 51 05 46 3c f5 33 fc 3b
       0.0348252 0.044294883 0.0120862285 0.0076966234
0002b0 d0 bf d9 3b 2a 04 03 3d b8 47 74 bb 0d be 0a bd
       0.0066451803 0.031986393 -0.0037274193 -0.033872653
0002c0 76 8f 9d 3c 92 97 96 3c 6d 11 3d bc 2e c5 8d bd
       0.019233447 0.018382821 -0.011539799 -0.06922375
0002d0 e8 3f 4a bd 7e 39 71 bd 12 c7 21 bd 81 06 15 3d
       -0.049377352 -0.05889272 -0.03949649 0.036383156
0002e0 9d bb 14 3d ac e7 a3 bc 4a 54 8a bc 7b 6a 9e bd
       0.036311734 -0.02000793 -0.016885895 -0.07735153
0002f0 b2 69 ea bc d2 6a c2 bc 6b 0d a3 bd c0 e6 64 bc
       -0.028614853 -0.023732577 -0.07961544 -0.013971031
000300 a2 cf 36 3d 6a 41 13 3d e2 6c 03 3d 5d 48 1e 3d
       0.044631608 0.035951056 0.03208626 0.03864323
000310 a9 ea 5e bc 9c ab 4d bd d0 ba 31 bd 04 9f e8 bc
       -0.013605752 -0.050212488 -0.04339105 -0.028396137
000320 ae 74 dd bc 3e 59 de 3c 49 50 fa 3c 3e a7 e8 bc
       -0.027033176 0.027142163 0.030555861 -0.02840006
000330 d0 20 54 3c 4a 96 1c bd ab de 1c bd d8 d6 6a 3c
       0.012947276 -0.038229264 -0.03829829 0.014333449
000340 73 28 68 3d 26 29 64 bb e3 cc e8 bc 16 b8 01 3d
       0.0566792 -0.0034814565 -0.02841801 0.0316697
000350 b4 c3 4c 3d eb d0 65 bd 96 4d 26 3d a2 83 84 bd
       0.049991325 -0.056107443 0.040601335 -0.064704195
000360 a9 d9 54 3d 27 2d 33 3d 22 9f fa bc eb df f7 bc
       0.05196539 0.043744233 -0.030593459 -0.03025814
000370 64 17 fe bc 77 ab eb bc 53 50 01 bd 8b 1c 2b bd
       -0.031017013 -0.028768284 -0.031570744 -0.041775268
000380 db 94 0b bd f9 4a 12 bd 79 b2 a9 3c 41 c6 0c 3d
       -0.034077507 -0.03571603 0.020714985 0.034368757
000390 98 a5 7c bd df 53 74 3b 2e f5 8a bd ff 82 12 3c
       -0.06168136 0.0037281436 -0.067850456 0.008942365
0003a0 31 e3 15 bd b3 ab 25 bd 7c fd af bc a2 38 a3 3c
       -0.03659362 -0.04044695 -0.021483175 0.019924466
0003b0 11 b3 e5 bb 9f 1f 0c bd 5b f4 4f bc db ac 6b bc
       -0.007009872 -0.034209844 -0.012692536 -0.014384474
0003c0 ea 59 b0 bd 28 3e af bc 25 c4 42 bd 29 0f 0e 3d
       -0.086109 -0.021391943 -0.04755034 0.034682427
0003d0 55 b8 5d 3d 49 32 ab bc 2b fe c7 3c 5b 82 8a bc
       0.05413087 -0.020898001 0.024413189 -0.016907861
0003e0 88 c1 0e 3d a4 9d 2c bc a1 70 f9 bb db 13 53 bb
       0.034852535 -0.010535631 -0.0076123034 -0.003220788
0003f0 5b ec 13 bc 4c 35 5a bd e7 49 b6 3c 0c 97 7d 3b
       -0.0090285195 -0.053273484 0.022252036 0.0038694767

layer2.3.bias f4 [256]
000000 3d e7 c4 bd 0c 59 e8 40 f2 35 f4 40 e3 93 04 be
       -0.09614418 7.26087 7.631585 -0.1294704
000010 ec b8 90 40 6d 60 df bd 55 6c e4 40 09 4f d9 bd
       4.5225735 -0.10907064 7.138224 -0.10610778
000020 e6 65 01 41 3a 11 ed 40 d9 2c f2 bc 9f f8 83 3c
       8.087378 7.408353 -0.0295624 0.016109763
000030 0a 86 c3 bd 5d 72 f5 40 61 fe 3b be 09 86 a9 40
       -0.0954705 7.6702104 -0.18358757 5.2976117
000040 a0 45 ea bc 43 1a e2 40 22 da c9 bd db 1a fc 40
       -0.028597653 7.065706 -0.09856059 7.8782783
000050 7a 59 84 40 42 dd 3d be df dc f7 40 36 05 11 41
       4.1359224 -0.18541434 7.745712 9.063772
000060 e3 12 0c bd 2d ab f2 40 08 47 f4 40 90 e8 ef 40
       -0.0341977 7.5833955 7.633671 7.497139
000070 39 90 f6 40 09 ee 63 be d9 b1 d1 bd 33 5e 5a bd
       7.7051053 -0.22258772 -0.10239 -0.05331249
000080 bf eb b3 bd 6b e3 35 bf 23 62 14 bc f2 e0 43 be
       -0.087851994 -0.7105014 -0.009056601 -0.19128779
000090 b9 cd ce 3c 2f 19 f8 40 ee b9 f6 40 7d f0 f8 40
       0.02524458 7.753074 7.7101965 7.7793565
0000a0 3f c8 72 3e 93 e8 1b bf ab df a9 40 e2 80 ff bd
       0.237092 -0.60901755 5.308553 -0.12475754
0000b0 42 29 7b 40 72 bf 0e be df c8 54 be 8e 04 00 41
       3.9243932 -0.13940218 -0.20779751 8.001112
0000c0 04 97 8c bc bb 59 f6 40 88 7f 32 be 4d c1 fa 40
       -0.017161854 7.6984534 -0.17431462 7.8360963
0000d0 66 e7 ec 40 67 68 bd bf f5 4e f5 40 05 36 99 be
       7.403247 -1.4797486 7.6658883 -0.29924026
0000e0 d2 03 2b be 59 ea 4b 40 76 d4 f5 40 f7 87 e0 bc
       -0.16700676 3.1861784 7.682185 -0.027408583
0000f0 14 17 22 bf ac 42 e3 be c3 8c 01 41 ee 5e f6 3c
       -0.63316464 -0.44386804 8.096866 0.030074563
000100 60 f3 3c c0 be 34 8b 40 90 7a f8 bd 73 ed e3 40
       -2.9523544 4.3501883 -0.12132752 7.1227355
000110 7d 1d 42 bf 60 39 f9 bf cc f6 91 40 44 dc b7 bd
       -0.75826246 -1.9470634 4.5613766 -0.08977559
000120 9a 00 f6 40 63 89 f7 40 59 e5 eb be 0c 18 7c bd
       7.6875734 7.735521 -0.46073416 -0.06154637
000130 b6 ab f4 40 ad d2 f8 40 06 70 83 be ef be 85 40
       7.645961 7.7757173 -0.25671405 4.1795573
000140 f9 ba cf bd 72 04 f3 40 04 3e e3 40 8e 07 ef 40
       -0.10143084 7.5942926 7.1013203 7.469672
000150 93 0c c8 bd cc e5 69 bd 0b 8f 17 be 16 e6 f2 40
       -0.09768023 -0.057103917 -0.1480066 7.5905867
000160 71 13 f4 40 fc 76 9a be 1b 73 cb bd ea 26 f7 bf
       7.627373 -0.30168903 -0.09934064 -1.9308751
000170 6a 12 dc bd e1 29 9b 40 c6 5f 2c be 1a c9 f4 40
       -0.107457 4.848862 -0.1683341 7.6495485
000180 44 42 89 be b1 e3 e5 3f 78 83 f8 40 e8 4e ca 3c
       -0.2680837 1.7960111 7.7660484 0.024695829
000190 d8 4f f5 40 8a 82 2a 3c 50 41 f3 40 09 18 ec 40
       7.6659966 0.0104070995 7.6017227 7.377934
0001a0 7f 3b 47 be 7e 67 00 41 75 7c 70 3b 9a 1c 1d bf
       -0.1945629 8.025267 0.0036695276 -0.6137177
0001b0 d4 78 95 bc 04 bd e6 bd 7d 0d 76 40 ef 2e d7 40
       -0.018246092 -0.112665206 3.8445733 6.724479
0001c0 de 9c b5 3e a9 78 ba be 1f 5e f7 40 ab e4 7f be
       0.35471243 -0.3642018 7.7302394 -0.24989574
0001d0 84 6e f6 40 16 15 a6 bd 96 73 7d bd f6 8b 41 40
       7.7009907 -0.081094906 -0.06187781 3.0241675
0001e0 42 e4 f0 40 6e 58 9c 3d cb 8d 95 40 12 0f 11 bf
       7.5278635 0.07634054 4.6735587 -0.5666362
0001f0 19 b6 c6 bd 43 cb f1 40 ee bb f2 40 35 37 c3 be
       -0.09702701 7.556062 7.5854406 -0.38128057
000200 f3 18 c7 be 81 3d e9 bc 99 71 30 bf 74 43 a1 40
       -0.38886222 -0.02847171 -0.68923336 5.039484
000210 e3 5f fb be 49 0f 99 bb f6 f1 da bd 90 3d 7c be
       -0.49096593 -0.0046710116 -0.10690682 -0.24632859
000220 6e 94 16 3d d1 b7 c6 bd 30 9a 40 be 64 39 ed 40
       0.036762647 -0.09703029 -0.18808818 7.4132557
000230 38 9e 44 bf f9 b2 10 bd 3e 81 92 bd ef 9c f7 40
       -0.7680392 -0.03532693 -0.07153557 7.737907
000240 7f 9c fb 40 d9 0a e6 bd e3 6a 5e be ef e1 ec 40
       7.8628535 -0.11232538 -0.21720462 7.40258
000250 cf 85 e4 40 b9 66 95 be 61 06 ed 40 1c fa a1 ba
       7.141334 -0.29179934 7.4070287 -0.0012357864
000260 d0 e5 94 40 8c 86 31 3e ed 82 5c be 76 6f 05 3d
       4.6530533 0.17336482 -0.21534319 0.032577
000270 4d 71 10 c0 b1 81 e9 40 73 3f 59 3e f2 ed dc bc
       -2.2569153 7.2970815 0.2121561 -0.02696893
000280 a7 2e 40 bd 3d 64 58 40 b7 dc cd 40 f0 ed 24 bc
       -0.04691949 3.381118 6.4331927 -0.010066494
000290 e7 41 01 41 63 46 82 be d9 74 f8 40 50 76 6f bc
       8.078589 -0.25444326 7.7642636 -0.01461561
0002a0 9c 1b 50 3d 07 aa fe 40 3b 43 93 40 96 68 12 be
       0.05080758 7.9582553 4.601957 -0.14297709
0002b0 43 d0 c9 40 f9 45 f4 40 73 20 76 bf 7b c6 ee 40
       6.3066726 7.6335416 -0.96143264 7.4617286
0002c0 92 ab f5 40 6f fe f3 40 9b 9e f5 40 70 5a 79 be
       7.6771936 7.624809 7.675611 -0.24350905
0002d0 2b 3a ee 40 0b 89 ff 40 93 07 83 40 b2 71 88 bd
       7.4446006 7.985479 4.0946746 -0.06662311
0002e0 2c 56 f9 40 50 a2 bd bd ec b4 14 be 88 ee 95 3d
       7.791769 -0.09259474 -0.14522141 0.07320887
0002f0 a3 d1 70 40 49 84 c8 40 4f df 0e c0 cf 94 f3 40
       3.7627952 6.266148 -2.2323797 7.611915
000300 70 4a 89 be 93 70 ed 3c 48 af f5 40 a1 76 70 bd
       -0.26814604 0.028984344 7.6776466 -0.058706883
000310 0f f7 ed 40 aa 9b e3 be 3d 81 52 bd 3b 18 f7 40
       7.4364085 -0.444547 -0.051392782 7.721708
000320 fd 63 59 b8 be 45 1a 3c a1 7a 4d bf 50 a3 03 be
       -5.1829953e-05 0.009416042 -0.8026524 -0.12855268
000330 8e 26 f7 40 ca 0d 9b 3e ef 82 99 bc 53 93 c2 bd
       7.7234564 0.30283958 -0.018739192 -0.09500756
000340 9b 8d 12 be 61 d4 f3 40 f1 d6 82 bc 65 b0 ed 40
       -0.1431183 7.619675 -0.015971633 7.4277825
000350 d1 d2 f1 40 6a aa 9a 3e 26 bb e9 40 51 b1 ee 40
       7.5569844 0.3020814 7.3040953 7.459145
000360 7d 2c 83 40 52 bd 6d bd 70 91 ee 40 12 e4 55 40
       4.0991807 -0.058041878 7.4552536 3.3420453
000370 4c 92 07 bd 0b 64 ae be da 1d 01 41 eb 4e ef 40
       -0.033098504 -0.34060702 8.069788 7.4783835
000380 29 2c d4 be 6d c3 ee 40 99 c6 1b 3c 04 df f3 40
       -0.41439942 7.4613557 0.009507799 7.6209736
000390 4f 9d 0b 41 da 0f e9 40 1c 64 d9 bd 3a f3 cf bd
       8.725905 7.283185 -0.106147975 -0.10153814
0003a0 a0 6a f0 40 6c 61 11 bc 13 d7 92 bf 27 c5 f1 40
       7.5130157 -0.008873325 -1.1471885 7.5553164
0003b0 f9 0c 3a be 52 d0 b5 be b3 0e f4 40 79 e3 fd bc
       -0.18169011 -0.35510498 7.6267943 -0.030992256
0003c0 d6 1b f2 40 4a 5b ed ba 39 0f ed 40 e8 73 00 41
       7.565898 -0.0018108871 7.408108 8.028297
0003d0 82 d0 ea 40 4d 6c 91 bf 49 e0 ea 40 20 a0 64 40
       7.3379526 -1.1361176 7.3398786 3.5722733
0003e0 77 2c a5 bd c4 1d f7 40 71 b1 c6 3e e2 64 f1 40
       -0.080651216 7.7223835 0.38807252 7.543565
0003f0 f9 01 e9 40 6d 75 04 41 ad a9 52 be 5d 1e 00 bf
       7.281491 8.278668 -0.20572539 -0.5004633

layer2.6.weight f4 [1, 256]
000000 3c a1 ab ba bb eb ee 3c dd d2 cd 3c 6d 6a df bc
       -0.0013094316 0.02916514 0.025124962 -0.027272427
000010 15 8d 9a 3c d8 82 0e 3b 42 7b 92 3c 0b 46 f3 bc
       0.018866101 0.002174547 0.01788104 -0.029696485
000020 ee 7c 1c 3d 35 9a e9 3c 3d ee c9 bc 26 b0 89 3c
       0.03820508 0.028515914 -0.024649734 0.016807627
000030 d5 21 d4 bc 9c bb 94 3c c1 37 91 bc 6d 8b e0 3c
       -0.025895039 0.018155865 -0.01772678 0.027410233
000040 a1 db a1 bc 80 c8 a8 3c 35 d1 28 bd a6 fe a6 3c
       -0.019758048 0.020603418 -0.04121514 0.020385098
000050 57 e6 23 3d 38 5e c8 bc 38 1f 88 3d 3c 21 f0 3d
       0.04001459 -0.02445899 0.066465795 0.11725089
000060 f6 d1 a5 3a bc 15 dc 3c ce 2c 36 3d 3a 5e 05 3d
       0.0012651074 0.026865833 0.044476323 0.032560565
000070 4c 2f 00 3d c5 af 83 bb d0 c2 ff bc 8f 53 19 bd
       0.031295106 -0.004018756 -0.031220824 -0.037433203
000080 00 25 c5 bc f4 48 a2 bc 2c 53 ed bb 51 e8 9c bc
       -0.024065495 -0.019810177 -0.007242581 -0.019153746
000090 67 98 58 bd df 76 22 3d 8c eb 5a 3d 53 6b e2 3c
       -0.052879717 0.039664146 0.05344729 0.027639067
0000a0 11 ca 92 3c 20 ca 1d bd 4f 54 f0 3c 2c 62 9d bc
       0.017918618 -0.03852284 0.029337076 -0.019211851
0000b0 b3 7f 09 3d 5d ae d2 bc a3 90 3d bc 91 fc 00 3d
       0.03356905 -0.025717909 -0.011570129 0.031490866
0000c0 eb 99 8b 39 15 7a ee 3c 7f db cd ba aa e8 6b 3c
       0.00026626824 0.029110948 -0.0015705674 0.014398733
0000d0 45 a4 71 3d 9b c9 2e bd 61 47 bc 3c fe 7e 97 bb
       0.05899455 -0.042672735 0.022983255 -0.004623293
0000e0 4b d6 c6 39 08 ed e8 3c 8d cf e9 3c ed 34 d8 ba
       0.00037925164 0.028433338 0.02854135 -0.0016495265
0000f0 97 91 eb bb a7 47 c2 3a 9a 02 2b 3d 9c 55 87 3c
       -0.0071889865 0.001482238 0.041750528 0.016520314
000100 f4 fb 00 bd ad 0a 3e 3d 03 21 fc 3a 17 65 04 3d
       -0.03149028 0.0463969 0.0019235912 0.03232297
000110 46 b9 0f bb c4 2f da bd be 79 e6 3c a9 88 34 bc
       -0.00219305 -0.10653642 0.028134223 -0.01101891
000120 ee 88 15 3d a4 b3 b3 3c 0a 3a 39 bd 00 36 28 bd
       0.03650754 0.021936245 -0.045221366 -0.041067123
000130 76 05 9b 3c d6 fe c8 3c 2b 18 68 bb bc ad b1 3c
       0.018923502 0.024535578 -0.0035414796 0.021689288
000140 55 3d d5 bc 05 c0 9b 3c 6f de 19 3d 88 48 e8 3c
       -0.026030222 0.01901246 0.037565645 0.028354898
000150 cb 41 4d bd e1 a3 25 bd bc 87 34 3b b5 38 a5 3c
       -0.050111573 -0.04043949 0.0027546724 0.020168642
000160 3f 3a a6 3c dc e4 fb bc 7a 69 e3 bc 5b b4 98 bd
       0.020291446 -0.030748777 -0.027760256 -0.07456275
000170 31 ea 22 bd dd 39 f2 3c c2 c3 40 bc bf cb c6 3c
       -0.039774124 0.029568607 -0.011765422 0.024267076
000180 97 0b 09 bb 17 be e6 3c 79 73 bb 3c 33 7e 2d 3b
       -0.002091145 0.028166814 0.02288221 0.0026472926
000190 80 43 9b 3c 56 b3 27 3d fb b6 d0 3c 06 c1 c5 3c
       0.018953085 0.040942512 0.025477877 0.024139892
0001a0 84 13 e6 bb c2 26 90 3c 28 0b a5 bc 12 f0 b9 3a
       -0.0070213694 0.017596606 -0.020146921 0.0014185926
0001b0 35 06 14 3b 6b 9e ef bc a0 b4 f6 3c 32 91 de 3c
       0.0022586707 -0.029250344 0.030115426 0.027168844
0001c0 d8 cb b0 3b a0 41 f7 39 57 81 ca 3c 40 94 7f bc
       0.005395394 0.00047160406 0.024719877 -0.01559931
0001d0 eb 64 ef 3c 95 08 a0 bc 61 1b e4 b8 97 7a 24 3d
       0.029222926 -0.019535342 -0.00010876987 0.040155973
0001e0 92 b2 77 3c e6 f4 46 3b 06 5b e0 3c 3a 72 18 bc
       0.015118258 0.0030358373 0.027387153 -0.0093045775
0001f0 1b e6 46 bb e6 9e e2 3c ba 37 95 3c c5 99 2d ba
       -0.0030349556 0.02766366 0.018215049 -0.000662234
000200 dd 6b c9 3a 75 c8 e1 ba 89 2b 81 bc a7 e6 9b 3d
       0.0015367229 -0.0017225879 -0.01576783 0.07612353
000210 8d 8b 6a bc b5 ef bf 3b 23 21 02 bc 68 fc 4b bd
       -0.014315498 0.0058574327 -0.007942471 -0.04980126
000220 7d 70 f6 3c 7a a4 00 bd 36 1e 42 bc 5a 13 16 3d
       0.030082935 -0.031406857 -0.011848023 0.03663955
000230 7b e7 30 bc 40 fe 05 bd ee c3 fa bc f5 ac 93 3c
       -0.010797377 -0.032713175 -0.030611005 0.018026808
000240 c9 c1 17 3d ac 5e c7 bb e7 2e 9f 39 f2 89 bf 3c
       0.037050042 -0.006084284 0.00030361788 0.023381207
000250 2c 94 29 3c c6 62 11 bc 78 41 52 3d 80 6e 41 bb
       0.010350268 -0.008873647 0.051331967 -0.0029515326
000260 62 90 ea 3c 45 07 22 bb 36 a6 04 bd 9e af 3c 39
       0.0286333 -0.0024723571 -0.032385074 0.000179945
000270 78 cf ec bd bf 8f 85 3c 07 51 4f 3b eb 27 f3 bc
       -0.11563009 0.016303895 0.003163399 -0.02968212
000280 86 33 14 bd 6e 64 dc 3c 46 ca c8 3c f4 c0 54 bd
       -0.03618195 0.026903357 0.024510514 -0.051941827
000290 fa 75 2b 3d ba b3 60 bd 61 64 ee 3c fe 2f 42 3a
       0.041860558 -0.0548589 0.029100599 0.0007407664
0002a0 6c 2d 0f 3b 0e 7b 0f 3d d4 ac ea 3c 3e 56 19 bd
       0.0021847142 0.035029463 0.028646864 -0.037435763
0002b0 1a b2 ff 3c fa e0 44 3d 8b 60 80 bb e1 ec 00 3d
       0.031212855 0.048066117 -0.003917759 0.031475905
0002c0 01 e4 97 3c 93 f2 cd 3c f0 be ed 3c 84 5c 07 bd
       0.018541338 0.025140082 0.02902171 -0.033047214
0002d0 32 4a c6 3c c5 33 00 3d 29 6e b3 3c 19 10 fc bc
       0.024205301 0.03129937 0.021903114 -0.030769395
0002e0 13 e6 a7 3c a1 af 4a 3b 39 e9 ea ba 29 fe 77 ba
       0.02049545 0.0030927437 -0.0017922289 -0.0009460175
0002f0 36 a7 80 3d 84 36 0d 3d ed d1 ca bd ed cb d9 3c
       0.06281893 0.03447582 -0.099033214 0.026586497
000300 73 78 71 bd af 3c 99 3a b2 65 c3 3c 66 d2 3b 3d
       -0.05895276 0.0011691059 0.023852203 0.04585495
000310 a4 4b af 3c c3 ad 1d bd 6b 42 6f bc da c7 ff 3c
       0.021398373 -0.03849579 -0.014603238 0.031223226
000320 c1 0c 24 3d 3e a7 37 3d c7 47 a5 bd 02 ab 29 bd
       0.040051226 0.04483723 -0.08070331 -0.04142285
000330 57 b1 e3 3c 46 19 0d 3d 30 79 02 3d c8 16 d1 bc
       0.027794523 0.03444793 0.031853855 -0.025523558
000340 82 9d eb bc 2c 52 a6 3c 1f 1a 73 bc 06 87 d7 3c
       -0.028761629 0.020302854 -0.014837771 0.026309501
000350 eb 60 03 3d b0 7b b3 3a bc 52 b2 3c f9 9f b5 3c
       0.03207485 0.0013693478 0.021767966 0.022171007
000360 55 b8 37 3d 1a 47 59 bd 1e 23 c3 3c 50 3b a6 3c
       0.044853527 -0.053046323 0.023820456 0.020291954
000370 02 0c 70 bc da 41 e0 bc 10 c7 08 3d 30 df 01 3d
       -0.0146513 -0.02737515 0.033392966 0.03170699
000380 a0 cf 14 bd d4 e5 95 3c e1 9b 70 bb 3a 28 c2 3c
       -0.03633082 0.018298067 -0.0036714005 0.023700822
000390 50 87 07 3f 8a 8b 56 3d cb be 68 3a 12 aa ed bc
       0.52940845 0.05237917 0.0008878528 -0.02901176
0003a0 fa 71 02 3d 98 50 35 3d 21 47 97 bd 55 fd e5 3c
       0.031846978 0.044266313 -0.07386614 0.0280749
0003b0 ed a8 17 bd 86 a7 51 bd db 03 7a 3c f2 7d 3b bb
       -0.037026335 -0.051185153 0.015259708 -0.0028609005
0003c0 e3 a5 cb 3c 19 41 05 bd ff b0 88 3c 66 d7 d8 3c
       0.024859374 -0.032532785 0.01668596 0.026469897
0003d0 4e ea 5d 3c 2d 4a f0 bb 45 9c 8f 3c 3b 2e de 3d
       0.013544632 -0.007333061 0.01753057 0.108486615
0003e0 85 3a d7 ba 06 e7 a0 3c 58 88 34 bb d3 3e fa 3c
       -0.0016420638 0.01964141 -0.0027547088 0.030547535
0003f0 2b b4 31 3d f2 5d 3b 3d 48 a6 6b bb b9 dd 32 bd
       0.043384712 0.04574389 -0.0035957266 -0.043668482
