Saved_data_files/bpi_no_repeat/lr_all_variants/laplacianOnWeighted/EventPredictor_parameters_laplacianOnWeighted_0.0001.pt (torch, 280583 bytes, 8 tensors)

layer1.weight f4 [4, 1]
00000000: 4619 20bf d892 58bf f0e1 f83e 9365 c83f
-0.62538564 -0.84599066 0.48609877 1.5655998

layer1.bias f4 [6]
00000000: 93f5 203f a1c8 7fbf a9ea b3bf f954 e9be
00000010: 13dc b33e a471 923e
0.62874717 -0.9991551 -1.4055988 -0.45572641 0.3512884 0.28602326

layer2.1.weight f4 [256, 6]
00000000: 3e58 91bd 49de 763e b173 92bd 4e25 583d
00000010: 0810 b4bc a4bb 883d 7a26 b0be 3576 ff3a
00000020: a2cc 703d 788a cf3f 97ee 2d3d ee9e 19bc
00000030: 4d19 a03e 4759 073e 707a 873d c29d 403e
00000040: 3d19 9bbc e4fa fb3d 7412 6e3e 7062 34be
00000050: eae4 903e 24e2 f2bc 47cf a2bd 6fa9 82bf
00000060: a2c2 9d3e 4e99 423c 40cb d8bc 2654 62bf
00000070: 4b2a 6f3d c2e7 0ebd a84a c83e 089e fc3d
00000080: e7ec 53bd 736c 5cbf f2e6 013b 1738 05bb
00000090: 4c62 f93d f8de 28bc ab40 b8bd 705f 65be
000000a0: e4dd b3bc 9c82 10be 1661 a1be d999 a83e
000000b0: 70f3 3bbe bf71 2ebe 97b3 28bb a75d 823f
000000c0: 3914 83be d335 ee3d ed10 4cbe 7c4d 373e
000000d0: 6683 5a3b f7c6 e73d 9772 c13e bcb6 373e
000000e0: 56ca 4abe 5319 75be 51c6 10be a998 4e3f
000000f0: 42d2 b8bc 5bae 673f a371 81be 514c 10be
00000100: 93dc 2b3b 2841 203c b77e c4bd 4960 f13c
00000110: f835 7cbe e04c aabe 4aa4 81bd 5ce7 a3be
00000120: 85e6 55be ea81 393c 0d99 3b3f 5868 a03e
00000130: e6bc c9bc ed58 a4bf 8e99 78be bd82 2e3f
00000140: 3d0d d5bd abcb 6d3e c517 fd3d ac6a 23be
00000150: 2501 85be fee3 fd3d b402 89be 7473 04be
00000160: 86ca 543f be46 5bbe af4b 48be b97b c5bd
00000170: 2ee7 f23d ec4a 483c 6b8a 803d 092c 98bb
00000180: 330f c8bc 5836 52bc 45e8 06bf c45b 5cbe
00000190: d7c4 a3bd 7b8f f93e 7b45 cc3e 80b5 8d3b
000001a0: 4e68 323d 77e8 91bf 1e3d 743b dc39 2d40
000001b0: 6576 12be 509f 063c 95e1 96be 571f 9dbd
000001c0: 6aa7 aebd b484 c7be 853b c6be 0666 eb3d
000001d0: 5594 863e 83ba b53f a2e5 833a 648b 3cbe
000001e0: 5b23 2e3e de92 583c 8bb8 0b3e c1fd 73bc
000001f0: 7ba4 a0bd 476a f93e 2cd5 c83d e0cb 863f
00000200: f5b6 5abf e3d8 093e 7ed8 8a3f 511f cc3e
00000210: 396c 9dbd fcd0 bbbb eacd 023c aa53 c7bb
00000220: f97c 46be 9373 903e 5b62 a03e 4fa8 40bc
00000230: 1b27 533b c3fd bebd 4a44 863b fe16 6dbd
00000240: 4aea 31be cea0 3fbe 87d8 093e 61b9 adbe
00000250: 784a d3bb 5690 bfbd 1214 18be 8466 c33e
00000260: 68b5 46be 849a 873e abfd 943d ea25 67bb
00000270: b6cb 87be e174 b6bc 27de dc3d a762 203f
00000280: 25f2 b93c eb9f 363c a070 71be 3904 1a3d
00000290: 737f cebd a8bc e23c a55f dc3d be4a c53c
000002a0: d124 a4be e858 143f 6ea4 f0be e66d c6bc
000002b0: e254 693b 00fd 96be 35fc ccbc f366 c9bd
000002c0: 0aa0 f93c 6052 e53d c6ba 8cbc c465 883e
000002d0: fe2e 3f3e 329d 82be ff68 933e 6cd0 50be
000002e0: 6989 99be ac52 4e3f 7371 b83e 4ddd 5d3e
000002f0: 4eaa a73c 0913 893b d16a 753f 0477 04be
00000300: 6a38 89be a285 c4bb 3c98 0e3f 47f7 08be
00000310: 53be 51bb b1e7 83be 6752 493d 8a7e ee3d
00000320: aae0 edbb fe2d ac3d da99 4a3d 6f39 14bc
00000330: 5673 aabe ae1c 51bc 6e3d 413f 9c2c f73e
00000340: 029f 163e ed92 02c0 bf88 c4be 756d b9bc
00000350: a48a 12bb 2a81 ed3d 64cd acbe bd20 a1bf
00000360: c292 3ebe 4ec3 623e 0eb8 dcbe 6e95 0ebf
00000370: ced3 473a 7aa2 9a3d 1928 3cbe 1edf 3abe
00000380: 3695 27bb 61c6 5abd e0de de3c ca30 803b
00000390: cff1 313e d31b ccbd c15e 073d 3c55 b0be
000003a0: 83eb cabd f7b6 413e 25bc 703d c251 9bbe
000003b0: 26af 803e 3ef7 543e 7612 2bbc a1b6 b13d
000003c0: 7e8f 66be 3bf7 01bf 4c2d 313f cbe3 bd3e
000003d0: 297f d13d 9932 9dbf 1e43 8cbe 85a0 873b
000003e0: bc56 2140 451d 72be a37a 7dc0 df11 d73b
000003f0: dd5c 553c 46e1 323f 6acc 04be 4b9b 963e
-0.07096909 0.24108233 -0.07150973 0.05276995 -0.0219803 0.066764146 -0.34404355 0.0019490184
0.058788903 1.6214132 0.042463865 -0.009376271 0.31269303 0.1321765 0.0661515 0.1881018
-0.018932933 0.12303713 0.23249227 -0.17615676 0.28299648 -0.029648848 -0.07949691 -1.0207957
0.30812556 0.011877371 -0.026464105 -0.8840965 0.058389943 -0.03488899 0.39119458 0.123348296
-0.0517396 -0.8610298 0.0019821492 -0.0020327622 0.12176952 -0.010307066 -0.089967094 -0.22399688
-0.021956392 -0.14112324 -0.31519383 0.32929876 -0.18354583 -0.17035578 -0.002574181 1.018483
-0.25601366 0.1163136 -0.19928332 0.17900652 0.003334248 0.113172464 0.37782738 0.17940801
-0.19803748 -0.23935442 -0.14138152 0.8070169 -0.022561196 0.9050042 -0.2528201 -0.14091612
0.0026224002 0.009781159 -0.095944814 0.029464858 -0.24629962 -0.33261776 -0.06330164 -0.3201245
-0.20888717 0.011322478 0.7328041 0.31329608 -0.024626207 -1.2839638 -0.24277326 0.6816824
-0.104029156 0.23222224 0.12358049 -0.15958661 -0.25977436 0.12397002 -0.26759875 -0.12934667
0.83121526 -0.21413705 -0.19560121 -0.09642739 0.118605 0.012224894 0.06276401 -0.0046439213
-0.02442131 -0.012830339 -0.52698165 -0.21519381 -0.079965286 0.4874228 0.3989676 0.004324615
0.043556504 -1.1399068 0.0037267874 2.7066565 -0.14302976 0.008216694 -0.2946898 -0.07671993
-0.085280254 -0.38968432 -0.38717285 0.11494069 0.26285043 1.4197544 0.0010062943 -0.18412548
0.17005675 0.01321861 0.13644616 -0.014892043 -0.07843872 0.48713896 0.09806284 1.0530968
-0.8543542 0.13461642 1.0847318 0.39867643 -0.076866575 -0.0057317 0.007983664 -0.0060829716
-0.19383611 0.28213176 0.3132504 -0.011758878 0.0032219354 -0.09325745 0.004097496 -0.057883255
-0.1737453 -0.18713686 0.13461505 -0.33930495 -0.0064480864 -0.09353702 -0.14851406 0.3816415
-0.19405138 0.26485074 0.07274946 -0.0035270401 -0.26522607 -0.02227253 0.1078456 0.6265053
0.022698471 0.011146526 -0.2357812 0.037601683 -0.10082903 0.027677849 0.1076043 0.024083491
-0.3205934 0.5794816 -0.4700045 -0.024222326 0.0035603573 -0.294899 -0.025022605 -0.09834089
0.03047182 0.111973524 -0.017178904 0.2664014 0.1867027 -0.25510556 0.28791043 -0.20392007
-0.29987648 0.805949 0.36024055 0.21666451 0.02046695 0.0041831774 0.95866114 -0.12936026
-0.26800853 -0.0059973756 0.5570104 -0.13375579 -0.0032004311 -0.25762704 0.04915085 0.11645229
-0.007259448 0.0840721 0.04946313 -0.009046896 -0.3329112 -0.012763185 0.7548436 0.48276222
0.14709094 -2.0402176 -0.3838558 -0.022635201 -0.0022360468 0.11596902 -0.3375045 -1.2588116
-0.18610671 0.22144815 -0.43109173 -0.5569676 0.0007622809 0.07550521 -0.18374671 -0.18249175
-0.0025571114 -0.053411845 0.027205884 0.003912066 0.17377399 -0.099662445 0.03304935 -0.3444003
-0.099082015 0.18917452 0.05877318 -0.30335814 0.25133628 0.2079744 -0.010441413 0.08677412
-0.22515675 -0.5076787 0.6920974 0.37087855 0.10229332 -1.2281066 -0.27394956 0.0041390085
2.5209188 -0.23643978 -3.9606102 0.0065634097 0.013022629 0.6987499 -0.12968603 0.29415354

layer2.1.bias f4 [256]
00000000: 55d9 663e 76a9 cabf 86b9 03bf e8d1 b2be
00000010: 30ce af3f dc86 fb3f 1b8d 313f 6081 383f
00000020: 3a9e c4be 6d86 9b3d 4589 913f 80ec 203f
00000030: 20b6 bfbe 9bfe 64bd f759 6f3f 56f1 583e
00000040: 340e 413f b8e8 223f 40c8 a339 18cd 14c0
00000050: 7895 20be 5270 803f 3716 b8be 8b1a a93e
00000060: 99a2 8a3f 63c6 36bf b2fa 89bf 36dc aabc
00000070: 89bb c93e c404 ccbe 59e6 fbbe 0f07 2f3f
00000080: 718a 883f ebff f9bd 6536 89be 1b7e 56bf
00000090: 7c42 fd3f 34d7 643f 7376 b43f 28b8 69bf
000000a0: afd1 eebe adaf af3f be5c 223f 9d6c 1dbd
000000b0: 009f b6bf 71e1 f8be 0612 49bf 4c97 15bf
000000c0: 6f37 82bf 802a e83e dc2b 35bf 175b afbe
000000d0: d344 a9bf f1ba 14bf 39d7 a6bf 7f02 39bf
000000e0: 3508 863d 8fd0 24bf b8bb b1bf 78f5 1dbf
000000f0: 7333 a4bf fe93 1fbe 4ee2 e9be f3c8 323f
00000100: 1190 2dbe 47ea 0a40 a999 063f 6137 2d3f
00000110: 1a33 203e 3007 1e3e 37b6 6bbf 1727 30be
00000120: b1c7 9c3f 38de 3c3f 7a0f 5bbf 7781 cabe
00000130: 59ad 063f c14c 8abd ccd9 09bf fe9d 35bf
00000140: 8653 10bf 7951 b3be a1f6 99bf f3dd 0bbf
00000150: 0ced 6b3c d30b c5be ed62 783f 6823 06bf
00000160: 8696 9ebf a50f 503f 2997 3e3e 24c9 56bf
00000170: 1205 723f 4d47 d43f 8938 abbe 2277 423e
00000180: 168e 343f 00c5 babc 8368 f53f 17f5 923e
00000190: 1839 6a3f 5f18 febe 2500 b4be 6b08 ab3f
000001a0: 6b1b 0dbe a07e 923e 628a 4a3f 01a3 21bf
000001b0: 67c1 ae3d 6437 4dbf 4176 263e c479 713f
000001c0: 9a91 c5be 4b06 d3be 3044 e73e 6cd0 73be
000001d0: 4a83 233f ff83 c5be 9b72 e1bf 82bd 11bf
000001e0: 6aa7 9fbf dfc5 0d3d 307d f43c 9f99 cc3d
000001f0: 62dc 01bf 0618 5d3e dc91 49bf 6530 11bf
00000200: 3bb5 eebc 0005 413e ed26 b2be 1523 843f
00000210: 6747 d5be f241 0fc0 b72c 913c 405b 273f
00000220: a741 71bd 6163 153c c840 183f 2f50 c83d
00000230: 2fa7 793f da0b 02bf 1938 873c 4a59 c3bd
00000240: 4cf3 db3f c2a8 b2bf fd14 13bd 3990 fb3d
00000250: 01dc cd3f 4f76 bb3e f270 c13e 8989 19bc
00000260: f311 31bf 1f89 e53e 1b75 743f 5973 4ebe
00000270: ff81 bebf 154a a4bf 204f 413f 3919 4bbe
00000280: 424f 0a3f 01e5 76bd 38de ccbe c798 21be
00000290: 7f22 0440 56d8 6e3e 891d debe ed72 8b3f
000002a0: 24f4 7f3d badc 1d3e 9d6a 403f 103f d83f
000002b0: cbca b4be fde4 bdbe fd8b d73e 0c8d 523d
000002c0: b774 69bc ce64 d0bf 23af 383f 6e26 0dbf
000002d0: 40f5 623f 120b 11bf 3d6e 7b3e f031 193e
000002e0: fcda 603f 5275 47bf f6e8 82bf 200e 21bf
000002f0: ad66 383f 503d 4cbf 4b9c 68be 42d8 2ebf
00000300: 81cc 81bc a856 76be 95ba 91bf 68e7 203d
00000310: 75d8 fa3e 91dd 423f 0c1f 0bbf db88 cebf
00000320: c856 343e 0efa 4f3f 6bfe 1f3e ad24 cdbe
00000330: 6eb5 c33e 47dc de3f 6380 b93f 7d71 7f3d
00000340: 7f60 98be ab0c bcbd c47f 77bf 698d 413f
00000350: 24af 3b3c c09f 40bf 67c2 633d 47d1 51be
00000360: f4f3 6abd 1bcb 13bf aa53 bdbe 7860 67bf
00000370: 7fe5 76bf b743 6abe 9b07 78be a187 7abe
00000380: 4e95 c3bd 5332 89bc b261 9abe b331 68be
00000390: e555 e03e 88be 83bf d915 e23e 9922 36bf
000003a0: 8de6 22be 0c21 9bbe 283e f43e 82e9 6d3f
000003b0: fa98 7b3e bae0 76bf 68d4 0f3d 55e2 a63e
000003c0: ff75 fd3f 2435 3dbf 7523 b73e 9bd3 ca3f
000003d0: bb6a 56bf 12cb 683f c2c2 38bf 52d2 5d3e
000003e0: 2d7b 6e3f 270a 19be ee8c edbd b097 b2bd
000003f0: 04bd a33e 7073 9cbf 0485 8ebf a162 393f
0.22543843 -1.5832965 -0.5145496 -0.3492577 1.3734798 1.9650531 0.69355935 0.7207241
-0.38401967 0.07593999 1.1370016 0.6286087 -0.37443638 -0.055906873 0.9349665 0.21185812
0.754123 0.6363635 0.0003123898 -2.325018 -0.15682018 1.0034277 -0.3595445 0.33028063
1.0830871 -0.71396464 -1.0779631 -0.020856958 0.3940089 -0.39847386 -0.4919918 0.68370146
1.0667249 -0.122070156 -0.26799312 -0.8378617 1.9785914 0.89390874 1.4098648 -0.91296625
-0.4664435 1.3725487 0.63422763 -0.03843366 -1.4267273 -0.48609498 -0.78543127 -0.58433986
-1.0173167 0.45344925 -0.7077005 -0.34249184 -1.3224128 -0.5809775 -1.3034431 -0.72269434
0.06544534 -0.64380735 -1.3885412 -0.6170268 -1.2828201 -0.15583798 -0.4568047 0.69837874
-0.16949488 2.1705492 0.52578217 0.67662627 0.15644494 0.1543243 -0.9207491 -0.17202412
1.2248441 0.7377658 -0.8557049 -0.395519 0.5260826 -0.06752921 -0.53847957 -0.709442
-0.56377447 -0.35023096 -1.202839 -0.5463554 0.014399778 -0.38485584 0.9702595 -0.52397776
-1.2389686 0.8127387 0.1861235 -0.83900666 0.94538987 1.6584259 -0.3344157 0.18990758
0.70529306 -0.022799015 1.917252 0.28702614 0.9149337 -0.4962797 -0.3515636 1.3361944
-0.1377999 0.28612232 0.79117405 -0.6313935 0.08532982 -0.80162644 0.16256048 0.94326425
-0.38587648 -0.4121574 0.4516921 -0.23809975 0.63872206 -0.38577268 -1.76131 -0.5692979
-1.2472966 0.034612533 0.02984485 0.099902384 -0.507269 0.21591195 -0.7873819 -0.5671447
-0.029139152 0.18849564 -0.34795323 1.0323206 -0.41656038 -2.2384 0.017721517 0.6537361
-0.0589005 0.009117932 0.5947385 0.09780919 0.97520727 -0.50799334 0.016506242 -0.09538515
1.7183623 -1.3957751 -0.035908688 0.12283368 1.6082765 0.366137 0.37781483 -0.00937117
-0.69168013 0.44831178 0.9549119 -0.20161189 -1.4883422 -1.2835108 0.7551136 -0.1983384
0.5402719 -0.06027699 -0.4001329 -0.15780936 2.0646055 0.23324713 -0.4338191 1.0894448
0.06248869 0.15416232 0.7516268 1.6894245 -0.3531097 -0.37088767 0.4209899 0.051404044
-0.014249018 -1.6280763 0.7214224 -0.55136764 0.8865547 -0.56657517 0.24553771 0.14960456
0.87834144 -0.7791339 -1.0227344 -0.6291218 0.7203167 -0.79781055 -0.22715871 -0.68298733
-0.015844585 -0.24056494 -1.1385065 0.039283186 0.4899327 0.76119334 -0.5434425 -1.6135515
0.1761123 0.8124093 0.15624397 -0.40067044 0.38224357 1.7410973 1.4492306 0.06236409
-0.2976112 -0.09182104 -0.9667933 0.756064 0.011455331 -0.7524376 0.05560532 -0.20489989
-0.057361558 -0.5773179 -0.36977893 -0.90381575 -0.96443933 -0.22877394 -0.24221651 -0.24465801
-0.09549962 -0.01674763 -0.3015266 -0.22675209 0.43815532 -1.029252 0.44157293 -0.7114654
-0.1590826 -0.3029865 0.4770367 0.9293443 0.24570075 -0.96436656 0.035114676 0.32594553
1.9801635 -0.7390921 0.3576924 1.5845827 -0.8375661 0.9093486 -0.72172177 0.21662262
0.931567 -0.14945279 -0.11599146 -0.08720338 0.31980145 -1.2222729 -1.1134343 0.7241612

layer2.3.weight f4 [256, 256]
00000000: 6010 de3d 7696 953d b125 adbd e52a d7bb
00000010: 68c2 02be d76d 41bd 4dfc af3d 7a6d 42bd
00000020: b5a9 40bb f5a5 14be 058a 383b ff17 043e
00000030: 86ff 353d 73af 1f3e 0fa2 c6bb 2df6 cfbc
00000040: f176 263d 88ac 56bd 7e1d 3c3d 11dc 623e
00000050: fdbc b1bb 7a4c 9dbd f077 1cbe 816a 9e3d
00000060: 4c1d 7f3c e285 f23a 4d28 82bc eff3 81bb
00000070: 695a 06be 26c5 24bd c10b b2bc 80d8 c13c
00000080: 35c9 d23d 2717 573d 53e9 46bd 6909 523e
00000090: fc36 53bd 950a 913d b296 a8bd b206 87bd
000000a0: 2725 153e ce25 bd3e d428 a93e cd39 253b
000000b0: 83e1 2abe 7dac 85bc 2575 023e dfaa 373d
000000c0: 6cde f93d e42e f33d 05ea 5e3d 2380 9bbd
000000d0: 83a8 b03d 5a2c 07be b268 a43c 5f15 523d
000000e0: c097 85bb e08f a2bd e237 10bd 021c d6bc
000000f0: e9ab 113e 7b48 42bd 622e 8e3d 57f4 04bc
00000100: 1d3c 343c 99fe 00bc 7969 fcbc 43b8 cd3c
00000110: 498b b4bc 29cb 503e 1702 0d3d ada1 6b3c
00000120: 0f7e 2fbd d0c3 a2bd 3f52 293d 5a15 44bc
00000130: 16ef 4a3c 04ee c1bd 87a5 0b3e 9043 b4bc
00000140: 008a 2f3d 727d 32bd f48e 903e eefe 11bd
00000150: ba78 4abd 3f70 953d eaeb 593d eedf 94bd
00000160: 362d 6dbd 7c90 6bbe e12e 9a3d d4d6 19bd
00000170: 22c0 72bd cb4a a2be 3514 4c3d 364f 02bc
00000180: 855b 863d 5824 12bd b47f 50bd 7691 53bd
00000190: 884c b7bd 4722 9abc e55b e7bd dc88 8cbd
000001a0: 07dd 9f3d f949 5fbe ead6 b43c 6803 21bc
000001b0: c240 133a 5a0c 063e 7998 5cbd 83c4 aebd
000001c0: 44a9 c23d 3377 0a3d b0ed adbc 2b26 2a3d
000001d0: dd45 cbbd 8de9 b9bd e430 603d 644d ea3a
000001e0: 0400 f73b 2bf1 70bd e828 293d 067f 00be
000001f0: 79f7 193e d502 0bbe ec93 7cbc 9700 a6bd
00000200: b068 3abd de2a d63d b89d 8fbd 6ce8 9ebd
00000210: c9fa 9cbc 4201 bf3d 8fcd 31bd 4f15 51bd
00000220: 6a8f e1bd 3588 c7bb 3282 28bc 3177 063c
00000230: 17de a43b 996b 3cbd 60ed 543d eb86 c93d
00000240: ee6f ddbc fc72 3ebc 7f47 4dbd f2e6 70bc
00000250: d2a1 9fbe 8465 c03c 8dd9 603d cbcb 7b3b
00000260: 33cf efbd dded b73d 6e65 38bd 09b5 cc3b
00000270: 6041 a9bb 1d91 bebc 7aea 703c cd79 1dbe
00000280: 3a23 5fbd ee71 c0bd fe85 a33d 5109 abbd
00000290: 0837 d33c 76c0 bdbd f2e2 223d 89ea f2bd
000002a0: f7a5 4d3d 1aa6 0c3c 82d1 b0bc 9194 2b3e
000002b0: a10d 38bc ee12 933a 0be1 df3d 5a4a 62bd
000002c0: f226 9b3e 3771 02bf 6ee1 023e 530a 4b3d
000002d0: 343b 44bd 2d67 933d 845d 2ebe bec9 83bc
000002e0: b32c 83be d7e1 d9bd 1276 113d 0733 00bd
000002f0: 00ab edbb 4da4 8f3d bddb bdbd 2d18 7a3d
00000300: 1a4c 313e 6eab 1ebd 7922 343e ae69 4dbc
00000310: 1f47 7fbd 3e74 4bbd f20d a3bc 64e1 17bd
00000320: b1f9 073e 5f1e 083e 4bb9 823a 7c8e a93d
00000330: 59c6 4cbe cbe7 2a3d 1ee4 7cbd a72c a2bd
00000340: bb6a f8bc 8cdf 713b 2e19 9939 348d 993d
00000350: 0738 78bc 906c 5e3d 3694 4e3e 8e68 c1bc
00000360: eade 7cbd 1b85 363b 4d05 b43c cfc4 a63c
00000370: 6d3f 86bd 1476 11bd c44c fb3d cf96 9fbc
00000380: 854a ebbd 090e 82bd 9a11 c0bd bec9 aebd
00000390: d6c1 96bc 101b 03bd 43fe 06bd e8a9 1abe
000003a0: 529f f33d b8f0 81bd 9ad6 c13c 25b6 d5bc
000003b0: d936 3cbe d7f6 ac3d 3828 1a3d 09b9 1f3e
000003c0: c778 993d 7b88 0abe eead 2c3c 2925 663e
000003d0: c885 993d 8aaa ec3d 615b 013e 0e45 6c3d
000003e0: b9a2 cebc 2ca4 52bd 2429 7ebd fe81 133d
000003f0: 56e3 1c3c cd8b 453c 108c 93bc 6f91 81bd
0.10842967 0.07304089 -0.08454455 -0.0065663927 -0.12769473 -0.047223892 0.085930444 -0.047467686
-0.0029398028 -0.14516433 0.0028158438 0.12899779 0.04443314 0.15594272 -0.0060617994 -0.02538594
0.040640775 -0.052410632 0.045926563 0.22154261 -0.0054241405 -0.07680602 -0.15280128 0.07735158
0.01557095 0.0018503035 -0.015888358 -0.0039658467 -0.13120426 -0.040227078 -0.02173412 0.023662806
0.102922834 0.052512314 -0.04856236 0.20511402 -0.05156611 0.070820965 -0.08231868 -0.06593074
0.14564954 0.36942905 0.33038962 0.0025211454 -0.16687588 -0.0163176 0.1274 0.04484069
0.12200627 0.11874178 0.054422397 -0.075927995 0.08625891 -0.13200513 0.020069454 0.051289912
-0.004076928 -0.07937598 -0.035209544 -0.026136402 0.14225735 -0.047432404 0.069424406 -0.008114896
0.01100066 -0.007873201 -0.030812012 0.025112277 -0.022039073 0.2039 0.03442582 0.014381808
-0.04284483 -0.079475045 0.0413382 -0.011967981 0.012386104 -0.09469226 0.13637362 -0.022004873
0.042856216 -0.043576665 0.28234065 -0.03564351 -0.04943154 0.072968 0.0532035 -0.07269274
-0.057904445 -0.23004335 0.07528473 -0.03755839 -0.059265263 -0.31697688 0.04982396 -0.007953456
0.06560425 -0.03567919 -0.050903037 -0.051652394 -0.08950144 -0.018815173 -0.11296824 -0.06862041
0.078058295 -0.21805562 0.022075135 -0.009827472 0.00056172546 0.13090649 -0.053856347 -0.085335754
0.09504941 0.033805083 -0.021231502 0.041540306 -0.09925435 -0.090777494 0.054734126 0.0017875847
0.0075378437 -0.058823746 0.041298777 -0.12548456 0.1503581 -0.13575299 -0.015416127 -0.08105581
-0.045509994 0.10457395 -0.07012504 -0.07759175 -0.019162552 0.09326412 -0.043408927 -0.051045712
-0.11013682 -0.006089235 -0.010284947 0.008207128 0.005031358 -0.04600105 0.05198419 0.09840187
-0.027030911 -0.011624094 -0.050117012 -0.014703499 -0.31178147 0.023485906 0.054894973 0.003842103
-0.11709442 0.08980916 -0.045018606 0.006247167 -0.005165264 -0.023262555 0.014704341 -0.15378495
-0.054476954 -0.0939673 0.07984541 -0.08351386 0.025783077 -0.09265225 0.039767213 -0.1186114
0.050207105 0.008584524 -0.021584276 0.16755892 -0.011233718 0.0011220851 0.109315954 -0.05524669
0.3030315 -0.50954 0.12781307 0.049570393 -0.047908023 0.071974136 -0.17027861 -0.01608741
-0.2562004 -0.10638779 0.03551299 -0.031298663 -0.007253051 0.0701376 -0.092704274 0.061058212
0.17314187 -0.038737707 0.17591275 -0.012537403 -0.062323686 -0.049671404 -0.01990411 -0.037080184
0.13278843 0.13292836 0.0009973434 0.0827913 -0.19997539 0.04172496 -0.061740987 -0.07918673
-0.03032433 0.0036906926 0.00029201194 0.074976355 -0.015150077 0.054302752 0.20173725 -0.023609426
-0.061736025 0.0027850333 0.021975184 0.020357518 -0.06555066 -0.035513 0.12270501 -0.01948109
-0.11488823 -0.06350333 -0.09378357 -0.08534573 -0.018402975 -0.03200823 -0.032957327 -0.15103877
0.11895622 -0.063447416 0.0236619 -0.02608783 -0.18380298 0.084455185 0.03763601 0.15597929
0.074937396 -0.13528626 0.010539515 0.22475113 0.0749622 0.11555965 0.12632515 0.057683043
-0.025224077 -0.051426098 -0.062050954 0.036012642 0.0095756855 0.012057257 -0.018011123 -0.063265674

layer2.3.bias f4 [256]
00000000: 5911 d03f 8371 983e b737 82bf 94dc 403f
00000010: bad0 afbf 5f80 9abf 63f0 88bf 517c e6bf
00000020: c5c4 18bc f9dd ab3f 7870 2fbf ce75 d8be
00000030: 66cf 7abf 61b8 f23d 6648 9f3f 9121 d03f
00000040: f355 24bf 614a 95bf 0043 abbf 9a49 f0bf
00000050: e2b7 9e3f d353 8a3f 537c a73f 9b48 cb3f
00000060: 1ac6 57bf 936a 853f 2ebb ba3f b264 9abf
00000070: b9c5 63bf a1c0 a1bf 86ca 413f 5901 8ebf
00000080: adce 123f cd7c 78bf 63f9 643f 1bbe 9fbf
00000090: 4c2b b6bf 4ad2 c1bf aaf2 403f 58bd 173f
000000a0: 3f8d b43e b6a5 9c3f 94a4 bbbf 5193 4c3f
000000b0: 2141 dbbf e0a6 a93f 9765 e13f 6957 a0bf
000000c0: 11e4 f73e 6917 edbf c288 e43f ec96 94ba
000000d0: 6672 2b3f 4697 a43f 6b4d 27be f058 bbbf
000000e0: 32ec aebf 776d ecbe 4bb3 c73f 4a5b aa3f
000000f0: 6d5e 51bf 3e1b b8bf 3b61 a53f 698a 2c3e
00000100: 0fa6 643f a722 073f 2e42 b03f a724 973e
00000110: 35e7 7ebf 8846 4bbf b11c d2bf f0cb 043f
00000120: cb0e c63f e08a 633f 2038 083e 1021 e3bf
00000130: d18d 98bf 4864 c23f 00a7 af3f c97d 723f
00000140: c441 c8bf c87d ba3f e5ef 623f 1e88 9a3f
00000150: 43ea a0bf 4307 a63f 43ea d73f 0233 efbf
00000160: 79aa d63f 2eaf bf3f 023c b5bf 8362 97bf
00000170: ca62 abbf f267 cebf 62d0 873f 5d11 c1be
00000180: 4ab8 db3f 7bfb 9cbf a1f1 aebf 705b 25be
00000190: 3891 ab3f ac64 973f 4cea b8bf 5017 babf
000001a0: 6564 6e3f f13c e83f bd0b ac3f 15c0 b2bf
000001b0: 901c cebf 2884 9dbf dc00 44bd 16c8 523f
000001c0: a8d2 8fbf 3bc1 a53f 43b5 e23f 8562 e7bf
000001d0: 3d5c cdbf a671 8bbf d52d bbbf d565 d9bf
000001e0: 93a8 833f d78e 9dbf 5ad4 b13f 509a a33f
000001f0: 0f91 a8bf bf63 46bf 3b43 d03f c684 0f3e
00000200: 2a0d 75bd 9a17 b1bf 7ef8 71bf f0ba 933f
00000210: b661 873f 7003 c4bf ec80 a43f 7da7 8a3f
00000220: 9f34 0fbf 84d8 c03f c164 a53f 8740 9d3f
00000230: ae2d 943f f6c9 a5bf abdd b6bf 10bf 883f
00000240: 0401 d63f f42b 0fbf aaff a63e 6194 6c3f
00000250: 3976 88bf b750 9c3f 71c0 a33f 808c aa3f
00000260: bbdf 8fbf ac5d 9d3e df89 743f 60f1 bd3d
00000270: 4b86 e1be 7249 a4bf 0201 abbf 2c59 81bf
00000280: c1ee 173f 8d0a b2bf 2650 9ebf 7ddb dcbf
00000290: a7c9 853f ea73 98bf 4db5 d33f a3f1 7bbe
000002a0: 0a98 94bf 6aeb f23e 50a1 c7bf 5d88 9cbf
000002b0: 40b8 94be f734 82be ac64 e33f 5ebe b6bf
000002c0: 07d0 b2be 9419 183f f393 5ebf eecf dabf
000002d0: 5468 ed3f 8bc9 0bbf 9206 ef3f 09de e7bf
000002e0: 243a c5bf 6c05 1e3f 1d7a b7bf 58b4 50bf
000002f0: 334a cebf e134 a63f 69f7 f33f f53d abbf
00000300: 82d4 ad3f 706d da3f 4620 9fbf 1f7d 88be
00000310: a3fd 703f e54b a2bf e6e7 afbf cffe eebe
00000320: 4e15 bb3f 3d45 c93f b6fe a43f 784e c3bf
00000330: cb68 d73f 7108 62be 2bfe 99bf 516c 9b3f
00000340: 8786 a2bf 129b 163e b359 bd3f 4ecf e43f
00000350: d274 bc3f 3c8c 083f dea3 a53f 972a 4c3f
00000360: b754 95bf 3e79 91bf 118b cfbf a1a3 b53f
00000370: af0c c53f 8f22 b2bf 01fc 8ebf f420 cdbe
00000380: 9de2 ae3f 34da d9bf 6716 90bf 0c13 b93f
00000390: 22a7 c63f b283 cf3f 8d30 1b3f ae89 c63f
000003a0: 23c6 dd3f ea54 9ebf 1509 bebf b7cb 8bbf
000003b0: 8ab8 063f e766 d03f 421f a83f d3ad e63f
000003c0: 4350 843f 0f8b 8d3f 16ad fb3e 7b4c d83f
000003d0: 46dd 84bf 26fb e03f ba5b 433f 436a 9b3f
000003e0: d4b3 97bf 72da a6bf 2fbd bdbf 97a9 8d3f
000003f0: 0e3b b6bf af80 8f3f c7dd 82bf d68b 9c3e
1.6255294 0.29774103 -1.0173253 0.75336576 -1.3735573 -1.2070426 -1.069836 -1.8006688
-0.009324257 1.3427116 -0.6853099 -0.42277378 -0.97972715 0.11851574 1.2443969 1.6260244
-0.6419365 -1.1663324 -1.3379822 -1.8772461 1.2399867 1.0806831 1.3084816 1.5881532
-0.84286654 1.0423149 1.4588373 -1.206198 -0.88973576 -1.2636911 0.7569965 -1.1094161
0.5734661 -0.9706543 0.89443034 -1.247989 -1.4231963 -1.51423 0.75370276 0.5927329
0.35264012 1.2238071 -1.46596 0.79912287 -1.7129251 1.3254051 1.7609128 -1.2526675
0.48416188 -1.8522769 1.7854235 -0.0011336482 0.66971433 1.2858665 -0.16338126 -1.4636517
-1.3665831 -0.46177265 1.5601591 1.3309109 -0.8178471 -1.4383314 1.2920297 0.16849674
0.89315885 0.5278725 1.3770196 0.2952015 -0.99571544 -0.794045 -1.6415006 0.51873684
1.5473264 0.8888378 0.1330266 -1.7744465 -1.1918279 1.5186853 1.3722839 0.9472318
-1.564507 1.4569635 0.886473 1.207279 -1.2571491 1.2970966 1.6868366 -1.8687441
1.6770774 1.4975336 -1.4158938 -1.1826938 -1.3389523 -1.6125472 1.0610468 -0.3770856
1.7165616 -1.2264246 -1.3667489 -0.16148162 1.3403692 1.1827598 -1.4446502 -1.4538364
0.9312194 1.8143598 1.3441082 -1.3964869 -1.6102467 -1.2305956 -0.047852382 0.82336557
-1.1236162 1.2949594 1.7711567 -1.8076941 -1.6043774 -1.0894058 -1.4623362 -1.6984202
1.028582 -1.2309216 1.389293 1.2781467 -1.3169268 -0.7749595 1.6270517 0.14015493
-0.059827007 -1.3835328 -0.94519794 1.1541424 1.0576694 -1.5313549 1.2851844 1.0832363
-0.5593967 1.5066075 1.2921373 1.2285317 1.157644 -1.2952259 -1.4286398 1.0683308
1.671906 -0.5592644 0.3261693 0.9241391 -1.0661079 1.2212132 1.2793103 1.3324127
-1.1240152 0.30735528 0.95522875 0.09274554 -0.4404777 -1.2834914 -1.3359683 -1.0105338
0.59348685 -1.390947 -1.2368209 -1.7254483 1.0452164 -1.1910374 1.6539704 -0.24603896
-1.1608899 0.47445232 -1.5596104 -1.2229115 -0.29046822 -0.25431034 1.7765098 -1.4276845
-0.34924337 0.5941403 -0.869445 -1.7094705 1.8547463 -0.54604405 1.867388 -1.8114635
-1.5408368 0.61727023 -1.4334141 -0.8152518 -1.6116394 1.2984887 1.9059879 -1.3378283
1.3580477 1.7064648 -1.2431724 -0.2665796 0.9413702 -1.2679411 -1.3742645 -0.4667878
1.4615877 1.5724255 1.2890232 -1.5258322 1.6828855 -0.22073533 -1.2030691 1.214243
-1.2697304 0.14707592 1.4792999 1.7875764 1.4723151 0.5333898 1.2940633 0.79752487
-1.1666478 -1.1365125 -1.6214315 1.419056 1.5394496 -1.3916796 -1.1170655 -0.40064204
1.3662907 -1.7019715 -1.1256837 1.4458938 1.5519755 1.6212065 0.6062096 1.5510767
1.7326092 -1.2369664 -1.4846522 -1.0921544 0.52625334 1.6281403 1.3134539 1.8021797
1.0336994 1.1058062 0.49155492 1.689834 -1.0380027 1.7576644 0.7631184 1.2141804
-1.1851754 -1.3035414 -1.4823359 1.106738 -1.4236772 1.1211146 -1.0223931 0.30575436

layer2.6.weight f4 [7, 256]
00000000: 04ee 27be 3b58 51bd ebdf cb3d b89f 50bc
00000010: 8f8a 51bd 8e58 463d 9de5 0d3d 9e1e 8f3d
00000020: 0aad 35bd 2778 bebd 9b22 073d 96f2 443d
00000030: 6f7c 953d 64ff 933c 21d2 f2bd c065 e6bd
00000040: 6878 503d 3f47 803c e1c7 0e3e c995 fa3d
00000050: 0cc1 4abd acc2 a7bd 850e d2bd b0a7 8cbd
00000060: e26c 9c3d c9d6 5bbd 8e33 2abe c6b5 a03d
00000070: 322d 973d 3250 ca3d 4d5e 96bc 52b6 ff3d
00000080: e9c9 7abd 21ad 903b 35b8 70bd 6038 633d
00000090: 8c96 c43d ccce e13d 2285 14bc d3c9 8bba
000000a0: 5396 0cbc f572 a9bc c2f2 163d da45 9cbc
000000b0: fce6 a13d ac76 aabc a2cb 87bd 533b 093e
000000c0: b40d 65bc 4a7b df3d e7df 12be c6d0 eabc
000000d0: e9a1 18bc 2691 dabd 1206 9ebb cd4a a73d
000000e0: dbbd 8c3d 7248 213c d28c b8bd a37d c6bc
000000f0: 989b 773c c659 563d 4243 0ebe 657e 5fbd
00000100: 9d0c 7ebd c454 8fbd fd0d 9ebd 9b3d b13c
00000110: a28c 863d ce10 0cbc 643c bc3d 638d c4bd
00000120: ac3e 9fbd a46c 0dbb 24f6 8a3c c745 123e
00000130: eb6d c33d efe4 91bd 1ac0 81bd f6a0 c2bd
00000140: b8cf b13c 91ba 2ebe dbd0 88bc 3174 c8bd
00000150: 8c32 953d 75e8 d3bd a702 b0bd 7c6b b03d
00000160: 22f1 ddbd 1b86 aebd f082 b53c 7b9a 8d3d
00000170: c0ca 1b3e 41b1 043e 02db 02bd 8717 f6bb
00000180: 8886 f4bd 26bb dc3d 7064 e33d 1f06 bfbc
00000190: 561f 05be 214f 8abd 4ba5 963c a21e 963d
000001a0: bce3 8ebd 206b c1bd 2719 e3bd 774b a33d
000001b0: 8558 9a3d 1da4 b93d c8f4 f23c 1048 b0bd
000001c0: e68c 913d 6ea0 f8bd 3b3c a1bd c8f1 b83d
000001d0: ef57 bc3d 4ebd 4a3d 1e3c 3e3d d575 d53d
000001e0: 20e4 94bd 7b82 203d c139 8abd b117 12be
000001f0: 4c09 913d f1fa bf3b e38a c0bd f4a6 ea3b
00000200: 64cf 71bd 6bfa 523d 4c2b ba3d 1eff 963c
00000210: c78d d4bd 487f d03c 0261 9dbd 1122 f6bd
00000220: 3181 2b3d 7003 94bd 4f56 d7bc 6a8a a8bd
00000230: 788e 04be 3d65 c93c b84a 403e 1529 cabd
00000240: 9821 c0bd 0900 56bc 4193 f8bc c56e 22bd
00000250: 155b b73d 1725 8bbd 07cb 70bd bcab e4bd
00000260: 17e9 b33d 2c7d c1bd 7d13 afbd d48d 3b3d
00000270: 1079 1f3d cf9d 6f3d 537a af3d 3382 fabb
00000280: a660 2abd 3068 193d 7b74 543d e177 d73d
00000290: 3269 8cbd 4fa1 b73d d1b8 79bd 5d40 3cbc
000002a0: ebb9 ab3d 0db8 253d 420d 173d e244 c93d
000002b0: 2441 1a3d 06d1 163d 2981 3cbe 9f0b bc3d
000002c0: 8e9d dbb9 0aae 84bd 1697 1c3d ccdc a83d
000002d0: 15a0 17be 7aaf a53d 326b 0abd f4e6 033e
000002e0: 9d22 d73d 3a56 e03c 2a34 013e 0da7 c8bc
000002f0: 4bb2 a93d b80a c7bd 2c29 10be 5bb8 5d3d
00000300: bcea f3bd 3e55 20be 2339 523d 8483 3c3d
00000310: 5907 43bd 7f09 ab3d 55ad 7e3d dcb9 543d
00000320: 43f6 18bc f2f4 75bd e80e c2bd 3d12 d13c
00000330: 95c9 01be db9c c8bb 850e 133d 229c 22bd
00000340: 9cba 223e f5dd 3dbd c4f1 b9bd fa19 e0bd
00000350: 922c debd 38f5 8dbd b374 fabd 7611 3ebd
00000360: 5417 9a3d e06b a93d 0a7a 743d 19ef 81bd
00000370: a8f7 3abd 3796 50bc aa35 d23d 12dc 493d
00000380: f671 8cbd 06ad b83d 4e46 d43d 1de8 0ebc
00000390: fa10 3fbe c09e 12be 1bf5 2abd 65b3 a7bd
000003a0: 7ddf e7bd 64e2 c23d cf88 d53d bcc6 a73d
000003b0: 77c3 9cbc 6ee1 80bd 50da 01bd 0617 25bd
000003c0: f703 d1bc 99a8 adbd d22a 54bd 3069 24bd
000003d0: c409 ef3d ec85 a4bd 95c5 9ebd ffdf cbbd
000003e0: c996 1e3e fa6c 1e3c 5397 ff3d dea8 d0bd
000003f0: ecae 3e3d 0a4e 68bd c580 a53d 6c61 49bd
-0.1639939 -0.051109534 0.09954818 -0.012733392 -0.05115753 0.048424296 0.034642804 0.06988262
-0.044354476 -0.09300261 0.032991987 0.04808291 0.072991244 0.018066116 -0.11856485 -0.11249876
0.05089608 0.015658973 0.13943435 0.122356005 -0.04950051 -0.081914276 -0.10256676 -0.06867921
0.07637955 -0.053671632 -0.16621229 0.078471705 0.07381667 0.09878577 -0.018355513 0.12485947
-0.061227713 0.00441517 -0.058769424 0.055473685 0.09599027 0.110257715 -0.009064944 -0.0010665007
-0.008580762 -0.020684699 0.036852606 -0.019076277 0.07905385 -0.02080854 -0.06630637 0.13401537
-0.013980318 0.109121874 -0.14343224 -0.028664004 -0.009315946 -0.10672216 -0.004822501 0.08168564
0.068721496 0.009843932 -0.09011234 -0.02422983 0.01511278 0.05233171 -0.13892844 -0.0545639
-0.062023748 -0.0699859 -0.07717512 0.021635821 0.06569792 -0.008548928 0.09191206 -0.0959728
-0.077756256 -0.0021579647 0.016963072 0.1428443 0.095424496 -0.07123744 -0.063354686 -0.09503357
0.021705493 -0.17063357 -0.016701153 -0.09787787 0.07285032 -0.10347072 -0.08594256 0.08614251
-0.10837008 -0.08521672 0.022157162 0.069142304 0.15214062 0.12958242 -0.031947143 -0.007510129
-0.11939722 0.10777883 0.11103141 -0.023318348 -0.13000235 -0.06753374 0.018389365 0.073300615
-0.06977031 -0.094442606 -0.11088782 0.07973378 0.07536415 0.09064505 0.029657736 -0.08607495
0.07106952 -0.121399745 -0.07872816 0.09030491 0.091964595 0.04949694 0.04644405 0.10422865
-0.07270074 0.039186936 -0.06749297 -0.1426685 0.07081851 0.005858772 -0.094014905 0.0071610156
-0.059035674 0.05150835 0.090902895 0.018432196 -0.103786044 0.025451317 -0.076845184 -0.120182164
0.041871253 -0.07227218 -0.026286272 -0.082295254 -0.12944973 0.024584407 0.18778503 -0.09871117
-0.093814075 -0.013061532 -0.030343654 -0.03965642 0.089529194 -0.06794184 -0.058787372 -0.11165568
0.08784693 -0.09447703 -0.08548639 0.045789555 0.038933814 0.058500107 0.08568253 -0.0076449155
-0.041596077 0.037452877 0.051868897 0.10520912 -0.06856002 0.08966314 -0.06096727 -0.011489955
0.083850704 0.040458728 0.036877878 0.098275915 0.03765978 0.036820434 -0.18408646 0.09181904
-0.00041888322 -0.06478508 0.038230024 0.08245239 -0.1480716 0.0809011 -0.033793636 0.1288107
0.10504649 0.027384866 0.12617555 -0.024493719 0.0828596 -0.09718841 -0.14078206 0.054130893
-0.119100064 -0.15657517 0.05132402 0.04602386 -0.04761443 0.083514206 0.06217702 0.05193506
-0.009336057 -0.06004805 -0.094754994 0.025521392 -0.12674554 -0.0061222143 0.03590252 -0.03969968
0.15891498 -0.046354253 -0.09079316 -0.10942455 -0.10848345 -0.069315374 -0.1222929 -0.04640337
0.07523981 0.08272529 0.059686698 -0.063444324 -0.04564634 -0.0127311265 0.10264142 0.04928214
-0.06857674 0.090173766 0.10364972 -0.008722332 -0.1865882 -0.14318371 -0.041737657 -0.08188514
-0.11321924 0.09515837 0.10426485 0.081922024 -0.019136174 -0.06292997 -0.03170234 -0.04030516
-0.025514586 -0.08479423 -0.05179865 -0.040139377 0.116717845 -0.08033356 -0.077525295 -0.09954833
0.15487207 0.009669537 0.12480035 -0.10188459 0.046553537 -0.05671505 0.080812015 -0.049165174

layer2.6.bias f4 [7]
00000000: dea9 a9bf 6c92 27bf 5159 2dbf 5867 4fbf
00000010: 45c5 82be 4c15 963e ec6c 7e3f
-1.3254964 -0.654578 -0.6771441 -0.81017065 -0.2554113 0.29313123 0.9938495
