Saved_data_files/bpi_no_repeat/lr_all_variants/laplacianOnWeighted/EventPredictor_parameters_laplacianOnWeighted_0.001.pt (torch, 280597 bytes, 8 tensors)

layer1.weight f4 [4, 1]
0.7088577 -1.4641229 0.2443032 1.8590401
00000000: b377 353f 6168 bbbf 9e2a 7a3e 07f5 ed3f

layer1.bias f4 [6]
0.26715764 -0.051460084 -1.1392 -0.019540267 -0.57542855 -0.0643913
00000000: e3c8 883e cfc7 52bd 4ed1 91bf e912 a0bc
00000010: 494f 13bf 96df 83bd

layer2.1.weight f4 [256, 6]
-0.24231108 1.7093627 2.2308707 -0.78692544 2.3961093 1.4167556 0.252932 -1.8053641
-2.533131 0.09593614 -2.0434027 -3.1576123 0.36825767 -0.88908505 1.5278842 0.8092624
-0.7704172 0.07550573 -0.9101071 -2.0052087 -0.028430648 -0.22551674 -0.2555135 -0.81793857
-0.39466244 1.0234113 -0.2358446 -0.8997036 0.35456142 -0.36675858 -0.41721365 -0.63842034
0.05457375 -1.1446402 1.2772895 0.50125444 0.39153817 -0.45775744 -0.9832817 -0.034037154
0.32317978 -0.7745327 0.9767296 0.618408 -0.80062056 -0.2650357 1.2344339 0.43440172
0.7054006 0.24732013 -0.67653126 0.25747585 0.92826617 0.6745595 1.05255 1.6261073
-1.1233115 0.015346984 0.8954713 0.25740296 0.10958463 -1.3407775 1.2422103 0.08717927
0.522515 1.3283848 -0.29643488 1.5399756 2.3101804 0.7333471 2.2687664 3.2928197
0.3392841 0.5753748 -1.8270799 -2.3930812 -0.9253985 0.017444035 0.790572 -0.13381445
-0.48714882 -1.6302494 0.044813767 -0.40109554 -0.41537642 -0.96165496 -0.3604307 -1.0107176
-0.01742858 0.34302557 0.14574459 -0.63707167 1.6928893 0.7075676 -0.05405348 -0.33688256
0.2592813 0.2540895 2.5636208 -1.6542293 2.3021765 1.9046077 -1.0444255 -0.5852182
0.43925148 1.0972078 -0.46518022 -0.50683737 0.556587 0.89104897 0.29594263 0.057897758
-0.6631101 0.9027216 -0.42364052 -1.4081467 0.1506824 -0.07942838 -1.148475 -0.38199934
1.0199437 -0.20930007 -0.13136049 -1.8906542 -0.008600541 3.7630816 0.9028659 0.044991672
-3.0021913 0.22421974 -5.6303225 0.0593144 0.5833324 1.1599617 -2.0529532 -1.2592883
-3.6677852 -1.3862458 0.33574238 0.113399595 0.26423836 -0.30933583 -0.105267495 -1.5842059
-0.58047235 -2.7971706 -0.037702803 0.42532858 0.97812074 0.29970464 -0.08132128 -0.030131187
0.02447014 0.5693881 0.83872503 -1.6653534 0.48885176 2.2776499 -0.072994225 -1.6995687
-1.1571193 0.8398088 -0.22668424 -0.16071303 0.72479296 -0.0034135766 -0.613477 -0.12847911
-0.8067312 0.16229458 0.8917576 0.8208926 3.0596333 2.7291977 -0.50295246 0.08313743
0.46439633 1.7313274 1.2493607 -1.9730091 -0.41578785 0.2116031 -0.07122371 -0.5144947
1.1088895 0.2875278 0.43739012 0.043771267 -1.3486958 1.4493421 0.95649827 -2.2962513
-0.16898933 -0.33035374 -3.2115672 0.76290804 -5.271863 -0.47304985 0.02963868 1.0699779
-0.5812578 1.0775453 -0.21582383 -2.922893 -0.53907806 -0.71322626 0.31770384 -0.9267719
-0.21235757 1.7767164 -0.73428136 -0.16924755 -1.0630475 -0.9614189 0.7496173 -0.018951215
0.4655719 -0.0047481195 0.18298757 -0.58373487 0.24943309 -1.9063452 0.5013364 0.04309792
-0.33270478 -2.2003345 -0.5938228 3.4196599 -0.37576798 -0.37857094 0.7825417 -1.1376657
1.5963802 2.3657994 0.03272149 -0.18844351 -0.7021026 0.34895268 0.933159 0.2924457
0.17013112 -0.19075559 -0.17455718 1.7962141 -1.3722469 -0.9908401 0.7623277 1.5333543
0.02960748 -0.45091015 -0.3687483 0.21903177 -0.35362378 0.08991213 -0.67760426 1.0646442
00000000: 6520 78be 66cc da3f 96c6 0e40 f273 49bf
00000010: db59 1940 3f58 b53f 4e80 813e 2c16 e7bf
00000020: d11e 22c0 2b7a c43d 1cc7 02c0 5216 4ac0
00000030: 458c bc3e 149b 63bf b691 c33f d22b 4f3f
00000040: 103a 45bf c0a2 9a3d c7fc 68bf 5755 00c0
00000050: 64e7 e8bc dced 66be aad2 82be 6c64 51bf
00000060: 3211 cabe 24ff 823f 3f81 71be fa52 66bf
00000070: 1389 b53e c8c7 bbbe 079d d5be 846f 23bf
00000080: b988 5f3d 9283 92bf 397e a33f 3652 003f
00000090: b177 c83e 2f5f eabe 59b8 7bbf 8b6a 0bbd
000000a0: d277 a53e c647 46bf f30a 7a3f fd4f 1e3f
000000b0: 78f5 4cbf c2b2 87be ee01 9e3f e769 de3e
000000c0: 2295 343f 7d41 7d3e 2731 2dbf e0d3 833e
000000d0: daa2 6d3f eeaf 2c3f f5b9 863f 4924 d03f
000000e0: acc8 8fbf eb71 7b3c 9b3d 653f 52ca 833e
000000f0: e86d e03d 999e abbf bf00 9f3f 0c8b b23d
00000100: 8bc3 053f 8308 aa3f 50c6 97be ec1d c53f
00000110: ffd9 1340 a3bc 3b3f 7833 1140 8fbd 5240
00000120: a5b6 ad3e c34b 133f c1dd e9bf 3e28 19c0
00000130: ebe6 6cbf cbe6 8e3c ed62 4a3f a806 09be
00000140: 926b f9be 03ac d0bf a48e 373d 655c cdbe
00000150: 38ac d4be 052f 76bf 5f8a b8be 325f 81bf
00000160: 62c6 8ebc 0ca1 af3e 123e 153e 2117 23bf
00000170: 99b0 d83f 2623 353f 2f67 5dbd df7b acbe
00000180: 85c0 843e 0518 823e 5d12 2440 c9bd d3bf
00000190: dc56 1340 2fca f33f bcaf 85bf dcd0 15bf
000001a0: 92e5 e03e 4e71 8c3f 1a2c eebe 18c0 01bf
000001b0: 7c7c 0e3f c91b 643f cb85 973e 3326 6d3d
000001c0: 95c1 29bf c318 673f 69e7 d8be 273e b4bf
000001d0: 7d4c 1a3e 59ab a2bd 3b01 93bf 6b95 c3be
000001e0: 848d 823f c252 56be 5d83 06be f500 f2bf
000001f0: 49e9 0cbc 54d6 7040 3822 673f 3049 383d
00000200: e723 40c0 dc99 653e 9a2b b4c0 a8f3 723d
00000210: 4655 153f a079 943f 9663 03c0 5c30 a1bf
00000220: febc 6ac0 8170 b1bf 6de6 ab3e 0c3e e83d
00000230: 404a 873e 4461 9ebe 7c96 d7bd 42c7 cabf
00000240: d699 14bf d804 33c0 416e 1abd abc4 d93e
00000250: 1f66 7a3f e372 993e c58b a6bd aed5 f6bc
00000260: 9a75 c83c 6bc3 113f afb6 563f 4d2a d5bf
00000270: c74a fa3e 04c5 1140 ff7d 95bd 788b d9bf
00000280: 7c1c 94bf b6fd 563f ea1f 68be f591 24be
00000290: 088c 393f 50b6 5fbb d40c 1dbf 0790 03be
000002a0: f085 4ebf 8d30 263e 3a4a 643f 0426 523f
000002b0: 08d1 4340 2dab 2e40 7ec1 00bf f543 aa3d
000002c0: 5bc5 ed3e 239c dd3f 0deb 9f3f 908b fcbf
000002d0: 25e2 d4be 7cae 583e bddd 91bd edb5 03bf
000002e0: 17f0 8d3f d836 933e 99f1 df3e 8049 333d
000002f0: 10a2 acbf 0b84 b93f 12dd 743f c8f5 12c0
00000300: 8a0b 2dbe 2024 a9be 518a 4dc0 f14d 433f
00000310: 1ab3 a8c0 9733 f2be d1cc f23c 09f5 883f
00000320: 50cd 14bf 01ed 893f ec00 5dbe ae10 3bc0
00000330: 0501 0abf ff95 36bf 14aa a23e ec40 6dbf
00000340: 4374 59be 716b e33f ddf9 3bbf 3b4f 2dbe
00000350: f111 88bf 8d1f 76bf ebe6 3f3f 943f 9bbc
00000360: 715f ee3e 1d96 9bbb 1861 3b3e a66f 15bf
00000370: 636b 7f3e 1f03 f4bf 9557 003f 7287 303d
00000380: 4858 aabe 48d2 0cc0 c504 18bf b5db 5a40
00000390: a964 c0be 0dd4 c1be a754 483f 089f 91bf
000003a0: 3056 cc3f 4269 1740 f806 063d 56f7 40be
000003b0: ffbc 33bf eda9 b23e 82e3 6e3f 71bb 953e
000003c0: da36 2e3e 6f55 43be 1ebf 32be 58ea e53f
000003d0: c9a5 afbf b2a7 7dbf e827 433f f444 c43f
000003e0: 638b f23c b2dd e6be 94cc bcbe dd49 603e
000003f0: 2d0e b5be da23 b83d 7977 2dbf 4346 883f

layer2.1.bias f4 [256]
0.44546416 -0.35912535 -3.6081476 0.11930632 2.7222373 0.28668943 0.31721067 2.1306355
1.7696787 3.4915972 -0.9969957 0.52293247 2.4344833 5.3760843 -3.4463687 -3.8582325
-0.027995674 -0.72682726 -0.66874677 -0.7013957 -3.3456638 -1.5877336 -0.33770669 3.100558
1.1954718 2.8404021 -0.70188206 -3.7760057 0.8096215 3.1175835 3.0660334 2.5773118
-0.73246837 0.53648585 -0.6163648 0.9011096 2.0709953 -2.6107855 -1.0181566 4.1462474
1.2562315 -1.5351902 -3.9082434 -0.35157222 -0.8228651 -0.96057576 0.95919853 -0.7451796
2.0690756 -0.85604596 0.26999417 -4.085342 1.0013562 -1.3149906 -4.22766 -2.602849
1.0058976 -0.31285775 -0.56274444 -0.46476552 2.4127386 -1.4781599 2.412827 1.4856476
-0.6201681 2.2989285 -1.0198239 -0.00667494 -3.178392 -0.4169497 -3.1135898 -1.2311621
-0.6677534 -5.2396626 -2.5137908 0.38362423 0.007998886 1.6258544 0.49186897 0.7998112
-1.1647066 1.5780634 2.299757 -0.10433245 -0.88068753 -1.4088299 1.6171916 0.111701615
-4.613354 1.4819162 -1.1104571 -2.9057105 2.183479 -3.5775163 -0.9475006 -2.5056505
3.445825 -2.944773 3.9310102 2.1078532 -0.124448605 -3.7335098 2.0103903 -3.7557847
-0.6500326 1.5770947 -2.007698 1.5109917 3.7757995 1.6559867 2.8562353 4.940073
3.7585266 3.07059 0.9266059 -4.320755 0.20709461 1.2537678 -0.0061362917 2.3157656
0.26539952 -0.526014 1.3622911 -1.110325 2.8235285 0.81053525 0.5884991 -3.4833674
3.4657698 0.87528825 -3.5287392 0.42713478 -0.8984767 0.9586495 0.85233474 -0.7584354
-5.714337 -1.3827791 -0.04946779 -0.82658213 -4.343804 -4.6027255 -2.2450032 2.9646578
-0.41440263 3.560565 4.261541 -1.5453374 2.7475488 -1.237617 3.757008 -3.6035075
4.101986 -1.6528002 4.1996937 2.9717753 1.3073312 -1.534598 -4.301319 -1.3868372
-1.1702408 -1.1008939 0.66223633 0.26082045 1.1499391 -2.5433967 -2.7746549 -2.0124981
-0.031654686 -0.47318223 -4.25912 0.48401925 1.3105388 3.511792 -0.36723158 -0.02969554
0.031265523 0.49784726 -1.0700816 -0.9755352 -0.059930123 3.2113984 0.673731 1.1615366
-2.398123 3.0870852 -3.1590848 -0.4978411 4.9348617 -2.1100132 -0.17356926 2.696175
0.8350577 -0.721112 2.081426 -3.4816854 2.3111901 0.0022357455 1.3879297 -0.56676733
2.8552089 1.3710681 -2.009841 -1.5961447 -0.16503993 -0.5962766 0.1636743 3.3659487
-1.3464582 1.1991085 0.15852927 2.2739372 -0.28084013 -3.5139647 0.7524555 0.25945646
1.9456334 -0.7806191 3.182918 -3.1125326 -0.5720921 0.61454195 0.88544023 3.1676548
-2.662535 -2.7513971 1.2504463 -2.9281132 -3.596245 -1.0767713 -4.040394 1.4413071
-0.3828518 2.1598768 -2.3644607 1.3540536 3.8453898 -0.19305825 3.8904297 0.20448422
-2.689021 -0.67110294 -2.9012215 -0.27121437 0.9991302 -0.53556436 -2.9957645 -1.8709183
0.69119066 3.7588942 -2.2072082 1.8912699 0.072001986 3.7107103 0.76712483 0.09439384
00000000: e113 e43e 47df b7be e4eb 66c0 df56 f43d
00000010: 2339 2e40 f5c8 923e 7069 a23e 555c 0840
00000020: d584 e23f 5476 5f40 1c3b 7fbf e7de 053f
00000030: 93ce 1b40 e208 ac40 4e91 5cc0 48ed 76c0
00000040: 2f57 e5bc 5a11 3abf fd32 2bbf ab8e 33bf
00000050: 5b1f 56c0 db3a cbbf e4e7 acbe 8b6f 4640
00000060: 3805 993f 26c9 3540 8bae 33bf 14aa 71c0
00000070: 5b43 4f3f 7d86 4740 e439 4440 adf2 2440
00000080: 0c83 3bbf 2357 093f 15ca 1dbf 1eaf 663f
00000090: 308b 0440 1c17 27c0 f552 82bf 0fae 8440
000000a0: 32cc a03f 1d81 c4bf a920 7ac0 4601 b4be
000000b0: 4aa7 52bf 4be8 75bf 098e 753f 17c4 3ebf
000000c0: bc6b 0440 d425 5bbf ad3c 8a3e 1fbb 82c0
000000d0: 712c 803f 9d51 a8bf fe48 87c0 1495 26c0
000000e0: 41c1 803f e42e a0be 0510 10bf bff5 edbe
000000f0: 4f6a 1a40 5834 bdbf c26b 1a40 b329 be3f
00000100: 56c3 1ebf a521 1340 9789 82bf 75b9 dabb
00000110: c66a 4bc0 6e7a d5be 0e45 47c0 b896 9dbf
00000120: e3f1 2abf 51ab a7c0 f3e1 20c0 656a c43e
00000130: c20d 033c ff1b d03f 40d6 fb3e 6dc0 4c3f
00000140: 1b15 95bf fbfd c93f 382f 1340 40ac d5bd
00000150: bd74 61bf 8a54 b4bf 2200 cf3f d1c3 e43d
00000160: 99a0 93c0 6eaf bd3f 7523 8ebf 29f7 39c0
00000170: 1fbe 0b40 07f6 64c0 668f 72bf 945c 20c0
00000180: 6688 5c40 2977 3cc0 ac95 7b40 11e7 0640
00000190: e9de febd d3f1 6ec0 3caa 0040 c75e 70c0
000001a0: 8968 26bf 3dde c93f 207e 00c0 2d68 c13f
000001b0: b3a6 7140 5ff7 d33f 8fcc 3640 1415 9e40
000001c0: b38b 7040 8c84 4440 0b36 6d3f a043 8ac0
000001d0: 9c10 543e 777b a03f f212 c9bb 8135 1440
000001e0: 72e2 873e daa8 06bf 8e5f ae3f 211f 8ebf
000001f0: b1b4 3440 3d7f 4f3f e1a7 163f 7eef 5ec0
00000200: 2ccf 5d40 e412 603f ddd6 61c0 69b1 da3e
00000210: 9202 66bf 0e6a 753f 9c32 5a3f d328 42bf
00000220: d9db b6c0 e8fe b0bf bd9e 4abd e39a 53bf
00000230: 7100 8bc0 8749 93c0 22ae 0fc0 f4bc 3d40
00000240: 952c d4be 4ce0 6340 8b5e 8840 9ecd c5bf
00000250: d7d7 2f40 3c6a 9ebf d272 7040 de9f 66c0
00000260: 7843 8340 f58e d3bf e463 8640 9131 3e40
00000270: a156 a73f b56d c4bf 68a4 89c0 e283 b1bf
00000280: 73ca 95bf 17ea 8cbf 5288 293f 428a 853e
00000290: 3431 933f 03c7 22c0 f293 31c0 c5cc 00c0
000002a0: 58a8 01bd f144 f2be b64a 88c0 5fd1 f73e
000002b0: bcbf a73f 33c1 6040 c705 bcbe 1044 f3bc
000002c0: 4710 003d d6e5 fe3e 6ff8 88bf adbc 79bf
000002d0: 4a79 75bd 8d87 4d40 a379 2c3f 3bad 943f
000002e0: d97a 19c0 ce92 4540 722e 4ac0 07e5 febe
000002f0: 63ea 9d40 750a 07c0 24bc 31be 228e 2c40
00000300: 57c6 553f cc9a 38bf 1536 0540 efd3 5ec0
00000310: 8aea 1340 9685 123b aea7 b13f aa17 11bf
00000320: bebb 3640 297f af3f 3ca1 00c0 784e ccbf
00000330: 3a00 29be 95a5 18bf 3c9a 273e b46b 5740
00000340: be58 acbf 637c 993f 7f55 223e 3088 1140
00000350: 47ca 8fbe cce4 60c0 eca0 403f 7ad7 843e
00000360: 840a f93f a7d6 47bf eeb4 4b40 bc33 47c0
00000370: a174 12bf 9f52 1d3f 36ac 623f dbba 4a40
00000380: f966 2ac0 e416 30c0 a00e a03f 3566 3bc0
00000390: e128 66c0 a4d3 89bf e84a 81c0 c07c b83f
000003a0: 2705 c4be 6c3b 0a40 5353 17c0 a151 ad3f
000003b0: de1a 7640 10b1 45be cdfc 7840 5064 513e
000003c0: ec18 2cc0 67cd 2bbf 9dad 39c0 9cdc 8abe
000003d0: ffc6 7f3f bf1a 09bf 9bba 3fc0 407a efbf
000003e0: dff1 303f b991 7040 e642 0dc0 2215 f23f
000003f0: c775 933d 477c 6d40 4b62 443f 8f51 c13d

layer2.3.weight f4 [256, 256]
-1.153255 -0.9107856 -0.8838423 0.39435104 1.9456123 -0.32589307 -0.99878824 0.5000688
0.03091757 1.135635 1.1912618 -0.21338397 1.1121296 0.30974126 -0.14190027 -1.7697855
-0.6818294 0.048452623 -0.23159982 -0.032672223 -1.0385734 0.78702295 1.0013195 -0.7359091
-0.5601498 -0.18912685 -0.3387266 -0.784668 -0.8941283 1.0554034 1.2133484 0.37412268
-0.2412469 0.5134869 0.0024741744 1.4513007 -0.382212 -0.3645789 -0.53732663 -0.49982142
-0.5364835 -2.0466237 -1.2801529 1.1234256 -0.20619911 0.6395428 2.3516762 0.18503214
-0.07926046 -0.5079867 -0.36472285 -1.2030416 0.56078935 -0.23341712 -0.6338138 -0.08205736
-0.74860126 1.2728419 0.26098606 0.86735594 0.40495765 0.6690859 0.5321803 0.96444046
0.58603287 0.96074325 -1.0447817 -0.41106653 -1.5845778 1.5761292 0.32523766 -0.42652246
-1.0031794 -1.1229182 -1.1397489 -0.37916335 -0.76337373 -0.5866046 0.15258224 0.5757128
0.77109754 1.942846 1.0500613 -0.5928372 -1.9964017 -1.4277445 1.172684 -0.1546444
0.10047545 -0.5711095 0.96313435 0.1769513 1.3078617 -1.2458045 -0.4022738 -1.1688175
1.6147246 -1.370356 0.9779917 0.8096249 -0.5769138 0.42297888 0.7675211 -1.8925656
-0.110921115 -1.2343503 -0.20662254 0.07108648 1.2583263 1.1310673 1.3259078 1.0744747
-0.55418164 -0.15496422 -0.58929443 -0.9139204 -0.32773256 0.05157258 0.63719785 -0.11283297
0.44890255 0.31744668 0.46517718 -0.5228992 -1.2923758 -1.4859759 -0.48758268 -1.6083536
1.0094106 -1.0961277 -0.78197724 -1.2895449 0.26271242 0.26457372 -0.1667121 0.14582866
-1.2854007 -0.06800897 0.4119915 -0.6234497 -0.7106965 -0.4751347 0.78881484 2.2522109
-0.0038212093 0.39512393 0.5966889 0.54941463 0.129634 -0.18313171 -0.80567396 -1.3098413
-0.03670136 -0.19404142 0.17640679 0.22121397 0.8853859 -0.03923479 -1.4065789 -1.8233399
-1.2039928 0.7915342 -0.09658416 0.016925184 -0.5010593 -0.31068406 -0.83923334 -0.58550864
0.9527544 -0.4079768 -0.6034405 -0.43434605 -1.2923799 1.6146225 -0.2928658 -0.26322544
-0.6330317 0.18355538 0.14946416 0.45574054 -0.5315091 1.0022107 -0.16255581 -1.0656192
-1.4074925 1.3601288 -0.27599907 0.7872425 -1.167675 0.21149714 -0.43991885 0.06980188
-0.9130301 -1.2034619 -0.9876408 0.30180302 0.7063276 1.0343407 2.7081242 -0.22609206
0.9230521 2.1285038 -1.8160943 -0.6303072 -0.40231186 2.5562844 0.002532811 1.7501951
1.0790039 -0.29087925 -0.1647118 0.08412693 1.1375303 -0.6210684 0.8982295 0.6589149
0.72346693 -0.15446681 1.8746295 -0.44344208 -0.9597774 0.055306714 -1.6759663 1.3052771
0.33655372 -0.95714045 1.3518474 -1.3029081 -1.3952284 0.1077522 -1.6396971 0.27642268
-2.0030217 -0.3191726 -0.071892805 0.77303857 0.3235383 0.39444786 1.4835696 0.47184137
-0.07971404 -0.25505167 -0.9441817 -0.60264724 -0.9593662 0.88266367 0.87437946 -0.38691851
-0.26310298 0.33472148 -0.077887155 0.29985633 -0.6989949 1.6122711 0.6541363 0.6332895
00000000: dc9d 93bf 3f29 69bf 7d43 62bf 61e8 c93e
00000010: d309 f93f 75db a6be 96b0 7fbf 8204 003f
00000020: d846 fd3c 7d5c 913f 447b 983f 5481 5abe
00000030: 435a 8e3f 6896 9e3e 4e4e 11be 5588 e2bf
00000040: 5f8c 2ebf 4276 463d 8128 6dbe 4fd3 05bd
00000050: f9ef 84bf 567a 493f 3d2b 803f 8a64 3cbf
00000060: fa65 0fbf 78aa 41be 936d adbe 01e0 48bf
00000070: 98e5 64bf 7517 873f 004f 9b3f 028d bf3e
00000080: 6d09 77be e173 033f c225 223b 39c4 b93f
00000090: 4bb1 c3be 16aa babe 3d8e 09bf 98e8 ffbe
000000a0: fc56 09bf e2fb 02c0 0ddc a3bf 69cc 8f3f
000000b0: dc25 53be 14b9 233f dd81 1640 1179 3d3e
000000c0: 4f53 a2bd 6b0b 02bf f4bc babe 44fd 99bf
000000d0: e48f 0f3f e604 6fbe 9f41 22bf b00d a8bd
000000e0: 55a4 3fbf 7cec a23f f79f 853e 0a0b 5e3f
000000f0: 9c56 cf3e 3749 2b3f f83c 083f 92e5 763f
00000100: 4006 163f 45f3 753f 68bb 85bf 5077 d2be
00000110: 72d3 cabf 9abe c93f 8d85 a63e 2761 dabe
00000120: 2f68 80bf c9bb 8fbf 4be3 91bf b321 c2be
00000130: 766c 43bf b82b 16bf 853e 1c3e ea61 133f
00000140: a666 453f 2daf f83f 6968 863f 2ec4 17bf
00000150: 178a ffbf 55c0 b6bf 821a 963f 1a5b 1ebe
00000160: 13c6 cd3d 3b34 12bf f98f 763f b932 353e
00000170: 0368 a73f 8676 9fbf d5f6 cdbe d09b 95bf
00000180: 4caf ce3f d367 afbf aa5d 7a3f 9443 4f3f
00000190: 9fb0 13bf b090 d83e 437c 443f 973f f2bf
000001a0: 9c2a e3bd 31ff 9dbf dc94 53be ca95 913d
000001b0: d610 a13f d0c6 903f 59b7 a93f 6388 893f
000001c0: d9de 0dbf f1ae 1ebe 00dc 16bf b0f6 69bf
000001d0: 90cc a7be c53d 533d 661f 233f f914 e7bd
000001e0: 8ed6 e53e 5f88 a23e b42b ee3e b9dc 05bf
000001f0: 926c a5bf 7534 bebf 70a4 f9be 88de cdbf
00000200: 5e34 813f ea4d 8cbf a92f 48bf cf0f a5bf
00000210: 3e82 863e 3576 873e 94b6 2abe 1c54 153e
00000220: 0388 a4bf 4948 8bbd 8df0 d23e 669a 1fbf
00000230: 35f0 35bf db44 f3be c5ef 493f 3924 1040
00000240: 416d 7abb af4d ca3e 9bc0 183f 70a6 0c3f
00000250: c6be 043e e186 3bbe a640 4ebf e1a8 a7bf
00000260: 2a54 16bd cbb2 46be fba3 343e ea85 623e
00000270: a6a8 623f a9b4 20bd c70a b4bf 3463 e9bf
00000280: 701c 9abf fca1 4a3f ebcd c5bd afa6 8a3c
00000290: 6c45 00bf fb11 9fbe ffd7 56bf e5e3 15bf
000002a0: b6e7 733f 56e2 d0be 147b 1abf 9b62 debe
000002b0: b46c a5bf f3ab ce3f 82f2 95be 7cc5 86be
000002c0: 5e0e 22bf f1f5 3b3e 220d 193e d356 e93e
000002d0: fb10 08bf 7148 803f 0875 26be 3666 88bf
000002e0: b728 b4bf b318 ae3f c04f 8dbe b988 493f
000002f0: 6076 95bf b592 583e 0b3d e1be 4af4 8e3d
00000300: 57bc 69bf 0a0b 9abf 07d6 7cbf ed85 9a3e
00000310: e3d1 343f 4765 843f e851 2d40 ad84 67be
00000320: 244d 6c3f 6839 0840 c775 e8bf d05b 21bf
00000330: d2fb cdbe 2a9a 2340 84fd 253b 6506 e03f
00000340: cd1c 8a3f 20ee 94be 36aa 28be bd4a ac3d
00000350: 989a 913f 57fe 1ebf 5ef2 653f a6ae 283f
00000360: 2135 393f 8c2c 1ebe dcf3 ef3f d70a e3be
00000370: f9b3 75bf 4b89 623d 1086 d6bf 5213 a73f
00000380: c550 ac3e 2807 75bf 5609 ad3f b1c5 a6bf
00000390: d896 b2bf 2fad dc3d 98e1 d1bf 4687 8d3e
000003a0: 8231 00c0 976a a3be 893c 93bd dbe5 453f
000003b0: d0a6 a53e 12f5 c93e 9ce5 bd3f 3195 f13e
000003c0: 1d41 a3bd 2296 82be e4b5 71bf 1747 1abf
000003d0: 0699 75bf 3ff6 613f 55d7 5f3f 2f1a c6be
000003e0: 6fb5 86be 9d60 ab3e 4d83 9fbd c586 993e
000003f0: 54f1 32bf e65e ce3f 7a75 273f 431f 223f

layer2.3.bias f4 [256]
5.017535 0.5784508 -3.4154942 3.608319 1.9583383 -0.8491639 -1.8414482 9.411088
0.44724527 4.049381 -0.90814257 -5.0716496 4.895534 0.2644565 -4.674756 -0.71920276
1.3795133 0.37159362 -1.8118961 8.5641775 -2.9027429 -5.7754207 -1.3362718 -1.4259125
2.2579951 2.4628673 -1.6954744 -0.5548344 -5.577034 -0.38329923 4.946514 -7.588568
-1.7246249 -6.0756054 1.2729806 -3.9046683 13.035179 1.8364837 -12.434093 -3.4907968
-3.9680054 -1.1884705 4.6059055 -0.8935207 0.1578348 -4.2885113 -10.5560875 -0.14999579
6.369233 0.10366485 2.2201848 0.38602614 -2.0470583 -5.7329288 0.058288727 -10.604805
0.805933 1.801765 -0.9567887 2.6309578 0.95856094 -1.9520813 11.4339 -2.141825
-1.6565704 -3.3996484 3.1714923 -0.8232028 -3.801106 4.105208 2.596554 -6.9605665
4.036608 4.2585583 0.6294855 -1.1747963 6.126784 -7.187734 -8.704161 5.017821
-0.3311786 1.3640486 -6.0161204 1.7698368 -0.922964 1.2718959 -0.25929594 2.2531066
-9.666222 1.5317099 1.3509679 -0.88129324 -2.136963 3.2190266 -2.883778 -5.9171615
-4.858558 2.1373665 3.2458181 3.439202 4.7896843 1.8228201 2.5819054 -0.42988545
2.5828707 -0.090033315 -0.27509946 -0.4850363 3.9546463 -3.8450255 -2.0432265 -1.3585473
2.5201485 -4.610054 -3.7219307 0.025026469 -0.08149372 -4.565183 4.102238 1.3496735
-2.1233253 0.36437348 2.579766 -7.0428243 -1.5727494 0.9070703 3.805965 0.9563127
-4.319359 3.1851668 0.0832115 1.7790991 -4.4203234 2.3030314 -8.289203 -0.11388326
-0.800035 12.21077 0.8741663 8.7069 -1.7006568 -0.91884327 -0.8975142 1.5952475
1.5920913 1.3826953 11.81712 10.27577 -1.0871329 2.0969815 -5.910034 0.48900336
0.5772357 -0.6236498 0.41190165 -2.0853002 1.7158273 1.4067678 1.1799738 1.8267304
4.84615 2.4417303 -0.66641474 -0.03289883 -2.2109756 2.176025 4.4469213 -0.25727603
-1.7750578 6.5216613 0.45680276 0.43707222 0.63955957 2.18294 8.529492 -1.3181064
0.53513545 -1.9806318 -0.08675203 -11.07155 4.101431 -2.6718204 -1.5159816 1.9509876
-6.5254602 -8.326732 -0.07300814 1.7208253 3.8437293 -1.8573616 2.5640533 -1.804846
0.605534 -1.7032709 0.5825942 -2.201093 -2.0829306 1.1256669 -0.499278 0.148678
-5.4638033 -0.24624018 -0.829307 -1.538958 3.123477 3.262856 -0.58618176 -0.05226952
1.9356694 -3.7297213 -1.2556074 -2.8180635 7.5814443 -0.8062928 -3.1892087 0.6595004
0.77315456 -1.7800407 -0.6086327 5.6561246 -2.6612093 2.231145 2.6307921 -5.0422497
2.1113892 0.086634934 -2.773551 1.2613727 1.5660751 -2.6750648 -1.9441581 -1.0943822
-2.3326302 -1.4565866 0.16846022 2.4040055 -3.9762034 -2.2188282 -1.6325846 2.4075415
5.490856 -2.0782182 -1.15333 1.7575241 0.40890914 -2.5875854 3.5132263 0.9167609
1.4139167 -3.8574183 0.4848109 -2.5990822 4.8384385 7.453981 -0.5606326 1.2010647
00000000: a68f a040 5a15 143f 7597 5ac0 b3ee 6640
00000010: d4aa fa3f ce62 59bf 93b4 ebbf d193 1641
00000020: 55fd e43e 8794 8140 087c 68bf f44a a2c0
00000030: 37a8 9c40 d866 873e 9a97 95c0 ac1d 38bf
00000040: e493 b03f 8541 be3e 36ec e7bf df06 0941
00000050: 8ac6 39c0 3fd0 b8c0 f40a abbf 4d84 b6bf
00000060: fe82 1040 9e9f 1d40 4e05 d9bf a109 0ebf
00000070: 1077 b2c0 cc3f c4be d849 9e40 8dd5 f2c0
00000080: 82c0 dcbf 5c6b c2c0 07f1 a23f 16e6 79c0
00000090: 1890 5041 e611 eb3f 0cf2 46c1 3769 5fc0
000000a0: cdf3 7dc0 cd1f 98bf 9463 9340 c6bd 64bf
000000b0: 729f 213e 7c3b 89c0 bce5 28c1 7f98 19be
000000c0: c2d0 cb40 3d4e d43d 8217 0e40 38a5 c53e
000000d0: 0103 03c0 2774 b7c0 29c0 6e3d 48ad 29c1
000000e0: a051 4e3f 3ca0 e63f 1bf0 74bf 9d61 2840
000000f0: 4064 753f cddd f9bf 41f1 3641 a913 09c0
00000100: 800a d4bf d793 59c0 bbf9 4a40 6bbd 52bf
00000110: 5245 73c0 dd5d 8340 f12d 2640 f6bc dec0
00000120: e52b 8140 1c46 8840 f625 213f ba5f 96bf
00000130: 9d0e c440 eb01 e6c0 3e44 0bc1 fd91 a040
00000140: 3e90 a9be 2599 ae3f 0f84 c0c0 038a e23f
00000150: 5e47 6cbf 7ccd a23f 70c2 84be e632 1040
00000160: d8a8 1ac1 120f c43f 84ec ac3f 6f9c 61bf
00000170: 00c4 08c0 8804 4e40 d28f 38c0 6359 bdc0
00000180: 4f79 9bc0 9dca 0840 7cbb 4f40 e31b 5c40
00000190: 1845 9940 2b52 e93f f03d 2540 f219 dcbe
000001a0: c14d 2540 6363 b8bd d6d9 8cbe ae56 f8be
000001b0: ed18 7d40 e614 76c0 39c4 02c0 e1e4 adbf
000001c0: 1d4a 2140 9085 93c0 1d34 6ec0 4f04 cd3c
000001d0: 2ee6 a6bd fb15 92c0 8945 8340 1ac2 ac3f
000001e0: 90e4 07c0 298f ba3e e31a 2540 d15e e1c0
000001f0: da4f c9bf c235 683f ee94 7340 e9d0 743f
00000200: 3038 8ac0 c6d9 4b40 ca6a aa3d 85b9 e33f
00000210: 4a73 8dc0 de64 1340 93a0 04c1 a03b e9bd
00000220: 18cf 4cbf 505f 4341 5dc9 5f3f 764f 0b41
00000230: 1faf d9bf 5039 6bbf 7ec3 65bf 1231 cc3f
00000240: a6c9 cb3f 29fc b03f ec12 3d41 8e69 2441
00000250: 2c27 8bbf f234 0640 001f bdc0 a65e fa3e
00000260: b8c5 133f 83a7 1fbf c6e4 d23e 8f75 05c0
00000270: 3ba0 db3f f810 b43f 6209 973f 4dd2 e93f
00000280: a913 9b40 4f45 1c40 289a 2abf ecc0 06bd
00000290: a080 0dc0 fe43 0b40 2e4d 8e40 afb9 83be
000002a0: 1835 e3bf 73b1 d040 0de2 e93e eec7 df3e
000002b0: 2dba 233f 4ab5 0b40 cd78 0841 b6b7 a8bf
000002c0: a3fe 083f 5885 fdbf 0cab b1bd 1225 31c1
000002d0: ec3e 8340 1bff 2ac0 af0b c2bf f6b9 f93f
000002e0: 92d0 d0c0 4b3a 05c1 4b85 95bd 0144 dc3f
000002f0: a9ff 7540 06be edbf 7319 2440 3205 e7bf
00000300: 4704 1b3f c804 dabf e524 153f b5de 0cc0
00000310: bc4e 05c0 da15 903f 5ea1 ffbe 0c3f 183e
00000320: 7ad7 aec0 6326 7cbe 774d 54bf 93fc c4bf
00000330: 0ce7 4740 a2d2 5040 0210 16bf 9018 56bd
00000340: 04c4 f73f c1b3 6ec0 beb7 a0bf 275b 34c0
00000350: 319b f240 3469 4ebf ff1b 4cc0 05d5 283f
00000360: 75ed 453f 60d8 e3bf 5acf 1bbf f9fe b440
00000370: 4151 2ac0 14cb 0e40 e65e 2840 1c5a a1c0
00000380: 0021 0740 a86d b13d dc81 31c0 a974 a13f
00000390: 2675 c83f 4334 2bc0 2cda f8bf b714 8cbf
000003a0: d049 15c0 6e71 babf d680 2c3e 3adb 1940
000003b0: 1e7a 7ec0 4801 0ec0 88f8 d0bf 2915 1a40
000003c0: 18b5 af40 8701 05c0 51a0 93bf 8df6 e03f
000003d0: 8a5c d13e 009b 25c0 b3d8 6040 d8b0 6a3f
000003e0: 39fb b43f f1df 76c0 2239 f83e 5d57 26c0
000003f0: 7dd4 9a40 0387 ee40 9e85 0fbf 7dbc 993f

layer2.6.weight f4 [7, 256]
-0.11013046 0.11718927 -0.0046848035 0.04255042 0.08905674 0.017046254 0.008609938 -0.053912513
-0.1214296 0.0025897361 -0.033479188 0.11248498 0.0025341776 -0.0376114 0.009134589 0.07304503
0.1077162 -0.03842412 0.12232987 -0.15494567 0.040884726 0.20481029 0.072625086 0.06561024
0.019152032 -0.10575762 -0.040913735 -0.12722905 0.19248998 0.1702073 -0.15935388 0.012819915
-0.120894074 0.07344283 0.1387479 0.009936915 -0.4474653 -0.067687795 0.30326656 -0.04736247
0.09947728 0.03345224 0.04679071 0.04384562 0.04287 -0.100374855 0.10642445 0.17208812
-0.15404744 -0.15277442 0.017873181 0.13654253 -0.061728947 0.021375854 0.008103702 0.09487005
-0.052763183 0.042942166 0.219063 -0.014348633 0.031431273 -0.03548666 -0.41157353 -0.030212391
-0.13733435 0.06059527 0.07552343 -0.054610163 -0.0002505766 -0.04601446 -0.10390207 0.1537449
0.008058949 -0.06541017 0.10808981 0.009412852 0.111841746 0.12506765 0.3977183 -0.124946944
0.011595467 0.0046288404 0.10531321 -0.14230484 0.23208237 -0.03134277 0.23149264 -0.10604582
0.25433785 0.055875227 0.042771827 -0.021371895 0.06986531 -0.043083794 0.093816444 0.028183155
0.092114806 0.0037936878 0.02888029 -0.08913579 -0.014258447 0.009911542 0.10059795 0.0218455
-0.059450995 0.0029382342 0.0041465624 -0.02379414 -0.08303128 0.0008584991 -0.098561615 0.057952013
-0.10985739 0.00010915144 0.07091417 0.04502247 0.13944036 0.052612312 0.12350264 0.04976177
0.19873099 -0.16899426 -0.13049611 0.034724336 -0.043757558 0.078097284 0.04667386 -0.1359732
0.016062966 -0.18373884 0.05074562 -0.11256134 0.18113507 0.012139974 0.12771705 -0.051070962
0.07358137 -0.32198256 0.036584172 -0.05904485 0.097491644 0.14528644 0.004125874 -0.083278134
0.102499396 -0.11939357 -0.14384829 -0.118967295 0.002297904 -0.035889477 -0.0083521465 -0.1228455
-0.08059608 -0.06814662 0.023327556 0.07502019 -0.09204219 -0.17513144 -0.045636587 0.101466395
0.06307134 -0.13075505 -0.07299837 0.09173701 0.032157008 0.012902201 0.04031734 -0.042919863
0.21427782 -0.16232778 -0.020508457 -0.022121817 0.009483313 0.021570396 -0.08862195 0.025937274
0.022943486 -0.00088733947 -0.037358012 0.131056 -0.09580437 -0.0441064 -0.011909794 -0.18495265
0.0068601575 0.065307185 0.020189373 -0.020708282 -0.016727349 -0.005389034 -0.03272948 0.07151206
0.20407064 0.062453154 0.0544919 -0.046972886 0.10218067 -0.13501437 -0.005692078 0.05106859
0.077922024 0.038077027 -0.036747187 0.0707462 0.07762804 0.048662793 0.013078916 0.21494211
-0.062395472 0.22656313 0.13044904 0.18029717 -0.12372778 0.12985203 0.015038966 -0.068517886
0.042373117 0.098598376 0.08147121 -0.059461016 0.022347659 -0.015933925 -0.020083005 0.17170128
0.044433653 -0.0727463 0.057170738 -0.1601576 0.058246467 0.049338233 -0.0067118225 0.18991335
0.06376004 -0.033127517 0.04642505 0.010553717 0.01358057 0.07528974 0.04710469 0.015695399
-0.053381342 0.059846602 -0.015125274 0.07001784 0.10873409 0.025739564 -0.089661896 -0.13124731
-0.04778189 0.046648342 0.048733197 -0.10630019 -0.04974617 -0.25545284 0.035059664 -0.06516221
00000000: 148c e1bd ee00 f03d fb82 99bb 5949 2e3d
00000010: 6163 b63d 96a4 8b3c b310 0d3c 5ed3 5cbd
00000020: 15b0 f8bd 90b8 293b 7921 09bd 865e e63d
00000030: 7214 263b 690e 1abd 3ea9 153c a298 953d
00000040: 509a dc3d 9c62 1dbd 1588 fa3d 14aa 1ebe
00000050: be76 273d cab9 513e 76bc 943d a95e 863d
00000060: b9e4 9c3c 7397 d8bd 2995 27bd 5548 02be
00000070: 181c 453e d34a 2e3e aa2d 23be 9f0a 523c
00000080: 5097 f7bd 3269 963d ee13 0e3e 71ce 223c
00000090: 2c1a e5be e69f 8abd c145 9b3e 26ff 41bd
000000a0: bfba cb3d 3705 093d 9ea7 3f3d 7797 333d
000000b0: 7498 2f3d 5591 cdbd 10f5 d93d de37 303e
000000c0: 9dbe 1dbe e670 1cbe c76a 923c ced1 0b3e
000000d0: 7ed7 7cbd 6a1c af3c 64c5 043c 3b4b c23d
000000e0: 351e 58bd 20e4 2f3d 0d52 603e 8716 6bbc
000000f0: 14be 003d 765a 11bd c4b9 d2be fa7f f7bc
00000100: 60a1 0cbe bf32 783d 07ac 9a3d e8ae 5fbd
00000110: d25f 83b9 a979 3cbd 9cca d4bd 4e6f 1d3e
00000120: af09 043c c4f5 85bd 315e dd3d 5d38 1a3c
00000130: 490d e53d bc11 003e bca1 cb3e 2fe4 ffbd
00000140: eafa 3d3c 87ad 973b 74ae d73d 5cb8 11be
00000150: 00a7 6d3e 4761 00bd 680c 6d3e 8d2e d9bd
00000160: 9238 823e 6cdd 643d 8331 2f3d 1d14 afbc
00000170: 8b15 8f3d a278 30bd d622 c03d 5ce0 e63c
00000180: b0a6 bc3d 859f 783b 5c96 ec3c d38c b6bd
00000190: 439c 69bc 0564 223c 4c06 ce3d 56f5 b23c
000001a0: e382 73bd 648f 403b e3df 873b eeeb c2bc
000001b0: 4e0c aabd e60c 613a acda c9bd 175f 6d3d
000001c0: e9fc e0bd 3ce8 e438 733b 913d 7b69 383d
000001d0: 74c9 0e3e 0280 573d f4ee fc3d ffd2 4b3d
000001e0: 2380 4b3e d50c 2dbe c6a0 05be 1b3b 0e3d
000001f0: 203b 33bd 78f1 9f3d 172d 3f3d 8f3c 0bbe
00000200: 7b96 833c 0926 3cbe a4da 4f3d 8f86 e6bd
00000210: 797b 393e bee6 463c 42c8 023e c92f 51bd
00000220: d4b1 963d e6da a4be 49d9 153d 03d9 71bd
00000230: b3a9 c73d f8c5 143e 5732 873b ba8d aabd
00000240: 34eb d13d 9e84 f4bd f74c 13be 20a5 f3bd
00000250: 6f98 163b d800 13bd 71d7 08bc 6c96 fbbd
00000260: 8f0f a5bd 7590 8bbd 6e19 bf3c 2fa4 993d
00000270: 9e80 bcbd a855 33be 6eed 3abd 9dcd cf3d
00000280: 8c2b 813d a7e4 05be 2b80 95bd 9de0 bb3d
00000290: 11b7 033d c163 533c cc23 253d bdcc 2fbd
000002a0: a56b 5b3e 4139 26be 5a01 a8bc d038 b5bc
000002b0: e65f 1b3c 66b4 b03c 6d7f b5bd 687a d43c
000002c0: faf3 bb3c 589c 68ba b704 19bd 8b33 063e
000002d0: 1535 c4bd eaa8 34bd 4c21 43bc 3a64 3dbe
000002e0: 2ccb e03b c6bf 853d 2f64 a53c 6aa4 a9bc
000002f0: cb07 89bc 7e96 b0bb 590f 06bd ea74 923d
00000300: e5f7 503e e1ce 7f3d e632 5f3d a466 40bd
00000310: 1944 d13d 3541 0abe 9c84 babb 4c2d 513d
00000320: 9595 9f3d a8f6 1b3d 3884 16bd 62e3 903d
00000330: 73fb 9e3d a352 473d f348 563c c919 5c3e
00000340: 6592 7fbd 2a00 683e 6f94 053e d29f 383e
00000350: fe64 fdbd eef7 043e ff65 763c 1b53 8cbd
00000360: 6f8f 2d3d f2ed c93d 61da a63d 658d 73bd
00000370: 7012 b73c dd87 82bc 1d85 a4bc 76d2 2f3e
00000380: 1000 363d 03fc 94bd dd2b 6a3d 5b00 24be
00000390: d993 6e3d e316 4a3d d9ee dbbb a578 423e
000003a0: a094 823d b8b0 07bd 3128 3e3d 7fe9 2c3c
000003b0: 0a81 5e3c 8231 9a3d d9f0 403d a393 803c
000003c0: 65a6 5abd b621 753d ffcf 77bc 8365 8f3d
000003d0: fbaf de3d c7db d23c a8a0 b7bd b265 06be
000003e0: f1b6 43bd 5512 3f3d 769c 473d eab3 d9bd
000003f0: a4c2 4bbd b7ca 82be b99a 0f3d c473 85bd

layer2.6.bias f4 [7]
-3.9178843 -4.95259 -0.50754654 -1.7820166 0.29579476 -0.07107601 0.82995045
00000000: 9ebe 7ac0 9e7b 9ec0 92ee 01bf 1f19 e4bf
00000010: 6972 973e 4d90 91bd a277 543f
