Saved_data_files/bpi_no_repeat/lr_all_variants/laplacianOnWeighted/TimestampPredictor_parameters_laplacianOnWeighted_0.001.pt (torch, 274439 bytes, 7 tensors)

layer1.weight f4 [4, 1]
000000 26 9d 46 bd b9 bc fc 39 26 2e 6f 3e 7d d8 00 42
       -0.048489712 0.00048205795 0.23357448 32.211414

layer1.bias f4 [6]
000000 b8 8e c5 c1 9f 08 57 c1 88 6a 6f 41 67 0a 57 c0
       -24.694687 -13.439605 14.963509 -3.36001
000010 64 0a bd 41 46 0d f8 3f
       23.630074 1.9379051

layer2.1.weight f4 [256, 6]
000000 f5 d6 22 3c 5c 8f 54 3e ec 33 55 be ae 99 94 bf
       0.009938945 0.20757812 -0.20820588 -1.1609399
000010 0e ce 64 be 6a bb 04 3f 48 67 1e 3e cd 60 0c 40
       -0.22344229 0.5184847 0.15469086 2.1934083
000020 11 81 9b 3e 9d 80 92 bf f9 53 57 3e ff 66 8c 3e
       0.30371907 -1.14455 0.21028127 0.2742233
000030 10 8e a4 3c 0d 2c 8a be 6b 42 75 bd de 86 2e be
       0.020087272 -0.26986733 -0.059877794 -0.17043635
000040 dd 32 55 3d b6 3b df bd ad b0 ee 3d 92 32 12 3b
       0.05205046 -0.10900061 0.11654792 0.0022307974
000050 06 85 29 bd 7d bd 86 be 02 a3 0e bd 5c 47 e9 3d
       -0.041386627 -0.26316443 -0.034823425 0.11390564
000060 23 d7 c4 3d 06 f1 0b 3f 3a 9d b0 bd 48 8b 06 be
       0.096113466 0.5466465 -0.086237386 -0.13139069
000070 c9 5d 13 be e4 35 8e 3e ca fa c8 3e 0f 52 fc bd
       -0.14391245 0.2777549 0.39253837 -0.12320339
000080 f9 af 78 3a 44 af b0 bd 3d 62 75 3d b7 06 12 3a
       0.0009486671 -0.08627179 0.05990814 0.00055704586
000090 29 26 87 3e 9b a7 a6 3f 5f ca 89 bc 87 c7 2e bf
       0.263963 1.3019899 -0.01682013 -0.68273205
0000a0 c0 19 1f be 59 10 d8 3e bf d2 1e 3e f5 98 d6 bd
       -0.15537167 0.42199972 0.15510081 -0.10478393
0000b0 79 11 7e be c3 0c 7a be 62 59 0a 3e 77 e4 1c 3f
       -0.24811353 -0.2441893 0.1351066 0.6128611
0000c0 41 bd 0a 3e d1 ac 0c 3f 67 94 05 bf 1e 28 f1 bf
       0.13548757 0.54951197 -0.5217957 -1.8840368
0000d0 fb 2e e9 bd dd bd 27 40 34 fc 41 bd 43 4d a2 bd
       -0.11385914 2.6209633 -0.04735966 -0.07924893
0000e0 1b 6b db bd 7e 5e 84 bd 5c 02 0b 3d 99 a5 81 3e
       -0.10713788 -0.064633355 0.033937797 0.25321653
0000f0 e2 6d 04 3d a8 62 17 be 9f cd 95 be 7c 39 5b be
       0.032331355 -0.14783728 -0.2925844 -0.21408647
000100 01 9c f6 3c 47 ab 93 3d 87 32 73 bd 04 d7 39 be
       0.030103685 0.07210403 -0.05937436 -0.18148428
000110 02 29 f4 bd b7 d0 56 bd fe 7b eb 3b 44 64 ba 3d
       -0.11921884 -0.05244514 0.007186412 0.091011554
000120 c9 a0 f4 3d 94 dc 8a be e5 37 15 3d d8 80 55 be
       0.1194473 -0.27121413 0.03643026 -0.20849931
000130 60 d3 49 bd b2 56 0a 3c 7e ed 2c bf f2 c9 47 bf
       -0.04927385 0.008443521 -0.67549884 -0.7804252
000140 53 db 30 bf 71 44 73 3e b4 63 2b 3f f3 f5 f9 be
       -0.6908466 0.23756577 0.6694901 -0.48820457
000150 3a 0e 1c 3e f8 bc 4c bd 76 c3 b9 3c 89 39 07 be
       0.15239802 -0.049984902 0.02267621 -0.13205542
000160 d0 8e bd bd 15 89 85 3c e6 79 2c bf 71 4c d7 be
       -0.09255755 0.016300717 -0.673735 -0.42050508
000170 3e 5d 79 bd 49 7e 62 be fc a8 4b bd 77 fb 2f 3f
       -0.06087994 -0.22118486 -0.049721703 0.6874308
000180 7d a6 b1 3d 36 be 3c be 74 e4 ca 3c ae ee 18 bf
       0.08674333 -0.18431935 0.024767138 -0.59739196
000190 74 ac 83 3d d7 ca b3 3d 22 46 cb 3d c7 83 1b 3f
       0.06429377 0.08778923 0.09925486 0.6074795
0001a0 9b 2c 05 bf 12 25 29 c0 02 5e 74 be b8 f6 23 40
       -0.5202119 -2.6428876 -0.23863986 2.5619335
0001b0 ce 93 07 3f 65 dd 0c bf 11 c5 ad 3d f6 e3 3b be
       0.5295991 -0.5502532 0.08484853 -0.18348679
0001c0 5d 66 b1 3d 17 e1 8a 3c 17 08 05 3e 9f 28 22 bf
       0.08662102 0.016953034 0.12991367 -0.6334323
0001d0 3d e2 2e bf 85 4d f7 be c6 80 14 be 8a 37 07 3e
       -0.6831396 -0.4830133 -0.14502248 0.1320478
0001e0 16 8e b6 3d 79 a8 07 be 8c f8 28 3c 45 1e 39 be
       0.089138195 -0.13247861 0.010313164 -0.18077953
0001f0 db fc fe bc b1 6b f9 3c 30 79 50 3e b1 d5 a5 bd
       -0.03112643 0.03044686 0.2035873 -0.08097399
000200 f6 19 c5 bd 84 22 43 bf 0e 27 63 be 9c c7 72 3f
       -0.09624092 -0.7622454 -0.22182867 0.9483583
000210 40 d4 06 3d 8b f4 f2 bd 9e 3c b5 3c 1a b1 8d bd
       0.03291726 -0.11863049 0.022123631 -0.06918545
000220 7a 34 ad bc a9 e5 07 3c 59 89 5e 3d f5 59 b9 bd
       -0.021143187 0.008294501 0.054330204 -0.09050361
000230 a7 23 70 bc ff b9 11 be 86 05 86 bc 96 80 ac 3d
       -0.014656938 -0.14231108 -0.016360056 0.08422963
000240 a1 6e b8 be 2e 5f 16 3f 74 89 cb bd b5 47 a2 be
       -0.36021903 0.5873898 -0.099383265 -0.31695333
000250 39 82 f1 bd 71 84 16 3f a3 ce 88 3d 1d 0c d4 bd
       -0.11792416 0.5879584 0.06680038 -0.10353873
000260 a4 f0 60 bc 62 ff 04 bd 84 3e 21 bd 4a e9 e1 bc
       -0.013729248 -0.032470115 -0.03936626 -0.027577061
000270 25 2d 81 3e ed 8a 42 bf 25 2b b0 3c 50 11 76 bf
       0.25229755 -0.75993234 0.021504948 -0.96120167
000280 d8 04 b3 be 10 95 a9 be b0 ff 05 bd b3 59 40 bc
       -0.34964633 -0.33121538 -0.032714546 -0.011740136
000290 5c 20 05 bf 4a 1b 83 be 11 a9 d0 3b 1b 12 d8 3d
       -0.520025 -0.25606757 0.0063678105 0.10550328
0002a0 4c 7f 5b 3e 2d 93 ad be 1f 50 86 bc 0f 55 a6 be
       0.21435279 -0.3390135 -0.016395627 -0.3248677
0002b0 12 05 fa 3c 04 c6 19 3e 2c d9 c1 3e 2e 72 a7 3f
       0.030519996 0.15016943 0.37861001 1.308172
0002c0 28 02 b3 be 49 df d8 bf ef e8 d3 be 00 0e 3a 40
       -0.34962583 -1.6943141 -0.41388652 2.9071045
0002d0 ff ce 40 3f 0c c9 47 40 92 ea a0 be 23 b5 f7 be
       0.7531585 3.121646 -0.31428963 -0.48380384
0002e0 ef 26 97 3e a1 12 ee 3f ad 01 07 3f 7e ee 07 bf
       0.2952189 1.8599435 0.5273693 -0.53098285
0002f0 bf ab 3c 3d 2a 74 da be b0 3c 19 be 32 d0 4d 3e
       0.046062227 -0.4266675 -0.14964557 0.20098951
000300 0f 8f 97 3e b2 85 ee be 2b 47 93 3d 68 51 22 bd
       0.29601333 -0.46586376 0.071913086 -0.039628416
000310 81 30 91 3d 25 85 6b 3e 66 78 0d 3f 32 e6 11 40
       0.070893295 0.2300001 0.5526184 2.279675
000320 c0 43 98 bf d6 e4 45 bf a1 d7 0c bf 5a ea 1e 3d
       -1.1895676 -0.773023 -0.55016524 0.038797714
000330 87 3f 17 3f c3 2c 0e bf ed 85 81 be 45 46 ec be
       0.5908131 -0.5553705 -0.2529749 -0.4614736
000340 44 2b 12 bf 7b cb 60 3f d4 66 a4 3e f9 e9 5a 3f
       -0.5709727 0.87810487 0.32109702 0.85513264
000350 d2 8a 5f bb 8c 46 ad bf f3 80 81 be b3 c7 8c 3f
       -0.0034109843 -1.3537154 -0.25293693 1.0998443
000360 03 e8 14 be ea 31 2e 3f 8a 7e 0d be 61 0b 86 be
       -0.1454163 0.6804491 -0.13817802 -0.26180556
000370 3e d3 12 bd 38 ab ed 3e 9e 8f c3 3e 27 8c aa 3f
       -0.035845987 0.46419692 0.3819551 1.3324021
000380 4f c7 a0 be 37 a4 83 be 70 d4 52 bc f3 0d 80 3f
       -0.3140206 -0.25711223 -0.012868032 1.0004257
000390 53 e7 ba 3e 7f b4 15 40 ad 3a 3d bf 4e 8a 7c bf
       0.3650461 2.3391416 -0.7391766 -0.98648536
0003a0 6b 6a 88 bd 9e 12 3f 3f e9 c4 9a 3f 6e c2 25 40
       -0.066609226 0.7463778 1.2091342 2.589992
0003b0 47 ac ca be d2 e3 9d bf f4 b4 88 bf 62 c5 b2 3f
       -0.39584562 -1.233515 -1.0680223 1.3966486
0003c0 44 4c 80 3e f3 7e 08 bf 99 f6 2d bd f7 95 2e bf
       0.25058186 -0.5331871 -0.042471502 -0.6819758
0003d0 55 d0 83 3e 80 2f 6d be 93 85 be 3d 0f 95 af bd
       0.25744882 -0.23162651 0.09302821 -0.085733525
0003e0 8d 1f 26 3d 33 50 6e be 28 dd 8a 3d 7c d7 c7 3d
       0.040557433 -0.23272781 0.067804635 0.09757897
0003f0 07 a8 18 3e ca 09 e7 be 79 c8 1e ba ca 06 17 be
       0.14907847 -0.45124656 -0.00060570944 -0.14748684

layer2.1.bias f4 [256]
000000 13 66 4e c1 f5 a8 21 c1 ef 25 1e 42 1c 84 2c 41
       -12.89992 -10.103749 39.537045 10.782253
000010 ce b6 c0 c0 b7 2c 9c c0 90 f4 00 c1 2c 69 3a c1
       -6.022315 -4.8804584 -8.059708 -11.650677
000020 9c 42 21 c1 a7 f2 3a 42 3c b3 8a 41 c6 6e 20 42
       -10.078762 46.736965 17.337517 40.108177
000030 48 8a ba c0 11 79 9f c1 01 4a 6b 41 f9 ca 1a 42
       -5.82938 -19.934114 14.705567 38.698215
000040 0f b9 57 41 5b cf 63 c1 82 3c bc c0 62 1c 04 41
       13.48268 -14.238124 -5.882386 8.256929
000050 7a 8f 5b 42 ed bf 05 c1 88 0b 34 42 f1 4f e0 41
       54.890114 -8.359357 45.01126 28.039034
000060 0c 1f 23 41 67 3c 07 42 08 76 24 c1 cd 0c d5 c0
       10.19508 33.808987 -10.278816 -6.6578126
000070 d4 ec 93 41 4f 4e f6 c0 f0 5c 3d c1 fe dd 4d c1
       18.490639 -7.697059 -11.83519 -12.866697
000080 50 ed d2 bf b1 e1 a7 c0 1d 63 4a c1 83 5f 96 c1
       -1.6478672 -5.2463 -12.649198 -18.796637
000090 7c 88 cc c0 a2 b4 ef c0 98 e7 21 c1 2d 95 3d c1
       -6.3916607 -7.4908 -10.119041 -11.84892
0000a0 a2 17 cc c0 8f eb fa c0 43 51 82 42 7f 1e 67 c1
       -6.377885 -7.8412547 65.158714 -14.444945
0000b0 d5 e5 d8 c0 4e 35 23 c1 97 d5 e7 41 1b 67 99 c1
       -6.7780557 -10.200514 28.979292 -19.175344
0000c0 1b c0 0f c1 5c 44 86 40 03 44 37 c1 f0 88 6c c1
       -8.984401 4.1958447 -11.454104 -14.783432
0000d0 e9 e7 46 42 b2 48 c3 41 47 94 42 42 3e 10 47 c1
       49.726475 24.410496 48.644802 -12.441465
0000e0 5c c2 41 42 e0 af bf c0 4a e7 54 c1 0e 66 bb c1
       48.439804 -5.990219 -13.306467 -23.424831
0000f0 67 a6 25 c0 08 74 24 c1 cf f8 26 42 72 64 6f c1
       -2.5882814 -10.278328 41.742977 -14.962023
000100 48 8a 8f c1 7e 3e c0 41 eb ab 57 c1 e5 25 0b c1
       -17.94252 24.030514 -13.479472 -8.696752
000110 b2 c5 0a c0 b5 64 a0 c0 0a 21 3d c1 6c 27 2f c1
       -2.1683164 -5.0122933 -11.820566 -10.9471245
000120 fe e4 3b c1 26 3a 38 c1 a9 77 fd 41 e3 3f 34 42
       -11.743406 -11.514196 31.683428 45.06239
000130 d1 c2 59 42 24 a4 13 42 39 d5 64 42 db ce 95 c1
       54.44025 36.910294 57.208225 -18.726004
000140 7e 85 47 42 81 e0 2f c1 d9 00 25 c1 3d c8 26 c1
       49.880363 -10.992311 -10.312707 -10.423886
000150 84 37 d1 c1 e3 e5 67 42 e3 14 0e c1 c3 0c 10 c1
       -26.152107 57.9745 -8.880099 -9.003116
000160 2d ff 52 42 79 59 1b c1 b6 26 61 c1 3d d2 3b c1
       52.749195 -9.709344 -14.071951 -11.738828
000170 2e 2c 8b c1 06 03 4e c1 34 fd 3b 42 b1 83 14 42
       -17.396572 -12.875738 46.99727 37.128605
000180 67 c3 38 c1 ce 51 4c c1 a7 e5 33 c1 72 a7 14 c2
       -11.547706 -12.769972 -11.243567 -37.16352
000190 45 4e 10 c0 f1 0b 27 c1 29 dd 20 41 71 59 75 c1
       -2.2547772 -10.440415 10.053994 -15.334336
0001a0 02 4a f1 c0 9d 3c cd c0 2c b2 0c 42 ed b1 e5 c0
       -7.540284 -6.413649 35.173996 -7.1779695
0001b0 d7 17 c0 bf 20 60 5e c1 51 e7 8d c1 1a d6 03 c1
       -1.5007275 -13.898468 -17.737947 -8.239771
0001c0 08 a0 7a 41 f2 4f f4 40 93 b6 d6 c0 18 b4 90 c1
       15.66407 7.634759 -6.709787 -18.087936
0001d0 0b 70 0d c2 79 c4 bf 41 5d 40 79 42 87 f2 c9 bf
       -35.359417 23.970934 62.312855 -1.5777138
0001e0 8c db 88 c1 24 38 ad 41 53 0a 40 42 72 99 3e c1
       -17.1072 21.652412 48.010082 -11.912462
0001f0 fe c4 39 c1 23 6e 0c 42 86 c2 60 41 25 6e 05 c1
       -11.610594 35.107555 14.047491 -8.339391
000200 d6 25 59 42 91 66 01 c1 20 1d 88 41 5b 5f 55 c1
       54.28695 -8.087541 17.014221 -13.33578
000210 95 5f ca bf c5 aa 33 c1 58 b8 41 3f aa f6 cd c1
       -1.5810419 -11.229192 0.7567191 -25.745441
000220 c9 3f 78 40 2d d7 05 c1 35 e1 6c c1 05 75 54 c1
       3.8788931 -8.365033 -14.804982 -13.278569
000230 c7 e0 ef c1 58 36 0d c1 1e d1 45 c1 75 a0 0e 41
       -29.984755 -8.8257675 -12.363554 8.914174
000240 1b d7 bf 40 33 da 7e 42 cd c5 0f 42 6d 77 c0 bf
       5.995008 63.713085 35.943165 -1.5036446
000250 b9 95 82 c1 b3 35 2b 42 7d 55 1a c1 9b 40 ec 41
       -16.323107 42.80244 -9.645871 29.531546
000260 1d cb cf c1 c7 81 1a 41 ee 8f 78 c1 05 e5 e9 c0
       -25.974176 9.656684 -15.535139 -7.3092065
000270 6b 50 2b c2 5d 3b fe c0 53 e1 04 c1 8b 21 08 42
       -42.828533 -7.9447465 -8.305011 34.032757
000280 e1 6f 2d c1 80 fe e0 41 57 56 95 41 19 6b 46 bf
       -10.839814 28.124268 18.667158 -0.7750717
000290 34 e6 60 c1 db b3 4c 42 c8 24 8f 41 6d 32 96 c1
       -14.056202 51.17564 17.89296 -18.774622
0002a0 05 de b6 c1 c8 69 8c c1 54 3c 5e 42 11 b5 fe c0
       -22.858408 -17.551651 55.558914 -7.959603
0002b0 72 a5 40 42 64 14 55 42 e8 f0 07 42 6c 13 86 c0
       48.161568 53.269913 33.98526 -4.189871
0002c0 e8 e4 79 41 f7 08 8c 41 36 f1 10 42 16 39 03 42
       15.618385 17.504377 36.235558 32.805748
0002d0 74 84 0c 42 88 c0 1e 42 0f 9a 00 c1 61 71 ae c1
       35.12935 39.68802 -8.037612 -21.80536
0002e0 56 3f 47 c0 0e f6 93 c1 83 08 84 41 3f 3e 1b c1
       -3.1132407 -18.495144 16.504156 -9.702697
0002f0 e6 25 ec c0 b2 59 96 c0 c8 84 0b c1 18 13 39 c1
       -7.3796263 -4.698449 -8.719917 -11.567162
000300 6c c4 4a c1 8b a7 04 c1 46 62 b1 bf 43 d9 58 42
       -12.672955 -8.290904 -1.3858116 54.21217
000310 65 29 f4 c0 c1 98 a9 c1 ca 21 cc c1 2d 59 6a c1
       -7.630053 -21.199587 -25.516499 -14.646771
000320 06 78 fd c0 de 56 19 c1 c6 fb 96 c1 23 89 50 c1
       -7.9209013 -9.583708 -18.872936 -13.033481
000330 3c 5c 14 c1 24 18 dc c0 b3 84 e6 c1 c0 f1 38 c1
       -9.272518 -6.877947 -28.814795 -11.559021
000340 49 7d 94 c1 da 54 58 c1 9d 57 61 42 78 8f f2 c0
       -18.561174 -13.520716 56.33556 -7.5800133
000350 cb c8 12 c0 cc 7f 52 42 2c ba c7 c0 6d e6 0f c1
       -2.2935054 52.6248 -6.241476 -8.993756
000360 2b 15 62 42 c1 28 e3 41 e5 a8 4d c1 30 93 9a c1
       56.52067 28.3949 -12.853734 -19.321869
000370 0b 6e 42 c1 fb b6 22 c0 be 46 09 c1 fb 84 71 c1
       -12.151866 -2.5424182 -8.579771 -15.094966
000380 8a ce 66 c1 26 56 92 c0 86 d0 22 42 10 6b ed c0
       -14.425425 -4.573016 40.703636 -7.419319
000390 82 32 a0 bf c6 07 38 c1 0c 82 33 41 cc 52 d4 c1
       -1.2515414 -11.501898 11.21925 -26.540428
0003a0 0a 74 e3 40 f5 04 ef 40 c9 a7 12 c2 05 62 fb c0
       7.107915 7.469355 -36.663853 -7.8557153
0003b0 b9 75 1a c1 b3 aa c2 c0 77 83 e1 41 02 35 7f 42
       -9.653741 -6.0833373 28.189192 63.801765
0003c0 a7 13 47 42 d4 9b 60 c1 d1 f8 57 42 8d 27 1f 42
       49.76919 -14.038044 53.992985 39.788624
0003d0 79 1a 11 c1 a9 fe d4 c0 90 7e 5b c1 ce 27 4c c0
       -9.068963 -6.6560864 -13.718399 -3.1899295
0003e0 1a 35 c9 c1 12 c1 57 42 2e 85 d5 c1 b4 ec 19 42
       -25.150928 53.938545 -26.69003 38.481155
0003f0 83 1b bb c1 bb b6 55 42 9b 9e 2e 42 fc ae d0 c0
       -23.388433 53.428448 43.65489 -6.5213604

layer2.3.weight f4 [256, 256]
000000 8a 67 01 be 9f e7 b0 bd b0 a7 ad bc c0 87 ec 3b
       -0.12637153 -0.08637928 -0.021198124 0.007218331
000010 7d d6 93 3b 29 94 5e bd 80 3f 01 bd 65 49 43 bd
       0.004511653 -0.054340515 -0.0315547 -0.047677416
000020 04 61 da bc 6e e4 c5 3c 0e 32 1e 3b cd 8a 44 bc
       -0.026657589 0.024156775 0.0024138722 -0.011995983
000030 84 76 90 bd 52 ac 8f bd b4 28 57 bc 91 b6 b2 bd
       -0.07053855 -0.07015289 -0.013132263 -0.08726228
000040 66 78 b2 bd e3 71 64 bd 8b a8 89 bd 53 db d8 3c
       -0.087143704 -0.055772673 -0.067216 0.02647177
000050 73 fa c7 bd 44 0a 80 bd 84 c7 ed bd 0f 14 16 bd
       -0.09764566 -0.06251958 -0.1161032 -0.036640223
000060 42 95 73 3c 95 35 08 3c 08 53 4c bd cb e7 eb bd
       0.014867129 0.008313556 -0.049883872 -0.115188204
000070 98 b6 10 3c 9b 51 1b bd 7d ee 8f bc 1e d9 b3 bd
       0.008832596 -0.037919622 -0.017569775 -0.08781646
000080 45 23 1b bd 40 b8 f2 bd dc 06 8f 3b 2d ba 85 bd
       -0.037875433 -0.11851549 0.0043648314 -0.06529651
000090 20 5d 73 bd 38 9e 48 3b 4f ec d4 bc 15 57 61 3d
       -0.059414983 0.0030611884 -0.025991587 0.05501469
0000a0 5f e7 59 3c 95 e7 b6 bd 0b 14 ac bc e4 fc db bc
       0.013299792 -0.089308895 -0.021005651 -0.026853986
0000b0 eb 2d aa bb 0b fb 03 be 6e 36 98 bd 18 42 fa bc
       -0.005193462 -0.12888734 -0.07432257 -0.030549094
0000c0 4f 80 11 bd 50 3b 3a 3c dc 26 bf bc 49 cf f5 bd
       -0.035522755 0.01136668 -0.02333396 -0.12002427
0000d0 30 5f eb 3b 8b 2e 51 bc 36 81 98 bc 14 a1 ce bd
       0.007182978 -0.012767444 -0.0186163 -0.10089317
0000e0 d2 96 d2 3c 08 6f 06 bd 67 15 83 bd 57 f5 b4 bb
       0.025706682 -0.03282073 -0.064005665 -0.005522411
0000f0 c0 58 c9 bc eb 4d 81 bd d0 dc 44 bd 61 5d 96 bd
       -0.024578452 -0.0631369 -0.048062146 -0.07342029
000100 8c be 59 bd d9 54 10 be 55 f6 b1 bd c8 76 67 bd
       -0.053160235 -0.14094867 -0.08689562 -0.056509763
000110 a8 b0 31 ba 65 e3 8a bb f1 1e b1 bd f2 25 6b 3d
       -0.0006778338 -0.0042385333 -0.0864848 0.057409234
000120 94 80 03 3c 7c e6 ad ba 39 50 c2 bb 48 49 30 3b
       0.008026261 -0.0013267542 -0.0059299734 0.0026899148
000130 e3 a6 a3 bd d5 9a 55 bc a3 1c 31 bd f6 cb 88 bd
       -0.079908155 -0.013037403 -0.0432402 -0.066795275
000140 7d 80 8a bd ed c9 96 3c 6e 01 6a bd c3 d8 74 bd
       -0.067627884 0.018406833 -0.05713027 -0.059777033
000150 b7 a7 b2 3b 8f cd c1 3a 47 2e d1 bd fd 27 70 bd
       0.005452122 0.0014785993 -0.10213905 -0.058631886
000160 37 fa 10 bd c6 15 72 bd b1 e3 d3 bd 28 8f 46 bd
       -0.035394873 -0.059102796 -0.10346163 -0.04847637
000170 9c 7a 0a bd cc 20 76 bd a6 21 0d 3d cd c8 aa bb
       -0.033808336 -0.06008987 0.034455918 -0.0052119256
000180 38 a7 f7 3b b7 bd d0 bd ae 17 af bd 15 6e cd bc
       0.007557776 -0.10192435 -0.085494384 -0.025076905
000190 d6 c3 a9 bd 8c e0 91 3d ee 43 4e bc 9f 6d 70 bd
       -0.08289306 0.07122907 -0.012589438 -0.058698293
0001a0 69 52 40 bd b6 72 57 bd d8 d8 62 bd a2 08 a2 bd
       -0.046953592 -0.05259963 -0.05538258 -0.07911803
0001b0 c4 dc b5 bc e8 95 17 be f7 26 a4 bd bf 77 e3 bd
       -0.022199996 -0.14803278 -0.080152445 -0.11106824
0001c0 e8 8c 97 bd a9 81 a8 bd 30 d3 c4 3c 43 26 89 bd
       -0.073999226 -0.08227856 0.024026483 -0.06696751
0001d0 82 cc 26 bd e7 15 f0 bd f1 44 44 bd 29 20 25 ba
       -0.040722378 -0.117229275 -0.04791731 -0.0006299043
0001e0 58 b5 ec bc c7 4e b4 bd 66 9b 6a bc 55 40 ee bd
       -0.028895065 -0.08804088 -0.014319276 -0.11633364
0001f0 76 3d 05 bc 37 a0 16 bd 63 85 c0 ba dd cf 54 bd
       -0.008132329 -0.036773887 -0.001468819 -0.051956046
000200 71 e3 8a bd 1a 31 d0 bd 5a 1e 94 3c a1 33 07 3d
       -0.06781662 -0.101656154 0.018080879 0.03300822
000210 4a 0c 4c bd e2 04 da 3c eb 2d a7 bd d6 96 33 3c
       -0.049816407 0.026613656 -0.08163055 0.010961255
000220 43 db bd bc d0 f7 20 3c f0 e4 ce 3a 6e 31 58 bd
       -0.023175841 0.009824708 0.0015784781 -0.052781515
000230 28 65 81 3b 67 f0 c6 bc d3 f3 5c 3d f1 4d 88 bd
       0.0039488263 -0.024284555 0.053943466 -0.06655491
000240 c0 64 47 bd 9b d3 17 bd e1 d5 c8 bb 25 50 91 bd
       -0.048680067 -0.037067037 -0.006129012 -0.070953645
000250 06 5d 09 bd e1 c4 f4 3c 0b 5d d7 bd 90 cc 3f bd
       -0.03353598 0.029879035 -0.105157934 -0.046825945
000260 93 34 ae bc e7 46 0d be 46 95 40 bd 79 22 85 bc
       -0.021265304 -0.13796578 -0.04701736 -0.01625179
000270 17 6f 6f bd ad b9 0c be 5f 59 5b bc 73 fb 15 3c
       -0.058455553 -0.13742705 -0.013388007 0.009154188
000280 a6 81 51 bd 21 3b 4e bc ad 11 19 bd 11 0a e6 bc
       -0.051149033 -0.01258734 -0.037370373 -0.028080972
000290 e8 d1 03 bc 7d 06 01 bd 62 8f 9e 3c 7d db ed bb
       -0.008045651 -0.03150033 0.01935548 -0.007258831
0002a0 5b 19 e3 bd 8f c7 cd bc 37 c2 32 bd e2 3c 60 bd
       -0.110888205 -0.025119571 -0.04364225 -0.054745562
0002b0 71 1c 21 bd c9 b1 17 bc 3c 76 8e bc 8c a3 5d 3c
       -0.039333764 -0.009258696 -0.017390363 0.013527762
0002c0 e1 cd 5d 3b 0d 64 55 bc 07 28 9e bd 86 32 82 bd
       0.0033844637 -0.013024342 -0.07722478 -0.06357293
0002d0 64 bc 84 bc 25 95 90 3a 22 87 92 3c 79 3c 84 bc
       -0.016203113 0.0011030777 0.017886702 -0.016142117
0002e0 7f 99 0e be 54 53 13 3d 2c c9 a4 bd 90 69 85 3c
       -0.13925742 0.03596814 -0.08046183 0.016285688
0002f0 4e 03 aa ba b7 4e fc bd f3 48 cf bb 90 f8 88 3c
       -0.0012970956 -0.12319701 -0.006325835 0.016720086
000300 6e e2 32 bd 1b e9 d3 bc ea ea 15 bd 7b 22 63 bc
       -0.04367297 -0.02586799 -0.036600985 -0.013863201
000310 39 6e a4 bc c8 d3 0f be 8d 70 62 3d ee 59 b8 bd
       -0.02007209 -0.14045632 0.055283118 -0.09001528
000320 7a 46 79 bd 7f bf 8a bc e4 1a fc bd 1b 2a a1 bd
       -0.060858227 -0.016937016 -0.123098165 -0.07869359
000330 e4 9e 80 bd eb 4b c3 bd 5b e5 9a bc 14 be b0 3c
       -0.06280306 -0.095359646 -0.018908193 0.021575011
000340 f8 db 2c bd dd 61 69 3b bc 72 24 bd 90 df 30 bd
       -0.042201966 0.003561131 -0.04014848 -0.043181956
000350 7a e7 80 bd e6 bb b1 bd 1b 19 18 bd 87 f7 ab bd
       -0.06294151 -0.08678417 -0.037133317 -0.083968215
000360 b0 ec b0 bd 70 17 c5 3b 94 1a 43 bd a3 3d b0 bd
       -0.086388946 0.006014757 -0.04763277 -0.08605506
000370 9e 66 c8 bd 2b bf d4 bc 6f c1 a0 bd 8e 0d a2 bc
       -0.09785198 -0.025970062 -0.078493945 -0.019781854
000380 57 fd 0b bd bc 27 c9 bd 0c 17 15 bd e7 7b 82 3d
       -0.03417715 -0.09822032 -0.036398932 0.06371289
000390 24 2b ef bc 78 23 52 3b e3 fc 6a 3c 8f 3f 08 bc
       -0.029195376 0.0032064598 0.014342519 -0.008315935
0003a0 09 6a c7 bc 67 58 81 bd 43 a7 98 bd 68 d9 c0 bd
       -0.024342554 -0.063156895 -0.07453778 -0.09416467
0003b0 7c f9 a3 bd c1 03 14 bd 7f 41 46 bd aa d4 ef 3c
       -0.0800657 -0.036136393 -0.048402306 0.02927621
0003c0 c0 ec 91 bd 28 a3 cb bd d5 90 20 bd e0 99 b8 bc
       -0.071252346 -0.09943229 -0.039200623 -0.02253431
0003d0 e3 88 88 3d 0a ec d7 bc 89 e0 04 bd 48 a8 15 3d
       0.06666734 -0.02635767 -0.032440696 0.03653744
0003e0 2c 84 76 3b 3b 53 24 bd a6 f9 7f bd 92 ac 9f bd
       0.0037615402 -0.040118437 -0.062493943 -0.07796587
0003f0 74 bf 9c bd f8 cb bb bc e3 93 35 bb d4 c2 b7 bd
       -0.07653704 -0.022924408 -0.0027706556 -0.089727074

layer2.3.bias f4 [256]
000000 91 5d 03 be 0a a5 47 42 15 4a e4 3d 26 55 3b 40
       -0.12828662 49.91117 0.111469425 2.927072
000010 78 c9 a9 3f 7f 4b ac 40 9f e4 ff bd ec 4d d3 bd
       1.3264608 5.384216 -0.12494778 -0.10317597
000020 2a 37 9e 40 5c a7 67 be c7 eb a2 be 41 75 13 be
       4.944234 -0.22622436 -0.3182051 -0.14400198
000030 87 d0 8f 40 cd a6 05 3e 06 f1 9f 3f a8 6c d6 bd
       4.494205 0.1305191 1.249543 -0.10469943
000040 6e e7 2a 40 d0 01 84 bd 29 ca f3 bd ad a7 e7 3e
       2.6703753 -0.06445658 -0.11903793 0.45245114
000050 32 5b 00 3d f4 02 a0 3e cd 23 38 40 ea ba 2e 42
       0.03133697 0.31252253 2.877185 43.682533
000060 f6 5b 92 3d ac ab 4a bd 21 2a b5 3d 15 48 22 be
       0.071464464 -0.049480125 0.08845926 -0.1584781
000070 a1 b1 2a bf c7 a6 58 be b6 3c d0 3f 70 29 49 be
       -0.6667729 -0.2115737 1.6268528 -0.19644713
000080 c2 02 c3 41 13 1e c6 3e d9 79 3a be 78 2d b1 bd
       24.376347 0.3869482 -0.18210544 -0.086512506
000090 4b 8a 5d 3f 17 c7 db 3f 9a 1e 50 40 a5 79 d2 40
       0.86539143 1.7170132 3.2518678 6.577349
0000a0 ac 5b 28 41 4f 5c 14 bd 86 60 4a bd 2b 3c 2b 3f
       10.522381 -0.036220845 -0.04940846 0.66888684
0000b0 f1 93 2c be 6d f1 06 be 8b 83 93 3f 60 93 ed 3f
       -0.1685331 -0.13178034 1.1524519 1.85606
0000c0 11 54 e1 40 45 04 db 40 ad 18 92 3e 96 e3 32 be
       7.041512 6.844271 0.2853445 -0.1746963
0000d0 08 71 4a 3e 2c 07 28 be f8 01 8d 40 e5 59 43 42
       0.1976968 -0.16408986 4.4064903 48.837788
0000e0 ce 96 6b bd 3c b1 29 3c 8d e2 a7 41 e3 a3 07 be
       -0.057516865 0.010357197 20.98562 -0.13246112
0000f0 58 91 0c be d7 22 f6 bd 64 a4 4c be c6 51 55 3f
       -0.13727319 -0.12018364 -0.19984585 0.833279
000100 7f 58 96 be 7f b4 f0 3e 83 f7 0c 42 5d 92 7a 3e
       -0.29364392 0.47012708 35.24171 0.24469896
000110 dd c7 69 41 0d 1d b4 bd 76 e9 28 be e2 6e 06 41
       14.611295 -0.087946035 -0.16495308 8.402071
000120 b6 81 1f 40 26 db 3c be 05 e4 8d bb e7 a5 68 be
       2.492292 -0.18442973 -0.0043301606 -0.22719537
000130 72 9f 1c bf 24 0c c2 40 a3 37 c3 3e f2 89 b4 3f
       -0.61180794 6.063982 0.38128385 1.4104598
000140 96 9c 4e 3f 1c 30 d5 be f9 d8 c0 3d 92 c8 df bf
       0.8070768 -0.41638267 0.09416384 -1.7483084
000150 ca f8 b2 bd 1b 93 df 3f 7d bd bb bc be 29 a2 be
       -0.08738859 1.7466768 -0.022917503 -0.31672472
000160 6d 5b 97 bc 3f d1 c8 3e 92 98 5b be cd a3 c1 3f
       -0.018476212 0.39222142 -0.2144492 1.5128113
000170 63 2a 89 40 07 e6 09 3e 02 93 0b 42 50 99 1e 42
       4.286424 0.13466655 34.893562 39.64972
000180 d8 98 01 be 29 2c 5b 3e 3e a1 a4 be ff d4 10 be
       -0.12655962 0.21403565 -0.32154268 -0.14143752
000190 46 b2 ce 41 b5 56 10 be 3f a4 1f 3f 42 3e 1a 42
       25.837048 -0.14095576 0.62359995 38.5608
0001a0 18 20 38 bd b2 cb a3 3e 57 eb 64 41 08 ca 93 41
       -0.044952482 0.31991345 14.307456 18.473648
0001b0 50 12 6a be ae 34 2c 3f 47 d8 a9 41 ac 2f c5 41
       -0.22858548 0.6726788 21.230604 24.648277
0001c0 37 2b c0 3e 45 b3 74 3e 8b 97 a9 bd cb 70 85 40
       0.3753297 0.23896511 -0.08280858 4.1700187
0001d0 6c 07 74 be c1 aa 93 41 c9 9f 47 3e 07 fd ea 3e
       -0.23830956 18.458376 0.19494547 0.4589617
0001e0 15 2d 20 3f a8 ed 26 3f fc 0f 7c 3d 04 64 d4 40
       0.6256879 0.65206385 0.06153868 6.637209
0001f0 4e d3 36 42 00 de f0 3d 00 49 b5 bd d9 d5 ed 3e
       45.706352 0.11761093 -0.08851814 0.46452215
000200 d9 36 80 40 10 97 74 bc a0 23 f3 bb 63 5a f6 3d
       4.0066953 -0.014928594 -0.0074200183 0.12028959
000210 f8 ae 03 bc 34 5f 0a 3f d1 80 0a be 23 92 7a 40
       -0.008037321 0.5405152 -0.13525702 3.9151695
000220 3e 54 b3 41 50 59 cc 3d 5d 2b d4 3f 79 6d d4 3e
       22.416134 0.099779725 1.6575733 0.4148977
000230 c0 35 ce bd fd dc e2 bd 95 6c 66 bd f6 57 92 be
       -0.10068846 -0.110773064 -0.056255896 -0.28582734
000240 d7 a7 55 be 09 2d a9 41 7d 17 82 be 28 c2 59 bd
       -0.20864807 21.14699 -0.25408545 -0.053163677
000250 7e be 0c be ab d0 3c 42 43 cf 46 be b0 63 36 be
       -0.13744542 47.203777 -0.19415002 -0.17811465
000260 d2 1c 24 be 91 93 52 be ae e6 eb 3f 9c 00 e3 bd
       -0.16026619 -0.20564105 1.8429773 -0.110841006
000270 c0 86 4c 42 a6 a6 87 bd b0 a4 61 3e 33 4a 7a 40
       51.13159 -0.066235825 0.2203548 3.9107788
000280 fe 6b a0 3e 2f ed b2 3d bc 5f 12 41 b9 7a 04 3f
       0.31332392 0.087366454 9.148373 0.5174976
000290 6b 56 81 41 53 e8 b1 be ba d9 2c 41 2e 5e 64 3e
       16.167196 -0.34747562 10.803156 0.22301552
0002a0 65 69 cf 41 7d 0b 0b bf f1 03 0a 41 89 48 e1 41
       25.926462 -0.54314405 8.625962 28.160418
0002b0 78 9a f1 3e 05 09 1d be 47 82 a5 3f a4 88 1e 3f
       0.47188163 -0.15335472 1.2930382 0.6192725
0002c0 18 e6 3f bc 73 f8 ed 40 96 db 95 bd 69 20 2a be
       -0.0117125735 7.4365783 -0.07317273 -0.16613926
0002d0 12 12 ad 41 67 14 cf bd 17 d9 a8 bd c1 37 8d 3f
       21.633823 -0.10111313 -0.082445316 1.103264
0002e0 ff e1 e3 bd fd 90 ca be cc 48 67 bd 3d 0f b2 bd
       -0.1112709 -0.39563742 -0.05646591 -0.08694313
0002f0 0f dd 4d be b7 b6 fa 3c 4e 79 09 41 62 8b 2b be
       -0.20103858 0.030604703 8.592115 -0.16752389
000300 cb 53 27 42 ca c4 9e 40 1e 1b 24 be 0e a0 36 40
       41.83183 4.961522 -0.1602597 2.853519
000310 5d 4a 0f 3e 89 74 12 3d 21 52 1f be a7 21 8f 41
       0.13993211 0.035755668 -0.15558673 17.891432
000320 9e 2c aa be 49 26 a7 be 53 96 70 3f 57 b3 03 41
       -0.33237165 -0.32646397 0.93979377 8.231284
000330 7e 68 9b be c5 16 8f be be 10 4a 3d c7 5f 85 bc
       -0.3035316 -0.2794706 0.049332373 -0.016281022
000340 69 91 9f bd 01 f7 0a 40 53 1a 1b be 1b 17 0f bf
       -0.07791407 2.171326 -0.1514676 -0.5589463
000350 30 43 12 be e1 ff 7b be 96 1d c8 bd 78 d0 93 3f
       -0.14283442 -0.24609329 -0.09771268 1.1547995
000360 4c 41 95 be a9 84 78 be 39 64 3c 40 bd b9 a0 3e
       -0.2915138 -0.24269356 2.943617 0.31391707
000370 b9 11 83 40 d8 5a 52 be c9 fb a0 be 19 7f 40 3f
       4.0959134 -0.20542467 -0.31442097 0.75193936
000380 30 db d2 bd 5b 20 4a 3e 96 da 99 40 be 7e ef bd
       -0.10295713 0.19738905 4.807933 -0.11694096
000390 44 57 2a 42 3e 0f 6c 3f c8 1b 41 be 06 0d 7e 40
       42.58522 0.9221076 -0.18858254 3.969545
0003a0 be 8e 3a be 6a 96 30 be b5 5d 8b bd ff 3e f7 40
       -0.18218514 -0.17244878 -0.068049826 7.72644
0003b0 73 6d 14 3f 29 e5 09 41 47 f3 cd 3e ad e6 c0 40
       0.57979506 8.618447 0.40224668 6.0281587
0003c0 b0 23 66 3f ae d8 5f 40 45 fc 13 40 6f 47 4e bd
       0.89898205 3.4976 2.3122723 -0.050361093
0003d0 fd fa 88 be 41 85 7f be f4 60 af 40 59 04 a0 bd
       -0.2675399 -0.24953176 5.480585 -0.07813329
0003e0 0c 29 ce 41 f2 c8 cf 41 a1 d4 43 3f 16 68 de 3e
       25.770042 25.973118 0.7649632 0.43438786
0003f0 2f 95 9f 41 59 1f e6 41 29 d7 05 40 9f f6 54 3e
       19.947844 28.765306 2.0912573 0.20797203

layer2.6.weight f4 [1, 256]
000000 01 3f 0b bc 23 b6 99 3d 0d 71 36 3c 42 26 8d 3c
       -0.008498908 0.07505443 0.011135352 0.017230157
000010 7b 92 00 bd cf 0a 43 bc 2e 54 c9 bc 7d d3 ff 3c
       -0.031389695 -0.011904432 -0.024576273 0.031228775
000020 4e 36 5c bc ac 7b fc bc 50 42 7e bb 29 fd 59 3a
       -0.013440682 -0.03082069 -0.003879685 0.0008315617
000030 a7 f2 3b 3e 28 a2 0d bc de b0 38 bb 96 34 a1 3c
       0.18354283 -0.008644618 -0.0028181593 0.019678395
000040 4e a4 d8 3c 55 e1 9c 3b 9f fc 00 3d f3 ab 1d bc
       0.026445534 0.004787604 0.03149092 -0.009623515
000050 5c 4a 14 3a 80 e8 67 3c f1 e3 bb bc 5a b8 90 3d
       0.00056568324 0.014154553 -0.02293584 0.07066412
000060 61 9a c7 b9 87 cd 3c 3c f7 62 0a 3d f7 b0 da bb
       -0.0003807126 0.011523611 0.033785786 -0.006673928
000070 d7 8c 2a 3c 65 5f ff 3c 51 59 e7 3c 2e a5 15 bb
       0.010409555 0.031173417 0.028240832 -0.002283405
000080 73 99 be 3c 7e 78 9d bc ce e8 c3 3c d0 2d ca bb
       0.02326653 -0.019222494 0.02391472 -0.006170012
000090 0d 1a 30 3d 9e 27 64 3c 69 4f f8 3c 56 98 d2 3d
       0.042993594 0.013925461 0.030311303 0.10282962
0000a0 50 7e 8f 3c b2 27 7f 3c 8a 7b 93 bc 70 a1 e2 bc
       0.017516285 0.015573429 -0.018003244 -0.02766487
0000b0 57 ba a5 bc 70 1e 91 3c 43 9d e2 3b dd 48 b7 bc
       -0.020230455 0.017714709 0.0069157197 -0.022373611
0000c0 34 c3 65 3e 20 be b9 3c d5 97 d9 bc d1 72 5a 3b
       0.22437745 0.022673666 -0.026561657 0.0033332596
0000d0 40 09 3e bb 60 20 02 3d f8 7a 10 3d 62 1e 00 bc
       -0.0028997213 0.031769156 0.035273522 -0.007819744
0000e0 5d 11 99 bc d4 ff 69 3c 42 a9 19 3e 16 74 28 3c
       -0.018685037 0.014282186 0.15005973 0.010281583
0000f0 16 97 ad ba a4 8c fb 3c 27 c0 69 3c 23 44 6c b9
       -0.001324388 0.030706711 0.014267004 -0.00022532097
000100 a4 57 cf 3a 21 49 24 3c 3f d5 eb ba 39 86 e2 3c
       0.0015818966 0.010027201 -0.001799263 0.027651893
000110 e5 4e e5 3c 34 ad f1 bb 84 b4 6f 3b f5 e4 6a 3d
       0.027991721 -0.0073753837 0.0036576102 0.057347257
000120 7f 84 ee bb 24 ea da 3b 23 c2 22 3d 01 0f 75 bc
       -0.0072789784 0.006680744 0.039735924 -0.0149571905
000130 6f 05 81 3a 18 ec 67 3c 3b 8e b7 bb 41 b4 7a bc
       0.0009843538 0.01415541 -0.005601672 -0.015301765
000140 38 4e fc bc e1 cd 97 bc 77 92 d9 3c a0 86 5e 3b
       -0.030799016 -0.018530788 0.026559098 0.0033954754
000150 0a ca dd 3b c2 b6 f2 3b ea 51 e0 3c dd 5c 89 bc
       0.0067684697 0.0074070403 0.02738281 -0.016767913
000160 88 7a 26 bb de c7 f7 bc d0 c8 df 3c 18 0e 28 3e
       -0.0025402624 -0.030246671 0.027317435 0.16411626
000170 d3 9e 8b 3c 13 7a 2d 3b 33 c7 51 3d 6e eb b3 3e
       0.017043507 0.0026470467 0.05121536 0.35140556
000180 f5 ad 88 3c 54 55 10 3d 24 31 f1 bc 82 10 c5 3c
       0.016684512 0.035237625 -0.029442377 0.024055723
000190 08 a1 34 3d fa b0 3a bc 72 e8 ff 3c ec 50 4c 3e
       0.044098884 -0.011394734 0.031238768 0.19952744
0001a0 c2 04 b8 3b b0 0e 30 bc c6 ea d6 bc 3e 1b 30 3e
       0.0056158016 -0.010745689 -0.026234996 0.17197892
0001b0 a7 6d f8 bc 0f 5f bd 3a 30 60 9b bc df 9a 43 3e
       -0.030325724 0.0014447885 -0.018966764 0.19102047
0001c0 a7 ac db 3b 76 9f 82 3c 9f 06 ab 3c f9 7a e2 3c
       0.0067039314 0.015945178 0.02087718 0.027646529
0001d0 8d 51 b8 ba 11 3f f4 3e 89 ae b9 bc ce 32 01 3c
       -0.001406239 0.47704366 -0.022666233 0.007885648
0001e0 41 a2 9f bc 50 51 69 3b e4 59 8b bb 7a c9 85 bc
       -0.019486548 0.0035601445 -0.004252659 -0.016331423
0001f0 7f 6c 87 3b b1 27 8f 3c fe 4b e1 3c d6 5a 93 bc
       0.004132807 0.017474981 0.027502056 -0.01798765
000200 a8 ca e5 bc 3e 3f ad 3b 13 51 e9 bb 97 87 a7 bb
       -0.028050736 0.00528708 -0.0071202605 -0.005112599
000210 b3 91 6a bb 42 f2 00 3d 51 35 2a bc 9c e6 a6 3d
       -0.003579241 0.031481035 -0.010388688 0.08149454
000220 dc 55 81 3e c6 c4 30 bc 53 7c 8f 3c c7 c5 0d bc
       0.25260818 -0.010789102 0.017515337 -0.008653111
000230 a7 91 fb bc 3b 05 e6 3c 1d 17 0b 3c 72 33 9d 3c
       -0.0307091 0.028078666 0.008489397 0.01918957
000240 58 ed 92 3c 00 1d 86 3d 0d 20 a9 3b 4c 0e ec 3c
       0.01793544 0.065485 0.0051612915 0.028815411
000250 34 6a 9b ba 1b 19 7b 3d a4 96 a9 3c 3f 99 4c bb
       -0.0011857213 0.06130324 0.020701714 -0.0031219271
000260 fc 96 c0 3c 0a da 9e 3b 7f 2d bf bc d9 0b 0b bc
       0.023509495 0.0048477696 -0.023337124 -0.008486711
000270 50 70 f9 3c f1 5e 93 bc 45 62 3f bc 02 d2 b5 3c
       0.030449063 -0.017989608 -0.011681144 0.022194866
000280 79 ae 0b 3c 65 54 66 bd 37 a9 3b bd 9c fd 4d 3c
       0.008525484 -0.05623283 -0.045815673 0.012572672
000290 63 4e 51 bc 1a 5a c4 3b 33 0f 49 3e 3a 8a ef bb
       -0.0127750365 0.0059921863 0.19634704 -0.007310179
0002a0 ec 28 90 bc c3 bb db 3c c2 03 75 bb 47 18 22 bd
       -0.017597638 0.02682293 -0.0037386273 -0.039573934
0002b0 13 60 84 bb df 28 96 bb 5d db 9b 3b 1d 90 b3 bc
       -0.0040397733 -0.004582509 0.0047563748 -0.021919305
0002c0 2e 3c 26 3a 15 28 3d 3d 52 8c af 3c 65 6e 72 3b
       0.0006341365 0.046180803 0.021429215 0.003699207
0002d0 f0 54 9a 3e 59 5d 5a bd 50 6a 19 3b 9e 4e b5 3c
       0.30142927 -0.05331168 0.0023409314 0.022132214
0002e0 81 7d 0e bc 93 97 79 bc 80 ab 34 bc fe 11 f4 3c
       -0.008696915 -0.015233892 -0.011027217 0.029793736
0002f0 08 d7 73 bb b9 a8 bf bc ae ff a6 bd 49 ac e4 bc
       -0.0037207026 -0.023395883 -0.08154236 -0.027914183
000300 9b b4 45 3d 6c 88 c3 3a 67 55 bd bc 77 1e bb 3c
       0.048267942 0.0014917976 -0.023112012 0.022841675
000310 b9 35 aa 3c 5a f3 33 bc f4 4d cd bc d3 7e 8c 3e
       0.02077757 -0.0109833125 -0.025061585 0.2744051
000320 cb 3e b0 3c e5 3b 2d 3c 70 cd cd 3d df fc 95 3d
       0.021514317 0.010573362 0.1004895 0.07323622
000330 c7 9a 4f bc 3b 32 b0 bc 58 51 78 3c 49 f8 1b 3c
       -0.012671179 -0.021508327 0.015156113 0.009519645
000340 e1 4a 89 39 fd ea 6e 3a a7 1e 8d bb 20 2b e6 bc
       0.00026186465 0.00091139955 -0.0043066326 -0.028096735
000350 d3 7e db 3c a4 6a 35 bb 01 eb 02 ba f4 8f 62 bc
       0.026793873 -0.002768197 -0.0004994125 -0.013828266
000360 23 17 02 3d 9e 99 aa bc 65 37 b7 bc 4b ed 41 bc
       0.031760346 -0.020825204 -0.022365281 -0.01183636
000370 66 cf e0 3b c4 76 a6 bc ad 08 31 bc 5c c4 ba 3c
       0.0068606613 -0.020320304 -0.010805291 0.02279871
000380 9a b7 02 3d 73 82 bb 38 fd 20 db 3c 78 44 a7 bc
       0.031913377 8.941153e-05 0.026749128 -0.02041839
000390 e0 5b 2a bb 6a c5 6d bc 06 ad e5 bb ef 47 00 bb
       -0.0025994703 -0.014512399 -0.0070091514 -0.0019574126
0003a0 39 af 01 3d 99 50 e0 bc 57 a4 e4 3c c8 41 c6 bd
       0.031661246 -0.027382182 0.027910395 -0.096805155
0003b0 49 41 0b 3c 2e 86 46 3d 1d 51 b3 bc af 5d f6 3d
       0.008499452 0.048467807 -0.021889264 0.120295875
0003c0 25 d0 69 3c ad 8e 61 3c 73 d9 e2 3b 11 f2 e4 3c
       0.014270817 0.013766927 0.0069228946 0.027947458
0003d0 b3 1d eb 3c 75 2b b7 bc a0 26 27 3e 86 e8 02 3d
       0.028700685 -0.02235959 0.16323328 0.031960033
0003e0 cc 9f a1 3d 57 0e dc 3d 97 33 f4 bc 07 e7 48 3d
       0.07891807 0.107449226 -0.029809756 0.04904845
0003f0 ea 0b 7f 3e 08 81 08 3f 51 67 ec bc 02 9a d1 bc
       0.24906889 0.53321886 -0.028857859 -0.025586132
