Saved_data_files/bpi_no_repeat/lr_all_variants/laplacianOnWeighted/TimestampPredictor_parameters_laplacianOnWeighted_1e-05.pt (torch, 274439 bytes, 7 tensors)

layer1.weight f4 [4, 1]
00000000: 0a75 ad3e 7ec2 223e 6c02 81bf 546a 74bf
0.33878356 0.15894505 -1.0078864 -0.95474744

layer1.bias f4 [6]
00000000: d0a3 773f 5b07 c83f 9482 073f 1e1f 3c3f
00000010: c549 68be 5d8a 01bf
0.96734333 1.5627245 0.5293362 0.7348498 -0.22684391 -0.5060175

layer2.1.weight f4 [256, 6]
00000000: 0d20 a7be 0fb6 023c f1be 373b 67ff aa3e
00000010: 1d01 3fbc fcd5 9dbe fdd9 a73e a276 b2be
00000020: 4be8 9abe 26bc 743e 133c 093e 08d5 84be
00000030: efc9 77bd 6793 c43d 905e ccbd 3f0d 803e
00000040: e8f4 9f3e 8c54 bfbe 4495 503d c447 ec3d
00000050: 77ce 99be 372e 17be cfe9 f73c 745e 813e
00000060: e686 4dbe 89a7 d3bd bf7d 00be c9ed dc3e
00000070: 1809 fa3d 1953 00bd a054 0dbe 13e8 eb3e
00000080: 7647 f3bc 0321 4ebe 9337 eebd fabe 06be
00000090: 5cc3 8b3c 4eed bf3e 1774 293e fe00 673e
000000a0: 75fb 623e 5d50 573d 2ded c7bc e62b b43e
000000b0: da48 2abe 7d09 e13c bbb4 573e 2b86 193e
000000c0: b5d1 013f 021d c73e b86f 0f3d c9d3 5cbd
000000d0: 119e 5f3e f3c4 9abe 8e2a 6e3e 14aa afbd
000000e0: dee5 98be c503 063e ceba 33be b1f6 8bbd
000000f0: 7fd2 933e a2a7 c43d b7e7 9abe ea99 8e3e
00000100: 22f2 81be efda 7ebe e793 93be b770 ddbe
00000110: 258e 383e 6d13 dd3e abfb e43e 97e9 3a3e
00000120: e3ae 1e3e 3c77 b1be 06ba e73e 3d5f eebd
00000130: 05ef 923e 05c7 d43e d8c3 0e3e 978b 75b9
00000140: 88d0 aabe d865 74be 879b 84bd f132 5a3e
00000150: 33c1 933d 647c c43e cf5b b7be d3bf 42bc
00000160: 57ad da3c ac66 a23e 8f63 89be 2f60 c23e
00000170: 3a6d 9cbe d500 93be 92da 9abe cc4d 50bc
00000180: 7168 c13e 1f62 80be 097a 203e 2644 dfbd
00000190: e24c 0b3e 74dd 92be f7ca 9c3e 2b41 5dbe
000001a0: f6d3 903d e6b3 ae3e 23ec b0be ab7b 8abe
000001b0: 981e 9ebe 9875 dfbe 5129 99bd a3b6 5c3e
000001c0: 129a d43d 293e ff3c d482 d93e eaf5 b8bd
000001d0: de6d fdbd 83fe d33d 710c a83c 460d 203e
000001e0: acca ff3e 26b8 ee3e d884 383e 0736 883e
000001f0: e35a 653e ae9e 06bd cfec 9839 4354 e03e
00000200: 8ae7 613e 1b09 803d 6bcd 263b a7f6 ed3c
00000210: 3b22 653e 7d4a 193e 3631 073e 320e a6be
00000220: 8197 adbe d9ec c33e 1e2a b53e 4bcb d43e
00000230: 6ced 6dbe f8c3 c5be 870e 25be 3112 903e
00000240: 1b03 d93e 4f0a 4abd f6ad 9d3c cf62 373e
00000250: 6455 00bb 31fb 83bd c254 863e 100f 593e
00000260: ad00 d1be 8c58 16be 7e39 b5be fd16 b0be
00000270: d7a1 0abe 2525 09be e8c2 6abe 24b7 2dbd
00000280: f3f8 35bd 47e0 343e 3ed5 86bd 2eee 2cbd
00000290: 531d 763e 432c b6be b90d 893d 04ae ca3e
000002a0: 38ba 52be e233 b0be 7c4c 933e a1f8 97be
000002b0: e682 973e bac5 8ebe c2c2 0bbb 9400 dabe
000002c0: 6526 2f3e 1617 afbd a618 b7be 7fef 813c
000002d0: 9e94 8f3e bfaf abbc a4ba 8f3e 9767 42be
000002e0: 99e6 563e 3c57 a53e 3be7 9fbe cf75 d7bd
000002f0: 148c 6c3e aa0d 95bc 8a2a a5be 36e5 7c3e
00000300: 194e 713e 0c46 aebe 5517 963e d568 c03e
00000310: e62d b2bb 6306 393e 6260 04be 54a0 843e
00000320: 958c a9be 80fe 50be 7c9b b43d 8f83 b1be
00000330: c324 d23e 9bc1 bfbe c7d4 4f3c e91c 7a3e
00000340: a919 3f3e 0285 a83e fa82 633d a090 dfbc
00000350: 1f1a 123e 7961 b3bd 73b8 d6bd b7d4 b8be
00000360: abe2 723d b060 debd de21 163e 836d 213e
00000370: 7c7a a13e 85ad dabe e083 b9be ca28 b13e
00000380: 4b18 363e 254d 9bbe b965 92be d455 a33e
00000390: dd4c c9bd 591b fbbe 63d7 d2be 9974 c13d
000003a0: ab49 07be 5f53 bcbe ff19 4d3e 95b8 56be
000003b0: de11 b7be 962b c13e 4e0c c2bd 9493 8dbd
000003c0: 195e c53e 8ba3 303d 92c4 9bbe 28ad 983e
000003d0: b478 9d3e f2e5 6e3e c2db e23e 6f72 413c
000003e0: 527b 883d 28c9 6bbd ea86 063e 9fa0 edbd
000003f0: 4afb 8ebe 100f e9bc a805 60be df8f 273e
-0.3264164 0.007977976 0.0028037394 0.33397982 -0.01165798 -0.3082732 0.327835 -0.34856135
-0.3025535 0.23899898 0.13401823 -0.2594378 -0.060495313 0.09598427 -0.09978974 0.25010106
0.31241536 -0.37369192 0.0509236 0.11537126 -0.30040333 -0.14763723 0.030262856 0.25267375
-0.20070991 -0.10334689 -0.12547968 0.43150166 0.12208766 -0.031329248 -0.13801813 0.46075496
-0.029697161 -0.2012978 -0.11631694 -0.1315879 0.017060928 0.37485737 0.16548191 0.22558972
0.22166236 0.052566875 -0.024405086 0.35189742 -0.16629353 0.027470345 0.21065037 0.14992587
0.5071061 0.3888932 0.035018653 -0.05391291 0.21837641 -0.30228385 0.23258421 -0.08577362
-0.29862875 0.13087375 -0.17551729 -0.06834162 0.28871533 0.09602286 -0.3025491 0.27851802
-0.25380045 -0.24888204 -0.28823778 -0.43250057 0.18022974 0.43178883 0.44723257 0.1825317
0.15496401 -0.3466128 0.45259112 -0.11639259 0.28697982 0.4155809 0.13941896 -0.00023417022
-0.33362222 -0.23866975 -0.06474977 0.21308495 0.07214584 0.38376153 -0.35812232 -0.011886555
0.026693983 0.31718957 -0.2683377 0.37964007 -0.30552083 -0.28711572 -0.3024488 -0.012713861
0.37774995 -0.2507486 0.15671553 -0.1090167 0.13603547 -0.2868458 0.306236 -0.21606891
0.07071678 0.34121627 -0.34555158 -0.27047476 -0.30882716 -0.43644404 -0.074785836 0.21554045
0.10380949 0.03115757 0.42482626 -0.090312794 -0.12374471 0.10351279 0.020513745 0.15630063
0.49959314 0.4662487 0.18019426 0.2660372 0.22397952 -0.032866172 0.00029168135 0.43814287
0.22060981 0.06251737 0.0025452028 0.029048277 0.22376339 0.14969821 0.13202366 -0.32432705
-0.3390465 0.38266638 0.35383695 0.4156135 -0.232351 -0.38626075 -0.16118823 0.2813888
0.42385182 -0.049326237 0.01924799 0.17908786 -0.0019582147 -0.06444395 0.2623654 0.21197152
-0.40820828 -0.14682215 -0.35395426 -0.3439254 -0.135383 -0.13393076 -0.22925913 -0.042410985
-0.04442687 0.1766368 -0.065836415 -0.042219333 0.24034624 -0.35580644 0.066920705 0.39585888
-0.2057885 -0.34414583 0.2876929 -0.29681876 0.29592055 -0.27885228 -0.0021325801 -0.42578566
0.1710449 -0.08549325 -0.35760993 0.015861271 0.28043073 -0.020957826 0.28072083 -0.18984829
0.20986404 0.32293117 -0.31231102 -0.10520517 0.2310031 -0.018194992 -0.32259017 0.24696812
0.23564948 -0.34037817 0.29314676 0.3757998 -0.0054376004 0.18068843 -0.12927392 0.2590357
-0.33115068 -0.20409584 0.08818719 -0.34670684 0.41043672 -0.37452397 0.012685007 0.24425091
0.18662132 0.32913977 0.05554483 -0.027290642 0.14267777 -0.08758826 -0.104844 -0.3609979
0.0592982 -0.108582854 0.14661357 0.15764432 0.3153876 -0.4271051 -0.36233425 0.34601432
0.17782705 -0.30332294 -0.28593233 0.3190142 -0.09829114 -0.49044302 -0.41179952 0.09446067
-0.13211696 -0.36782357 0.20029448 -0.2096885 -0.3575582 0.37728566 -0.09475003 -0.06912914
0.38548353 0.043124717 -0.3042341 0.29819608 0.30756152 0.23329905 0.44308287 0.011807068
0.066641465 -0.057564884 0.13137403 -0.11602902 -0.27926093 -0.028449565 -0.21877158 0.16363476

layer2.1.bias f4 [256]
00000000: 6fbb 1abd 22f1 293f e812 8cbe a884 ce3e
00000010: 5375 7dbf 40e5 873f e1ab 863f 1ec0 8e3f
00000020: dff8 e33f d651 a63f b4b3 443f 7996 95bf
00000030: b50e 91be 0146 f3be faac 80bf 7c4e 78bf
00000040: e970 653f d685 1cbf 43a8 e3be 8867 4d3f
00000050: 2e2a bf3f 79f0 e23f 7357 93be 9386 343f
00000060: 128f 9e3f da7e 64bf 03f8 76bf 6749 86bf
00000070: fb36 a5be 59e5 d4be 37eb 063f c778 f1bd
00000080: dceb f13e 1ea5 6d3f 6707 603f a8db e1be
00000090: 8ec8 70bf e677 8fbf 0055 53bf 8577 0dbf
000000a0: bd2a c73f ad36 623f 7b55 1fbd 2646 d5be
000000b0: 3536 a9bf 9fe9 72bf 6426 cd3f 2fcc 03bf
000000c0: 1669 0d40 3fdb 1f3d 6df3 93be d8a0 7dbf
000000d0: cf57 803f 8738 213e baed 7dbe 1abe f6be
000000e0: b8c0 b53f f8b9 1e3f eec8 3fbe 3942 92bf
000000f0: 5260 573f 9611 96bf d411 ff3f c3c5 8b3f
00000100: dbc8 3abe 9fc7 0fbf 088d bdbf 0866 8ebf
00000110: 76b2 593f a68d acbe a1d9 44bf adde 76bf
00000120: b874 b23f 83aa 80bf c35a 9cbe e4e2 41bf
00000130: 0077 73bf b69b b93f d8b0 473d 3831 9dbf
00000140: b1ba 8abf 9d6f c9be 4344 093b fa8a 5ebf
00000150: 5446 0640 d1df 32be 10a7 9cbf 992c 313f
00000160: b975 24bf eb0c f1be 585c 123f dd4e 8dbf
00000170: 9cd4 8b3f 56b2 8c3f a1cc 90be 1ae2 563e
00000180: 7b4a 3abf f117 ab3f 5a09 59bf d12a 85bf
00000190: 3df2 13bf 47f1 833f 0d2b 4dbf d23c f73f
000001a0: a7d5 a8bd 41c2 d33f a5bc 163e 343b 0040
000001b0: e09b 593f 700d 19be de4a ebbe a55f 1a3e
000001c0: 276c d6be ef6c 203f e2b7 80bf 0848 79bd
000001d0: 265a d6be 1525 12bf 8334 51bf ccee 453f
000001e0: 0bc6 1bbf fe2b 2b3f 6d53 e5be f7aa 1f3f
000001f0: 035d 8f3f a8b3 56bf d93e 923d d8aa 713e
00000200: e40c 24be 57fc 713f bd9b 4e3d 662d f2bd
00000210: 15c0 ebbd 5534 953f c0c5 1abf fd8f 783f
00000220: b732 50be 4cce 163e 667c cebd 61bd b7be
00000230: b2dd f3be 3e0f 0c40 9dda f0be 352c 4ebe
00000240: 88bd 95bf 0e5c 48bd 1ff8 bdbf d6ff 6dbf
00000250: f4f3 a83f 5d65 29bf c6c8 1c3e a4c4 a53e
00000260: 8bda 6a3f f041 ba3f f0b8 943f a96a db3f
00000270: b7dc 483d 5a0f 1cbf 68c6 90bf b4f2 babe
00000280: 22da c33f ed2a 26bf 9b88 a53f 526c c3bf
00000290: 200c 253f fb91 623f c823 81bf 28ab 23bf
000002a0: 3744 b33f 99e7 d9be 8cfd 05bd 3adb c43e
000002b0: c379 82be b338 2abf f5c9 9fbf 0525 313e
000002c0: 764d cfbe 2da0 4dbe 71a6 ea3f 20dd 50be
000002d0: 1074 b03f fb1f 7f3f 1eab 44bf 5d78 a33f
000002e0: de77 d1be 36bc 38bf 4845 0a3f abe3 f73f
000002f0: b481 81bf ff41 703f 6cfd 64bf 4ddb 3bbf
00000300: 8b03 e23e adeb 99bf 2ad7 a23f 8c78 91bf
00000310: 5ad9 843d 7385 2d3f 4719 c8bd b5de 363f
00000320: e045 863f 5eb0 9b3f d322 5ebf cdee b73f
00000330: 6532 9ebf e1e2 2ebe 8590 58be c2e8 7cbf
00000340: e044 99bf b689 41bf bb44 823e c00e 70bf
00000350: 5468 8c3f 05d8 26bd 2412 93be aaa4 9cbe
00000360: 9319 03bf c61b d1be 6eaf 0d40 53c5 4abf
00000370: 2c96 a03e a3c7 d1bd 214c 17bf b02f 65bf
00000380: 9391 d53f 4b8d bbbd 78a4 bdbe 5e34 b43f
00000390: 079c 9f3f b1f5 0fbf a231 d13f 9c8b d43f
000003a0: 6581 57bf e1ee d6be 692d ce3f 4b83 acbf
000003b0: fdd0 6abf 033d ed3f 16b3 47bf f3ab bc3f
000003c0: 24d3 993f 5edf a6bf 97f5 113e e5ef e7be
000003d0: d05d 0940 acec 57bf 1d19 973f 7229 e53e
000003e0: 271c 4d3e 055f 38bf f488 56be 8017 82be
000003f0: adca 763f 86cd 193f 57e7 943f f9a3 49bf
-0.037776407 0.66383564 -0.27358174 0.40335584 -0.9900715 1.0616837 1.0521203 1.115238
1.7810324 1.2993724 0.76836705 -1.1686546 -0.28331533 -0.47514346 -1.0052788 -0.9699476
0.8962541 -0.6114172 -0.4446431 0.802361 1.4934747 1.7729636 -0.28777656 0.70517844
1.2387412 -0.8925606 -0.96472186 -1.0491151 -0.3226851 -0.41581228 0.5270266 -0.117906146
0.4725026 0.92830074 0.87511295 -0.44112897 -0.9405602 -1.1208465 -0.82551575 -0.552605
1.5559918 0.8836468 -0.03889988 -0.41655082 -1.3219668 -0.9488773 1.6027341 -0.51483434
2.209539 0.03902745 -0.28896657 -0.99073553 1.0026797 0.1574422 -0.24797717 -0.4819191
1.4199438 0.62002516 -0.18728992 -1.142646 0.8413135 -1.1724117 1.9927316 1.0919727
-0.18240683 -0.5616397 -1.4808664 -1.1124887 0.85037935 -0.3370182 -0.76894575 -0.96433526
1.394187 -1.0052036 -0.30537996 -0.7573683 -0.95103455 1.4500644 0.048752636 -1.2280645
-1.0838224 -0.39342967 0.0020945228 -0.8693081 2.0980425 -0.17468192 -1.2238483 0.69208676
-0.6424213 -0.47080168 0.57172155 -1.1039692 1.0924258 1.0991924 -0.2828112 0.20984688
-0.727699 1.3366681 -0.84779894 -1.0403692 -0.577915 1.0308007 -0.80143815 1.9315436
-0.08243876 1.6543657 0.147204 2.0036135 0.8500347 -0.14946532 -0.45955557 0.15075548
-0.4187939 0.6266622 -1.0056117 -0.06085971 -0.41865653 -0.5708783 -0.8172075 0.773175
-0.60849065 0.66864 -0.4479021 0.62370247 1.120026 -0.83867884 0.071408935 0.23600328
-0.16020542 0.94525665 0.050441492 -0.11825065 -0.11511246 1.1656595 -0.6045799 0.9709471
-0.20331846 0.14727134 -0.10082321 -0.35886672 -0.47630078 2.1884303 -0.4704179 -0.20134051
-1.1698465 -0.048915915 -1.4841346 -0.929685 1.3199449 -0.66170293 0.15310964 0.32376587
0.9173972 1.4551373 1.1618938 1.7141925 0.049038615 -0.60960925 -1.1310549 -0.36513293
1.5300944 -0.6490925 1.2932314 -1.5267432 0.64471626 0.88504 -1.0089045 -0.6393304
1.4005193 -0.42559507 -0.032712504 0.38448507 -0.25483522 -0.66492766 -1.2483507 0.17299278
-0.40488786 -0.20080633 1.8332044 -0.20396852 1.378542 0.99658173 -0.76823604 1.2771107
-0.40911764 -0.7216219 0.54011965 1.9366354 -1.0117707 0.938507 -0.8944919 -0.733815
0.44143328 -1.2025048 1.2721913 -1.1364913 0.06486769 0.6778175 -0.09770446 0.71433574
1.0490074 1.2163198 -0.8677189 1.4369751 -1.2359129 -0.17078735 -0.2114888 -0.9879266
-1.1974144 -0.75600755 0.25443062 -0.93772507 1.0969338 -0.040733356 -0.28724778 -0.3059438
-0.512109 -0.40841502 2.2138324 -0.7920734 0.31364572 -0.10243156 -0.5910054 -0.8952589
1.6685051 -0.09157809 -0.37039542 1.4078481 1.2469491 -0.5623427 1.6343272 1.6605105
-0.84181815 -0.41979125 1.6107608 -1.3477567 -0.9172514 1.8534244 -0.7800764 1.4739975
1.201756 -1.3036916 0.14253841 -0.45300213 2.1463509 -0.8434551 1.1804539 0.44758183
0.2003027 -0.7201999 -0.20950681 -0.25408554 0.9640301 0.6007923 1.1633099 -0.7876583

layer2.3.weight f4 [256, 256]
00000000: 3d04 fd3c 069d 8f3b 0312 e63b 7d93 db3a
00000010: 900e 8a3c bb79 5b3d 806c ce3c 0e8f c9bc
00000020: 7263 633d 6c76 713d 320a f23c 43e4 143c
00000030: dd25 2e3d 4297 c13a 2e16 34bd 4f13 e23c
00000040: 2600 b53d a078 1cbd 779d 833d 1798 493d
00000050: 7937 d2bb 10d0 f7bc 7bd3 363d 2343 e43c
00000060: 085a af3d 3d9e 283c a5b7 a03c 9aea 453c
00000070: 0899 b23c bc3a 9f3c f0b3 f13c d545 d23b
00000080: 5e06 beb8 ad14 dcbb 10b5 34bd 928c 5a3d
00000090: f71a 193d d816 77bc a1e5 803d b375 2c3d
000000a0: 7112 95bc e3f8 e53d 8fa1 183d bb61 f2bc
000000b0: 8af7 57bd 0ff8 013d d52a d8bb 3c56 68bd
000000c0: d5ae 2d3b a5fa ffbc 51b0 363d a94f bf3c
000000d0: d4ab 5b3c a0e8 7ebd 7379 23bd ffe9 873c
000000e0: 426a 4f3d b44c db3c adc7 a33c 450e c9bc
000000f0: e9e8 81bd 1db7 2a3d 55fc 873c fce9 b73d
00000100: 394b 6d3d 020c 13bd e753 98bd 15fe 3c3c
00000110: f43b 1bbd 278a 82bd c829 843c 516f bdbc
00000120: 8c24 68bd c2e6 7f3d 0af4 4ebc f763 3e3d
00000130: bd7f a5bc 153a 863d 1bd6 73bd c2d7 94bd
00000140: 890b 25bd ac2a 84bd ea35 10bd 9829 303d
00000150: 5172 71bd 36ec bebc d12e 433d c838 5dbd
00000160: c217 6fbd 576f 8bbc 0b30 03bd 8da4 54bd
00000170: 0f64 cd3c 8c84 b4bc f8cb 4ebb 5d33 933c
00000180: 9f41 e93c 21a5 293b 02f0 f83c 911f 83bd
00000190: 50a4 3ebd 07da c7bb a16a 303d 51cd 01b6
000001a0: 3dc0 64bd 655e c03c a838 893b f804 343d
000001b0: 2d19 1fbd e42f 39bd 524e 69bd 6828 143c
000001c0: d9f3 82bd c233 693d 136d 49bc 0502 a43a
000001d0: 8498 8f3c 2dd4 a6bb b8b6 2fbd 4dfd 3f3d
000001e0: d5b7 203b 9a11 9abb 8cea 3d3c 302b 5c3c
000001f0: b3cc 973c 8a2c 0cbc 55cf 66bd bc68 af3d
00000200: c6ac af3c e462 c33c fdab 823d 6d88 993c
00000210: 079b 6fbc 44e9 97bd 3b42 233d 332e 05bd
00000220: 1797 9c3b 5597 c93a 9c1b 96bc 2c77 753d
00000230: 78ee b7bd 8361 bb3c d732 883d 338e 373b
00000240: ae64 0bbd 373f 56bd 298b 7cbd 0846 7dbc
00000250: 0061 90bc 36ef 7d3c ad01 65bd 59e9 ccbc
00000260: 719f 0c3d ca9a ffbc d453 043c e077 a43c
00000270: e215 21bd defe 03bd 5eab d2bb c702 023d
00000280: 5d0a 753d 6735 793c 366f 13bd bb0c bdbc
00000290: ecec fb3c fe7f 513b 1880 5abd 5e6c 423c
000002a0: ac81 aebc a321 b3ba ada2 bc3c 0e4c 363d
000002b0: abc0 2c3c 81b6 fd3c 2fcf f63c 20e1 fb3b
000002c0: e3eb 8ebd 9d1a 57bd 0bfb ad3d 3be7 0dbd
000002d0: ba54 44bc adb3 18bc d61f fbbc 9216 b8bd
000002e0: 3238 ce3b 0a05 233c c77a fb3c 81bd 0f3d
000002f0: a759 cc3a 6d58 543d 8c46 bbbc 0725 7fbc
00000300: 7157 183b c08a 8cbd 68d9 313c 0ac8 b8bd
00000310: 4767 6d3d e84c f5bc d611 f03c 9796 4abd
00000320: 94f8 15bb 1d42 833c 00f8 133c 9fc4 10bd
00000330: 34bc 0a3d a3f1 50bc 73d5 0ebd dd23 49bd
00000340: 23f8 d03c bd58 0e3d e536 cabb 0e20 09bd
00000350: e779 4b3d e431 0cbc 4be7 0e3a 2951 1bbb
00000360: efdf 413c 8dc6 c1bc f0e0 263c fe2f ddbc
00000370: 6f97 303c 8c62 56bd c08f b13b b7cc bbbc
00000380: db0e e73c 995e b6bc d8d2 7a39 88d5 2d3c
00000390: 6757 c9bc e173 50bc 4072 5fbd 2421 afbb
000003a0: 73b5 7abd b56f 273b b7bd b2bc ca37 de3c
000003b0: 0993 2dbd 6809 cb3d 7bae 20bd f6e2 8f3d
000003c0: cc47 083c 3de4 8c3c f632 81bd dec4 38bc
000003d0: 6987 c23d f524 eb3c 21f1 cb3c a777 163d
000003e0: de8b c93c 0add 16bb bef1 ffbc 7cde 98bc
000003f0: 375f 47bd e821 6dbc c814 75bd 7f02 2d3d
0.03088581 0.0043827323 0.00702119 0.0016752329 0.016852647 0.053582888 0.025198221 -0.024604347
0.05551476 0.058950827 0.029545877 0.009087625 0.042516578 0.001476981 -0.043966465 0.027597098
0.08837919 -0.038200974 0.064265184 0.04921731 -0.0064153043 -0.03025058 0.044635277 0.027864045
0.08562094 0.010291633 0.019618819 0.012079859 0.021801487 0.019437186 0.029504746 0.006417016
-9.061092e-05 -0.006716332 -0.044117987 0.053356715 0.03737923 -0.01508113 0.06293798 0.042104434
-0.01819727 0.11229112 0.03726345 -0.029587617 -0.052726306 0.031730708 -0.006596903 -0.056722865
0.0026501913 -0.031247446 0.044601742 0.023353415 0.013407666 -0.062233567 -0.039910745 0.01659107
0.050638445 0.026769973 0.019992674 -0.024542937 -0.06343252 0.041678537 0.016599813 0.08980176
0.057933066 -0.035900123 -0.07437878 0.011535187 -0.037898973 -0.06374007 0.016133204 -0.023124369
-0.05667548 0.062475927 -0.012631426 0.046482053 -0.020202512 0.06554047 -0.05953036 -0.07267715
-0.040294204 -0.064534515 -0.035207666 0.043008417 -0.05894691 -0.023305994 0.04765207 -0.05400923
-0.058372267 -0.017020864 -0.03202824 -0.05191474 0.025072126 -0.02203586 -0.003155468 0.017968828
0.028473673 0.0025885778 0.030387882 -0.06402505 -0.04654342 -0.006098989 0.04307044 -1.9342008e-06
-0.055847395 0.02348251 0.004187662 0.04395005 -0.03884237 -0.045211688 -0.056959458 0.009042837
-0.063941665 0.056934126 -0.012294072 0.0012512809 0.01752878 -0.0050912113 -0.042898864 0.046872426
0.0024523635 -0.0047018053 0.011591565 0.013438031 0.018530225 -0.008555541 -0.05635007 0.08564898
0.02144469 0.023850866 0.063804604 0.01874181 -0.014624364 -0.07417539 0.039858084 -0.032514762
0.0047787535 0.0015380183 -0.018323712 0.059928104 -0.08981031 0.022873646 0.06650322 0.0028008341
-0.034031563 -0.05230638 -0.06165615 -0.015458591 -0.017624378 0.015498927 -0.0559098 -0.025013613
0.034331743 -0.031201739 0.008076627 0.020076692 -0.03932751 -0.032225482 -0.00642912 0.03174093
0.059824336 0.015210486 -0.03599473 -0.02307736 0.030752622 0.0031967158 -0.053344816 0.011866657
-0.021302067 -0.0013666641 0.023026789 0.044506125 0.0105439825 0.030970814 0.03012809 0.007686749
-0.069785856 -0.052515615 0.08495148 -0.034644347 -0.011983091 -0.009320182 -0.030654829 -0.0898868
0.00629332 0.009949932 0.030698193 0.035092834 0.0015590683 0.051842142 -0.022860788 -0.015572793
0.0023245479 -0.06862402 0.010855056 -0.090225294 0.05795982 -0.029943898 0.02930538 -0.04946002
-0.002288376 0.016022736 0.009031296 -0.035343762 0.03387089 -0.012752923 -0.03487153 -0.049106468
0.025508946 0.034752596 -0.0061710947 -0.033477835 0.049676802 -0.008556817 0.00054513355 -0.0023699498
0.011833175 -0.023654247 0.010185465 -0.027000424 0.010778292 -0.052340075 0.0054187477 -0.022924764
0.028205326 -0.022261905 0.00023920403 0.010609992 -0.02457781 -0.01272294 -0.054552317 -0.005344527
-0.0612082 0.002554876 -0.021818979 0.027126212 -0.04237655 0.099139035 -0.039228898 0.07025711
0.008317899 0.017198676 -0.06308548 -0.011277406 0.09498484 0.028704146 0.024895253 0.036735203
0.024602827 -0.0023019933 -0.031243201 -0.018660776 -0.04867479 -0.014473416 -0.05983427 0.04223871

layer2.3.bias f4 [256]
00000000: b51c a23f 737c 8a3f 359b 8abd 57ab d03f
00000010: 69c9 893f 5e94 75be 4906 c6bd df2a 41be
00000020: e58e b03f b526 9e3f 34b2 9e3d 7b8b eabd
00000030: 72b2 863f 990a d6bd 40c2 36bc 850f e1bd
00000040: 8f92 883f 15df acbd e433 9a3f 4130 ca3f
00000050: 789e c53f f12e e3be 2051 14bd 55b5 62be
00000060: 4bdf 72be ef06 08bf 1f3d b4bd 1cbb 493e
00000070: 6785 813c 8745 18be b54a 84bc 76e8 953f
00000080: b7a2 ce3d fae6 933e b56e a43f 09bf 9c3f
00000090: 69e5 57be 2644 413f 60c9 9ebd 8916 e8be
000000a0: 16b8 c23f c7d9 28be 9380 0fbe f32d a5bd
000000b0: cf0a 4dbe 208a a43f b154 bb3f 3f29 823f
000000c0: b964 20be 5097 a73f ca7a 9f3f ed57 2dbe
000000d0: b627 99be e715 3d3d a857 3bbe 447a 52be
000000e0: fb1c ac3f 9e42 ba3f eb33 8d3f 7d7a 74bd
000000f0: 859b 643f 8634 d13f 0236 833f 12c1 59be
00000100: c9cf bf3f c0b6 3d3e ad0c 87be 2a2b 613f
00000110: b29c 963f 70be 923f 5db6 ddbd 8031 ca3f
00000120: fe21 443f fac5 c83f a24a bd3f 0d63 843f
00000130: 2f0c 7ebd 17ef 28be 8361 c43f 2372 eebd
00000140: 577e 48be cdfa ab3f 532d 7e3c b724 953f
00000150: 4129 3cbe e027 863f 21fc cfbd 1e70 8d3f
00000160: f9f8 b73f 9aae b33d b833 b63f 3ff4 d03f
00000170: bfd8 74bc 2aa9 55be c90a 963f 1439 e2bd
00000180: 01a2 c73f 8c27 b43f 1d42 ae3f 418d c53f
00000190: de82 c13f 7438 aabd 33ed 82bf 2037 abbd
000001a0: 408a c33f d25b 2bbe a2ad 793f 68a5 e0bd
000001b0: 1cb4 973f aeef 41bd 8b9f 87bd b72c 983f
000001c0: c181 84be 3cdd 47be 6235 30be 621c 8e3f
000001d0: 0916 89be 82e4 4d3f 94c6 0cbe 4bd1 913f
000001e0: ab8c b33f eb5f d13f 4558 ed3e 0656 11be
000001f0: 773a c63f 9fca c73f f1d1 1cbc 526c b63f
00000200: f54e 873f 0ed2 1abe 1038 9abd 2794 08bf
00000210: 896a 1ebd 920d a63f 0ead 9cbd 1f34 d13f
00000220: d77c 62be 410d b43f 2132 1fbe dc67 9b3f
00000230: 402c a93f 78c6 cc3f e947 bebe 71f6 cebe
00000240: 6440 c73f 8717 86be 9365 b63f 97b6 9d3f
00000250: 746c 8a3f 969f 39bd bd8a ac3f d866 ccbc
00000260: f756 9a3f 8783 ab3e d1f1 6abe 6fcf a83f
00000270: f958 b73f 8a82 643f c577 d2be e576 ad3f
00000280: d69d 703f 0389 3bbd 8bdd fcbd 846d c03f
00000290: ddb3 a53f 0425 17be bb9f 8d3f b7a5 8c3f
000002a0: b8e3 c53f 336f 693f becc dfbd 86f5 c1bd
000002b0: d1ba b13f 4e20 9c3f 4aa3 c33f a939 de3f
000002c0: 932d f4bd cece adbe 7d57 dabc 23c5 8b3f
000002d0: 710b 50be c908 2fbe 1d27 c53f 3e90 8b3f
000002e0: 97ba 8c3f bb2a c13f d01a 9b3f 53b1 cc3f
000002f0: 3288 18be 7d59 cd3f 65a7 90be 13ec 90be
00000300: cf2b 8a3f af6b 02be b6cc a5bd caf0 9c3f
00000310: b55f da3f bd54 aabe 79b1 553e 0ff1 29bc
00000320: 7113 22be 3558 31bd 40c8 c33f 0cec 37ba
00000330: 5220 8a3f 78ed 853e f793 b93f 2b31 24be
00000340: 7d99 8fbe ae09 863f bde7 bdbd 9691 51be
00000350: 3ccd 06be ff14 ddbd cbf3 c43f 57d3 9a3f
00000360: 3532 3d3b 0883 cdbd 462a a1be 25eb 1cbe
00000370: dc5b 5f3f 60e6 32bc 762d debd 4158 883f
00000380: 9272 4abe bcb2 b13f 467a c53f b835 f8be
00000390: 748c b63f 712b 10be 0480 a53f 84a1 8e3f
000003a0: e25b 71bd dc47 8bbd 2635 8bbe 1303 b23f
000003b0: 3612 863f 6336 a53f 4886 d63f 8e60 bf3f
000003c0: 14ce 13bd f31d 17bc 62fd b23f b018 08be
000003d0: 1645 a8bd cd94 ce3f 88df 6cbc d99e 863f
000003e0: 795f e33d 2125 d7bd 7aee c83f 56d9 0dbe
000003f0: 4c59 723f c054 ab3f ec99 863f b7c0 fd3f
1.2665011 1.0819229 -0.06767885 1.6302289 1.076459 -0.23982379 -0.096691675 -0.1886401
1.3793608 1.2355562 0.07748833 -0.11452385 1.0523207 -0.1045124 -0.011154711 -0.10989288
1.0669726 -0.08440987 1.2047086 1.5795976 1.5438986 -0.4437175 -0.03621018 -0.22139485
-0.23717992 -0.5313558 -0.088007204 0.19700283 0.015810682 -0.14870273 -0.016148904 1.1711566
0.10089629 0.2888716 1.2846285 1.2245799 -0.21083607 0.7549461 -0.07753253 -0.45329693
1.5212429 -0.16489325 -0.14013891 -0.08065405 -0.20023654 1.2854652 1.4635221 1.0168837
-0.15663423 1.3093052 1.2459347 -0.16928072 -0.2991311 0.046163466 -0.18295157 -0.20554453
1.3446344 1.455158 1.1031469 -0.059687126 0.89299804 1.6344154 1.0250857 -0.21265057
1.4985286 0.18526745 -0.26376858 0.8795649 1.176657 1.1464367 -0.10825799 1.5796356
0.7661437 1.5685418 1.4788401 1.0342728 -0.062023338 -0.16497456 1.5342258 -0.116428636
-0.19579445 1.3435913 0.015513736 1.165183 -0.18375112 1.0480919 -0.10155512 1.104984
1.4372855 0.08773537 1.4234533 1.6324538 -0.014944254 -0.20865312 1.1722041 -0.11046043
1.5596315 1.4074569 1.3613926 1.5433732 1.5118062 -0.08311549 -1.0228637 -0.08360124
1.5276566 -0.16734245 0.9753057 -0.10969049 1.185184 -0.047347717 -0.06622227 1.1888646
-0.25880244 -0.19517988 -0.17207864 1.1102412 -0.26774624 0.804268 -0.13747627 1.1391996
1.4027303 1.6357397 0.46356407 -0.14192972 1.5486592 1.560871 -0.009571538 1.4251807
1.0570971 -0.15119192 -0.07530224 -0.5335106 -0.03867582 1.2972891 -0.07650195 1.6344031
-0.22117935 1.4066545 -0.15546466 1.214107 1.3216629 1.5998068 -0.37164238 -0.40422395
1.5566525 -0.26189825 1.4249748 1.2321347 1.0814347 -0.04531821 1.347984 -0.024951383
1.205779 0.33498785 -0.22943808 1.3188304 1.4324027 0.89261687 -0.41107002 1.3551909
0.9399084 -0.04578496 -0.123469435 1.5033422 1.2945515 -0.14760214 1.1064371 1.0988072
1.5460119 0.911853 -0.10927723 -0.09470658 1.3885137 1.2197359 1.5284207 1.7361346
-0.11922755 -0.33946842 -0.026653046 1.0919536 -0.20316865 -0.17093195 1.5402561 1.0903394
1.0994443 1.5091165 1.2117558 1.5991615 -0.14895704 1.6042935 -0.28252712 -0.2830511
1.0794619 -0.1273639 -0.08095686 1.2260983 1.7060457 -0.33267775 0.20868482 -0.010372414
-0.15827729 -0.04329701 1.5295486 -0.000701607 1.0791113 0.26157737 1.449828 -0.16034381
-0.2804679 1.0471704 -0.09272716 -0.20465693 -0.13164228 -0.1079502 1.53869 1.2095746
0.0028869037 -0.10034758 -0.31477565 -0.15324076 0.8724954 -0.0109191835 -0.10848515 1.0651933
-0.19770268 1.388267 1.542794 -0.48478484 1.4261613 -0.14079072 1.2929692 1.1143041
-0.058925517 -0.068008155 -0.27188987 1.3907188 1.0474308 1.2907223 1.6759729 1.4951341
-0.036085203 -0.009223449 1.3983576 -0.13290668 -0.08216302 1.613916 -0.014457591 1.0517226
0.11102194 -0.10505129 1.5697777 -0.13852438 0.94667506 1.3385239 1.0515723 1.9824437

layer2.6.weight f4 [1, 256]
00000000: 3b8d 323d b0c7 293d 5567 3ebd 5205 873d
00000010: f859 453d 7302 c2bb 6f17 50bd 3829 89bc
00000020: f41b d53c 43bc be3d 39e5 c03c d2e2 06bc
00000030: eb06 483d f891 0abd f9ae 44bd 5509 1fbd
00000040: 0e8b 6a3d c3fd 6cbc 9b8d 983d 4692 e33c
00000050: 2bdf 2d3d 55e1 1dbb 38aa 0fbd 4fdd 13bd
00000060: 575e b9bb 4306 59bc 6b23 1cbb 75c4 55ba
00000070: f497 113d 11b0 4fbd dd83 a4bc a8e2 783c
00000080: 4e18 583c 7423 4439 a121 073e c35f 6a3d
00000090: f83a b2bc 57fc f43c 9d8d 12bd d6ec 5ebd
000000a0: 42ce c33d 2c9c 2139 b15f a8bc 913c d9bc
000000b0: f7dc fab9 2e80 933c 1caa bc3d 6a0a 6b3d
000000c0: 9fca 14bd e886 4c3d 0758 5b3d efde 1fbd
000000d0: d13e 7b38 59f3 e4bc 5a82 9dbd 021c 7bbc
000000e0: 3123 d43c 3222 373d eac6 043d 8cd5 ebbc
000000f0: d238 6e3c d862 883d b095 933d afb0 efbb
00000100: edea 273e 8328 1e3c 7c91 2abd 7fa2 843c
00000110: 43bc 1d3d 420b 9d3d 93eb e5bc 35c5 3b3d
00000120: f683 123d 6d75 bd3c 48a9 cc3d 3fa0 873d
00000130: b8fb 12bd 5ca6 9fbc 62f0 913d dd33 dfbc
00000140: 4232 7cbd 14e5 663d a70e 523c 524c af3d
00000150: ef55 cbbb d752 cd3c 44ed 5abd 1d20 b83d
00000160: 39bf f03c 93d0 8e3d a71c 4b3d 6680 1e3d
00000170: 8ed2 c9bc eff4 a3bb 9496 8f3c e772 6abc
00000180: e725 083e 119a 8d3d 62a8 063e 93bb c63c
00000190: 754c 8f3d 97c5 21bd 29dd fbbb 9ddd dc39
000001a0: 110f 023d ec71 45bd 957b 4f3d cd92 d7bc
000001b0: 1713 963c a4ec 6eba 537f 3ebd d861 e33c
000001c0: 808b 45bc acc9 44bd da14 c0bc f72c 1e3d
000001d0: e318 19bd 463c 793d 2134 f6bc 3be3 313d
000001e0: e14c d63c e19f 623d 3f75 883d 77a1 01bd
000001f0: 08a9 693d d253 7c3d fb04 0cbd 2a1e 6e3d
00000200: 15a2 393d fc43 46bd 8dda 45bc 76b3 afbc
00000210: 010f 35bd b3a5 0d3d 7be8 7dbc 0d92 343e
00000220: f99f dabc a902 ae3d df59 4abc 8492 953d
00000230: 7d8b 5d3d 272f f13d 05fb 95bc c219 d5bc
00000240: a9af cf3c db37 e2bc fce5 8b3d 107f 963d
00000250: 2811 1f3d e0e2 c5bc e627 e93c 914e 563b
00000260: 038e 493d bda7 4a3c 5bcb b0b8 64e4 663d
00000270: 254e 293d 9173 173e 6590 d6bc 423c 8f3d
00000280: 808e 483d 3450 30bc bb4f 22bc df48 7f3d
00000290: 37f6 053e 5840 e8bc 47c4 8e3d 41b1 1d3d
000002a0: 12e1 e33d fc73 733a 54ac ebbc 4d1c 04bd
000002b0: 4fa3 263e 08d7 073d 1213 923d 93ee 273d
000002c0: 2ba0 2fba 4b55 5fbd fb40 18bd 1b6d 083d
000002d0: a76d 2bbc 844c fbbc 3e33 8f3d 0612 613d
000002e0: 5af7 be3c 6c18 3e3e a619 233d a2a0 b93d
000002f0: d8fe 67b9 0f9b 8b3d d65b 31b8 b59c d5bb
00000300: 9db0 ae3d de74 75bc 74cd b3bc b32a a93d
00000310: 22f8 ac3c 00bf 34bd 2d35 76bd b91d 11bc
00000320: d372 0eb9 6c39 d2bc 929b 423d 0ab2 30bd
00000330: e8b5 373d 98c9 083d 6ce6 493d c7ef 32bc
00000340: 432c 84bc cb07 223d 3ac4 cabc d2f4 babb
00000350: 2d6f 2ebd 83a0 18bd 5d54 3b3e 3fd9 8f3d
00000360: 28b3 59bd 5978 a8bb b1f8 d6bc 58fb d0bc
00000370: 5c26 0f3d 0644 7fbc 7852 febc 1d1b b53c
00000380: d649 d7bc 94f5 d23d a789 b23d e8f3 66bc
00000390: 15fe c73d 747d c1bc fa12 123e b13f 833d
000003a0: 3665 94bc 4475 76bd b78c 17bb eedb fd3d
000003b0: 8f29 3a3d 6ea8 b13d c0fd 393d 6919 3b3e
000003c0: bc59 13bd 0197 50bd eb85 013d 2a90 47ba
000003d0: 9009 2dbd 4045 1e3e f73a b7bc 2736 ab3d
000003e0: e156 823d 3bb4 c1bc 23d0 923d 192a 76bc
000003f0: ef96 a13d 7675 143d c4bb 693d a184 1e3d
0.04359172 0.041450202 -0.046485264 0.06592812 0.048181504 -0.005920702 -0.050803598 -0.016743287
0.026014306 0.09313252 0.023546802 -0.008232789 0.048834722 -0.033830613 -0.04801843 -0.03882726
0.05726152 -0.014464798 0.07448884 0.02777971 0.042449158 -0.0024090607 -0.035074443 -0.03609973
-0.005656998 -0.013246122 -0.0023824822 -0.00081545796 0.035545304 -0.05070502 -0.020082409 0.015190758
0.013189388 0.00018705224 0.13196422 0.05722023 -0.021756634 0.029905481 -0.035779584 -0.054425083
0.09560825 0.00015412335 -0.020553442 -0.026518138 -0.00047848347 0.018005457 0.09212133 0.05738298
-0.036326047 0.049933344 0.053550746 -0.039030965 5.9901566e-05 -0.027948068 -0.07690878 -0.015326502
0.025895687 0.044710346 0.03241626 -0.02878835 0.014539914 0.06659478 0.07206285 -0.0073147635
0.16398211 0.009653213 -0.04164265 0.016190765 0.03850962 0.07668163 -0.028066432 0.04584237
0.03577038 0.023127282 0.09993225 0.066223614 -0.03588459 -0.019488506 0.071259275 -0.02724641
-0.061571367 0.05637081 0.012820876 0.08559479 -0.0062053124 0.025063915 -0.05344893 0.089905
0.029388057 0.06973376 0.049587872 0.03869667 -0.024636533 -0.0050035636 0.017527856 -0.014309621
0.13295709 0.069141515 0.1315017 0.024259364 0.06997005 -0.039495077 -0.0076862765 0.00042126785
0.03175265 -0.048204347 0.050654966 -0.026315117 0.01831965 -0.00091142417 -0.046508145 0.027756616
-0.012057185 -0.04804389 -0.023447443 0.0386171 -0.03737725 0.060848497 -0.030054154 0.043429594
0.026159706 0.055328254 0.06662988 -0.031648125 0.057045966 0.061603375 -0.034184437 0.058134235
0.04532059 -0.04840468 -0.012076032 -0.021447878 -0.044203762 0.03458185 -0.015497322 0.17633839
-0.026687609 0.08496601 -0.0123505285 0.07303336 0.054088105 0.11776572 -0.018308172 -0.026013259
0.025352316 -0.027614525 0.068309754 0.07348454 0.03883472 -0.024156034 0.028461408 0.0032700638
0.0492077 0.0123690935 -8.430212e-05 0.056370154 0.04133429 0.14790179 -0.0261919 0.06993915
0.048964024 -0.010761309 -0.009906705 0.062325355 0.13082205 -0.028350994 0.06971031 0.03849912
0.11126913 0.00092869974 -0.028768696 -0.032253552 0.16273235 0.033164054 0.071325436 0.040999006
-0.0006699587 -0.0545247 -0.037171345 0.033307176 -0.010463155 -0.030676134 0.069921955 0.05494883
0.023311306 0.18564004 0.039819382 0.090638414 -0.00022124813 0.068166845 -4.2285617e-05 -0.006518925
0.0852978 -0.014981477 -0.021948554 0.08260097 0.021114413 -0.044127464 -0.060109306 -0.008857184
-0.0001358495 -0.025662147 0.047511645 -0.04313854 0.044851214 0.03339538 0.049292013 -0.010921425
-0.016134387 0.039558213 -0.024751771 -0.0057054544 -0.042586494 -0.03726245 0.18293901 0.07023858
-0.053149372 -0.0051412997 -0.026241632 -0.025510475 0.03494869 -0.015580183 -0.031045184 0.022107655
-0.026280325 0.103007466 0.08717661 -0.014096238 0.09765259 -0.023619391 0.14265051 0.064086325
-0.018114667 -0.060170427 -0.0023124644 0.12395464 0.04544979 0.086747035 0.04540801 0.18271412
-0.03597425 -0.05092526 0.031621855 -0.00076127297 -0.042245448 0.15456104 -0.022366984 0.08359938
0.06364227 -0.02364551 0.07168605 -0.015024685 0.078901164 0.036244832 0.057063833 0.038700704
