Saved_data_files/bpi/lr_all_variants/MLP/EventPredictor_parameters_feedforward_0.001.pt (torch, 298305 bytes, 6 tensors)

layer2.0.weight f4 [256, 24]
00000000: 775b 2ebe aa3a 7bbd 78de b9be dd42 abbe
00000010: 40c0 0b3e a0cc 603e 3897 87bd 0e0e e53d
00000020: 1bf5 9e3e fdef 823e 0884 ba3e d054 dc3e
00000030: 793d 2d3e c365 9cbd 0a9b 353e 57bb 37be
00000040: c3c8 313e 9b14 043d da7c 84bd 356c 2a3e
00000050: f5f3 293e 3713 3b3d 7241 3c3e 4d98 a03d
00000060: a266 d63d 1053 6dbc 8dfa f6bc 8b32 be3d
00000070: 1e3f 05be a9c5 00be 401c 59bc 8767 4b3e
00000080: 8a86 6abe 36b8 d4be 00f5 cfbe 96e0 27be
00000090: 4c60 213e d38e 1d3e 3493 a73d d029 1ebd
000000a0: b794 1ebe f5af d73c 498a c0bd 22d0 23bd
000000b0: cb0a 883d c8ad 1c3e 055c b53d 2c8b 073e
000000c0: a425 94be 31c9 21be e54c 03bd 0497 9abd
000000d0: 163f 09be bf05 a2bd c6b1 2b3d f04f 013c
000000e0: 228e f7be 92d4 e4be 9a46 f13c 581d 8b3e
000000f0: 67b0 893d da04 323d ad15 483e 96af 4d3e
00000100: 8294 c8be e1c0 d4bd a348 7cbe f6ae a2be
00000110: b971 213e 2da5 bebd a1cf 1f3e fbc8 f0bb
00000120: ca7f dabd 967e 4d3d f084 03bd 6efb 8a3e
00000130: 34df 81bd b19c 3cbe d695 c6bc bdab ddbb
00000140: 5737 f73d 5524 ce3d b0a4 903e 6c0f a63e
00000150: 0fdc b8bd 8aea dfbd 518b c6bd 7d86 78bd
00000160: 8950 a43d f3a1 ed3d 0eb3 173e ca3d 653e
00000170: 29c6 5bbd e22b 85be c72a 3abe aef0 3f3e
00000180: b666 39be 45c5 33be 6f5f 543d ea63 e93e
00000190: 27f1 33be a0a9 1cbe 67a2 fc3d 6f8e 10be
000001a0: bb83 503e d34e 643e 154f 903e 039e 3b3c
000001b0: 699b fdbc a302 3abe 6c49 393d e554 62be
000001c0: 8ea3 1cbe 9f09 bdbd 4f4d 133e 7620 8b3d
000001d0: 6fd8 47be 5b35 dcbc 5768 293e 8b41 1abe
000001e0: a628 933d 57eb e03d 2501 133f b961 c43e
000001f0: 0478 dfbc bc7e 8b3d b1ab d03d f8f6 5dbd
00000200: 72ab 763d 2d04 02be 92cf 4fbe 7a8e 67be
00000210: d937 873c 355b aabc d96d 11be a28b c0bd
00000220: 770c 85be 6b12 85be 9842 35be c032 c03d
00000230: 6c4f c7bd 2762 bc3d cb63 4fbe 9751 44be
00000240: aa90 25be c23d 48bd 666a 05bf c323 c6be
00000250: 1e6a 42be ce45 4fbe 9a70 433e 8f14 09be
00000260: a403 323e de4c 843e ad32 aabd e8cb 84be
00000270: bd22 11be 8d12 11be 620f aebc a5ad bd3d
00000280: 3e8d 903d ab50 7f3d c578 7b3e 58e9 173e
00000290: a64f 1abe dfc3 5abd 56e8 383c db6a 4c3e
000002a0: e0cb 4f3b 0cd2 3f3d 8d8c ee3e 0ae1 1c3f
000002b0: bcd7 84bd 3e2e 18bd 9ccc ed3c 5335 ee3c
000002c0: 0097 c33e 766c 913d 4586 66be 7c63 e83d
000002d0: 9e86 1fbe 1910 93bd 3423 90bd e8d8 aebc
000002e0: a463 ae3d 7c50 bfbd e63b 15be dbd8 b7bc
000002f0: 0aea 1fbe c95a 2bbd 14c3 d9bd 5434 053e
00000300: f83b 893e bcef 783e 2d16 1c3e 5f4e 313e
00000310: bdde 5cbe 99ac 2fbe 4412 55be 20c9 0a3e
00000320: 278c 103f 165f 253f 2110 823e d7c4 82bd
00000330: a0b4 e0bd 83b3 e13d 2ffe 1ebe 794f 16be
00000340: 3580 403e fbc1 4a3e e21e dc3d ae34 193e
00000350: ca2c 0fbe 0cf1 d43d feda ae3d 78ff f63c
00000360: 993c 4fbe e458 62be f5c3 903e 3566 023e
00000370: a53c bc3d b7f1 883d 4813 713d bddd 8b3d
00000380: 5aaf 913e 33a5 813d 05b8 9ebd af45 d43e
00000390: c601 91be be98 d4bd e536 d93d 9d12 283e
000003a0: 336a 93be d7ff 75be 681f 9bbe fa4f ddbd
000003b0: 9de4 b7bb 98f0 913d d441 a83c 7113 d43d
000003c0: eb21 cd3e 3fe4 ce3e eeac 5c3e 96da 173f
000003d0: a1ea 163e 05bb 1ebd 2220 2dbe b0f3 fbbd
000003e0: 0bf5 e3be 9b3b 95be c93d d7be 080b 00bd
000003f0: 09a0 21be 411a e2bb 2776 583d af15 70be
-0.17027079 -0.061335243 -0.36302543 -0.3344945 0.13647556 0.21953058 -0.066206396 0.11184321
0.31046376 0.25573722 0.36428857 0.43033457 0.16917981 -0.07636597 0.17734924 -0.17942558
0.17361741 0.032246213 -0.06469126 0.1664284 0.16596968 0.04567262 0.1838434 0.07841549
0.104687944 -0.014485136 -0.030148769 0.09286984 -0.13012359 -0.12575401 -0.013251364 0.19863711
-0.22902885 -0.41546792 -0.40616608 -0.16394266 0.1575939 0.15386514 0.08182374 -0.038614094
-0.15486418 0.02632902 -0.09401376 -0.039993413 0.066426836 0.15300667 0.08855442 0.13236684
-0.28934968 -0.15799405 -0.032055754 -0.07548335 -0.13402972 -0.07911252 0.041917585 0.007892594
-0.48350626 -0.44693428 0.02945261 0.27170825 0.06723099 0.043461658 0.19539519 0.20086512
-0.39175802 -0.10388351 -0.24637084 -0.3177411 0.15766038 -0.093088485 0.15606548 -0.0073481775
-0.10668905 0.05016955 -0.0321092 0.2714495 -0.06341401 -0.18419148 -0.02424137 -0.0067648576
0.12071102 0.100655235 0.28250647 0.3243364 -0.09026348 -0.10933407 -0.09694541 -0.060675133
0.08023173 0.11603155 0.14814398 0.22386852 -0.053655777 -0.26010042 -0.18180381 0.18744156
-0.18105587 -0.17555721 0.051848825 0.4558404 -0.17572461 -0.15299082 0.12335663 -0.14116834
0.20362751 0.22295694 0.28185335 0.011451247 -0.030957894 -0.18165068 0.045236036 -0.22102697
-0.15296766 -0.09230351 0.1438496 0.06793301 -0.19516157 -0.02688091 0.16543709 -0.15064065
0.071854874 0.109823875 0.5742362 0.38355806 -0.027278908 0.06811282 0.101889975 -0.054190606
0.060222097 -0.12696905 -0.20294026 -0.22612944 0.016506122 -0.020795444 -0.1420206 -0.09401633
-0.25986072 -0.25990614 -0.17701185 0.0938468 -0.097319454 0.091984086 -0.20252912 -0.19171749
-0.16168466 -0.04888702 -0.52115476 -0.3869916 -0.18985793 -0.20241472 0.19085923 -0.13386749
0.17384201 0.25839895 -0.08310447 -0.25936818 -0.14173408 -0.14167233 -0.02124757 0.09261636
0.0705819 0.06233279 0.24557789 0.14835107 -0.15069446 -0.053409453 0.011285862 0.19962637
0.0031707212 0.046831176 0.46591607 0.6128088 -0.064864606 -0.037153475 0.02902823 0.029078161
0.3820114 0.071007654 -0.22512157 0.113471 -0.15578696 -0.07180805 -0.070379645 -0.021343663
0.08515099 -0.09341523 -0.1457363 -0.022442272 -0.15616623 -0.041834626 -0.10632911 0.13008243
0.26803565 0.24310201 0.15242834 0.17315052 -0.21569343 -0.17155685 -0.20807749 0.13553286
0.56463856 0.64598215 0.2540293 -0.063852005 -0.109719515 0.11020567 -0.15526651 -0.14678754
0.18798907 0.1980056 0.10748078 0.14961502 -0.1398193 0.103975385 0.08537863 0.030151114
-0.2023796 -0.22104222 0.28274503 0.12734301 0.091912545 0.066867284 0.05885628 0.068294026
0.28454095 0.063303374 -0.07749943 0.41459414 -0.28321666 -0.10380696 0.106061734 0.1641335
-0.2879196 -0.24023376 -0.302974 -0.1080627 -0.0056119696 0.07125968 0.020539202 0.10355271
0.4006494 0.40408513 0.21550342 0.5931791 0.14737941 -0.038752574 -0.16906789 -0.12302339
-0.4452289 -0.29147038 -0.42039326 -0.03126052 -0.15783705 -0.0069001024 0.052847054 -0.23445772

layer2.0.bias f4 [256]
00000000: fec3 dbbe decb 1d3d 96e0 183d ec7c a23e
00000010: 2bc2 ec3e e987 b93d a46b 50bf 9f97 453f
00000020: 3c12 90bd e0cd e03e d8e8 d53e 1aff 20bf
00000030: dff9 21bf ee83 adbe 9175 13be 376e a73d
00000040: e935 eebd b118 69bf 667e c73e 2299 32be
00000050: 68f7 d8be 3dfa b43d 0430 d1bd 2772 b63e
00000060: d8ba 0bbf 0ab9 18bf 374a 9d3d e551 a73d
00000070: 4c61 d63e 051a 3e3e c2c3 65bf 18f8 cc3e
00000080: 3472 983e d0c2 78bf b7e1 873e 6920 c4be
00000090: 2936 4c3f f8db bf3e 8906 fa3d 966e 073e
000000a0: 20f7 323e f371 c13e b05b d2be a9d6 c5bd
000000b0: 4180 0b3f 8551 c23e 3928 293f d1f5 8fbe
000000c0: 221a 33be 855b 7abe 0f46 603d aac3 323e
000000d0: 6840 a6be a20b a13e 4299 d53d 1241 8dbe
000000e0: 54d4 d8bd 4d59 a3be 389f 01bf bdfe ae3d
000000f0: 0e72 87be 1381 92be de48 83be 7427 c0be
00000100: 98f6 7f3d 4e8a 0fbd b294 96be 0109 7ebe
00000110: f7d0 42be 87a4 e73e 9830 223e 283a 47bd
00000120: d1e3 813e 5c24 443c f68c 1cbf 3be4 223d
00000130: d0f4 2bbe 1936 aa3e 8abd a23e 2422 413e
00000140: 0482 cebe d021 b3be 0555 333e 843a cc3e
00000150: 526c b23e ccc2 a5bd b1ac b03e 23da 163f
00000160: ea8c 1ebf 0a06 95bb 5e0f 113e ec0a 63be
00000170: c1bc 103e f4ec 1b3d bd98 c13e a994 08be
00000180: 2d7d 1c3d 944e 6f3f dc2a 373d 5087 c0bd
00000190: c947 673e 3753 913e b7b6 c2be d507 11bf
000001a0: 8238 d2be 49e7 cfbe 4401 ed3d c1dd 113f
000001b0: 7ad0 87be c479 0d3e 4748 5dbd 272e 07be
000001c0: 0a6b 093e cc43 403e 4187 5f3e 062d 943c
000001d0: ea9f 2bbf 7725 56bd e090 58be 094a acbe
000001e0: 11a6 91be cc7a 8a3e 3a18 3cbb 511d 8bbe
000001f0: 690c 87bd 06fc 02bf 3718 9e3e 46a5 1bbb
00000200: 16ae 523f dc8a bb3e 0e2e 79be 6199 2ebe
00000210: 515e 1f3f 1b23 233f 16be 203e 980c 063e
00000220: 1628 663d 6341 093f 32b9 753e 6705 88be
00000230: 5751 8d3e 2200 853e f3a1 3e3f df8a f4be
00000240: f437 8b3e 437d 553e 04f4 d63e 2fb5 b6bd
00000250: db00 bdbd 9f6b 8c3e 0c15 c73d ce41 2cbf
00000260: 599b eb3e efaa e43c 02a7 0b3f 4345 06bf
00000270: af4a e2be 6b04 47be 1821 8dbd c457 333f
00000280: 2775 ecbd 8356 983e 6364 8f3e b7c9 cbbe
00000290: ea3b 903e a6d9 fabd 194a 343d bb84 07bd
000002a0: ef67 0fbf 3731 0e3f 790d 1c3f e25d 053e
000002b0: 2853 e03d defe 813d 28a3 b1bd 4395 8f3e
000002c0: 814f 2f3e cfe5 96bb f40c 08bf f958 ff3e
000002d0: 9555 073f fb2d 013f bb79 a53e 3c66 a1be
000002e0: f115 e4be 523e 083f cf9e 2cbf 9ad1 b73d
000002f0: 09ab 55be ef64 453c 67de a33e 1230 bdbe
00000300: 15cd c83e 26c1 93be dba7 2cbd dbe2 183e
00000310: f655 803e 6962 103f 468d 403d 7dc8 4bbe
00000320: bffc fd3e e971 06bf 9b67 90be fe00 1e3f
00000330: 886c fc3d 9c52 40be 3960 d53d 551b fb3c
00000340: 5cad 8bbf f44d 08bf 8f43 433c 3d72 65be
00000350: 21db 3bbf 7fdf d03d 7a28 903e 761e 003f
00000360: 4481 723d ab1d b63e 74b1 d5be f126 1e3f
00000370: 58b0 113d 713c fcbe 87e2 983d a74a 4fbe
00000380: 3907 b73e b4f6 173f a4f9 bbbe 7dd5 e6be
00000390: fa83 08be a5e0 cebc 9598 e6be cbc8 1ebd
000003a0: 5b29 30be 65cb eabc bb25 103e 5474 c3bc
000003b0: 3146 5cbe a0c6 063f 59ef 9b3e b3a3 683e
000003c0: f8b2 973f 79e4 2c3e 5b81 203e 4296 3a3f
000003d0: f0a2 df3d 921c c0bc 3fd6 5cbf 0866 87be
000003e0: 80d2 d63d 253a debd 94a2 0b3f 12b1 34bf
000003f0: d6f2 9cbe 8285 34be 94dc 26be 7de8 f8be
-0.42922968 0.0385245 0.037323557 0.31735933 0.46241888 0.09059126 -0.81414247 0.7718448
-0.07034728 0.4390707 0.41779208 -0.62889254 -0.632719 -0.33889717 -0.14400317 0.08175319
-0.11631376 -0.910533 0.38963622 -0.17441228 -0.42376256 0.08836792 -0.102142364 0.35633966
-0.54581976 -0.5965735 0.07680171 0.08169917 0.41871107 0.18564613 -0.8975183 0.4003303
0.2977463 -0.9717226 0.26539394 -0.38305977 0.7977014 0.3747251 0.12208278 0.13225779
0.17477083 0.3778225 -0.41085577 -0.09660084 0.54492575 0.3795282 0.66077 -0.2811723
-0.17490438 -0.24448974 0.054754313 0.17457452 -0.32471013 0.31454188 0.10429622 -0.27588707
-0.105873734 -0.3190407 -0.50633574 0.08544681 -0.26454204 -0.286141 -0.2564153 -0.375301
0.06249103 -0.035044007 -0.2941032 -0.24808122 -0.19025026 0.45242712 0.1583885 -0.048639446
0.25369123 0.011971559 -0.6115259 0.03976844 -0.16792607 0.33244398 0.31785232 0.1886068
-0.4033357 -0.34986734 0.17512901 0.39888394 0.34848267 -0.08093795 0.34506753 0.589266
-0.6193377 -0.004547839 0.14166018 -0.22172135 0.14134504 0.038067773 0.37811843 -0.1333796
0.038205314 0.93479276 0.04471861 -0.09400809 0.22585978 0.283838 -0.38030025 -0.56652576
-0.41058737 -0.40606144 0.11572507 0.56978995 -0.26526242 0.13815981 -0.054024007 -0.132012
0.13419738 0.18775862 0.21828939 0.018087875 -0.67040884 -0.052281823 -0.21149015 -0.33650234
-0.2844701 0.27046812 -0.0028700964 -0.27170804 -0.06594164 -0.5116581 0.3087785 -0.0023749634
0.82296884 0.3662938 -0.24333975 -0.17050697 0.6225329 0.6372544 0.15697512 0.13090742
0.056190573 0.536154 0.23996428 -0.26566622 0.2760112 0.25976664 0.74465865 -0.477622
0.27191126 0.20848565 0.41983044 -0.08921277 -0.09228679 0.27425858 0.09720811 -0.6728791
0.46016958 0.027913539 0.5455171 -0.52449435 -0.44197604 -0.19435279 -0.06891078 0.70055795
-0.115457825 0.29753503 0.28006276 -0.39802334 0.2817071 -0.122485444 0.044015978 -0.033085566
-0.56017965 0.55543846 0.6095806 0.13024095 0.10953361 0.0634744 -0.08673698 0.28043565
0.17120172 -0.004605032 -0.53144765 0.49872568 0.5286496 0.50460786 0.32319435 -0.3152331
-0.4454799 0.53220093 -0.6742982 0.08975525 -0.20866026 0.01204799 0.32005617 -0.36950737
0.39218965 -0.28858298 -0.042152267 0.14930288 0.25065583 0.5640016 0.04700973 -0.19900699
0.49606892 -0.52517563 -0.28204045 0.61720264 0.12325388 -0.18781513 0.10418744 0.030652681
-1.091228 -0.5324395 0.011917963 -0.2240686 -0.7338124 0.101988785 0.2815588 0.5004648
0.05920531 0.3556951 -0.41736948 0.6177817 0.035568565 -0.49264863 0.07465082 -0.20243321
0.35747698 0.59360814 -0.36713898 -0.45084754 -0.13331595 -0.025253603 -0.45038286 -0.03876571
-0.17203276 -0.02866144 0.14076893 -0.02385918 -0.21511151 0.5264683 0.30456045 0.22718696
1.1851492 0.1688403 0.15674345 0.72885525 0.1091975 -0.023451123 -0.86264414 -0.2644503
0.104893684 -0.10850934 0.5454495 -0.7058269 -0.3065402 -0.17629054 -0.16295081 -0.48614874

layer2.2.weight f4 [256, 256]
00000000: b138 253e ca53 08bf 65d1 c53d b8e4 28bf
00000010: c57d 073f 38ae 2b3f 0978 3cbd 73f8 df3e
00000020: 9b58 9dbf b222 d33e 3290 86be edaa 063f
00000030: cbb9 8a3e fb09 98bd 6d8b 02bf 8336 7f3f
00000040: 98cd 293e c207 963f 8ffb b0be d239 b93d
00000050: 4639 213f 4728 1cbf ead0 a53d 11ef b9be
00000060: d8c3 343f 21c1 4fbf 89db 853e 31a6 b43d
00000070: 4004 f3be 16fd 5b3e 6953 ba3e 7490 0d3f
00000080: e6db 9a3f ec42 b43d 1a49 69bf 4e12 a7be
00000090: 99a8 c0be c7eb 8f3f 13ce bf3d 9afc 1d3f
000000a0: dafc ef3d 8ba5 6fbf 9fa0 f8be 5bfc abba
000000b0: 14f5 963e c7f2 013f 24e7 0f3f 7347 573d
000000c0: 541f 2abf 4f92 a5bd d644 06bf 476e 403d
000000d0: 502c 073d e9ff 1c3f 5be0 dbbe 5d41 1b3d
000000e0: f10e 3dbf 4e99 d1be bd2c 5d3f 9ec9 2fbf
000000f0: 4468 63bf 0e64 403e 16f0 b93e 0699 94be
00000100: 95f2 b4bf b3b7 733f 259f 223f bb22 833f
00000110: d1fe 6e3f 899d 60be dd63 59bd e06b f4bd
00000120: ab9e c5bf e0d3 5bbe ee5d 02bf 2a3a b13e
00000130: c500 3ebd 6796 9e3e 64f4 a9bf 5da3 eabd
00000140: 9771 273f 7071 0dbf b751 be3e 388e 28bf
00000150: 99aa 78bf 85f0 36bf df82 583d f097 22bf
00000160: 0a35 d3bd 25bc 023e 1a72 3abf 1731 1a3f
00000170: 96d1 4ebf 88d9 7fbe d9f4 6bbe 64e6 c73d
00000180: 5d94 a0bf a7b1 9abe b5d2 c4be 9583 443f
00000190: 8e1a bc3e 325e 77bf 2695 8b3d 2e7d d43e
000001a0: 6d6e e03e f70d 9a3e bee4 b93e 6220 a9be
000001b0: b410 483f 1bbf cc3e 1762 3c3f f0fa be3e
000001c0: 2ad9 1e3f f756 dc3e e8dd 053f 2c46 0c3f
000001d0: cd0d 5f3f f5a4 65bf 90cf 02bf 4152 c23c
000001e0: 97ae 183f 491b 04bf 8add 533e 1951 cfbe
000001f0: cf05 c33e 6403 933e fea7 0cbf d9a6 a8bf
00000200: 6086 d3be 32c5 183e 6491 02bf 66b8 06bf
00000210: 1802 173e 852f 8bbf 46cf 073f 5b32 fe3e
00000220: 3f6c 113b bb38 903e 84da 8ebe 8f21 313f
00000230: 38b9 bebf 124e b4bd 3bba 003d 725f 1cbf
00000240: 5186 123f cb70 0cbe e27b 9abc dfb1 54bf
00000250: f9e6 5a3f cc55 bbbe efff 233f c208 15be
00000260: 9a37 a23e 89d8 303f cc8e 313f 81df cb3d
00000270: d9ac 213e 8ac8 97be 8585 1d3f 9089 83be
00000280: 8fc4 4b3e 6a3e e03e 1ad7 01be 29a0 dfbc
00000290: 0741 15bf 5504 1c3f 14c7 1b3f 5e63 13bf
000002a0: 79b5 613f 700a 83bf 9806 0b3e 22b8 9bbe
000002b0: 68d5 913f 5f2b 8abf 12a1 903e e756 d33d
000002c0: 862a a6bd a82e b93e a330 fd3d fb2f 14be
000002d0: 3652 9cbe dfdd cd3e 32a4 003f bfd7 013e
000002e0: c8c0 e73e 21e3 b6be a172 413f c705 f9be
000002f0: 168a 283e b70b b9be 8430 67be 91f7 4cbe
00000300: 0647 4cbf 7259 4e3f f1e0 8c3e 99d3 0bbe
00000310: fa5c 223e 1e40 193f 5574 46bf 2e93 ec3d
00000320: fc12 3b3f 7038 b13d 1810 53bf 09ac ddbe
00000330: fea8 35be 5cdc 03bf f12c 293f 9af4 07be
00000340: a66e 823f 808b 393f aadd 433f 4d8a 713f
00000350: 5d1b 82be 0a6a d9bd 5108 0c3d cfa7 dd3e
00000360: c0ad 30bf e0fd 453f 4d2c a53e 2a6d fabb
00000370: dd93 9cbf 5a80 2ebf 115c 25bd 3ca4 ce3d
00000380: 2e2b 9b3f 88a3 a83e c623 a33f f97b 503f
00000390: 2092 b8be 8deb 8d3f f9e9 3abd f348 cf3e
000003a0: d38a e03d f0be 8e3e f3c5 813d 69cb 9bbf
000003b0: 41bd 88bf c3e8 1d3e 8677 26be 84dd 20bf
000003c0: 1b43 8dbf 12c5 8f3e 456d 473f 7315 b2be
000003d0: 42fe 8f3e f8e0 e8be f911 babe b5da dd3e
000003e0: a272 1abf 5ad8 78be 9fc3 853e 0698 043f
000003f0: eb52 163f ef3e 873f f8ad 51bf 1a2c 16bf
0.16134907 -0.5325285 0.096590795 -0.65974 0.52926284 0.6706271 -0.046012912 0.4374424
-1.2292665 0.41237408 -0.26281887 0.5260456 0.27094874 -0.074237786 -0.50993997 0.99692553
0.16582334 1.1721117 -0.34566924 0.090442315 0.6297802 -0.6099896 0.08096488 -0.36315206
0.70611334 -0.81154066 0.26144055 0.08820761 -0.4746418 0.21483263 0.36391762 0.5529854
1.2098358 0.08801827 -0.9112717 -0.32631153 -0.3762863 1.1243829 0.093654774 0.61713564
0.117181495 -0.93611974 -0.48560044 -0.0013121472 0.29483855 0.50761074 0.5621207 0.052558374
-0.6645405 -0.08084547 -0.52448785 0.04698017 0.033001244 0.6132799 -0.42944607 0.037904132
-0.73850924 -0.40937275 0.8639639 -0.6866702 -0.8883097 0.18788168 0.36315984 -0.29022998
-1.413653 0.9520218 0.63524085 1.0244974 0.9335757 -0.21935095 -0.053073753 -0.11934638
-1.5439047 -0.21467543 -0.50924575 0.34614688 -0.046387453 0.30974123 -1.3277707 -0.1145694
0.654077 -0.55251217 0.37171718 -0.6584201 -0.9713531 -0.71460754 0.052859183 -0.6351309
-0.10312851 0.12767084 -0.72830355 0.60231155 -0.8078855 -0.24985325 -0.2304262 0.097607404
-1.2545277 -0.30213663 -0.38442007 0.7676328 0.3673901 -0.96628106 0.06815557 0.41501755
0.43834248 0.3008878 0.3630733 -0.3303252 0.78150487 0.39989552 0.73587173 0.37300825
0.62050116 0.430351 0.5229173 0.54794574 0.87130433 -0.8970483 -0.51097965 0.023720862
0.596414 -0.51604134 0.20689979 -0.4049156 0.3809037 0.28713524 -0.54943836 -1.3175918
-0.41313457 0.14918974 -0.510031 -0.5262512 0.14746892 -1.0873877 0.5305065 0.49647793
0.0022189764 0.28168282 -0.2790109 0.6919183 -1.4900274 -0.08803953 0.031427603 -0.6108314
0.572362 -0.13714902 -0.0188579 -0.8308391 0.85508686 -0.36588895 0.640624 -0.14554122
0.31683046 0.69080406 0.69358516 0.09954739 0.15788592 -0.29645187 0.6153186 -0.2569089
0.198992 0.43797618 -0.12679711 -0.02729805 -0.5830235 0.6094411 0.60850644 -0.575735
0.8816753 -1.023756 0.13576734 -0.3041392 1.1393251 -1.0794486 0.28247887 0.1031931
-0.081135795 0.36168408 0.12362792 -0.14471428 -0.30531472 0.40208337 0.5025054 0.12679957
0.45264268 -0.3572016 0.75565535 -0.4863722 0.16458926 -0.3614175 -0.22577101 -0.20016314
-0.79795873 0.8060523 0.27515367 -0.13654937 0.1585578 0.5986346 -0.7752126 0.1155151
0.7307584 0.08653343 -0.8244643 -0.43295315 -0.17740247 -0.51508117 0.660842 -0.13276902
1.0190017 0.72478485 0.7651011 0.94351655 -0.25411502 -0.106159285 0.03418762 0.4329209
-0.6901512 0.7734051 0.3226036 -0.007642408 -1.2232624 -0.681646 -0.040371004 0.10089919
1.2122552 0.32937264 1.2745292 0.8143917 -0.36048985 1.1087509 -0.04563329 0.40485343
0.109639786 0.2788005 0.06336584 -1.2171451 -1.0682756 0.15420823 -0.16256532 -0.62838006
-1.1036104 0.2808004 0.7790111 -0.3478199 0.2812367 -0.45484138 -0.36341837 0.43330923
-0.60331166 -0.24301282 0.2612581 0.5179447 0.5872027 1.0566081 -0.8190608 -0.58661044

layer2.2.bias f4 [256]
00000000: d037 75be 9199 2c3f 6053 07be 4232 6cbf
00000010: 2ba6 693f 389a e9be da40 dd3b 7eae 543e
00000020: c5ad 883e 2fde b43e 606a 1c3e 1cb6 ecbe
00000030: 11ec 133e 9b6f 603f ca2f 443f ab4d c2be
00000040: 0231 1abf cec7 8fbe 055f c5be 96be 533e
00000050: 93c6 3ebf 0d6f 233e ff15 27ba c1ff 60bf
00000060: fdca 85be 40b5 8cbd be5a 4bbd 47e0 b13e
00000070: 1bfa 003d a286 183f 2f68 af3e e8be c9bd
00000080: 8d9b 0c3e c792 983d 872a c23e 9626 f4be
00000090: 3558 5fbd d212 aa3e 56b3 373c ac1d 67be
000000a0: 436b 12bf f4c3 d13c 33ca 09be e428 973d
000000b0: 64c0 e83d 1dfb f53e 5c6a 4dbe cd99 1c3e
000000c0: 2f55 e0be 4670 14bf eea7 873e a0a4 233f
000000d0: 24d7 87be 2005 de3e 89cf 6bbe c2be 1c3f
000000e0: 5ae1 9b3e 79c3 8e3e 7e31 a73e ecc6 b4bc
000000f0: eeb1 c1bc 624f 10bf d373 0bbf a588 4dbf
00000100: f8b9 403f d2bc 22bf 9ff5 8d3d 7c4d 20bf
00000110: 5b13 b23d 0f5a 8cbd 3ad1 e53c 7cb1 1abf
00000120: 73fb fd3d 322c bdbe 0b29 073f f5d5 373f
00000130: 7863 68be 9593 aebd a1a9 d0bd aefd 42be
00000140: 4e0b 753e 1cc7 c73e 1120 81be 3716 bc3e
00000150: bab5 7a3e 05d4 dd3e debb 36be 7acb 3a3f
00000160: 8c31 f23e 940c d5be 9294 e7be 5663 6d3f
00000170: e189 52bf 626f 3b3f 9110 a4be 0787 ca3e
00000180: a2ad fd3b 392c 80bf 0ae5 933e 124d 32bf
00000190: c197 6dbf 9e25 39be 9564 163b 4dfe c43e
000001a0: 4ba1 253e 263b fabc aa8f 8b3d 3f19 033e
000001b0: 4355 1abf c63e c9bd cfa8 0b3f a91c 373f
000001c0: 8797 9d3d 3616 913c b8f6 5a3d 5e61 113f
000001d0: 8dfe 2c3f fcaa d2be f042 d83e 7908 61bf
000001e0: 618d bdbd 8ad9 4a3f af5b debe c70c 9fbd
000001f0: 0eb2 86bf e9c6 1c3f 4308 19bf 8d37 8abc
00000200: c0f0 13bf 1e51 30be ead7 1b3f 5a43 ddbd
00000210: 4981 8a3e e20f 38bf d5d3 dcbd 73f7 aebe
00000220: d77e 3dbe b9f1 43bf e3ae 353e 6434 363f
00000230: 2416 1a3e f536 28be e595 6d3f 46e2 b5bd
00000240: 94c1 6ebf 1626 b4bd dc47 323f 5f23 21be
00000250: c9a1 c3bd 5ab9 a63e 9b83 07bf ff73 7abd
00000260: c4d3 403e 998c 04be ce5b 54bf 0266 f43e
00000270: 019b cebe 8af9 52bd 4340 40bf f6e0 733f
00000280: ee32 42be 34c1 db3e b539 ea3d 86a8 a53e
00000290: b416 463f 87f1 393f ba0b 5b3e aeee bfbd
000002a0: 0c92 363f c2c6 9e3e 4d32 6dbe 51c2 0a3e
000002b0: 1b81 87be 25e9 a3be a7f7 27bf 5452 0a3f
000002c0: 06c1 87be bdc9 413f da72 9f3a 86ea 4cbf
000002d0: e736 0ebf 30bb 763f 2a44 de3e 4f80 5f3e
000002e0: 58f4 0cbf 8ebb 18bf e6b1 5a3e 3aad 333f
000002f0: 41ef 1cbe dd85 873e 6c37 01bf 506b ef3e
00000300: 2f00 eb3e 5572 75be a6b3 05bf 8648 bfbd
00000310: 8d9c f63e 06dd 22bf 78aa d7be e5d2 bcbe
00000320: f00e 55bf 9da9 ecbe 37fa 14bf 3845 67be
00000330: 0553 8abf f29f 8bbf a3c1 8fbd 62a7 74bf
00000340: 45ea 99be b391 883e 7b8a e4be db27 c63e
00000350: 8dae 82be c5b2 a33e d637 ce3e 9806 cd3c
00000360: b988 4e3e 2d2e 473e 9bc7 f0be 3c77 dbbd
00000370: 3b88 aa3e ea0c 2ebf 9126 933d d954 32bf
00000380: 97ba 63bf 3194 9abe a427 8f3d ba01 66be
00000390: b1f3 1ebe 404f 773f 0805 f23d 8f5d 3c3f
000003a0: 7c05 3ebf 6a98 38bf cead 613f 7b09 293e
000003b0: b299 23bf 46fc fbbe 9288 2b3f 5f6d 26be
000003c0: b882 803f 3672 30bf dbec a53e ee87 5ebd
000003d0: 675d 1ebe ca5d 933d b532 5c3e 45c7 58bf
000003e0: 5c6c 4f3c 6df0 183e ba76 9fbf c786 873e
000003f0: 4c9c afbe b8be 68bf 9873 67bf 3a41 093e
-0.23947072 0.67421824 -0.13215399 -0.9226419 0.9126918 -0.45625472 0.0067521157 0.20769688
0.26695076 0.35325763 0.15274954 -0.46232688 0.14445521 0.87670296 0.7663542 -0.3794988
-0.6023103 -0.28082126 -0.38549057 0.20678172 -0.7452175 0.15960331 -0.0006373822 -0.8789025
-0.2613143 -0.06870508 -0.049647085 0.34741423 0.03148852 0.59580433 0.34259173 -0.098508656
0.13731213 0.074498706 0.3792307 -0.4768569 -0.05452748 0.33217484 0.011212191 -0.22569913
-0.5719492 0.025606133 -0.13456039 0.07380846 0.113648206 0.48043147 -0.20060104 0.15293045
-0.4381499 -0.57983816 0.26495308 0.6392307 -0.26531327 0.43363285 -0.23028387 0.61228573
0.30445367 0.2788351 0.32654947 -0.02206751 -0.023644414 -0.5637113 -0.5447361 -0.8028663
0.75283766 -0.63569367 0.06931614 -0.6261823 0.08695098 -0.06853115 0.028053869 -0.6042707
0.12401476 -0.3694778 0.52797 0.7181085 -0.22694194 -0.08524243 -0.10188604 -0.19042084
0.23930094 0.39019096 -0.25219777 0.367357 0.24483386 0.4332582 -0.17845103 0.7296673
0.47303426 -0.4161116 -0.45230538 0.927297 -0.82241637 0.7321683 -0.3204389 0.39556143
0.007741646 -1.0013496 0.2888568 -0.6964885 -0.92809683 -0.18080756 0.0022948135 0.38475266
0.1617481 -0.030545782 0.06814511 0.128026 -0.6028635 -0.09826426 0.54554456 0.71528107
0.07694917 0.017710786 0.053457946 0.56789196 0.67575914 -0.41146076 0.4223857 -0.87903553
-0.092554815 0.7923819 -0.43429324 -0.07766109 -1.0523088 0.6124101 -0.5977823 -0.016872192
-0.5778923 -0.17218444 0.60876334 -0.10803862 0.27051762 -0.71899235 -0.10782591 -0.34173164
-0.18505417 -0.76540715 0.17742495 0.7117369 0.15047508 -0.16427214 0.92806846 -0.08881049
-0.93264127 -0.08796327 0.696409 -0.15736149 -0.095523424 0.32563287 -0.5293519 -0.06114578
0.18830782 -0.12944259 -0.8295258 0.47734076 -0.40352634 -0.05150751 -0.75098056 0.9526514
-0.1896474 0.4292084 0.11436788 0.32355136 0.7737839 0.72634166 0.21391192 -0.093716964
0.713166 0.31011015 -0.2316372 0.13550688 -0.26465687 -0.32013813 -0.6561226 0.5403187
-0.26514453 0.75698453 0.0012164966 -0.80045354 -0.55552524 0.96379375 0.4341138 0.2182629
-0.5506034 -0.59661186 0.21356925 0.701862 -0.15325643 0.26469317 -0.5047519 0.4676156
0.45898578 -0.23969395 -0.52227247 -0.093400046 0.48166314 -0.63618505 -0.42122245 -0.3687965
-0.8322592 -0.46223155 -0.581943 -0.22584999 -1.0806586 -1.0908186 -0.07019355 -0.95567906
-0.30061546 0.2667366 -0.44636902 0.38702282 -0.25523797 0.31972328 0.40276974 0.025027558
0.20169343 0.19451208 -0.47027287 -0.107161015 0.3330706 -0.67988455 0.0718509 -0.6966072
-0.8895659 -0.30191186 0.06989983 -0.22461596 -0.15522648 0.966053 0.11817366 0.7358026
-0.7422712 -0.72107565 0.8815583 0.16507523 -0.63906395 -0.49215907 0.67005265 -0.1625266
1.0039892 -0.6892427 0.3240727 -0.05432885 -0.15465318 0.07195623 0.21503718 -0.8467906
0.012660112 0.14935465 -1.2458107 0.26470014 -0.34298933 -0.90916014 -0.9041076 0.13403788

layer2.5.weight f4 [7, 256]
00000000: b8a1 fdbd 0106 c7be 1db7 61bd cdd1 31bd
00000010: ff8d 62be 8f60 3f3e b3a2 2ebd 72ab 993d
00000020: a36f 793c ba40 8a3c d549 613e 1244 553d
00000030: 4eeb ec3c 61e3 25be e071 d83d 53bf b93d
00000040: cacd 8abd 58cd 643d 19ab c23e 87c7 f8bd
00000050: 340e f43d 5f5e e1bd febe 9f3d 1da8 87bd
00000060: 3512 2abd 0740 053e 8ae0 b23d 46a4 a8bd
00000070: feda ad3d 6126 d9bd 8380 0d3b 055a e43c
00000080: 4a3a 873d fc09 ae3d a1a1 e53c 6a43 573e
00000090: 72f1 e0bd 33f5 b8bd 021c 713d e4ba 953d
000000a0: b469 f23d a1b1 dc3d d6c5 48be 58e5 583e
000000b0: 5712 78bd c387 79bd a3f0 51bd b351 99bd
000000c0: 9b09 463e 1d48 743e c1f2 42be 5cde 9cbd
000000d0: 064f 9a3d 50ee d5bd 0679 1dbc dc37 08be
000000e0: f9b6 113e 3a3d 5fbc 42c9 27bc d1c7 cb3c
000000f0: 4be7 95bd 15ea 2e3d c2de 923d 590e 5c3e
00000100: 7ab5 67be 540b af3d 50c9 e2bc d752 cd3c
00000110: ed4d 3bbd 8d22 a5bd 8c4a 96bc 3556 ad3d
00000120: 80a7 c23d 5d2d 9c3c 629d 35be 9e2f 313b
00000130: f3fe 933e e441 093e 6b8b a2bd 02d5 ca3d
00000140: 80fe 0ebe 7a71 97bb 613f 353e 1fba f7bd
00000150: b2df 8cbd 9209 07be c8f3 89bd bbe6 01be
00000160: 28c6 423d 06da a23c 1a41 033e 0ba8 2cbe
00000170: 7917 993d f02d 1e3c 12c2 193e 1ac5 73bc
00000180: e3c0 1bbe 6039 4f3e d4d8 b1bd 9c94 8e3e
00000190: bfa6 cc3d 5777 e13d d052 9b3d 05b4 8abd
000001a0: f366 1abe c954 d73c a54d ebbd 2dfa 873d
000001b0: b162 153e 4fd3 923e 6165 10be b1cf 87be
000001c0: 8aa9 ba3c 8640 34bc b691 e1bd 69a3 86be
000001d0: e6ac cebd d936 2c3e 001d 24be a373 d93d
000001e0: b483 323e 0652 2f3d fabc e63d 45d2 c8bd
000001f0: 92d4 bd3d 0ca7 bcbd 6f81 173e 8ac0 23bd
00000200: b77e 653e cc1a 903d 90cf f2bd 51fa 0abd
00000210: 3ed9 b43d 34b0 183e 35ca 70bc 3807 a43d
00000220: d4e7 583d bae7 843d 4578 56bd 2ed7 bebe
00000230: c4a4 8a3d 3bc6 3f3e dedd 48be fa55 82bd
00000240: f426 a7bc 72c0 833d f052 e2bd 4cdc 2a3e
00000250: 95b7 9f3d d052 f8bd a0cb 5a3e fc96 213d
00000260: 02be ccbc 03f7 a43d 7893 dd3d ee26 36be
00000270: a984 293e 5b54 073c 787f 733d 25fc a1bd
00000280: 4b86 88bd 9191 af3b be78 6bbc 0d7f 82bd
00000290: 0283 1ebe 87f9 91be 657b 253c 2385 18bc
000002a0: e05e 0cbe 0b45 6abc 656b 9f3c a1d4 e3bc
000002b0: 46b5 0d3c b4f7 e1bc 16c7 8a3e a1f9 a1bd
000002c0: 3106 61bd eb71 16be e617 043d cf47 26bd
000002d0: b9ca b23d 43d6 03be 39d1 3cbd 891b 80bd
000002e0: e711 793d 4af4 fd3d 4086 00be b75f 33be
000002f0: 187f 5fbe 1517 a23d 7ed6 a13d 64d5 49bc
00000300: dac2 91bd 72c1 153e 19ea 82bc bbbb 14be
00000310: ffd9 a4be e303 933d 5add 6c3e 5261 1a3e
00000320: dee3 583d 8701 913c f646 f93d b162 743d
00000330: f780 003e d9c0 4a3e 135b e63d e23b ef3c
00000340: d2a2 f23a 05f5 cc3b b4ec a3bd c49f 0bbe
00000350: c046 13be 8129 c93d 1d2d 21be f232 43be
00000360: 6544 7ebc b2b4 443c 06cb fd3d baec 143d
00000370: 8372 86bc fce6 f63d f3d1 e9ba 39bb 3f3e
00000380: 9ee2 da3d cb77 d5bd a98b 923c 1907 9c3d
00000390: 849e f73d 6a6b 5bbc 44e2 9ebd 3d5a 82be
000003a0: 67ad 583d 60e6 9e3d 415f 89bd 8314 c2bd
000003b0: 0baf 103e 4d9a 513e 5b59 77be 2daa a63d
000003c0: 8fed 853d 3049 503e 6218 e0bb aff3 c7bd
000003d0: 5d23 813d 0db7 7ebd 9496 ac3d 707b 7b3e
000003e0: 5606 e13c e529 8cbd 4a9e c93d ebd0 1ebe
000003f0: 2d8a 243e 3642 273e 8ba2 2f3e 72b7 153e
-0.12384361 -0.38871768 -0.05510627 -0.043412972 -0.2212448 0.18689178 -0.04263563 0.07503404
0.01522437 0.016876567 0.22000821 0.05206687 0.028920796 -0.1620002 0.10568595 0.09069695
-0.067775324 0.055859894 0.38021162 -0.12147432 0.119167715 -0.11004328 0.07800101 -0.06623862
-0.04152127 0.13012706 0.08734234 -0.08234458 0.08489035 -0.10603023 0.0021591492 0.027874956
0.06602915 0.08497998 0.028031172 0.2102181 -0.10983552 -0.09031143 0.0588646 0.07311037
0.118365675 0.107760675 -0.19606718 0.21181238 -0.060564365 -0.060920488 -0.05125488 -0.07486286
0.19339602 0.23855634 -0.19037916 -0.07659599 0.07534604 -0.10445845 -0.009611374 -0.13302559
0.14229955 -0.013625437 -0.010240855 0.024875553 -0.07319506 0.042703707 0.07171394 0.21489848
-0.22627822 0.085470825 -0.027683884 0.025063915 -0.045728613 -0.08063231 -0.018346094 0.08463708
0.09504604 0.0190646 -0.17735818 0.0027036439 0.28905448 0.13404042 -0.07936748 0.09903909
-0.13964272 -0.0046216818 0.17699958 -0.12096047 -0.06878604 -0.13187245 -0.06735951 -0.12685673
0.047552258 0.019879352 0.12817803 -0.16860978 0.0747518 0.009654507 0.15015438 -0.014878536
-0.15210299 0.2023673 -0.08683935 0.27847755 0.09992742 0.110090904 0.075841546 -0.06772617
-0.15078335 0.026285546 -0.11489419 0.06639514 0.14588429 0.2867684 -0.14101173 -0.26525643
0.02278592 -0.011001712 -0.1101412 -0.26296547 -0.100915715 0.16817798 -0.16026688 0.10617759
0.17433053 0.042802833 0.11266513 -0.09805731 0.0926906 -0.09211549 0.14795469 -0.03997854
0.22411619 0.07036361 -0.11855996 -0.033930127 0.08830498 0.14910966 -0.014696647 0.08009189
0.052955464 0.06489511 -0.05236079 -0.37273544 0.06769708 0.18727963 -0.19615886 -0.06364055
-0.020404316 0.064331904 -0.11050975 0.16685599 0.07798687 -0.1212517 0.2136674 0.03945063
-0.024992947 0.08054926 0.10819143 -0.17788288 0.16554512 0.008259858 0.059447736 -0.07909421
-0.06666239 0.005357929 -0.014372049 -0.06371889 -0.15479663 -0.28510687 0.01010022 -0.009309086
-0.13708067 -0.014298688 0.01946039 -0.02781135 0.008649176 -0.027583934 0.27105016 -0.07908941
-0.054937545 -0.14691894 0.032249354 -0.040595826 0.087300725 -0.12874703 -0.046097968 -0.06255252
0.06080809 0.1240011 -0.12551212 -0.17516981 -0.21825826 0.07914559 0.07902239 -0.012318943
-0.07117243 0.14624575 -0.015980767 -0.14524738 -0.32197568 0.07178476 0.23131314 0.15076187
0.052951686 0.017700924 0.12171738 0.059664432 0.12549196 0.19800128 0.1124784 0.029203359
0.0018511659 0.0062547945 -0.08004132 -0.13635164 -0.14382458 0.09822369 -0.15739866 -0.19062403
-0.015519236 0.012005972 0.12392239 0.036358573 -0.016412025 0.120557755 -0.0017839059 0.18723764
0.10687755 -0.10423239 0.01788886 0.07618541 0.12090781 -0.013392309 -0.077580005 -0.2545947
0.052899744 0.07758784 -0.06707621 -0.094765685 0.14129274 0.20469017 -0.2415518 0.08137927
0.06539451 0.20340419 -0.006838844 -0.09763276 0.06305573 -0.06218629 0.08427158 0.24558806
0.027468842 -0.06843928 0.09844644 -0.15509383 0.16068335 0.16333851 0.17151849 0.1462076

layer2.5.bias f4 [7]
00000000: 5422 73be a2a1 633f 84e6 a1be a499 8fbf
00000010: 12c0 6fbf b08d bfbe 281d 1040
-0.23743564 0.8891851 -0.31621182 -1.1218762 -0.9365245 -0.37412786 2.2517796
