Saved_data_files/bpi/lr_all_variants/MLP/EventPredictor_parameters_feedforward_0.0001.pt (torch, 298305 bytes, 6 tensors)

layer2.0.weight f4 [256, 24]
0	0xbdd2ab9b	-0.102866374
1	0xbd4492af	-0.04799145
2	0xbe24d56e	-0.16097042
3	0xbdb34450	-0.08753264
4	0x3e3d5dc6	0.18492803
5	0x3c92ada2	0.01790506
6	0x3e477b9c	0.19480747
7	0x3e1ad8dc	0.15121788
8	0x3d2bbb3c	0.041926607
9	0x3d957ee7	0.07299595
10	0x3d9d4fa5	0.076812066
11	0x3e3af1b3	0.18256263
12	0xbe4afe68	-0.19823611
13	0x3d370088	0.04467824
14	0xbc1a8ed5	-0.009433468
15	0xbddb3734	-0.107038885
16	0xbd23fd2e	-0.040036373
17	0x3e57a64e	0.21059534
18	0x3d99f8f8	0.0751819
19	0x3e27ff13	0.16405897
20	0xbdc86981	-0.09785748
21	0x3dc63155	0.09677378
22	0xbe483b4a	-0.19553867
23	0xbd8ed677	-0.069745
24	0xbcaae94d	-0.0208632
25	0x3d58c49a	0.05292187
26	0xbe0fb19d	-0.14032598
27	0xbe17446c	-0.14772195
28	0xbdf7671b	-0.12080213
29	0xbcefc31d	-0.029267842
30	0x3d8be4d4	0.06830755
31	0x3e2d7be7	0.16941796
32	0x3e607b9b	0.21922152
33	0x3e56ab86	0.20963868
34	0x3e465d2c	0.1937148
35	0x3e0c3a23	0.13694052
36	0x3e0c3464	0.1369186
37	0x3cb70bef	0.022344558
38	0x3e0efc69	0.13963474
39	0xbbe313e0	-0.0069298595
40	0xbc5ff1ca	-0.013668487
41	0x3c596d09	0.013270625
42	0xbd1cd250	-0.038286507
43	0x3d592218	0.05301103
44	0xbe2584ae	-0.16163895
45	0xbd6d3257	-0.057909336
46	0x3dc914eb	0.09818443
47	0x3c530388	0.01287926
48	0x3e41f3df	0.18940686
49	0x3df382af	0.1189016
50	0xbd1730fb	-0.036911946
51	0xbe501de8	-0.20323908
52	0x3df5c9e5	0.12001399
53	0x3e0eda7a	0.1395053
54	0xbe231eda	-0.15929738
55	0x3e39aef9	0.18133153
56	0x3e1889c9	0.14896311
57	0x3e0243cb	0.12721173
58	0x3e4e87f5	0.20169051
59	0x3ce04c13	0.027380025
60	0x3dab8d9d	0.0837662
61	0xbd9c9fa5	-0.07647637
62	0x3e4e0afd	0.20121379
63	0xbda9978f	-0.08280861
64	0x3d9348d0	0.07191622
65	0x3e1f7246	0.15570936
66	0xbe1ee3be	-0.15516564
67	0xbe076611	-0.13222529
68	0x3de0863b	0.109631024
69	0xbc89e698	-0.016833588
70	0xbe21a73d	-0.15786453
71	0xbe0d6269	-0.13807072
72	0xbdcccbc6	-0.09999804
73	0xbe165d59	-0.14684047
74	0x3c97059d	0.018435294
75	0x3d4e4498	0.050358385
76	0xbc1b2be8	-0.009470917
77	0xbd9a593f	-0.075365536
78	0x3e2e97d1	0.17050101
79	0xbcbf6cc0	-0.023367286
80	0xbd0ec27f	-0.034853455
81	0x3dc296ea	0.09501441
82	0x3d8ce7b3	0.068801306
83	0x3e21cdfa	0.1580123
84	0xbd1f6a56	-0.03891977
85	0xbe00f03f	-0.12591647
86	0xbda0f9d2	-0.078601494
87	0xbe1a61b2	-0.1507633
88	0x3ce7ebfc	0.028310768
89	0x3e2e5bad	0.17027159
90	0x3dcd4007	0.10021978
91	0xbe355d0c	-0.17711276
92	0x3c90894d	0.017643595
93	0xb98ca04f	-0.0002682232
94	0xbd0c1c80	-0.034206867
95	0x3e2f622f	0.17127298
96	0x3d9a55b8	0.07535881
97	0x3e0b2365	0.1358772
98	0x3e064c86	0.13115129
99	0x3e08a79a	0.13345185
100	0xbd27267f	-0.040808197
101	0xbc5db865	-0.013532733
102	0x3e08685c	0.1332106
103	0x3e34ceb2	0.17656973
104	0x3e83e6f2	0.25762135
105	0xbd26c2f7	-0.040713277
106	0x3cb4ccb3	0.022070264
107	0x3e2b5515	0.16731675
108	0xbe232984	-0.15933806
109	0x3cb1cbf3	0.021703696
110	0xbd4a3345	-0.0493653
111	0x3e47dad1	0.19517066
112	0xbe0bc34e	-0.13648722
113	0x3cb5b2fa	0.02218007
114	0xbdc7d053	-0.097565316
115	0xbdce891e	-0.10084747
116	0xbe545a53	-0.20737581
117	0xbb12a9ea	-0.0022379109
118	0xbe4a3791	-0.1974776
119	0x3d0646c8	0.032782346
120	0xbdf949ac	-0.12172255
121	0x3e05a64d	0.1305172
122	0x3db4b5e7	0.088237576
123	0x3db129e5	0.08650569
124	0x3dfbcde2	0.122951284
125	0x3d641db3	0.055692386
126	0x3e0db67f	0.13839148
127	0xbde35f13	-0.11102118
128	0xbe02a614	-0.12758666
129	0xbdd51b26	-0.10405569
130	0x3d2a5c43	0.041591894
131	0xbda7bebe	-0.08190678
132	0x3e2d86e3	0.16945986
133	0x3e0aec59	0.13566722
134	0xbe436ec7	-0.19085227
135	0x3e48307f	0.1954975
136	0x3d94f621	0.07273508
137	0x3dc3785c	0.09544441
138	0x3db2166c	0.08695683
139	0xbe368d75	-0.17827399
140	0x3d32945d	0.04359852
141	0xbcbfce50	-0.023413807
142	0xbdcd044c	-0.10010585
143	0x3d365543	0.044514906
144	0xbe162c0a	-0.14665237
145	0x3de7d142	0.1131921
146	0xbe30d66e	-0.17269298
147	0xbe327075	-0.17425711
148	0xbe1ceb9f	-0.15324257
149	0xbe2109dc	-0.15726417
150	0xbe1b9124	-0.15192086
151	0xbdbaff87	-0.09130769
152	0xbd10f3a6	-0.03538861
153	0x3e283908	0.16428006
154	0x3e3c036b	0.18360679
155	0xbe1a4063	-0.15063624
156	0xbe2e902e	-0.17047188
157	0x3dadf06d	0.08493123
158	0xbe24efbc	-0.16107076
159	0x3c4cc67a	0.012498492
160	0x3d2be06c	0.041962072
161	0x3e2e54bb	0.1702451
162	0xbdccd406	-0.10001378
163	0x3da4ceb8	0.08047241
164	0x3cc22923	0.023701256
165	0xbd0bc7e9	-0.034126196
166	0xbd9f8f85	-0.07791046
167	0xbd8dcd30	-0.06923902
168	0xbe0f926c	-0.140207
169	0xbdf9d4b9	-0.12198777
170	0xbe1dddf4	-0.154167
171	0x3dcb8cd9	0.09938974
172	0x3d76af24	0.06022562
173	0xbe1a0fd3	-0.15045099
174	0x3dee6a9a	0.116414264
175	0xbcb23cb0	-0.021757454
176	0xbcbe7f5f	-0.023254095
177	0xbd3f7eac	-0.046751663
178	0x3c5022a4	0.0127035715
179	0xbdd44c3a	-0.103661016
180	0x3e2d2415	0.16908295
181	0xbd488b9a	-0.04896126
182	0xbe12ab6d	-0.14323206
183	0xbdbf8479	-0.09351439
184	0x3e601594	0.21883231
185	0x3e3d8d04	0.18510824
186	0x3e3b1b38	0.18272102
187	0x3e16da83	0.14731793
188	0xbe1ff3a2	-0.15620282
189	0xbd3ad881	-0.04561663
190	0xbc2fa148	-0.010719605
191	0x3e3eba34	0.18625718
192	0x3e42af7e	0.19012257
193	0x3e223cbd	0.15843482
194	0xbd504f57	-0.050856914
195	0xbdeceb2d	-0.11568294
196	0xbe4ab65b	-0.19796126
197	0x3e1a0f0a	0.150448
198	0xbda7e2e0	-0.0819757
199	0xbcacbd41	-0.021086337
200	0x3cdb958b	0.026804706
201	0x3e1985de	0.14992473
202	0xbdd19f57	-0.1023547
203	0x3e0bf6d0	0.1366837
204	0x3d96c4eb	0.07361778
205	0x3e0045b7	0.12526594
206	0xbc049cce	-0.008094026
207	0x3cf5dd6d	0.03001281
208	0xbd884b46	-0.06654982
209	0x3decb267	0.11557465
210	0xbe208acb	-0.15677945
211	0xbb9c34f4	-0.0047670547
212	0x3e4ebb19	0.2018856
213	0x3d9aff87	0.07568269
214	0xbe097c13	-0.13426237
215	0x3ddc6576	0.1076154
216	0x3e66bc79	0.22532834
217	0x3ce01b53	0.02735678
218	0xbdfba67a	-0.12287612
219	0x3e821a2f	0.25410601
220	0x3dd09a1b	0.10185643
221	0xbdafacc3	-0.085778736
222	0xbc6be036	-0.014396718
223	0x3e177d8b	0.14793985
224	0xbc689278	-0.014195077
225	0xbdbdb5bb	-0.09263178
226	0xbe70f967	-0.2353264
227	0xbd42d040	-0.047561884
228	0xbd46951f	-0.048482057
229	0xbe4cb4ac	-0.19990796
230	0xbd92972f	-0.07157742
231	0x3db930df	0.090425245
232	0x3e024745	0.127225
233	0xbd257e21	-0.04040349
234	0x3de799e8	0.11308652
235	0xbe081809	-0.13290419
236	0xbd949d6b	-0.072565876
237	0x3e2c54a7	0.16829167
238	0xbcf1b70d	-0.02950623
239	0x3dd025f2	0.101634875
240	0xbe4f00af	-0.20215105
241	0x3e0a0e6e	0.13482067
242	0x3d80c523	0.06287601
243	0xbe231331	-0.1592529
244	0x3e257a91	0.16160037
245	0xbd0e2023	-0.034698617
246	0x3d61af81	0.055099014
247	0xbd42c7e2	-0.047553904
248	0xbe29e16b	-0.16589896
249	0x3d9b5d51	0.07586158
250	0xbe17006a	-0.14746252
251	0xbe44fe2f	-0.19237588
252	0xbe0b0006	-0.13574228
253	0x3e40893d	0.18802352
254	0x3e153416	0.1457065
255	0xbd618bdc	-0.05506502

layer2.0.bias f4 [256]
0	0xbc8be84c	-0.017078541
1	0xbe2b3337	-0.16718756
2	0x3e0ca4b4	0.13734704
3	0x3e229d4f	0.15880321
4	0x3e23ae5a	0.15984479
5	0x3c187781	0.009305836
6	0x3e0144e3	0.12623934
7	0xbe2e35b5	-0.17012675
8	0x3dbd8765	0.0925434
9	0x3d8dbcb2	0.069207564
10	0xbc8b1c19	-0.016981171
11	0x3cc771ed	0.024346316
12	0x3d7e184d	0.062034894
13	0x3e69feac	0.22851056
14	0x3cb1f8e0	0.021725118
15	0x3e11dd41	0.14244558
16	0x3e008248	0.12549698
17	0x3e023ddb	0.12718908
18	0xbde25804	-0.11051944
19	0xbe01c54b	-0.12672918
20	0xbd37f7d7	-0.044914093
21	0x3e30d93c	0.17270368
22	0x3dbff9c0	0.09373808
23	0xbe0b9d80	-0.136343
24	0xbe126cd6	-0.1429933
25	0xbca1b60f	-0.019740133
26	0xbded4f76	-0.115874216
27	0x3c962760	0.018329322
28	0x3cb136f5	0.02163265
29	0xbdc7aac2	-0.09749366
30	0xbd94202a	-0.07232697
31	0x3dba4db2	0.090968505
32	0x3d3930fa	0.045212723
33	0xbe3c91f3	-0.1841505
34	0xbda43b38	-0.080191076
35	0x3dce928c	0.10086545
36	0xbd159c58	-0.036526054
37	0xbda8e00d	-0.08245859
38	0xbde2ad25	-0.11068181
39	0xbdddddab	-0.108332954
40	0xbdfd63f6	-0.12372582
41	0x3d23f06c	0.040024206
42	0x3e0a881b	0.13528483
43	0xbe81d79e	-0.25359815
44	0x3cfd90ea	0.03095289
45	0x3db970b8	0.090547025
46	0xbd838089	-0.064210005
47	0xbb67527f	-0.0035296974
48	0xbe3af7e6	-0.18258628
49	0x3b86c491	0.004112788
50	0x3e1a9957	0.15097557
51	0xbd4abeee	-0.04949849
52	0xbe5c3e8e	-0.21508238
53	0xbdfd12a9	-0.12357075
54	0x3e4b6b79	0.19865216
55	0x3cb6c16c	0.022309028
56	0xbe271299	-0.16315688
57	0xbde40785	-0.11134247
58	0x3c85875e	0.0162999
59	0x3d9d1ca3	0.07671478
60	0x3d0c0ad1	0.034190003
61	0x3e266609	0.16249861
62	0x3d62cec9	0.055372987
63	0xbd39ba0c	-0.045343444
64	0x3cf2af39	0.029624568
65	0x3dd8d369	0.10587198
66	0x3e318658	0.17336404
67	0x3e0de938	0.13858497
68	0xbe64304c	-0.22284049
69	0xbdf5d496	-0.12003438
70	0xbdee5a84	-0.11638358
71	0x3e2c0900	0.16800308
72	0x3d98aaf1	0.074544795
73	0xbd3e8c58	-0.04652056
74	0xbdea5595	-0.11442105
75	0xbe1548e4	-0.14578587
76	0x3d3ad0ee	0.045609407
77	0x3b90391c	0.004401339
78	0x3d21f33a	0.0395386
79	0x3cb17911	0.021664174
80	0xbe39b3f6	-0.18135056
81	0xbd466791	-0.048438612
82	0xbb1725d1	-0.0023063312
83	0x3db15356	0.08658473
84	0x3d9f4a0c	0.07777795
85	0xbe173f84	-0.14770323
86	0x3d2aa37e	0.041659825
87	0x3b9a4a2a	0.004708548
88	0x3dfa3be2	0.12218453
89	0x3e533de0	0.20629072
90	0xbe005cdb	-0.12535422
91	0xbe23708c	-0.15960902
92	0x3e22dd16	0.1590465
93	0xbdd09344	-0.10184339
94	0xbda7e23b	-0.08197447
95	0xbea675cd	-0.3251175
96	0x3d45d7b8	0.04830143
97	0xbde90c8b	-0.113793455
98	0xbdd013dc	-0.10160038
99	0x3d4d6b62	0.050151236
100	0xbd050b99	-0.032481764
101	0xbe61ce84	-0.22051436
102	0xbdbd44a6	-0.09241609
103	0xbd8e4194	-0.06946102
104	0x3ddd64ca	0.108102396
105	0xbc8e63a0	-0.01738149
106	0x3d1aba27	0.037775185
107	0x3e35c653	0.17751436
108	0x3d5b45aa	0.053533234
109	0xbdcb12e2	-0.09915711
110	0xbe925cc4	-0.285864
111	0xbd2374dc	-0.039906368
112	0x3e6fdc40	0.23423862
113	0x3db9488d	0.09047041
114	0x3e5173c9	0.20454325
115	0x3d7ef7d1	0.062248055
116	0x3e00a13f	0.1256151
117	0xbe2cc2aa	-0.16871133
118	0x3d61753c	0.055043444
119	0xbd69eab1	-0.057108585
120	0xbe051823	-0.12997489
121	0x3e17f5ef	0.1483991
122	0x3db5bb22	0.088735834
123	0x3d56fdde	0.0524882
124	0xbe2b01a4	-0.16699845
125	0xbce91910	-0.028454334
126	0x3e21f265	0.15815122
127	0xbe2b0373	-0.16700535
128	0xbdb6a794	-0.08918682
129	0xbd1b5815	-0.0379258
130	0xbe47d95e	-0.19516513
131	0xbe32e7e7	-0.17471276
132	0x3e59087b	0.21194641
133	0xbe3960d7	-0.18103348
134	0x3e32d543	0.17464165
135	0xbd5bc4d1	-0.053654496
136	0x3ccf6821	0.025318207
137	0x3e3b042e	0.18263313
138	0xbe79e2ae	-0.24402878
139	0xbd0fdbad	-0.03512161
140	0x3e1b3718	0.15157735
141	0xbcad923a	-0.02118789
142	0x3e16e012	0.14733914
143	0x3e1afe79	0.15136136
144	0x3be15257	0.0068762708
145	0xbe346231	-0.17615582
146	0xbdaf0150	-0.08545172
147	0xbe0447ec	-0.12918061
148	0x3d106a50	0.035257638
149	0x3e9d2eed	0.30699864
150	0xbb7a7c4e	-0.0038221064
151	0xbe321377	-0.17390238
152	0x3dd36b72	0.10323228
153	0x3e39b76b	0.18136375
154	0xbd4eb2c8	-0.050463468
155	0x3d0e9286	0.034807704
156	0xbd8875a0	-0.0666306
157	0xbd153c6f	-0.036434587
158	0xbd521530	-0.051289737
159	0x3e0b70d3	0.13617258
160	0x3dd3534f	0.10318624
161	0xbde9fd23	-0.11425235
162	0xbe40e204	-0.18836218
163	0xbd9056dd	-0.07047818
164	0xbca8199f	-0.02052003
165	0x3c9d1070	0.019172877
166	0xbd8851aa	-0.06656201
167	0xbd3968d5	-0.04526599
168	0xbdf04c17	-0.11733263
169	0xbc3b9d63	-0.011451098
170	0xbe025a01	-0.12729646
171	0x3c296b4d	0.010340524
172	0xbe1adc75	-0.1512316
173	0xbcdb475b	-0.026767423
174	0x3d3e747d	0.04649781
175	0xbdb95029	-0.090484925
176	0x3e43aabb	0.19108097
177	0xbe1e664d	-0.15468712
178	0xbe2e7e55	-0.1704038
179	0x3c711316	0.014714023
180	0xbcb239ad	-0.021756018
181	0x3d4dc157	0.05023321
182	0xbe45b307	-0.19306575
183	0x3d08d65d	0.033407558
184	0xbd9d1450	-0.0766989
185	0xbc5097aa	-0.012731472
186	0x3e3fa962	0.18716958
187	0x3e28c509	0.16481413
188	0x3ba072ec	0.0048965123
189	0x3d83b7b8	0.06431526
190	0xbdc69652	-0.0969664
191	0x3c44f4da	0.012021268
192	0xbe076b88	-0.13224614
193	0x3dbade10	0.09124386
194	0x3e2dd40f	0.16975425
195	0x3cace949	0.021107333
196	0x3de00299	0.109379955
197	0x3e3f1306	0.186596
198	0x3dca3064	0.09872511
199	0x3e6cc73d	0.23122878
200	0x3da9ca07	0.08290487
201	0x3d06e7ab	0.03293578
202	0xbd26dd21	-0.04073823
203	0xbddcbcc4	-0.10778192
204	0x3e17d1c5	0.14826114
205	0xbe25e20d	-0.16199513
206	0xbd26c01b	-0.04071055
207	0x3e1bcd22	0.1521497
208	0x3e8555e2	0.26042086
209	0x3e03cee5	0.12871893
210	0xbd64ad1e	-0.05582916
211	0xbd9b2be7	-0.07576733
212	0x3e0d46eb	0.13796584
213	0xbe58af70	-0.21160674
214	0x3cffea40	0.031239629
215	0x3d087b31	0.03332061
216	0xbdf6ca22	-0.120502725
217	0xbda849ec	-0.082172245
218	0xbe52dbd6	-0.20591673
219	0x3e5f0001	0.21777345
220	0xbe74e812	-0.23916653
221	0xbe6bed03	-0.23039632
222	0xbcc5e2e8	-0.024156049
223	0xbdbdc1df	-0.092654936
224	0xbdaf2eed	-0.08553872
225	0xbe44ce6e	-0.19219372
226	0xbe37f0bd	-0.17962928
227	0x3e00cae6	0.125774
228	0xbdf93b5a	-0.121695235
229	0xbdfac0c0	-0.122437954
230	0x3e4d3d72	0.20042971
231	0xbdd7aeac	-0.10531363
232	0x3e02db59	0.12778987
233	0xbd25d458	-0.04048571
234	0x3dd1227b	0.10211655
235	0x3d91f968	0.071276486
236	0xbd3d9053	-0.046280216
237	0x3d60352d	0.054738212
238	0xbe4cf741	-0.20016195
239	0xbe63c2d1	-0.22242285
240	0x3d0acd99	0.03388748
241	0x3e053986	0.13010225
242	0x3d42b56d	0.047536302
243	0x3e89f578	0.2694509
244	0xbe053c42	-0.13011268
245	0xbe49200b	-0.1964113
246	0x3ca52230	0.020157903
247	0xbdf8afb8	-0.12142891
248	0x3dc5cad6	0.096578285
249	0xbd37d934	-0.044884875
250	0x3dd23e1a	0.10265751
251	0xbd95c42c	-0.073128074
252	0x3e0faa67	0.14029847
253	0x3cfc8e7f	0.030829666
254	0xbdbd51ba	-0.09244104
255	0x3df63af5	0.12022964

layer2.2.weight f4 [256, 256]
0	0x3d8c515c	0.068514556
1	0xbdb4a1c6	-0.08819918
2	0x3b2839d8	0.0025669243
3	0x3cfc1f49	0.030776637
4	0x3e5b6f5e	0.21429202
5	0xbbc62018	-0.0060463063
6	0xbd57c2c6	-0.052675985
7	0xbc4ea49a	-0.012612486
8	0xbc985566	-0.018595409
9	0xbde8c560	-0.11365771
10	0x3d14bacc	0.036310956
11	0x3c840d89	0.016119735
12	0xbda32409	-0.079658575
13	0xbe188457	-0.14894234
14	0xbd7efed3	-0.062254738
15	0x3a0cd44f	0.00053722126
16	0xbd25fb19	-0.04052267
17	0x3db5af0c	0.08871278
18	0x3c047dd5	0.008086641
19	0x3db21d4f	0.086969964
20	0x3dc2071f	0.094740145
21	0x3b4ecf1c	0.0031556552
22	0xbd0f4538	-0.03497812
23	0x3d41bb12	0.047297545
24	0xb8432694	-4.652755e-05
25	0xbda805dc	-0.082042426
26	0xbbdc8404	-0.0067296047
27	0xbd8dd8c5	-0.06926111
28	0x3daca77f	0.08430385
29	0x3cb000b5	0.021484712
30	0xbaf4bba8	-0.0018671649
31	0xbc3851fc	-0.011250015
32	0xbd6020c6	-0.054718755
33	0xbc997ce4	-0.01873631
34	0x3dfa26fc	0.12214467
35	0x3daac746	0.0833879
36	0xbd8fc99d	-0.070208766
37	0xbc91a6f7	-0.01777981
38	0x3cad19cd	0.021130467
39	0x3d96f888	0.07371622
40	0xbc65a440	-0.014016211
41	0x3d5751ab	0.05256812
42	0xbdce2553	-0.10065713
43	0x3c77f4e9	0.015134075
44	0xbceed72d	-0.029155338
45	0x3d264bfe	0.040599816
46	0xbd0e5dfc	-0.0347576
47	0x3bad4673	0.005287939
48	0x3d0541c2	0.032533415
49	0xbaccd991	-0.0015628805
50	0xbdf1db57	-0.11809414
51	0x3d04f8b4	0.032463744
52	0x3d4ab7ad	0.049491573
53	0x3db9b991	0.09068597
54	0x3cae79ed	0.021298373
55	0xbbe437a0	-0.006964639
56	0x3d720edf	0.059096213
57	0x3cd9ba55	0.026578108
58	0x3ddf4f11	0.109037526
59	0x3bbe9d7c	0.0058171134
60	0x3c1a7539	0.009427362
61	0x3ca12e24	0.019675322
62	0x3cf2a68c	0.029620431
63	0xbcd1cfa9	-0.025611715
64	0xbe231c41	-0.15928747
65	0xbd3a7baf	-0.04552811
66	0x3d15d4d1	0.03657991
67	0xbc9c887a	-0.019108046
68	0x3dcdf936	0.10057299
69	0x3d705a59	0.058679912
70	0x3d3e147d	0.046406258
71	0xbd221827	-0.039573815
72	0xbd9b7451	-0.07590545
73	0xbc782e2e	-0.015147729
74	0x3a8723ac	0.0010310314
75	0xbcc1f7e0	-0.023677766
76	0xbe1e31e1	-0.15448715
77	0xbcf2cf66	-0.02963991
78	0xbde65aac	-0.11247763
79	0x3dd396cc	0.103314966
80	0xbcbe4c16	-0.02322964
81	0xbd35c012	-0.044372626
82	0xbd8e68d9	-0.06953592
83	0xbd857b46	-0.06517653
84	0x3d01f665	0.03172912
85	0xbdcf2be2	-0.10115792
86	0x3d37aab1	0.04484052
87	0xbdc795c6	-0.09745364
88	0x3d219284	0.03944637
89	0xbe045185	-0.12921722
90	0xbdb991a8	-0.09060985
91	0x3c33ca2c	0.0109734945
92	0xbcbd925e	-0.023141082
93	0x3da71fc2	0.08160354
94	0x3c78866a	0.015168766
95	0x3dee6922	0.11641146
96	0x3d5fc451	0.05463058
97	0x3d98ef0a	0.07467468
98	0xbd2dfe7c	-0.042479023
99	0xbcca92d9	-0.024728226
100	0x3d500c5f	0.050793048
101	0x3cfafc31	0.030637832
102	0xbd501fe6	-0.05081167
103	0x3dfa588a	0.12223919
104	0xbd8fbe05	-0.07018665
105	0xbcaf556b	-0.021403035
106	0x3da5c5d5	0.08094374
107	0x3b96b3ab	0.004599055
108	0x3c735f46	0.014854258
109	0xbd378275	-0.044802148
110	0xbd413f51	-0.047179524
111	0xbc792868	-0.0152073875
112	0xbd7c6ba4	-0.06162609
113	0x3e2be120	0.16785097
114	0xbb80865d	-0.0039222674
115	0xbd90ef91	-0.07076944
116	0x3d84a503	0.06476786
117	0x3c59a249	0.013283321
118	0x3c8a278c	0.01686456
119	0xbe219eb2	-0.15783194
120	0x3c1ceabb	0.0095774485
121	0xbe0f4cf0	-0.13994193
122	0xbc9c99e5	-0.019116351
123	0x3c92b9cb	0.017910859
124	0x3d3c7121	0.046006326
125	0x3be6a6e6	0.007038939
126	0x3c28ee83	0.010310772
127	0x3d6d0f5e	0.057875983
128	0x3e965696	0.29362935
129	0x3d8ee306	0.06976895
130	0xbdaec77f	-0.085341446
131	0xba93cdd0	-0.0011276547
132	0xbd23c3d0	-0.039981663
133	0xbd69de68	-0.05709687
134	0x3d521e5b	0.05129848
135	0x3d38cdc1	0.045118097
136	0xbd0b9682	-0.034079082
137	0x3949222c	0.00019181584
138	0x3d4ddca5	0.05025925
139	0x3dcf69b3	0.101275824
140	0xbcd1c9cd	-0.025608921
141	0xbc9a5543	-0.018839484
142	0x3c480947	0.012209243
143	0x3d981f29	0.07427818
144	0xbc264b77	-0.010149828
145	0x3c44b868	0.0120068565
146	0xbc306899	-0.0107671255
147	0xbd65e708	-0.05612853
148	0xbd2d1fd2	-0.042266674
149	0xbbf4fa1c	-0.0074761044
150	0xbd5382fb	-0.051638585
151	0xbc7b629b	-0.015343334
152	0xbcc4f85c	-0.024044208
153	0x3c14bf45	0.009078805
154	0x3d2268c7	0.039650705
155	0x3d0b1d0d	0.03396325
156	0x3c9f3d42	0.01943839
157	0x3e1bfbb3	0.15232734
158	0x3dc53b97	0.096305065
159	0x3daf6129	0.08563454
160	0xbd6fed21	-0.058575753
161	0xbce36ea0	-0.027762711
162	0x3ca27bf0	0.019834489
163	0xbb8f1c91	-0.004367419
164	0x3cb9abfc	0.022665016
165	0xbe1c166d	-0.1524293
166	0xbda50b80	-0.08058834
167	0xbc492fa3	-0.012279424
168	0x3d87a983	0.06624129
169	0x3c56790c	0.013090383
170	0xbd8d23f0	-0.0689162
171	0x3bf80622	0.0075690905
172	0x3caa876d	0.02081653
173	0x3c0d4c0b	0.008624087
174	0xbb8896c6	-0.004168364
175	0x3d9512f6	0.07279007
176	0xbcc5e10e	-0.024155166
177	0x3dffd380	0.12491512
178	0x3d323ca8	0.043514878
179	0xbcbf27fd	-0.023334498
180	0x3d2eacf9	0.04264543
181	0xbdaca493	-0.084298275
182	0x3d844a94	0.06459537
183	0xbcd4b2db	-0.025964191
184	0xbdda6460	-0.10663676
185	0xbde5e5c6	-0.112254664
186	0xbcbc590d	-0.022991681
187	0xbd131c2b	-0.035915535
188	0x3cdd677b	0.027026882
189	0xbd713992	-0.058892794
190	0x3c15bb71	0.009138928
191	0x3d9bd728	0.07609397
192	0xbd9ea0af	-0.07745492
193	0xbd91ccd3	-0.07119145
194	0xbdedd0ab	-0.11612066
195	0xbd906353	-0.070501946
196	0xbd8cc0b6	-0.06872694
197	0xbdb51f68	-0.08843881
198	0x3e24212b	0.16028278
199	0xbd83fe8c	-0.06445035
200	0xbcdedad7	-0.02720396
201	0xbd7147b8	-0.058906287
202	0x3dc8a4d7	0.09797066
203	0x3dba7967	0.09105187
204	0xbd676e0e	-0.05650144
205	0x3ca315c2	0.019907836
206	0xbd5e14dc	-0.05421911
207	0xbce1e6e2	-0.027575914
208	0xbdab2301	-0.08356286
209	0x3d3b4343	0.045718443
210	0x3cd5b3c6	0.0260867
211	0xbd10b2b5	-0.03532668
212	0xbd94d4f9	-0.07267184
213	0x3d95cbc5	0.073142566
214	0xbcb2785e	-0.021785911
215	0x3d05f55e	0.032704704
216	0xbd88150d	-0.0664464
217	0x3d2eb3b0	0.042651832
218	0xbd9cf5bb	-0.07664057
219	0xbdbf0f6a	-0.09329112
220	0xbd1b49ec	-0.037912294
221	0x3d9f1f5b	0.077696525
222	0x3c9dc1c9	0.019257443
223	0x3ceb0cd1	0.028692635
224	0xbd19b050	-0.03752166
225	0x3cfea18a	0.031082887
226	0x3e429378	0.19001567
227	0x3e131c44	0.14366251
228	0x3dd0f67e	0.10203265
229	0x3d857a65	0.065174855
230	0x3ceeba7a	0.029141653
231	0xbc0ce1cd	-0.008598757
232	0xbd2dfb70	-0.042476118
233	0x3d9c0d4c	0.07619724
234	0xbd6ce2e4	-0.057833567
235	0x3d9a672a	0.07539208
236	0xbafe88fd	-0.0019419488
237	0x3b00bb7f	0.0019643006
238	0x3dbdaf87	0.09261995
239	0x3d2d0eaa	0.042250313
240	0xbdad4157	-0.08459728
241	0xbdb65466	-0.089028165
242	0x3d962725	0.07331685
243	0xbd032caa	-0.032025017
244	0xbdca5978	-0.09880346
245	0x3d86fba5	0.06590966
246	0x3d589afe	0.052882187
247	0xbe4ec7cf	-0.20193408
248	0xbdfd7b81	-0.12377072
249	0xbe20c83f	-0.15701388
250	0xbc68f741	-0.014219106
251	0xbbc47132	-0.0059949392
252	0xbdf54f04	-0.11977962
253	0xbca8bab0	-0.020596832
254	0x3d97541e	0.07389091
255	0x3dc6e5b4	0.09711781

layer2.2.bias f4 [256]
0	0x3b4e7d7d	0.0031507902
1	0xbb8ee00e	-0.0043602055
2	0x3d54614e	0.05185061
3	0x3ac20cd0	0.0014804844
4	0x3d0803a9	0.033206616
5	0x3dbf4a42	0.093403354
6	0x3dd30f53	0.10305657
7	0x3d419bbe	0.047267668
8	0xbd24f242	-0.040270098
9	0x3da6026c	0.08105931
10	0x3d1a6801	0.037696842
11	0x3d9954b0	0.07486856
12	0x3d83bc46	0.06432395
13	0xbdd00b83	-0.10158446
14	0x3d88a563	0.0667217
15	0x3d1d1558	0.038350433
16	0x3dde5e54	0.108578354
17	0x3db9daf3	0.090749644
18	0x3ce4a48a	0.02791049
19	0xbc744202	-0.014908316
20	0xbc735100	-0.014850855
21	0x3c01dc67	0.007926083
22	0x3cda1027	0.02661903
23	0xbd908c92	-0.07058062
24	0x3d8f3f9b	0.06994554
25	0x3ce4396c	0.027859412
26	0x3d6c91b2	0.057756133
27	0x3c7e8089	0.015533575
28	0xba04945b	-0.0005057507
29	0x3a4392c3	0.0007460529
30	0xbb0dab21	-0.0021616893
31	0x3d23109b	0.039810758
32	0xbd3c4fdc	-0.045974597
33	0x3c25057b	0.010072107
34	0xbd0ee0da	-0.034882404
35	0xbd433949	-0.047662053
36	0x3ce1ab49	0.027547495
37	0xbce3d925	-0.027813504
38	0xbcdd52f0	-0.027017087
39	0x3d7510bc	0.059830412
40	0x3d6e512d	0.058182884
41	0xbd9613c1	-0.073279865
42	0x3c83b022	0.016075198
43	0xbc52e3bd	-0.01287168
44	0xba5e66d7	-0.0008483952
45	0xbb8a5a17	-0.0042221653
46	0x3cefd911	0.02927831
47	0xbdb0d138	-0.08633655
48	0x3c46338c	0.012097251
49	0xbbb6ff96	-0.0055846674
50	0xbd64839d	-0.05578958
51	0x3c63f56b	0.013913493
52	0xbd040ce6	-0.032238863
53	0xbd415fbc	-0.04721044
54	0x3ac893ed	0.0015302874
55	0x3ca68147	0.020325316
56	0x3d6163aa	0.055026688
57	0x3c8cb06c	0.017173968
58	0x3caf0590	0.021364957
59	0x3a6a333b	0.00089340255
60	0x3b92d844	0.0044813473
61	0x3d4d8769	0.050177965
62	0xbc018938	-0.007906251
63	0x3d5fa4a5	0.054600377
64	0xbd96d2ba	-0.07364412
65	0xbcbb5216	-0.02286629
66	0xbc9bacad	-0.019003237
67	0xbdae84d6	-0.0852143
68	0x3d22871c	0.03967963
69	0xbd73febd	-0.05956911
70	0x3b7365ec	0.0037139608
71	0x3d1c3213	0.038133692
72	0xbd350da6	-0.04420247
73	0x3d4667c0	0.048438787
74	0x3d3f60a6	0.04672303
75	0x3d91f8fd	0.07127569
76	0x3d436693	0.047705244
77	0xbc8021ea	-0.015641171
78	0x3b175892	0.0023093564
79	0xbdeebd05	-0.11657146
80	0xbdb68a2b	-0.08913072
81	0xbd06f38d	-0.032947112
82	0xbd7c717b	-0.06163166
83	0x3bd488c2	0.0064860294
84	0x3d3afb28	0.045649678
85	0xbd20f382	-0.039294727
86	0xbb33f2f2	-0.002745804
87	0xbd0ea02d	-0.034820724
88	0x3c7df734	0.015500832
89	0x3d65d6c2	0.056113012
90	0x3d844d1a	0.064600185
91	0xbc174c11	-0.009234444
92	0xbdce0762	-0.10060002
93	0x3d18480c	0.037178084
94	0x3cde9ac5	0.02717341
95	0xbd5f6af0	-0.054545343
96	0x3c9706e2	0.0184359
97	0xbd4e739f	-0.050403234
98	0x3d35aa96	0.044352137
99	0xbd2bc0b1	-0.04193181
100	0x3c40f99f	0.011778264
101	0xbd59002c	-0.05297868
102	0xbd0ee200	-0.0348835
103	0x3d538b0c	0.051646277
104	0xbd824e1d	-0.06362555
105	0xbd49f2fe	-0.049304
106	0x3d58213c	0.05276607
107	0xbddc359d	-0.107524134
108	0xbd2cd062	-0.042190917
109	0x3dce81b0	0.1008333
110	0xbca8d602	-0.02060986
111	0x3c2af293	0.010433811
112	0x3cf7501d	0.030189568
113	0x3c97b1ea	0.018517453
114	0xbbf8db4f	-0.007594503
115	0xbc0e5dd5	-0.0086893635
116	0x3d7f5f9a	0.062347032
117	0xbd420e15	-0.04737671
118	0xbd9397e7	-0.072067074
119	0x3daa034c	0.0830141
120	0x3d5f11f9	0.0544605
121	0x3c9c319a	0.01906662
122	0xbc79fa6d	-0.01525746
123	0x3c83ec77	0.016103966
124	0xbd2544e7	-0.040348914
125	0x3d8a00f6	0.067384645
126	0x3da8847d	0.08228395
127	0x3d8b1d37	0.06792682
128	0x3d99f8b6	0.07518141
129	0x3da3319c	0.079684466
130	0xbd5514b5	-0.0520217
131	0x3ca0d178	0.019631132
132	0x3acf8859	0.0015833481
133	0x3cb1a86b	0.021686753
134	0x3d8d8fc5	0.069121875
135	0x3d9564ff	0.07294654
136	0x3c8b65ff	0.017016409
137	0xbc78d0f3	-0.015186536
138	0xbd9f5735	-0.07780305
139	0xbc76f39c	-0.015072729
140	0x3dacb3d2	0.084327355
141	0x3dc98c01	0.09841157
142	0x3d855a33	0.06511345
143	0xbd3e970b	-0.046530765
144	0x3db9e0db	0.09076091
145	0xbd38e579	-0.045140717
146	0x3db36e8b	0.08761319
147	0x3d562492	0.05228097
148	0xbbd3f8a8	-0.006468851
149	0xbca77391	-0.020440849
150	0xbd84c078	-0.06482023
151	0x3c47014b	0.012146304
152	0xbdbc249f	-0.091866724
153	0xbacca78f	-0.0015613901
154	0xbd9144e4	-0.07093218
155	0xbd576d5f	-0.05259454
156	0x3d639e00	0.055570602
157	0x3e142d9e	0.14470527
158	0xbbcfdf57	-0.006343763
159	0x3d789c14	0.060695723
160	0xba9deccf	-0.0012048724
161	0x3dd5014f	0.1040064
162	0x3d5e0cff	0.054211613
163	0xbd3f546d	-0.046711374
164	0xbd1dd226	-0.03853049
165	0x3abaf716	0.0014264311
166	0xbcf8ecd2	-0.030386362
167	0x3cef0ed3	0.029181873
168	0xbdac0ea5	-0.08401231
169	0x3c0f24e8	0.0087368265
170	0xbcffbc99	-0.03121786
171	0xbb9d2db9	-0.0047967103
172	0xbd42365f	-0.047415134
173	0x3d701c06	0.058620475
174	0x3bf16204	0.0073664207
175	0x3d4f7177	0.050645318
176	0xbcc8ec8f	-0.024526862
177	0x3d79d090	0.060989916
178	0xbcb4556a	-0.022013385
179	0x3cc67ad1	0.024228485
180	0xbcc6a25c	-0.02424734
181	0x3cdc7da0	0.026915371
182	0xbd8904c0	-0.06690359
183	0x3c9fbb91	0.019498618
184	0xbcf2ec7b	-0.029653778
185	0x3ccedd86	0.025252115
186	0xbc1241fa	-0.008926863
187	0xbd979e0c	-0.07403192
188	0x3c8566ee	0.016284432
189	0xbdc81c58	-0.09771031
190	0x3e123c17	0.14280735
191	0xbcd852ac	-0.026406609
192	0x3d1c42f5	0.038149793
193	0x3d12fd17	0.035885897
194	0x3ceb372a	0.028712828
195	0x3ceba46d	0.028764928
196	0x3d8ca8c3	0.06868126
197	0x3c23c120	0.009994775
198	0x3c1cf6d2	0.009580331
199	0xbd1c617d	-0.03817891
200	0xbbd6675e	-0.006543084
201	0x3dad2dd6	0.08456008
202	0x3d329466	0.043598555
203	0xbbfdb0d5	-0.0077420273
204	0xbd34f69d	-0.0441805
205	0xbbbdc869	-0.005791713
206	0x3e140a47	0.14457045
207	0x3cc4b66c	0.024012767
208	0x3dcefa72	0.101063624
209	0x3cf9e832	0.030506227
210	0xbe11c250	-0.1423428
211	0x3c386f93	0.01125707
212	0xbc5be94a	-0.01342232
213	0x3d28f517	0.04124936
214	0xbe0c0d4b	-0.13676946
215	0xbbba7cca	-0.0056911455
216	0x3d84d349	0.06485612
217	0xbd02156b	-0.031758707
218	0xba117aa9	-0.0005549589
219	0x3d54677e	0.05185651
220	0xbd9e4dcb	-0.077296816
221	0xbd10f96e	-0.035394125
222	0xbc859df1	-0.016310664
223	0x3dab5e58	0.08367604
224	0x3cdd79d5	0.027035633
225	0xbd38b5de	-0.045095317
226	0x3d05cf9d	0.0326687
227	0x3dbb48c3	0.091447376
228	0xbdb0d346	-0.08634047
229	0x3ac89b87	0.001530514
230	0xbd22f324	-0.03978266
231	0x3de283ae	0.11060272
232	0xbcdea3a8	-0.027177647
233	0xbd910bb9	-0.07082314
234	0xbbca8fde	-0.006181701
235	0xbd4e1876	-0.050316297
236	0xbd97a7be	-0.07405041
237	0xbc826351	-0.015916498
238	0xbd49ec43	-0.049297582
239	0xbcf8154b	-0.03028359
240	0xbc6889e2	-0.01419303
241	0x3d2bddba	0.0419595
242	0xbbf92383	-0.0076031103
243	0x3b4eb301	0.00315398
244	0x3cce5fcb	0.025192162
245	0xbcf84cab	-0.030309996
246	0xbcc421ce	-0.0239419
247	0x3d5ea6ca	0.05435828
248	0xbd203c2b	-0.03911988
249	0x3cfa2816	0.030536693
250	0xbd5a7633	-0.05333538
251	0x3d1e47bf	0.03864264
252	0xbc7e3169	-0.01551471
253	0x3cb020f3	0.021500086
254	0x3d0ec01c	0.03485118
255	0xbc99483e	-0.018711206

layer2.5.weight f4 [7, 256]
0	0x3cb38994	0.021916188
1	0x3d731ad6	0.059351765
2	0x3c74c4c6	0.014939493
3	0x3d1a9eeb	0.037749212
4	0x3d25dc65	0.040493388
5	0xbcef0783	-0.029178387
6	0xbda202c2	-0.07910682
7	0x3c7b249d	0.0153285535
8	0x3de076af	0.10960137
9	0xbd17bd75	-0.037045915
10	0xbc8b0e60	-0.016974628
11	0xbd01c9c0	-0.031686544
12	0xbc074fa4	-0.008258734
13	0x3dc1681b	0.09443685
14	0x3d1884d3	0.037236046
15	0xbdc609e1	-0.09669853
16	0x3c98beac	0.018645607
17	0xbd15ac1b	-0.036541086
18	0x3caee448	0.021349087
19	0xbd89d95a	-0.0673091
20	0xbcdcd45b	-0.026956728
21	0xbd98f2cb	-0.07468184
22	0xbc97b162	-0.0185172
23	0xbc107c70	-0.008818731
24	0x3cc04dc8	0.023474589
25	0x3b997a67	0.004683781
26	0xbd9d3eeb	-0.07678016
27	0x3cae30c9	0.021263497
28	0x3ac5c33a	0.0015088089
29	0x3d94ce04	0.07265857
30	0xbcf052cb	-0.029336354
31	0xbd3bd5d5	-0.045858223
32	0x3d113a5a	0.03545604
33	0xbcbe740d	-0.023248697
34	0xbd345fea	-0.044036783
35	0x3b9ea714	0.0048416946
36	0xbc930ef0	-0.017951459
37	0x3be50d3e	0.006990104
38	0xbc60adf9	-0.013713353
39	0xbd6bb12a	-0.057542004
40	0xbbac2cf7	-0.0052543837
41	0x3cf73842	0.030178193
42	0xbda5d471	-0.080971606
43	0xba8b8edc	-0.0010647434
44	0x3c99c991	0.018772872
45	0x3d8984c5	0.06714777
46	0xbd052373	-0.03250451
47	0x3d980813	0.07423415
48	0x3c94f977	0.01818536
49	0xbc169485	-0.009190683
50	0x3da6a939	0.081377454
51	0xbb7de7af	-0.003874283
52	0x3d11427d	0.0354638
53	0x3d7c95a9	0.061666165
54	0xbd5eb805	-0.054374713
55	0xbcaa0323	-0.020753449
56	0x3c35676e	0.011072023
57	0x3d6917c5	0.056907434
58	0x3d8d2ddc	0.068935126
59	0x3bb126cc	0.0054062363
60	0xbdfa6a78	-0.122273386
61	0x3d1c3eb2	0.03814573
62	0xbd04eb2b	-0.032450836
63	0xbcd0593b	-0.025433173
64	0x3cdba91c	0.026814036
65	0xbc4d7a30	-0.012541339
66	0xbc19c2e7	-0.009384847
67	0x3cf6a5aa	0.030108292
68	0xbcdc6caf	-0.026907293
69	0x3d928408	0.07154089
70	0xbd4f849e	-0.050663583
71	0x3c088bcc	0.008334111
72	0x3d1e1802	0.038597114
73	0x3d0800a6	0.033203743
74	0xbc9b7c52	-0.018980179
75	0x3aecdc8c	0.0018071099
76	0xbd2be1c2	-0.041963346
77	0x3a35f8f0	0.00069416966
78	0x3d44bced	0.048031736
79	0x3b20236f	0.0024435183
80	0x3c0e0076	0.008667102
81	0x3c918ed5	0.017768303
82	0xbc8c55a6	-0.017130684
83	0xbd53540e	-0.051593833
84	0xbceb6cca	-0.028738398
85	0x3d28b4ba	0.04118798
86	0xbbdbc39f	-0.0067066695
87	0x38668926	5.4964003e-05
88	0xba9d1f4d	-0.0011987478
89	0xbc2eedc6	-0.010676807
90	0xbaefaedd	-0.0018286366
91	0xbc94c347	-0.018159522
92	0x3c4eb7ad	0.012617034
93	0x3c96d91a	0.018414069
94	0x3cdea1b1	0.02717671
95	0xbc15f16d	-0.009151799
96	0x3c9575fd	0.018244738
97	0x3d1bbf46	0.03802421
98	0xbd376d14	-0.04478176
99	0x3d298d9d	0.04139482
100	0xbd7ed668	-0.062216192
101	0x3d979f22	0.07403399
102	0xbcc5ffe4	-0.02416987
103	0xbd9dbf40	-0.07702494
104	0x3d009c9e	0.03139936
105	0x3d9466d8	0.072461784
106	0xbc574f5d	-0.01314148
107	0xbd570276	-0.05249258
108	0xbc92443c	-0.017854802
109	0xbd766862	-0.06015814
110	0x3c5861a7	0.013206876
111	0xbd02f19a	-0.03196869
112	0xbcbdf3ee	-0.023187604
113	0x3b6610e3	0.003510528
114	0xbcb58dce	-0.022162344
115	0x3d25e331	0.04049987
116	0xbcbd384b	-0.023098132
117	0x3d624641	0.05524278
118	0xbcc17f13	-0.023620164
119	0xbcc6ef83	-0.02428413
120	0x3b2adf6e	0.0026073116
121	0x3d940c78	0.07228941
122	0x3c935e39	0.017989265
123	0x3b60afba	0.0034284429
124	0x3d487a08	0.048944503
125	0xbb937d85	-0.004501047
126	0xbc920da8	-0.017828777
127	0x3cad823f	0.02118027
128	0xbceb0a11	-0.028691323
129	0xbbd30eb3	-0.0064409613
130	0x3d312e76	0.0432572
131	0xbca3a076	-0.019973975
132	0x3d1b8148	0.03796509
133	0xbdbd902a	-0.09256013
134	0xbc9b555b	-0.0189616
135	0x3cbc2727	0.022967888
136	0x3ccd7ec3	0.025084859
137	0x3af3a5a0	0.0018588789
138	0x3d6c288e	0.057655863
139	0xbd43b501	-0.04778004
140	0xbdac4b18	-0.084127605
141	0x3da1d03f	0.07901048
142	0xbc51eac8	-0.012812324
143	0xbc0ea4d2	-0.008706288
144	0xbd2d5dda	-0.042325832
145	0x3d4ad8f1	0.049523298
146	0x3b508184	0.0031815479
147	0xbd3b6d94	-0.0457588
148	0xbc29f794	-0.010373969
149	0xbc1cfb0c	-0.009581339
150	0x3d6bd182	0.05757285
151	0xbd450e0c	-0.0481091
152	0x3d8ea478	0.06964964
153	0x3d2b1750	0.04177028
154	0xbc2d5f35	-0.010581781
155	0x3d78a465	0.060703654
156	0x3d2f5684	0.042807117
157	0xbc8626be	-0.016375896
158	0x3cc56810	0.024097472
159	0xbc8b7255	-0.017022291
160	0xbd4989c4	-0.04920365
161	0xbd7f8172	-0.062379308
162	0xbcab31ec	-0.020897828
163	0x3c0c8749	0.008577176
164	0xbd8bfba7	-0.06835108
165	0xbd4e144e	-0.050312333
166	0xbca8df15	-0.020614186
167	0xbc7a6eca	-0.015285203
168	0x3cc3f3eb	0.02392002
169	0x3ada3085	0.001664654
170	0x3ca7f3ec	0.020502053
171	0xbccfc691	-0.025363239
172	0x3d1c928b	0.03822569
173	0x3cfd8d99	0.030951308
174	0x3d1a916c	0.03773634
175	0x3d4d4d76	0.0501227
176	0xbc8f560d	-0.017497087
177	0xbc528cf3	-0.012850988
178	0x3d207d88	0.039182216
179	0x3c0a8722	0.00845507
180	0x3c046fcd	0.008083296
181	0xbcd5f246	-0.026116502
182	0x3d3f8732	0.04675979
183	0x3d087c58	0.03332171
184	0x3bd239ad	0.006415567
185	0xbdbe52b5	-0.09293119
186	0x3cefbe9b	0.029265692
187	0xbcb6a7a8	-0.022296742
188	0x3d072e60	0.03300321
189	0x3d1577c3	0.036491167
190	0x3bf65653	0.007517615
191	0x3cb260c6	0.02177466
192	0xbcb6c6bb	-0.022311559
193	0x3dcf0c0c	0.1010972
194	0x3c10bed2	0.008834558
195	0xbc48dd78	-0.0122598335
196	0xbd9e5bd8	-0.077323616
197	0x3c382a41	0.011240543
198	0x3d86cbf0	0.06581867
199	0xbc208378	-0.00979697
200	0x3c63ed20	0.0139115155
201	0xb96b7f24	-0.0002245871
202	0xbb166687	-0.0022949295
203	0x3d43fdcd	0.047849465
204	0x3d9d3d70	0.07677734
205	0x3d5abf07	0.053404834
206	0xbd7b81bf	-0.061403032
207	0xbd390b87	-0.04517701
208	0x3c85bb57	0.016324682
209	0x3ccb761c	0.024836592
210	0x3d00dbaa	0.031459488
211	0xbd1bf9be	-0.03807997
212	0x3d1047a5	0.035224576
213	0xbc19e924	-0.009393964
214	0x3c7b30fd	0.015331504
215	0x3da761cf	0.081729524
216	0x3c931c4c	0.017957829
217	0xbc250d28	-0.0100739375
218	0x3d12d5ce	0.03584843
219	0xbae243ef	-0.0017262677
220	0xbb1ed0c8	-0.002423333
221	0x3baf2d47	0.0053459737
222	0x3c5a2a2d	0.01331572
223	0xbdc4c358	-0.09607571
224	0xbd54db1b	-0.051966768
225	0xbcf51276	-0.02991603
226	0xbd10701e	-0.035263173
227	0x3c406b6e	0.011744363
228	0x3b982fd8	0.0046443753
229	0xbdd22245	-0.10260443
230	0x3d2a1915	0.041527826
231	0xbd4eb9e9	-0.050470266
232	0xbc921663	-0.01783294
233	0xbc36de42	-0.011161389
234	0xbd5dfbf9	-0.054195378
235	0xbd41683f	-0.047218557
236	0x3d27f431	0.041004363
237	0xbcdd8ce4	-0.027044721
238	0x3b90be06	0.004417184
239	0xbc97cdba	-0.018530715
240	0xbc07de6d	-0.0082927765
241	0xbcc31eab	-0.023818335
242	0xbd183de3	-0.037168395
243	0xba998b0d	-0.0011714414
244	0x3d82671c	0.06367323
245	0xbd076b23	-0.033061158
246	0x3c125d8e	0.008933438
247	0xbd2a51f8	-0.041582078
248	0x3cca9e40	0.024733663
249	0xbbc26fd6	-0.005933742
250	0x3ca39a33	0.019970989
251	0xbddfa17d	-0.10919473
252	0x3c50b589	0.012738594
253	0x3c175824	0.009237323
254	0xbdb00a4b	-0.08595713
255	0x3ddc0636	0.10743372

layer2.5.bias f4 [7]
0	0xbe885e85	-0.26634613
1	0xbdfb2bb1	-0.12264193
2	0xbe6a17b7	-0.22860609
3	0xbe8aeee5	-0.27135387
4	0xbbd7870f	-0.0065773795
5	0xbc94f968	-0.018185332
6	0x3ef81f9d	0.4846162
