Saved_data_files/bpi/lr_all_variants/MLP/TimestampPredictor_parameters_feedforward_1e-05.pt (torch, 292161 bytes, 5 tensors)

layer2.0.weight f4 [256, 24]
00000000: 1579 72bc 16f5 f33c c95c 79be 48c6 3abe
00000010: 31a3 04be beea 803d 6840 a63d 0fee abbd
00000020: f75a 763d 90a2 003e ff49 abbe 67de 81bd
00000030: 9930 413e 7125 ba3d 30cb e5bc dea5 6a3d
00000040: 79d5 11bd c676 f6bc 44da 833d 9f0b 123a
00000050: dfdc d3bd bec8 4cbd 8ce1 4c3c 8e6b 0ebd
00000060: dfb9 65be 1641 47bd 1af7 c13c 4582 e83e
00000070: d0e8 81be 8166 10be 3f37 053d 1a80 b83d
00000080: ec1c 35bd 6b61 df3d bed8 54bc 787a f53f
00000090: 08d8 2f3d 2dee afbc e495 003e 865f c2bd
000000a0: cb31 56bd 6ed7 f03d fa31 a53b cf8b 393f
000000b0: c6b6 2fbd 5d5f 94bd 68dd bc3e 15e2 be3d
000000c0: 692d 0c3e 5f23 0fbd c4fa 0cbe 3b86 33be
000000d0: 7392 363e c754 c0bd 21cd 0fbe 72ca e7bc
000000e0: 338f 393d 9fa9 bcbc c0dd 06bd d9a8 8a3d
000000f0: 5d16 203e 29f2 b0bd 2596 1dbd d67f 2e3d
00000100: 5067 793d 55cd f93d 97eb 8bbe fd55 1a3c
00000110: 0890 283e a5d3 f1bd c4da e5bd 895d 803e
00000120: 9859 ddbd b537 8cbd 188d 96be 3ef5 1bbf
00000130: 0a27 433d ddea 5e3e 5cc1 803c a90b 19bd
00000140: fbf7 2a3e bd58 2b3d 83af 27be 4cb8 17c0
00000150: 44fc 0cbc d689 f73d 42d4 21be cca9 88be
00000160: 6494 1dbb 8e68 ef3d 4f00 85be 15f5 34bf
00000170: ac00 eabd 1f8c cc3d 7caf 48bd bc81 3fbe
00000180: e1ae e7bd e9b8 38bd f172 5f3e 552f 033f
00000190: d327 f83d 2f5e 043e 9497 2d3e 2379 37be
000001a0: ebb5 c93d 44fe d4bc 6c84 23be 2769 a03f
000001b0: f813 223d 7217 6cbe 75ec 49be e497 c4bd
000001c0: c7d5 d43d 2857 133e c41a 873e 6174 473f
000001d0: 498d 443d 45e7 17be 3178 86be 341f e7bc
000001e0: b9ca 063e 63bb fe3d 6391 193e 723a 41bf
000001f0: e610 1dbd 7027 ed3d 036a 3dbe c709 60be
00000200: b9f4 973d 7a30 0cbd 6466 ddbd 10a5 8cbf
00000210: a44a 133e f715 27bc be0a c23e 3812 113c
00000220: 1996 1e3e 0944 763d 4a6a ddbe e080 85be
00000230: 9c66 9bbd d2f5 a93d cb47 99bd 7c02 4cbd
00000240: 2603 0c3e 5df5 93bc fedf c13d 3992 9fbf
00000250: 1468 ccbd 3f65 f33d d552 61bd f0fe 963b
00000260: 062a 073e 881a 893b b32b ddbd ac21 e9bf
00000270: 53c1 24be 5ad4 c8bd 920d 46bd 59df a33d
00000280: b96a 15be 8f6c b33d 9e8d 70bd 985c 29bf
00000290: 9813 1e3d c102 883d dc57 46be 63c4 e7bd
000002a0: eedb 89bc 76a5 6d3e b96e 90be f884 98be
000002b0: 2ab9 11be 85d5 58bd c3a9 c93c 25d0 153e
000002c0: 8619 a73d 6156 e63d 03fd 9fbe f0e0 e7be
000002d0: 4661 b1bd 68bb 37be b672 c4bd ff67 77bd
000002e0: 0419 cb3d 737c 0fbe fca2 233d b09f 88be
000002f0: ebf7 413e 5621 65bc f2ab c8ba b4c8 efbd
00000300: e62e 2dbd 066b 1fbd 3d58 b2bb a4cb 313f
00000310: 58cb 343d 1fa9 123d f945 4b3d 7d1e ebbd
00000320: 8a3d 3b3e c0e0 14be aa44 bbbd 383e d03f
00000330: ac6c 9e3c 722a 3bbd 2bae bf3d 98b0 ff3d
00000340: 3f57 82bc 9e25 113a 5cce 953e 1e6b a73f
00000350: b991 163e 0be1 a1bd 200d 4dbe 5398 503e
00000360: e290 c9bc ffac 1c3e 3b1e 143e d4e2 a4bf
00000370: 44af e73d 9b32 b9bd 8435 cb3a e31c 9c3d
00000380: 77f3 24be 69dc 5cbe 559f 763e eecd 23c0
00000390: 5e82 11be 3bd6 f83b 5858 8cbe 4baf 6ebe
000003a0: 0c89 02bd 55c2 f23c 907a 51bd 4d0c 8abf
000003b0: 8794 363c c03f 093e 80d8 88be 7369 52be
000003c0: 8854 a23b b98f f63d aaa4 713d e16a cd3f
000003d0: 4815 0e3e 51fe bd3d 883c 703e fca1 15be
000003e0: 75aa f6bd c609 e53d 8a13 2f3e 2953 6640
000003f0: 1e85 c0bd f3d1 1dbe 977c 8ebe 70ee dcbd
-0.014799376 0.029779952 -0.24351801 -0.18239701 -0.12952878 0.062947735 0.08117753 -0.083950154
0.060145345 0.12562013 -0.33454892 -0.06341248 0.18866195 0.09089173 -0.028050989 0.05728709
-0.035603974 -0.030085932 0.06438115 0.00055711897 -0.10344862 -0.04999613 0.012504946 -0.03477054
-0.22434185 -0.048646055 0.023677398 0.45411888 -0.25372934 -0.14101602 0.03252339 0.090088084
-0.044217035 0.10907253 -0.0129911285 1.9178 0.042930633 -0.021475876 0.12557179 -0.09490876
-0.05229358 0.1175984 0.005041358 0.72478956 -0.042898916 -0.072447516 0.3688767 0.093204655
0.13689198 -0.034945842 -0.13767534 -0.17531674 0.17829303 -0.0939117 -0.14043094 -0.028294776
0.04530258 -0.0230301 -0.03292632 0.067704864 0.15633531 -0.086399384 -0.038473267 0.042602383
0.060889542 0.12197367 -0.27328178 0.009419915 0.16461194 -0.11807946 -0.11223367 0.25071362
-0.10808104 -0.06846563 -0.2940452 -0.60921085 0.047644652 0.2176928 0.015717201 -0.037364636
0.1669616 0.041832674 -0.16375546 -2.3706236 -0.008605067 0.12086837 -0.15803626 -0.26692045
-0.0024044747 0.11689864 -0.25976798 -0.70686466 -0.114259094 0.099876635 -0.04899548 -0.18701833
-0.113126524 -0.04509822 0.2182119 0.512441 0.12116971 0.12926553 0.16952354 -0.17917304
0.09849151 -0.02600015 -0.15968484 1.253209 0.039569825 -0.23055819 -0.19719107 -0.09599283
0.10392337 0.14388716 0.26387608 0.77911955 0.047986303 -0.14834316 -0.26263574 -0.028213121
0.1316327 0.12438085 0.14996867 -0.75479805 -0.038346194 0.11579788 -0.18497472 -0.2187873
0.07419724 -0.03422592 -0.10810545 -1.0987873 0.14383942 -0.010198108 0.3789882 0.008854441
0.15486945 0.060123477 -0.43245155 -0.26074886 -0.075879306 0.0829884 -0.074843965 -0.049807057
0.13673076 -0.018061334 0.09466551 -1.2466499 -0.09980789 0.118845455 -0.055010635 0.0046080276
0.13199624 0.004184071 -0.107993506 -1.8213401 -0.16089372 -0.09806128 -0.048352785 0.080015846
-0.14591493 0.0876094 -0.058728807 -0.6615691 0.038592905 0.0664115 -0.19369453 -0.11316755
-0.016828503 0.2320765 -0.28209475 -0.29788947 -0.1423079 -0.052938003 0.024617082 0.14630182
0.08159165 0.11246944 -0.3124772 -0.452888 -0.086611316 -0.17942584 -0.09592192 -0.060401913
0.09916881 -0.14012317 0.039950356 -0.26684332 0.1894223 -0.013984999 -0.0015310033 -0.11708203
-0.042281054 -0.038920425 -0.0054426477 0.69451356 0.044139236 0.035805818 0.049627278 -0.114804246
0.18285194 -0.1453886 -0.09143956 1.6268988 0.019338928 -0.045694776 0.09359392 0.124848545
-0.015910743 0.00055369164 0.29259002 1.3079565 0.14704026 -0.07904252 -0.20024538 0.20370607
-0.024605218 0.15300368 0.14464657 -1.2881722 0.11312726 -0.09042855 0.001550362 0.07622697
-0.161085 -0.21568455 0.24084218 -2.559444 -0.14209887 0.0075938976 -0.2741115 -0.23309056
-0.03186898 0.02963368 -0.051142275 -1.0785004 0.01114381 0.13403225 -0.26727676 -0.20548038
0.0049539246 0.12039132 0.058994927 1.6048242 0.13875306 0.09277023 0.23460591 -0.14612573
-0.12044231 0.11183505 0.17097297 3.5988257 -0.0940039 -0.1541212 -0.2782943 -0.10787666

layer2.0.bias f4 [256]
00000000: 9387 2fbe 7736 f03f 7c3c f43d ff74 16c0
00000010: 7be7 aa3f 677c 87bf 985b f5bf 48db 3dbf
00000020: ba3a f03f 36ca 16c0 9249 6840 6bb4 c3bf
00000030: 7e8c bc3f 9e04 5dc0 eef6 53c0 56f1 22c0
00000040: eecc 24c0 5fe4 cf3f 21ef 68bf c733 0740
00000050: a66a 33bf 91db 2fc0 3b1c fcbf 9b59 2a3f
00000060: c49a f5bf c1ce 04c0 9bcb 973d ed4a b23d
00000070: 97a8 32c0 bc9d ebbf 9bdf 5d3f 3dd1 7740
00000080: 2b08 fa3e 062d ef3f 63ba e93f 96cf 843f
00000090: 1177 6940 5dc7 dbbf a3b2 cebf 1946 ec3e
000000a0: ab27 7040 64d1 8740 89fe 2640 33bf 01bf
000000b0: 09fa 7840 55cf 7840 08de 4d40 0073 523f
000000c0: 3bc3 05c0 55b9 82bf 3a40 7540 5c36 8a40
000000d0: 0149 06c0 40ef 7bbf 1fdb 39bf 8b77 8340
000000e0: da2d dfbf dc82 c8bf aff2 3040 8514 953f
000000f0: 0b40 bc3f e970 55c0 d712 4cbf e28a 1f40
00000100: 68cd 3640 1567 4fc0 8592 b33f 6276 1140
00000110: e716 1240 168d fc3f e5b5 2dc0 9a3e 14c0
00000120: 2b9e 913d f7e9 dc3f bfcd 7240 e506 38c0
00000130: c6d9 0ac0 5310 00bf 369c ccbf 5a24 2cc0
00000140: 20af a0bf 5175 bdbf 4aff b13f e71c 13c0
00000150: 17a5 d9be f6e6 8cbf 96bf 2d3f 9f20 33c0
00000160: 70b4 38c0 d985 c03f 8d27 2040 66f4 6940
00000170: 6475 3e40 d5cd 7140 0723 173f 2d18 24bf
00000180: 485e 5cbe 0d45 b03e 671d b9bf 9b74 1040
00000190: 21bf 29bf 8d60 1dc0 41d3 3e40 9c58 7740
000001a0: d047 4a40 f314 edbf 2e05 bcbf 5fe8 4b3f
000001b0: bd4c fdbd 2e54 6d40 c633 2cbf 4c53 abbe
000001c0: d2e7 3840 1fa5 7840 c3f8 6540 13fe c03f
000001d0: a212 0540 2099 cbbf 4f7b 0f3f 057c 33c0
000001e0: 23de 3940 8743 0bc0 16fe 29c0 0eba 78bf
000001f0: 2941 1e3f 3fa0 5d40 de57 4c40 3822 07bf
00000200: 1bb7 f2be 2227 6abf 70d8 2cc0 049f fcbf
00000210: bcb6 4740 21ca 1340 88e7 4240 0d8e 04c0
00000220: b447 4dbf ca0b f93f f755 653f f5c7 2740
00000230: 0b28 ef3b a6c9 7540 cfc2 22c0 8004 fc3f
00000240: 35b6 64bf 9aa9 96bd ceff 16c0 ff82 0840
00000250: 7d7a 62bf 52d3 06c0 7da0 3640 ac3b 273e
00000260: f9b8 aa3f fb82 6340 b519 1f3f c0bb 3d40
00000270: 3184 3b40 0887 4440 f9f7 a9bf b1e1 733f
00000280: 3311 0940 0b84 e43f 05b5 8140 33a4 4940
00000290: 1627 39c0 b18f 243f c439 e73f a264 e1bf
000002a0: 959e 943f 8b6c 0b40 0d8e ba3f e98c e8bf
000002b0: 4759 f5bf ca3b 963e 9dde 26c0 7cc8 2f40
000002c0: 170e 2040 8664 46c0 365b 33c0 1821 ec3f
000002d0: 3c14 1ac0 2ffe f1bf cd9d eebf 4de1 4f40
000002e0: 5dec 04c0 9782 7a40 8628 0dc0 1c7b 653f
000002f0: 3379 2940 7be8 86bf 5dca b9bf c53a a23f
00000300: 0194 7740 7e50 4bbe dbd9 1cbe d056 973f
00000310: a647 803f f6b5 893f 2532 14bf f5c7 01c0
00000320: 5f46 4240 8e52 363f a30c 7e3e 5051 3040
00000330: e623 8640 3660 ebbf b20f 993e e654 e53f
00000340: 114f 3140 cbfc 7240 89d9 623f f843 08c0
00000350: c3ff 63bf 5e27 86bf 2ae2 1240 b19a 3b40
00000360: dd55 8040 7cf8 4340 edb5 55bf a828 14c0
00000370: 60ae 46bf 7218 7940 8018 883d ce8c 31be
00000380: 22ca 633f 7e7f 7cbe d226 2bc0 3de2 6840
00000390: c61d 16c0 3648 6440 2c61 9b3f 1d00 1d40
000003a0: 09cd 5740 93a2 1e40 7131 d7bf 7129 2bc0
000003b0: f008 a93f 704d 88bf 6920 1640 ea8b 4240
000003c0: 1594 db3f 6805 4e3f 0771 adbf 9e62 4f40
000003d0: 8b46 8440 6997 1340 c456 4140 592f 84bf
000003e0: 219c 7640 d3a4 763f 4c59 5240 6bb6 23c0
000003f0: 1187 843f 1737 0c3d 7a4b 7bbf eed9 9b3f
-0.17141561 1.8766621 0.11925599 -2.3508909 1.3351892 -1.058484 -1.9168577 -0.7416272
1.8767922 -2.356092 3.6294904 -1.5289434 1.4730375 -3.4534068 -3.3119464 -2.54598
-2.575008 1.6241568 -0.9098988 2.1125352 -0.7008461 -2.7477763 -1.9696115 0.6654298
-1.9187856 -2.0751193 0.074118815 0.08705697 -2.79154 -1.8407512 0.8666932 3.872146
0.48834357 1.8685615 1.8260006 1.037585 3.6478922 -1.7170216 -1.6148266 0.4614723
3.7524211 4.2443104 2.6092856 -0.5068237 3.890261 3.8876545 3.2166767 0.82206726
-2.090041 -1.0212809 3.832045 4.3191357 -2.0982058 -0.9841194 -0.7259998 4.1083426
-1.7435868 -1.5664935 2.7648122 1.1646887 1.4707044 -3.3350165 -0.7971625 2.4928517
2.856287 -3.2406666 1.4029089 2.2728505 2.2826478 1.9730556 -2.714227 -2.316321
0.07110246 1.72589 3.7938077 -2.8754208 -2.1695418 -0.5002491 -1.5985172 -2.6897187
-1.2553444 -1.4801427 1.3906033 -2.298639 -0.42508766 -1.1007984 0.6787046 -2.798866
-2.886013 1.5040847 2.502414 3.655542 2.975915 3.778188 0.5903782 -0.6409939
-0.2152034 0.34427682 -1.4462098 2.257117 -0.66307265 -2.459018 2.981644 3.8647833
3.160633 -1.8522018 -1.4689081 0.79651445 -0.12368152 3.708263 -0.672665 -0.33461988
2.8891492 3.8850782 3.5933082 1.5077537 2.0792623 -1.5906105 0.5604753 -2.8044446
2.9041831 -2.1759965 -2.6561332 -0.97158897 0.61818177 3.4629056 3.192863 -0.5278659
-0.47405323 -0.9146596 -2.7007103 -1.9736028 3.1205282 2.309212 3.0453815 -2.07117
-0.80187535 1.9456723 0.89584297 2.6215794 0.0072984747 3.8404326 -2.5431402 1.9688873
-0.89340526 -0.07356568 -2.359363 2.1329954 -0.8846815 -2.106648 2.8535454 0.16331357
1.3337699 3.5548694 0.621486 2.9645844 2.9299433 3.0707417 -1.32788 0.9526625
2.1416748 1.7852796 4.053347 3.150647 -2.8930106 0.64281756 1.8064504 -1.7608836
1.1610895 2.1785 1.45746 -1.8168002 -1.916787 0.2934249 -2.6073372 2.7466116
2.50086 -3.0998855 -2.802442 1.84476 -2.407485 -1.8905696 -1.8641907 3.2481263
-2.0769265 3.9142206 -2.2055984 0.89640975 2.6480224 -1.0539697 -1.4514881 1.2674185
3.8684084 -0.19854924 -0.1531748 1.1823368 1.0021865 1.0758655 -0.57889014 -2.0278294
3.035545 0.7121972 0.24809508 2.754963 4.191882 -1.8388736 0.29894787 1.7916534
2.7704508 3.7966793 0.8861318 -2.1291485 -0.89062136 -1.0480764 2.295054 2.9313166
4.0104814 3.0620413 -0.8348072 -2.3149815 -0.77609825 3.892117 0.06645298 -0.17338869
0.88980305 -0.2465801 -2.6742444 3.6388085 -2.3455672 3.5669074 1.213903 2.453132
3.3718894 2.4786727 -1.6811963 -2.6744044 1.3205853 -1.0648632 2.3457282 3.0397897
1.7154566 0.80477 -1.3550118 3.240394 4.133611 2.3061163 3.0209208 -1.0326949
3.8532794 0.9634525 3.2867002 -2.558009 1.0353719 0.034232225 -0.98162043 1.2175882

layer2.2.weight f4 [256, 256]
00000000: 1155 613c 7c8a 223d 1bf3 413c e88a fc3c
00000010: 163e 733c 425d 593c 7872 4dbd cdb8 8fbd
00000020: 76f8 70bd de2f d63c 634d 80bd 30a2 633b
00000030: f73d d13c 105c 433d e136 fe3c dfd8 60bc
00000040: c0e5 f63c 67d7 2dbd 0441 2abc 539d 42bc
00000050: 1e0f fd3c 3201 19bc 5a34 6dbd 5d0a eb3a
00000060: 3239 d5bc 6238 553d cfc8 bd3c 3df0 293d
00000070: 9b91 e43b f3e9 0dbd f9ae 083c 578d 303c
00000080: 10c9 8f3c 5f2e 62bd a50d a83c 9720 e73c
00000090: ed99 fb3c 93b8 0ebd 0e03 933c 9ece 32bd
000000a0: d84a 0b3c fb8c 49bd b104 db3c 59e7 babc
000000b0: 3b71 8e3c 4ffe c2bc d167 9f3c eca5 d73c
000000c0: 8c1a 253d 90e7 21bd e55c 2c3d 1ec4 d1bc
000000d0: a9c3 9e3b b018 08bc 3b12 c43c 3b31 62bc
000000e0: 5b26 433c e706 43bd e305 5fbd e7ee cb3c
000000f0: 779d 2b3c 407a c2bc 8ae9 5abc 184c 4ebd
00000100: f052 a6ba 2aed 8dbc 3479 51bd d044 cd3c
00000110: 6a90 8e3c fa1b 65bb a3ad 8cbd eb7e 413d
00000120: 2a25 3fbd 0538 89bd b859 ee3b 891e 4ebd
00000130: 75a7 603d bbc3 12bc d4c2 9abc 9b13 593c
00000140: fa2b 71bd d1c8 873c c43e 33bc f70c 96bc
00000150: 7a1f e83c ae38 193c a2aa 743c 0b66 81bd
00000160: 7b84 22bd 45a4 9e3c 9e5c cfbc 196e 26bd
00000170: 3c65 aebc bf59 8cbc 9a0a 893c 68cd d0bb
00000180: d440 62bc bcc5 40bc d321 54bd 694c ca3c
00000190: dbda 233d 48ed 40bc c586 a63c e90f 023b
000001a0: 8260 683b 7d59 6d3c 7975 003d 86ce 23bc
000001b0: 6465 333c ebed 74bc 5469 6ebd 068c 56bd
000001c0: 2caa af3c 259c 4c3d a0d8 1e3c ed75 d03c
000001d0: e520 83ba a1b1 83bd b534 38bd f7fb 663c
000001e0: 9f08 2cbd 2813 503d 5b79 2d3c 8256 7abd
000001f0: b2c3 143d f643 c2bc a9ad 2dbd d226 9abd
00000200: d98d 6cbd 7b75 7fbd 774a 1ebd 7fc3 f03c
00000210: 04a8 ec3a 2501 3a3c e205 59bd d7c3 5cbc
00000220: b994 3ebd f69e 853c eeaf d43b ffea 64bd
00000230: 88ff fb3c 70b1 92bd 3251 523d 48c5 423d
00000240: 32a8 323d d525 0bbc e606 103d 9e23 b13c
00000250: dac8 3f39 b5d5 6bbd a339 9f3c bd2b bebb
00000260: 3ead 5dbd 0281 353d bc9b 99bc 3ff0 eabc
00000270: 29fc c7bb bc57 f6bc 1603 d33c 7937 c1bc
00000280: 9605 153b e2e0 023b 816b 143b 8f92 44bd
00000290: ad43 6e3d 1c59 173d b719 26bd 2466 8cbc
000002a0: b6ba 71bc 73dd 8abd 4fc8 8fbd eb1a 56bc
000002b0: 81b8 683d fa7f 6dbd d4c2 963c 2776 26bd
000002c0: 925b 8a3b e5b1 223d 730c 86bd 6e18 11bd
000002d0: 1888 e93c 0e55 ce3b a0b6 703c d799 87bd
000002e0: 0b58 c73a 3a1f 0b3d da34 973b 1645 d53c
000002f0: 8e23 e3bc b05c f93c 2d40 4a3d ec06 e93b
00000300: 4899 5cbd ff7b 0cbd 1d8e 7fbd 750f b33c
00000310: 84d3 4abd d7b4 60bd 4f1c 763b 802e 76bc
00000320: 30a5 ea3c 3829 7bbc 2d56 3c3c 2c1a a23c
00000330: fc03 1b3d 70b8 203d b8bd b53c c252 b8bc
00000340: 1298 eabc 6bca 18bd f055 5c3d d7b0 7bbd
00000350: f122 9b3c eb5a b83c 4cbc d53b 7670 dabc
00000360: aada 60bd f1ba 0cbd e480 79bd 2e5a 89bd
00000370: b59d 62bd 6279 5d3d b326 7d3c a0b3 b13b
00000380: 9a5b 5a3c c753 55bd 1599 013b b96b 31bd
00000390: 926a 02bd a510 1a3d af4c 04bb 6479 26bd
000003a0: 124e 8e3b cdda f6bc 5bde b33c d2f0 0bbd
000003b0: 754e 58bd 973e 81bd 1835 c3bc 35fd d8bc
000003c0: 6a67 85bd ff6d 9dbc 82b1 e03c ae29 58bd
000003d0: 2bd3 ad3c ae10 99bd 0112 d33c 97bd ebbb
000003e0: a848 c2bc 61d3 b0bc 5d88 38bc 1439 9e3c
000003f0: 8871 ff3b 74b9 24bd d900 74bd c128 84bc
0.013753192 0.03968285 0.011837746 0.030827954 0.014846345 0.013266863 -0.050157994 -0.0701767
-0.0588307 0.026145872 -0.0626476 0.0034734122 0.025542242 0.04769522 0.031032028 -0.013723581
0.03013885 -0.04244175 -0.0103914775 -0.011878329 0.030890997 -0.009338664 -0.057911254 0.0017932166
-0.02602825 0.052055724 0.023167042 0.041488875 0.0069753653 -0.03464694 0.008342498 0.010775886
0.017551929 -0.055220004 0.020514319 0.028213782 0.030713046 -0.034843992 0.017945793 -0.043654077
0.008501731 -0.049206715 0.026735635 -0.022815393 0.017387977 -0.023802904 0.019458683 0.026324235
0.04030852 -0.039527476 0.04208078 -0.025606211 0.004845102 -0.008306667 0.023934474 -0.013805683
0.011911 -0.047614004 -0.054448973 0.024894191 0.010474554 -0.023739934 -0.013361344 -0.050365537
-0.0012689512 -0.017325003 -0.05114098 0.025057226 0.017402846 -0.0034959302 -0.06869056 0.04724018
-0.0466663 -0.06700138 0.007273879 -0.05032209 0.0548472 -0.008957799 -0.01889173 0.013249303
-0.05887983 0.016575249 -0.010940257 -0.018316729 0.028335322 0.009351892 0.01493326 -0.06318291
-0.039677124 0.01936544 -0.025312718 -0.04063234 -0.021288507 -0.017132638 0.016728688 -0.0063721426
-0.013809402 -0.011765894 -0.05179007 0.024694638 0.04000364 -0.011775322 0.020327935 0.001984591
0.0035457914 0.014486668 0.03136203 -0.0099979695 0.010949466 -0.014949302 -0.058205917 -0.05237963
0.021443449 0.0499536 0.009695202 0.025446856 -0.001000431 -0.064303644 -0.04497214 0.014098159
-0.04200041 0.05079952 0.010588015 -0.061117657 0.036319442 -0.023714047 -0.042401943 -0.07526936
-0.057752464 -0.062367897 -0.038645234 0.029390095 0.0018055444 0.011352812 -0.052984126 -0.013474426
-0.04652855 0.01631115 0.006490699 -0.055888172 0.030761495 -0.0716275 0.051346965 0.047551423
0.043617435 -0.008492907 0.03516283 0.021623429 0.00018290002 -0.057576854 0.019436663 -0.005803554
-0.054120295 0.044312485 -0.018751018 -0.028679011 -0.006103058 -0.030071132 0.025758307 -0.023586022
0.0022738925 0.0019970466 0.0022647085 -0.04799133 0.05817001 0.036950216 -0.040551867 -0.017138548
-0.014753988 -0.06780519 -0.07020628 -0.013067941 0.05681658 -0.057983376 0.018403448 -0.040640023
0.004222342 0.039720435 -0.06545343 -0.03542369 0.028507277 0.0062967604 0.014691979 -0.066211395
0.0015208734 0.033965327 0.0046144547 0.02603392 -0.027726915 0.030439705 0.04937761 0.007111421
-0.053857118 -0.03429794 -0.06239139 0.021857956 -0.049518123 -0.054859962 0.0037553494 -0.015025735
0.02864322 -0.015329652 0.011495155 0.01978787 0.037845597 0.039238393 0.022185192 -0.0225004
-0.028636966 -0.037302416 0.053792894 -0.061447944 0.01893756 0.02250429 0.006522691 -0.026664954
-0.054896034 -0.03435797 -0.060913935 -0.067066535 -0.055326182 0.054070838 0.015451121 0.0054230243
0.013327504 -0.05208185 0.0019775082 -0.043315623 -0.031839915 0.03761353 -0.0020187309 -0.04064311
0.004342803 -0.03013363 0.021956613 -0.03416521 -0.052809197 -0.06310766 -0.023829028 -0.026487926
-0.06513865 -0.01921749 0.027428392 -0.052774124 0.021218857 -0.074738845 0.02576542 -0.0071942317
-0.023716286 -0.021585168 -0.01126298 0.019314326 0.0077955164 -0.040215924 -0.05957112 -0.016132714

layer2.2.bias f4 [256]
00000000: f5dd 76bd de32 13be a899 c83c f08a a93c
00000010: 0b87 2b40 22cc 5fbd 7e90 2340 d822 2640
00000020: d107 1f40 6ccb 1c40 0b64 1e40 29a5 963f
00000030: 5150 ecbc 9cf4 0b40 35ef fbbd 268c 31bd
00000040: 0849 3840 b627 2d40 2ac2 1840 aab5 edbe
00000050: 9bcc 1d40 b999 2540 5308 0640 65b3 1d40
00000060: 21f5 36bf b4e5 1e40 3471 3abf f245 88bd
00000070: 09ac 1740 a15a 153d 9157 2740 1dc7 abbe
00000080: 033b 9d3f ecf5 1c40 f352 ecbd 426f 1c40
00000090: fa79 86bd aae1 4d3e 1199 ebbd a3fd a0be
000000a0: 8131 2f40 8c3b bdbe 2b9b 06bf 1edf 0e40
000000b0: 1891 51bf aa71 8cbe effc 97bf ff16 183d
000000c0: 6618 3d40 ea80 2540 2f78 94bc da07 1d40
000000d0: 8803 1040 1558 5dbd 23da abbd 026b c13b
000000e0: 402c 3640 ae3d 6dbf 9b12 1340 24dd 22be
000000f0: 46e6 83bd db16 0740 1c8a 0e40 0157 f4be
00000100: 58a0 1d40 0a70 dfbd bb91 2dbf 6ffa d3bd
00000110: 396e ff3b 9914 923f 8ba3 cbbe 9b50 7fbc
00000120: ad1e 263f 52b8 2d40 b3f9 1f40 a182 30bd
00000130: d647 33be 7773 ff3f 61a4 be3b db86 6abc
00000140: b0d5 99be c6d1 99be 6766 12be a8ae 3340
00000150: 08b7 5e3c 0d68 6bbf 64d8 41bd dc08 3240
00000160: db98 1e40 8e12 2840 504d 2640 0907 e1be
00000170: 7657 2c40 529e eb3f 694a 3040 996a eb3f
00000180: 6c0f 58bf 239e 42bf 936b b03f cba5 42be
00000190: 8720 1440 14bc 3240 384c 1840 4a34 0bbe
000001a0: 4422 1abe 68cf b53a 3f7c d13d 3ad8 2340
000001b0: cf0e edbd f782 dbbe b684 e6bd cfe9 2540
000001c0: f181 2240 55fa cbbe 082c 00bf 8c9d 10be
000001d0: 61bf 3140 6b33 8bbd 1776 3340 8d48 76bd
000001e0: cf2a 1540 8408 3b40 4dce f4be bf10 1f40
000001f0: a1aa 3840 f387 1cbf 1855 5bbb 1d0b 3ebe
00000200: 75b8 55bd ece3 133b b6e7 2a40 10ea 0040
00000210: 9ad7 623d 92f5 8bbd b03a 34bd 06af 1c40
00000220: 79ab 2640 8d00 853f e4aa 1c40 84f1 06be
00000230: 454f 2c40 f3e7 4bbe 99e9 2040 9c88 2140
00000240: e2d8 1d40 ac79 2140 6311 1ebe 8e3f 3a40
00000250: e738 2840 af88 2740 acb2 b7bd c42b 0e40
00000260: 931e 873f c747 ffbc 1862 1740 31dd e5be
00000270: c761 3040 a355 adbc 68f4 0cbf 677f c3be
00000280: db18 1e40 c37f 2f40 c1d0 40be a606 3240
00000290: 4c95 db3c f6ba c73f 596b 1d40 c2d5 2540
000002a0: bd1f 1f40 ccbb 2140 c9ee 51bf a2eb 2540
000002b0: 4b88 d9bc e1c0 32bf 5ee9 3640 a786 923c
000002c0: 5b84 c6be 934a 31bf b154 3540 d3f2 2140
000002d0: 714d 1940 2f31 2840 0ddc a2be 9492 cabd
000002e0: 6930 3540 8779 893f 80c4 07be 103d 2940
000002f0: 1c66 2340 c2b8 5abe 9206 dd3f 5437 2140
00000300: cd8f 1040 252d 03bf b8c9 2d40 5da1 1340
00000310: e3de a3bd a656 2c40 9e81 2e40 9079 cd3c
00000320: be19 1d40 ff31 3bbf 58f3 9abe dcac fcbe
00000330: 5591 39be 9099 2a40 b9f9 21be cdfa 1640
00000340: ed5a 2040 97f7 e53c 1b41 f7bd d145 04bc
00000350: 2b5a 2240 72e0 2640 d8f6 c9bf a368 fabe
00000360: df5e 04bf edfd 10be c158 2bbe 33e3 c6be
00000370: acf2 e03f 8611 3740 ef20 2340 9932 9ebd
00000380: 2ad4 823c 08d0 c6be 586b d6bc 44cf ff3f
00000390: c88c 0fbd 6d4d 1e40 76e7 01be f63f 10bd
000003a0: ff47 2640 47c7 1a40 cdd2 e3be e214 d3bc
000003b0: aad1 3440 39f8 1b40 6c94 1c40 6373 3fbf
000003c0: d13e 3340 d0f6 3540 1cb4 3f40 c6c9 c5bd
000003d0: 5603 25bf d07c 45be cb1d 34bf b539 2d40
000003e0: 4c84 1740 f1ef 2840 0dca 10bf 6969 043a
000003f0: a2b7 8fbf f103 2240 5cd2 9bbe 19bd 1c40
-0.06027027 -0.14374873 0.024487332 0.020696133 2.6801174 -0.054638036 2.555694 2.5958767
2.484852 2.449916 2.4748561 1.1769153 -0.028846892 2.1868048 -0.123014845 -0.043346547
2.8794575 2.7055488 2.3868508 -0.4642766 2.4656131 2.5875075 2.094258 2.4640744
-0.7146779 2.48277 -0.72828984 -0.06653966 2.3698752 0.036463384 2.6147196 -0.3355035
1.2283634 2.4525099 -0.11539259 2.4442906 -0.06566234 0.20105615 -0.115038045 -0.3144351
2.7373965 -0.36959493 -0.5258052 2.232368 -0.8186202 -0.2743047 -1.1874064 0.037131306
2.9546142 2.5859933 -0.018123714 2.4536042 2.2502155 -0.05403908 -0.08391216 0.005902649
2.8464508 -0.9267224 2.2980106 -0.15904671 -0.064404055 2.11077 2.2271795 -0.4772263
2.4629116 -0.10910042 -0.6780049 -0.10350501 0.007795122 1.1412536 -0.3977321 -0.015583183
0.6489056 2.714375 2.4996154 -0.043093327 -0.17507872 1.9957112 0.0058179353 -0.014314379
-0.30045843 -0.30042857 -0.14296876 2.8075352 0.013593443 -0.91955644 -0.047325507 2.7817907
2.4780796 2.6261325 2.5984688 -0.4395068 2.6928382 1.840769 2.7545416 1.8391906
-0.8439853 -0.7602255 1.3782829 -0.19008557 2.3144853 2.7927294 2.379652 -0.13594165
-0.15052134 0.0013871016 0.10228776 2.5600724 -0.1157509 -0.42873356 -0.11255781 2.5923955
2.539181 -0.39839426 -0.50067186 -0.141226 2.7773058 -0.067969166 2.8040826 -0.060127784
2.3307378 2.9223948 -0.47813645 2.485397 2.8854144 -0.6114494 -0.0033467468 -0.18558927
-0.052177865 0.0022566272 2.6703925 2.014286 0.055381395 -0.06833948 -0.04400128 2.4481826
2.6042159 1.0390793 2.4479303 -0.13178068 2.6923382 -0.199127 2.5142577 2.523963
2.4663625 2.5230513 -0.1543632 2.910129 2.628473 2.6177175 -0.08969626 2.2214212
1.0556206 -0.031162156 2.3653622 -0.44895318 2.7559679 -0.021158999 -0.55060434 -0.38183138
2.470267 2.742173 -0.18829633 2.7816558 0.026804589 1.5603931 2.459677 2.5911717
2.4863122 2.5270872 -0.8200498 2.592507 -0.026554247 -0.6982556 2.8579936 0.017886473
-0.38772854 -0.69254416 2.8332942 2.5304458 2.3953516 2.628002 -0.3180851 -0.09891239
2.8310797 1.0740212 -0.13258553 2.644352 2.5531073 -0.21359542 1.726763 2.519002
2.258777 -0.5124076 2.715437 2.3067238 -0.08001497 2.6927886 2.7266612 0.02508238
2.4546962 -0.73123163 -0.30263782 -0.4935063 -0.18121846 2.6656227 -0.15817918 2.3590577
2.5055497 0.028072162 -0.12072965 -0.008073286 2.5367534 2.607449 -1.5778456 -0.48907956
-0.5170726 -0.14159365 -0.16733076 -0.38845214 1.7574058 2.8604445 2.548885 -0.077244945
0.015970308 -0.3883059 -0.026174232 1.9985127 -0.03504637 2.4734757 -0.12685952 -0.035217248
2.5981443 2.418413 -0.44496766 -0.025766794 2.8252969 2.4370253 2.446559 -0.7478544
2.800709 2.8431892 2.995368 -0.09657626 -0.64458215 -0.19285893 -0.7035796 2.7066472
2.3674498 2.6396449 -0.56558305 0.0005051108 -1.1227915 2.5314906 -0.3043393 2.4490416

layer2.5.weight f4 [1, 256]
00000000: da00 7bbc 1cf8 67bd 7647 1bbd a4a2 80bd
00000010: 8f69 b53c 9b15 fdbc 3dfd bb3c f2df fc3c
00000020: 7e2c f03c 558e 8c3c 80c7 b23c 2a99 ec3d
00000030: 9232 88bc 1e38 b23c ce68 3dbd 27bb afba
00000040: a8b9 2c3d 6379 dc3c a64a 0a3d 724b a1bb
00000050: 0e87 9d3c a076 113d b22d 683d d49e c83c
00000060: 824a b5bd 8ca3 5c3d b49e 71bd 5ae1 33bd
00000070: 616c 373d 182b 6039 82e5 003d cd5d 11be
00000080: 36d8 243d 2b16 9a3c 0b93 77bd 5c36 fe3c
00000090: 7b26 a7bc 9747 e03c 9e0d 90bd 1d08 2dbd
000000a0: aac5 9f3c f1c6 a9bd af45 ebbd 76c9 1b3d
000000b0: 20d3 09bc 7352 47bc 898c 6ebc e95a c5bb
000000c0: 1394 563d 75a8 ba3c 407c a5bd 26d7 ab3c
000000d0: d033 ce3c 6d27 30bc 998f 36bd 5338 aebc
000000e0: 56d2 c23c 6f19 f2bd 1189 9e3c add3 56bd
000000f0: 6022 72bd 30f3 863c 9eb8 5d3c 0256 02be
00000100: f9ab f43c 939a 26bc 72c2 efbc b933 bcbc
00000110: 834d ddbc 8437 de3c ef25 65bd 5b58 1bbe
00000120: d661 5b3d 809e a03c 4afe 883c 9c9e a8bb
00000130: f0b9 56bc 1d19 c53c dd12 e9b9 65a5 95bd
00000140: e7c6 09bd 0524 dabd bfdb 64bd cec8 183d
00000150: a21e 93bc 1dd0 4cbe bf31 86bc 341a 743d
00000160: 55d3 0f3d a600 773c 4911 793c 5f8f 42bd
00000170: 147a 943c 0459 ee3c 1dd5 783c 4f88 813c
00000180: 0bf9 cfbd c8ad ffbd f8d0 2e3e d165 0bbe
00000190: 9061 0e3d 89b3 403d 4ab1 cf3c 968a 53bd
000001a0: 9937 05bd 1347 723c 3931 1a3d 1212 983c
000001b0: 1941 8abc b57e 78bd 480c dabc c573 623c
000001c0: 66f1 383d b9a6 59bd f35a 81bd b72b 5abd
000001d0: f04d c13c 17be 0ebc e013 d43c 6964 00bd
000001e0: cf70 eb3c daf1 433d 722b b8bd ca41 203d
000001f0: 1dd6 8d3c ec13 34bb bb99 6f3d 6a71 18be
00000200: 0e3d c3bc ff15 cabb d2b8 dc3c 4428 773d
00000210: 78f6 54bd 55a2 26be 2c2e 76bc 79ef 143d
00000220: f131 763c 0563 0d3d 3993 9b3c 3079 e4bd
00000230: f638 253d 39a1 0fbd 8a19 203d 83e8 a03c
00000240: 840e fd3c 2bd5 a23c ef2a 44bd b3a8 8e3c
00000250: 38f8 5e3c 8086 ca3c c2cf 43bd 0d75 6c3d
00000260: 8e90 ba3c a674 00be 7cba d13c be67 d6bd
00000270: a574 c33c e139 3fbd 3fba bfbd cceb 90bd
00000280: 7681 c13c c1ac 293d d297 67bd bcae d93c
00000290: 515f fdbc 25b2 073e b7bc 3d3d 4c6e f03c
000002a0: f060 cc3c e98a cf3c 6128 23be a47b 4e3d
000002b0: b85e 4cbd d6a5 9bbd 8bd3 113d edbf e1bc
000002c0: 6bb9 a7bd 7412 2139 84ae df3c a4eb 713c
000002d0: d7e4 6a3d a6fb a83c ec07 91bc 1f75 91bd
000002e0: ffa8 1c3d 2d13 143d aa00 11bc cf71 c03c
000002f0: 8f2b 403d 6552 30ba 01c1 8d3c 471b 4d3c
00000300: 4a16 4e3c 51db b6bd fc88 e53c 44ad ce3c
00000310: d548 fbb9 8589 553c d941 063d 2a8e 46bd
00000320: db7a b23c 5091 2cbd 7834 70bd cb53 8abd
00000330: 1b4f e0bc 4fcb c03c e897 15bb 35b5 d43c
00000340: 9f44 793c e5ed c7bc 3802 0abd d6e4 54bd
00000350: 3581 083d 0032 f83c 4725 59bc 5cd6 f7bd
00000360: 1f49 c5bd d90a d5b9 3a4e cebd 7896 99bd
00000370: 2528 563c 6d7d 153d 2394 de3c 514f 2abd
00000380: 0052 e93b 69ef 99bd 3c29 d6bc 6005 b83c
00000390: 4c30 23bd 2707 813c ab29 ffbc 545b 153d
000003a0: 6621 983c cc33 6a3c 3364 a9bd 5a46 7abd
000003b0: 856d 5d3c 2fda 9c3d a214 1c3d df95 b6bc
000003c0: 77f8 bd3c 31bf a73c 1365 3f3d ad1c 3abd
000003d0: 312f a1bd fdd8 5abd 5ac6 80bd 91b7 723c
000003e0: 0101 1c3d f533 dc3c 08e7 adbd 7cdd 61bd
000003f0: 8db5 17be eabd 023d 6a49 f7bc 0160 bd3c
-0.015320027 -0.0566331 -0.037909947 -0.06281021 0.02214506 -0.030894091 0.022947902 0.030868504
0.02931809 0.017157713 0.021823645 0.11552651 -0.016625676 0.021755274 -0.046242528 -0.0013407216
0.042169243 0.02691335 0.033762597 -0.004922324 0.019229438 0.03551352 0.056684203 0.024489798
-0.08852102 0.053866908 -0.05898924 -0.043916084 0.044781093 0.00021378358 0.031468876 -0.14195938
0.040245257 0.018809399 -0.060442965 0.03103178 -0.020404091 0.027377887 -0.07033847 -0.042244066
0.019503433 -0.08289898 -0.114879005 0.038033925 -0.0084121525 -0.0121656535 -0.014559873 -0.0060228
0.05238731 0.022785405 -0.080803394 0.020976614 0.02517119 -0.010751587 -0.04457054 -0.021267092
0.023781937 -0.11821257 0.019352468 -0.052447964 -0.059114814 0.016473383 0.013532786 -0.12728122
0.02986716 -0.010168689 -0.029267523 -0.022973882 -0.0270145 0.027126081 -0.05594438 -0.15170424
0.0535601 0.019606829 0.016722817 -0.005145861 -0.013105854 0.024059827 -0.00044455277 -0.07306937
-0.033636954 -0.106514014 -0.05587363 0.037300877 -0.017958943 -0.20001264 -0.016381143 0.0595953
0.03511365 0.015075838 0.015201875 -0.04750001 0.018124618 0.02909518 0.015187529 0.015812067
-0.10154923 -0.12484318 0.17071903 -0.13613059 0.03476101 0.047046218 0.025353093 -0.051645838
-0.032523725 0.014787453 0.0376446 0.018563304 -0.016876744 -0.060667712 -0.026617184 0.013821547
0.04515209 -0.053137515 -0.06316175 -0.053264346 0.023596734 -0.008712313 0.025888383 -0.03134576
0.028740315 0.04783807 -0.089926615 0.03912524 0.017314011 -0.0027477695 0.05849622 -0.14887014
-0.023832824 -0.006167173 0.026943598 0.060341135 -0.051992863 -0.16272862 -0.015025657 0.03636119
0.015026555 0.03451826 0.0189911 -0.11155927 0.040337525 -0.035065863 0.039086856 0.01964212
0.03089071 0.019877037 -0.047892507 0.017414426 0.013608985 0.024722338 -0.047805555 0.057728816
0.022774007 -0.12544498 0.025601618 -0.10469006 0.023859331 -0.046686057 -0.093616955 -0.07076225
0.023621302 0.041424517 -0.05654127 0.026572578 -0.03092924 0.1325155 0.04632255 0.029349469
0.024948567 0.025334792 -0.15933372 0.05041088 -0.04989502 -0.0759999 0.035602134 -0.027557338
-0.081896625 0.00015361031 0.027304895 0.014765654 0.057347145 0.020627808 -0.017703973 -0.07102417
0.038247105 0.0361511 -0.008850256 0.023491768 0.04691654 -0.0006726145 0.017303945 0.01251871
0.012578556 -0.0892855 0.02801942 0.025229104 -0.00047928715 0.0130332755 0.03277764 -0.048475422
0.021787098 -0.04213077 -0.058643788 -0.067542635 -0.02738147 0.023534445 -0.002282614 0.025965312
0.015214114 -0.02440543 -0.033693522 -0.051976047 0.033326346 0.03029728 -0.0132535165 -0.12101433
-0.09633087 -0.00040634608 -0.10073514 -0.07499403 0.013071095 0.03649657 0.027170246 -0.04157955
0.007120371 -0.07516367 -0.026142709 0.0224635 -0.03984098 0.01575048 -0.031147799 0.03646405
0.018570613 0.014294576 -0.082710646 -0.06110225 0.013514881 0.07658803 0.038105614 -0.022288261
0.023189766 0.02047691 0.04672725 -0.045437504 -0.07870329 -0.053429592 -0.062878326 0.014814273
0.038086895 0.026880244 -0.08491331 -0.055142865 -0.1481535 0.031919397 -0.030186374 0.023117067
