Saved_data_files/bpi_no_repeat/lr_all_variants/MLP/EventPredictor_parameters_feedforward_0.001.pt (torch, 298311 bytes, 6 tensors)

layer2.0.weight f4 [256, 24]
000000 46 09 26 3d 51 a3 73 bc 7b 1e b5 3e 7b 34 00 3f
       0.040536188 -0.014870481 0.35374817 0.5008008
000010 07 35 49 3e 27 5c 43 bc 96 1d f6 bd e0 2b df bd
       0.19649135 -0.011923826 -0.12017362 -0.1089704
000020 36 d9 3f bd 23 42 45 3c df 2f 54 3e 18 cf a2 3d
       -0.046838008 0.012039694 0.20721386 0.07949656
000030 38 db 83 bd 5c ca 0b bd 8e 43 03 3d d2 60 3d 3e
       -0.06438297 -0.03412853 0.032046847 0.18493965
000040 68 0d c7 bd 15 36 13 3e 48 5e 50 3e ac 44 7d 3c
       -0.09719354 0.143761 0.20348465 0.015458267
000050 7c b2 8a bd 77 78 1b 3e 1f 7a 66 be 88 30 70 bc
       -0.067723244 0.15182672 -0.22507523 -0.014660008
000060 26 27 59 be fd f4 80 be c9 d3 17 bf b5 97 0c bf
       -0.2120634 -0.2518691 -0.59307534 -0.54918987
000070 d3 90 43 3e b6 45 2d 3e 3e 8b 0a 3e bc a5 81 3d
       0.19098215 0.16921124 0.13529679 0.063304394
000080 de 58 b0 be 80 cd 80 be c2 6b 22 3e 2f 84 43 3d
       -0.344428 -0.25156784 0.15861419 0.047733482
000090 5f f2 63 3e b9 44 04 3e fb 92 5a 3e 2b 62 40 be
       0.22260426 0.1291684 0.21345131 -0.18787448
0000a0 18 25 76 3b c6 74 f1 bb 61 eb 33 be cd da fc 3d
       0.003755873 -0.007368657 -0.17570259 0.123464204
0000b0 09 ac 2f 3e 95 b3 10 3d c0 b2 9e 3c 3c bb 4d 3e
       0.1715547 0.035327513 0.019372344 0.20090955
0000c0 d3 3b cd be 89 64 9e be 63 be de 3e 76 a0 c2 3e
       -0.40084705 -0.30936077 0.4350463 0.38013047
0000d0 c3 f8 45 bc 48 20 42 be c8 68 4c 3d 4b 68 f7 3d
       -0.012083235 -0.18957627 0.049904615 0.12080439
0000e0 bd d6 77 bd 2d 77 80 3d d4 0a 0f 3e 9b 59 0b 3e
       -0.060507525 0.06272731 0.13968974 0.136084
0000f0 19 1f 48 be 51 e3 c3 bd e1 93 28 3e d5 f5 32 3e
       -0.19543113 -0.095648415 0.16462661 0.1747659
000100 40 1a 65 3e c2 8d ce 3e d8 82 60 3e 29 e4 a0 3e
       0.22373295 0.40342528 0.21924913 0.31424072
000110 67 58 28 be c2 e7 db bd 37 09 bf 3d 53 90 c4 3d
       -0.16439973 -0.10737564 0.093279295 0.0959784
000120 48 00 16 be f2 fb 02 3e 86 14 c3 3e d6 e1 a2 3e
       -0.14648545 0.12791422 0.38101596 0.31812924
000130 90 e2 eb bd cb c9 8c bd ba 96 22 be b2 a7 76 bd
       -0.11517823 -0.068744265 -0.1587781 -0.06021852
000140 14 b7 17 3e 97 ea ba 3d 25 c3 32 3e 8b 6f 98 3e
       0.14815933 0.09126776 0.17457254 0.297726
000150 f4 cb 01 3d b6 4e 27 3e ac cd b9 3d 2c b6 7f 3d
       0.031688645 0.1633862 0.09072432 0.062429592
000160 c6 b5 32 3e b5 bc 2d bc e9 d2 a8 3c 3d 6b 9d 3e
       0.17452154 -0.010604073 0.020608382 0.3074588
000170 b6 34 bd bd 12 99 6f bd 04 34 d4 bd fb 1b 6b 3e
       -0.092385694 -0.05849559 -0.10361484 0.22959892
000180 ff 40 f6 3e 4c a3 6e 3e 44 e2 ec 3d b7 bc 04 3b
       0.48096463 0.2330448 0.11566594 0.0020254084
000190 68 a2 dd 3d 29 ff 43 be 81 d1 d0 3d 84 c3 05 be
       0.10821992 -0.19140305 0.1019621 -0.13062865
0001a0 35 05 5d be 87 fe b9 be 80 9b 8b be 68 56 8d be
       -0.21584018 -0.36327 -0.27267075 -0.27604985
0001b0 0a 21 2e 3e 15 f6 1f be 5d 2c b5 3d ef c0 11 be
       0.17004791 -0.15621217 0.08846352 -0.14233755
0001c0 8a 41 70 3e 5b 78 b2 3d bd 3c be 3c cd d7 33 be
       0.23462501 0.08714362 0.023222322 -0.1756279
0001d0 7e 9e 5e 3e fc 2f 64 3e 9c 1b b3 3d 9a 7b 8d 3e
       0.21740147 0.2228393 0.087455004 0.27633363
0001e0 5a 34 51 3e 74 d3 d3 bd 3e 63 47 be c5 b4 04 bd
       0.20430127 -0.10343066 -0.19471452 -0.032398958
0001f0 cc 26 14 3e 43 95 24 be a0 d3 fe bd 5f c4 d5 3d
       0.14467925 -0.16072564 -0.12442708 0.104378454
000200 a2 02 25 be 2f f3 8b be 85 c5 7f be cd 28 b7 bc
       -0.16114286 -0.27333972 -0.24977691 -0.022358323
000210 c7 21 14 be 39 27 d0 3c f2 1d 43 3d 0a 61 10 3e
       -0.1446601 0.025409328 0.04763598 0.14099517
000220 c1 5e 26 3e 02 6c 16 3e 3e cd a0 3e ee f2 97 3e
       0.16247083 0.14689639 0.31406587 0.29677528
000230 7d 32 17 3d 03 56 48 3e d9 96 6e bc 9d ca 24 3e
       0.036913384 0.19564061 -0.014562332 0.16092916
000240 a1 b9 11 3e aa fd 16 3a df d5 84 be b8 17 17 3e
       0.14230968 0.0005759845 -0.2594442 0.14755142
000250 85 9d a5 3a cf 8d 8a bd 1a 68 a8 3d a8 04 fa 3d
       0.0012635445 -0.06765329 0.08222981 0.12207919
000260 70 6e a4 3e 31 b2 66 3e c7 44 93 3e 8b 3c 03 be
       0.32115507 0.22528912 0.2876341 -0.12816064
000270 fc 51 05 3d ac 7e ac bc b9 2e 9c bd 8a 7a 03 be
       0.03254889 -0.021056496 -0.07626099 -0.12839714
000280 33 81 e2 be 5b c5 e6 bd 93 0d ca be 30 08 ef be
       -0.44239196 -0.11268111 -0.3946348 -0.46685934
000290 52 42 c0 3d 93 e1 29 be 13 96 03 be c4 c6 2a bd
       0.093876496 -0.16589956 -0.12850218 -0.041693464
0002a0 7e 63 ca bd 35 8b e1 3d d4 be 50 3d 20 99 61 3e
       -0.09882258 0.1101288 0.050963238 0.22031069
0002b0 3b 06 12 bd 5f b3 dc 3d 15 3f 44 3e 3f d3 be bd
       -0.035650473 0.107764 0.19164689 -0.09317636
0002c0 78 5c 71 be 05 18 25 be 45 4a 88 be 9d e0 89 bd
       -0.2357043 -0.16122444 -0.26619163 -0.06732295
0002d0 74 9a 54 bd 29 a8 cc bd e1 73 a4 3d 08 4e 0d be
       -0.05190511 -0.099930115 0.08029915 -0.13799298
0002e0 d2 ee 8c 3e 46 70 19 3e 9a 35 96 3e 45 9c de 3d
       0.27525955 0.14984235 0.2933777 0.1086965
0002f0 a5 9c 72 be d7 00 e8 bd 4e 5d fa bc c7 49 01 be
       -0.23692568 -0.11328285 -0.03056207 -0.126258
000300 5a 5e 0c bd b0 64 d0 3b 37 a3 30 be c6 96 95 be
       -0.03426967 0.006359659 -0.17249762 -0.29216594
000310 3e 11 d0 3d ed f0 46 3d 73 d3 da 3d 5a a3 89 3c
       0.10159539 0.04856961 0.10684862 0.016801525
000320 24 fd 40 3e 4f ec 85 3c f8 bc 92 3e b6 d5 d5 3e
       0.18846565 0.016348032 0.28659797 0.4176461
000330 52 00 70 bd b2 c7 50 3e 34 7e 92 3b fe 25 11 3e
       -0.058594055 0.20388678 0.004470611 0.14174649
000340 24 d7 98 bc 39 11 6b bd d6 7d 94 3e 67 bd c6 3d
       -0.018657275 -0.05738947 0.29002255 0.097040944
000350 45 95 1e 3c 48 60 a7 bd fa 4e 54 3e 04 16 6a be
       0.009679143 -0.08172661 0.20733252 -0.22859961
000360 2e 25 d1 3d 4b 62 7e bd a0 06 4e 3e 67 8c 44 be
       0.102121696 -0.06210546 0.20119715 -0.19194184
000370 d6 f2 7e 3d 03 32 d1 3d 90 fe 23 be 35 5c 07 3d
       0.062243305 0.10214617 -0.16015077 0.03304692
000380 90 6f 6e be 44 b1 70 be 4b 52 2c be 3b 00 51 bc
       -0.23284745 -0.23505121 -0.16828267 -0.012756403
000390 48 de 06 be 46 08 4b 3e 0d 6f a6 bd 60 c9 37 be
       -0.13170731 0.19827375 -0.0812665 -0.17947912
0003a0 be ad c2 3e f0 e2 02 bd df 60 17 3e 1a 69 54 3e
       0.3802318 -0.031954706 0.14783047 0.20743218
0003b0 54 2a f1 bd 76 b3 c4 3b f1 ee 22 3e 86 89 72 bd
       -0.117756516 0.0060028387 0.15911461 -0.059213184
0003c0 d9 78 e9 3c 7f 63 a6 3c 83 31 7a 3e 76 8c ea bc
       0.028500007 0.020311115 0.2443295 -0.02863143
0003d0 08 9b 1b be 0f e8 53 3d 4d 95 15 be 29 bc a5 3d
       -0.15195858 0.05173498 -0.14607735 0.08092529
0003e0 a4 0f 2c bc d1 ea 6c 3e a6 c2 56 3e 97 4a 88 3c
       -0.010501776 0.2313645 0.2097269 0.01663713
0003f0 a3 8c aa bd 5a 89 9f bd 04 bc 42 39 5e a4 d8 3d
       -0.083276056 -0.077898696 0.00018571323 0.105782256

layer2.0.bias f4 [256]
000000 62 ec cb 3e 31 24 e1 be 9b d3 31 3e a2 44 b4 3e
       0.39828783 -0.43972924 0.17365877 0.35208613
000010 82 b1 d1 3d fa cd 3b 3c ea ec b7 bd 95 0c df 3e
       0.10238935 0.011462683 -0.08980735 0.43564287
000020 d9 06 a4 3e 5c 77 d4 3e 5a 38 94 3e 34 81 84 bd
       0.32036474 0.41497314 0.28949243 -0.06469956
000030 03 9a 24 bc eb 17 cd 3e 2e 49 21 bd 11 34 08 3f
       -0.010046485 0.4005731 -0.03937643 0.5320445
000040 33 b9 30 3e 0e f6 3c 3d 37 5a 50 3f 12 1a 08 3f
       0.17258148 0.046133094 0.81387657 0.5316478
000050 9c 70 04 bf 97 53 ed 3e 28 6c e3 be 30 68 6d bc
       -0.5173433 0.46352836 -0.44418454 -0.014490172
000060 51 9c e3 be 53 4a ee be e0 87 eb bd cc 8f 01 bf
       -0.44455197 -0.4654108 -0.115005255 -0.5061004
000070 fd 8f 68 bd 55 27 83 3e 1b a8 60 3e 4c 80 c7 3e
       -0.056777943 0.25615945 0.21939127 0.3896507
000080 33 81 0b be 7f 95 32 be b2 d0 6a be 4f e3 cc bd
       -0.13623504 -0.1743984 -0.22931173 -0.10004293
000090 85 25 b2 be f8 08 f5 3c 78 fb b9 bd 61 66 fa bd
       -0.3479425 0.029911503 -0.09081167 -0.122265585
0000a0 68 ee a0 be ba bc 0d bf 18 0c 2e be 99 6d 6b 3e
       -0.3143189 -0.553661 -0.16996801 0.22991027
0000b0 cf c1 c3 bd 2b 7a 18 be a9 16 d3 be 7d e1 2c 3e
       -0.095584504 -0.14890353 -0.41228226 0.16882892
0000c0 05 4d 0d 3f 82 82 98 be 07 70 9f bd 89 5a b8 3e
       0.5519565 -0.2978707 -0.077850394 0.36006573
0000d0 24 85 09 bd aa 27 c6 bd 62 44 e2 be 0b 5b 9d bd
       -0.03357424 -0.09675534 -0.44192797 -0.07683381
0000e0 56 c8 d1 3e 4d 81 d6 be f1 b2 00 3d 43 08 22 be
       0.40973157 -0.41895524 0.03142065 -0.15823464
0000f0 7d 15 f0 bc 07 57 c8 3d e4 fd 2d bf f8 bf 13 be
       -0.029307121 0.09782224 -0.6796553 -0.14428699
000100 e6 81 b9 3d 8e 84 ba 3e 0d da 94 be fc ca d1 be
       0.09057979 0.36429256 -0.2907261 -0.40975177
000110 c4 93 f5 be b7 39 02 be b3 6c 8d be af 77 3a be
       -0.479643 -0.12717329 -0.27621993 -0.18209718
000120 e6 57 7e be 1c 58 03 3f 42 cc ec be f8 00 b0 3d
       -0.24838218 0.5130632 -0.46249586 0.08593935
000130 3c 57 6a 3e 73 d5 cb 3e eb 4f 18 3d 35 6b 38 3f
       0.2288484 0.39811286 0.03718559 0.72038585
000140 4e ca bf 3d ef 36 77 3d 44 cf e2 3e 13 78 fc 3e
       0.093647584 0.060355123 0.44298756 0.4931036
000150 03 48 5e 3e 9a 3e 87 bd 7c 5e 04 bf 1a 86 30 be
       0.21707158 -0.06603737 -0.5170667 -0.17238656
000160 dd a8 21 bf 7c b3 af be 25 9c 8e be 6f 77 86 be
       -0.6314829 -0.34316623 -0.27853504 -0.26262996
000170 73 ab c3 3d f7 b1 1e 3f db c7 05 3e bf 32 4f be
       0.09554186 0.619903 0.1306452 -0.20234202
000180 b8 fe 54 bd fc 06 02 be af a2 bb 3c 78 7b a4 bd
       -0.05200073 -0.12697977 0.022904722 -0.08031362
000190 bd 9b 35 bf 9d 03 61 3e 5a b4 05 be 76 6f eb bc
       -0.7094076 0.21974035 -0.1305708 -0.028739672
0001a0 7a 86 ed be b7 30 a7 3e 7d c1 b2 3c bf b3 8f be
       -0.4639166 0.32654354 0.021820778 -0.28066823
0001b0 48 96 fa 3b 2c 82 8d be 1d 58 8c bd e1 b9 84 be
       0.0076473095 -0.27638376 -0.06852744 -0.25923064
0001c0 67 3d 16 3e 7c ad 43 3e d1 51 fa 3e 6d 0b de 3e
       0.1467186 0.19109148 0.48890546 0.43368092
0001d0 4f 34 22 be 08 08 05 3f 1e 77 97 3e 9b ed a2 be
       -0.15840267 0.5196538 0.29583067 -0.31821904
0001e0 f1 57 bb bd 06 46 89 bd 3d b6 c3 3e 48 8e 8a 3d
       -0.09147633 -0.06702809 0.38224974 0.06765419
0001f0 c3 d7 81 3e 2d a2 93 3d 0f 04 23 3e 6a 80 b5 be
       0.25359926 0.07208667 0.15919517 -0.35449535
000200 35 32 92 3e 28 aa 99 3e 15 b1 5c be 99 a6 0a 3f
       0.2855393 0.3001263 -0.21551926 0.5416046
000210 89 9f 62 be b9 4c 98 3d 22 0d db 3d 33 67 42 3c
       -0.2213117 0.07436509 0.10695864 0.011865425
000220 67 f2 2a be 60 80 dd 3d 80 b2 8b 3e 5d eb 6b 3e
       -0.16694032 0.10815501 0.27284622 0.23039003
000230 e6 fa 87 3e ac 7f 42 3e f8 38 e1 3d 06 e8 93 3e
       0.26558608 0.18994015 0.10997194 0.28887957
000240 61 60 b4 bd af 62 75 bd 1b b0 08 bd 94 a7 83 bc
       -0.08807445 -0.059908565 -0.033371072 -0.016071118
000250 2d 15 e6 3c 3e 35 95 bd 08 3b dc 3e 98 ce ec bd
       0.02808627 -0.07285546 0.43013787 -0.11562842
000260 a7 2d 53 bb 6b ba f0 3e 79 72 63 be ee f3 1f 3f
       -0.0032223256 0.47017226 -0.22211637 0.6248158
000270 96 af 49 bd 37 20 ba be d4 27 1e 3f 3e 08 0c bf
       -0.049239717 -0.36352703 0.6177952 -0.54700077
000280 76 2d 33 3c 64 9b 1f 3e d1 bd 0d 3f 69 a0 8b 3e
       0.010936132 0.1558662 0.5536776 0.2727082
000290 b5 ef 85 3e 05 36 58 bc 3c f9 45 3e 14 be 5c bd
       0.26159444 -0.013196473 0.19333357 -0.05389221
0002a0 dd b8 af be 0b cb 78 be d3 a7 35 be d2 33 a0 be
       -0.34320727 -0.24296205 -0.17739801 -0.31289536
0002b0 7c bf 10 be ca 62 8b be b6 07 60 be 6b 40 fb be
       -0.14135545 -0.27223808 -0.21877941 -0.49072585
0002c0 60 dc c6 3e ea 38 15 be 5a 2e 0d bf 5d 1a b6 be
       0.38840008 -0.14572492 -0.5514885 -0.3556699
0002d0 13 2d 6b bd 8f 14 02 bf 0b 60 a2 bd ab f5 56 3e
       -0.057416033 -0.5081262 -0.07928475 0.20992152
0002e0 0f 68 87 3e f3 7e 55 be 10 74 da be 7a 7b 2c bc
       0.26446578 -0.20849209 -0.42666674 -0.010527486
0002f0 25 53 83 3d af 94 26 3e d3 13 57 be 1a 73 db 3d
       0.06412343 0.16267656 -0.21003656 0.10715313
000300 b7 31 c8 3d e6 3b 16 bf 70 1d 01 bb d8 4a f1 3e
       0.09775107 -0.5868515 -0.0019701384 0.47127414
000310 1c 50 2c be d8 ae 13 bd 80 a9 e4 be 88 51 16 be
       -0.16827434 -0.036055416 -0.44660568 -0.14679539
000320 16 81 8a be e6 d2 8a be 40 d2 0e bd 10 d4 03 3e
       -0.2705161 -0.27114028 -0.03486848 0.12873864
000330 29 dd 48 3e 21 18 f5 3c e6 45 3a 3e 68 b1 e3 3e
       0.19615616 0.029918732 0.18190727 0.44471288
000340 36 5e 14 bf 5d c4 e7 3e b1 d3 a8 3e 71 08 b0 bd
       -0.57956254 0.45267 0.32974008 -0.0859536
000350 f5 89 80 3d 64 a6 a3 3b 80 8f a3 3e f7 a4 15 3e
       0.06276313 0.0049942005 0.3194542 0.1461371
000360 0f 66 60 3d 31 08 04 be c7 1c 2c 3e 77 e8 23 be
       0.05478483 -0.1289375 0.16807853 -0.16006647
000370 8f 47 3d be bf a0 79 be 1b ef d0 3e c3 8d 24 be
       -0.18484329 -0.24377726 0.40807423 -0.16069703
000380 08 b9 11 3e 56 3b 89 bd 3e bb 49 be 10 57 d4 3e
       0.1423074 -0.067007706 -0.19700333 0.41472673
000390 35 11 ee 3e 5d ab 7c 3e f6 81 3d 3e 28 a0 a0 be
       0.46497503 0.24674745 0.18506607 -0.3137219
0003a0 6d 28 28 be 7d 73 80 be aa ff b8 3e a8 6b c6 be
       -0.16421671 -0.2508811 0.36132556 -0.3875401
0003b0 f2 86 2a 3d 80 72 2d be a1 de 08 3e 42 ff 54 3e
       0.0416326 -0.1693821 0.13366176 0.20800498
0003c0 88 94 54 3e ec 21 30 bf c9 7e e8 3c 46 68 b5 bd
       0.20759785 -0.6880176 0.028380768 -0.08857779
0003d0 b0 ac 32 bd 7a a4 99 3d 56 eb 5d 3d af 96 f0 3c
       -0.04362172 0.075020745 0.054179512 0.029368727
0003e0 03 a8 ce be 02 d1 69 bc 89 eb 1e 3f a6 15 a6 3e
       -0.40362558 -0.014271023 0.6207815 0.3243839
0003f0 27 6e 2e 3f 58 00 00 bc e5 7c 4d 3e e8 e3 a7 3e
       0.6813683 -0.007812582 0.20067175 0.32791066

layer2.2.weight f4 [256, 256]
000000 ce e5 5b be 55 80 6d 3f 3f 5a 8c 3e 6f ce 03 bf
       -0.21474382 0.92773944 0.27412602 -0.5148687
000010 45 06 f0 be 7a 0f 1f bf 1d b0 8a 3e 19 02 94 3e
       -0.46879783 -0.6213299 0.2708749 0.2890785
000020 d5 f8 42 3e 65 56 a5 3e 19 77 30 3e af 29 c7 3e
       0.19040234 0.32292476 0.17232932 0.3889899
000030 a7 e8 59 be bd 54 a5 be d5 dd a4 be 20 96 d6 3d
       -0.21280156 -0.32291213 -0.32200494 0.10477853
000040 5c c7 6a bf 0d 2a 53 3f 6f 7d 2b bf 39 0f b1 3e
       -0.9171045 0.8248604 -0.6698827 0.34581926
000050 d9 6c b7 3e f8 eb bb bc fd ec c2 3e cb 47 9d 3e
       0.35825232 -0.022939667 0.38071433 0.30718836
000060 17 56 81 be 3f 43 49 3f cd e3 4a be f0 b2 80 3e
       -0.25260994 0.78618234 -0.19813462 0.25136518
000070 bb 11 b5 be 8f 01 3e bf b9 a4 c2 be 38 79 61 be
       -0.3536509 -0.7422113 -0.38016298 -0.22018898
000080 35 72 29 3e f7 94 e5 3e 76 0e 32 be b4 79 7a bf
       0.16547473 0.44840214 -0.17388329 -0.97841954
000090 61 2f 30 be f3 da 1c bf 59 c6 a6 3e fc 13 1e 3e
       -0.17205574 -0.6127159 0.32573202 0.15437311
0000a0 58 68 94 3e 8b a5 09 3e 42 ab 2f 3f e8 de 96 3b
       0.28985858 0.13442056 0.68620694 0.004604209
0000b0 db 31 64 be c9 2f 1f 3e ab 1d e4 3e f7 25 fc 3d
       -0.22284643 0.15545572 0.44553885 0.12311929
0000c0 39 58 c9 be df 9c 15 3e 1c c9 54 bf c0 e0 22 be
       -0.3932512 0.14610623 -0.8311937 -0.15906048
0000d0 7b 44 15 3e ee ce 60 3f a9 ea 98 3f 2d 9c d1 be
       0.14576904 0.8781575 1.1946613 -0.40939465
0000e0 b4 ef 88 bf 6f be a1 3d 47 4c 09 bf db 92 16 3f
       -1.0698152 0.078976505 -0.53632015 0.58817834
0000f0 99 dc 9e be 73 6e aa be 29 21 91 3e b3 b4 95 be
       -0.31027678 -0.3328739 0.28345612 -0.29239425
000100 d4 0e 34 3f 4d 72 07 bf d7 8e 6b 3d 0f 02 d8 3e
       0.70335126 -0.52908784 0.05750927 0.4218907
000110 fd 17 d6 3e 18 22 ac bc 3b fc 97 be ea ce cb 3e
       0.41815177 -0.02101235 -0.29684624 0.398063
000120 f0 a2 02 3e 0e fd 3a be 33 0b 7b 3d f9 34 02 3f
       0.12757468 -0.18260595 0.061289977 0.5086208
000130 c4 5a 9d 3f 81 47 b6 be 71 9a a7 be dc b1 09 bf
       1.2293324 -0.35601428 -0.32735017 -0.53787017
000140 42 1f 52 3f f7 01 d6 3e ec d1 40 3f 74 91 7c be
       0.82078946 0.41798374 0.75320315 -0.24664861
000150 f0 9a 40 be fb 8b b9 3e b9 4f 9b 3e aa d8 64 bf
       -0.18809104 0.3623961 0.3033426 -0.89393103
000160 5f d1 06 3c f3 67 37 3f 6d 47 15 be df 7e e8 3d
       0.008228629 0.7164299 -0.14578028 0.11352324
000170 7f fe 99 3e 30 6a 2b 3d 39 1c 9c 3e d5 9c 93 be
       0.30076978 0.041849315 0.30490282 -0.2883059
000180 77 3d 48 3e 67 fe 87 be c5 ed d6 3e 66 31 6f be
       0.19554697 -0.2656128 0.4197828 -0.23358688
000190 6b 1d 59 3f 9f dc e3 be ab c2 ce be bc f1 29 be
       0.84810513 -0.44504258 -0.40382895 -0.1659612
0001a0 e4 95 17 3e 1e e0 6b be eb 40 a5 be b3 34 2c 3f
       0.14803272 -0.23034713 -0.3227609 0.6726791
0001b0 b9 96 35 3e 2a cd 82 3e f5 4e 3c be 7e 5f 5d be
       0.17733277 0.25547153 -0.18389495 -0.21618459
0001c0 d7 2b 7d be 36 f2 9c 3d 2a 34 62 bf 36 da 1b be
       -0.24723755 0.076633856 -0.88360846 -0.1521996
0001d0 81 12 0a bf 90 c3 73 bf a3 41 d0 3e 8d e7 d7 3e
       -0.53934485 -0.9522028 0.40675077 0.42168847
0001e0 42 5a 00 3f b5 b2 c7 bf 4b 93 4f 3e 12 92 ce bc
       0.5013772 -1.5601412 0.20271032 -0.025216136
0001f0 30 fb 30 be 2c 0c 65 be f1 0f 4d 3e 6f 5b 87 3e
       -0.1728332 -0.22367924 0.20025612 0.26436946
000200 1b 2e 00 bf ab 57 94 3d 73 84 16 be db 60 be 3e
       -0.5007035 0.07243284 -0.14698963 0.3718327
000210 4b aa 92 be e1 6e f2 bc 8f 1e ff be 8b 7e 04 bf
       -0.28645548 -0.029593887 -0.49828002 -0.5175559
000220 ad df ed bc ed 70 99 be d7 88 6f 3d a8 44 8f 3e
       -0.029037321 -0.29968968 0.05848011 0.27982068
000230 6e ef 13 bc bf 86 95 3e f9 23 51 3e 31 93 b9 be
       -0.009029252 0.29204366 0.20423879 -0.3624511
000240 35 44 9f be 70 3f 3e bf 69 ff 88 be 77 3a df 3e
       -0.31106725 -0.7431555 -0.26757362 0.43599293
000250 20 ff 91 3f 40 53 34 3e 1f 6e c8 be 37 91 5f bf
       1.1405983 0.17609882 -0.39146516 -0.87330955
000260 7f ed f7 3e a5 9b 73 3f 55 ad 9e 3e 39 88 ce 3e
       0.48423383 0.9515937 0.30991617 0.40338305
000270 93 d2 92 3e 1c 4b e1 bd 7f f9 76 3e 80 dc be 3d
       0.2867628 -0.11000654 0.24118613 0.09319401
000280 50 19 06 3f 45 f5 57 3e d9 70 97 be 03 35 6d be
       0.52382374 0.21089657 -0.29578283 -0.23164754
000290 3c f8 01 be 77 a3 41 be a6 b2 99 be d5 d5 83 3e
       -0.1269235 -0.18910013 -0.3001911 0.25749078
0002a0 ef 0b e8 3e 18 73 f6 3d 97 7d d8 be c5 f1 e5 3e
       0.45321605 0.12033671 -0.42283317 0.44911018
0002b0 ef 79 83 be 34 0c 2b 3d 52 33 78 be 94 5f 99 bd
       -0.25678965 0.041759685 -0.24238327 -0.07488933
0002c0 d5 3d db be ee 44 8b bd 2f 8f 46 be 21 4d 56 bf
       -0.42820612 -0.06800257 -0.19390558 -0.8371144
0002d0 55 93 ea 3e 19 19 8c be 76 9b f9 3d 53 b3 c3 3e
       0.4581553 -0.27362898 0.12187855 0.3822275
0002e0 2b b5 dd bd 4a 1b 94 bd 33 18 f2 be 45 1d b2 be
       -0.10825571 -0.072317675 -0.47284088 -0.34787956
0002f0 2f e9 e8 be 3f 4b 30 bf 97 db bc be 27 c5 ef 3d
       -0.45490405 -0.68864816 -0.36886284 0.11707526
000300 c5 33 c5 3e 85 5e 87 3e 6b 88 58 bd a3 85 82 bf
       0.3851606 0.264393 -0.052864473 -1.0197033
000310 2e 6e d4 bd b3 7f ce be 68 68 2d 3f 18 2f 2f 3d
       -0.103725776 -0.40331802 0.67737436 0.04276952
000320 f3 d7 e1 be 57 83 be 3e 9f 5a bb 3e f7 34 d1 3e
       -0.4411007 0.3720958 0.36592576 0.4086072
000330 6a 32 03 bf fb 37 8a 3e f5 c2 41 bf 61 70 ea 3d
       -0.512488 0.26995835 -0.75688106 0.11447216
000340 92 bd 26 3f db 1f 9c be 21 d4 2c be 6b 05 b8 3c
       0.6513301 -0.30493054 -0.16877796 0.022463521
000350 94 03 bc 3d bf 21 fe 3e 4e 3c 14 3f 1d 33 df be
       0.0918037 0.4963512 0.5790452 -0.43593684
000360 71 5e 0b 3e a1 b7 16 bd 02 61 8d be 97 6b 24 bf
       0.13610245 -0.036796216 -0.27613074 -0.6422667
000370 17 4c f0 be 49 74 b1 3e 0d 04 3c 3e f3 72 27 be
       -0.46933052 0.3465903 0.1836092 -0.16352443
000380 15 1e c0 bd 1a 8e 32 be 1b f1 86 3d 14 15 20 bf
       -0.09380738 -0.1743702 0.06588956 -0.6253216
000390 bd 0d 97 be 69 16 3e be 1a 09 15 3f e0 e8 65 3c
       -0.2950267 -0.18563236 0.5821701 0.0140325725
0003a0 29 43 a2 be 8c 98 85 3f b5 1f 82 bf 84 0a 07 3f
       -0.31691864 1.0437179 -1.0165926 0.5275042
0003b0 62 bc 8a 3d c5 25 b0 3c 53 87 34 bf 5b c3 c1 3e
       0.067742124 0.021502385 -0.7051899 0.37844357
0003c0 4f b8 1e 3e 4e 81 0c be c6 41 99 bc ff 6f bb 3e
       0.15499996 -0.13721201 -0.018708121 0.36608884
0003d0 66 52 81 3d b4 07 32 bf 98 8e 06 3e b5 5b 0e 3f
       0.063145444 -0.69543004 0.13140333 0.55608684
0003e0 b6 d3 66 3e cc 64 68 3c a2 83 45 bf 73 3f b7 3e
       0.22541699 0.014184188 -0.7715398 0.35790595
0003f0 75 d8 d9 3e a3 7d 2f 3f c3 06 e1 be 0f eb 05 bf
       0.42547956 0.6855108 -0.4395047 -0.52311796

layer2.2.bias f4 [256]
000000 11 1b 10 bf 53 50 07 bf 09 1a 03 bf 9f ee d3 3d
       -0.562913 -0.5285694 -0.512116 0.10348248
000010 0e 18 fb 3e 1f c2 c1 be 1d b2 e7 3e 69 89 03 bf
       0.4904179 -0.37843415 0.45253077 -0.51381546
000020 b3 6d f7 be e0 5f fa be 5f 76 ea 3e df 9e fc be
       -0.4832588 -0.48901272 0.45793435 -0.4933996
000030 24 7b 1e bf 45 d3 c6 3e 54 69 c0 be 01 f9 00 3f
       -0.6190665 0.3883306 -0.3758036 0.5037995
000040 55 aa 4f be ad cb fe be df fa 2d 3f 99 30 be be
       -0.2027982 -0.49764767 0.67960924 -0.37146452
000050 53 74 33 bf 40 06 e3 3e 4f 16 3f be f6 51 fe 3e
       -0.7009937 0.44340706 -0.18660854 0.49671906
000060 c1 6b 1f bf 44 16 e5 be 70 8c c1 be dc 98 0a bf
       -0.62273794 -0.4474355 -0.37802458 -0.54139495
000070 7b 8d cf 3e 8c c3 20 bf 86 5f 32 bf a6 da 41 bf
       0.4053763 -0.6279838 -0.6967701 -0.75724256
000080 be 76 e5 be f8 b8 1d 3f fb 8c a7 3e 52 93 52 3e
       -0.44817156 0.61610365 0.32724747 0.2056401
000090 a8 35 84 3e 4f bb c7 be a2 e6 c0 3e 71 84 89 be
       0.25822186 -0.39010093 0.3767596 -0.26858857
0000a0 20 e6 d1 be 2b cb 10 3f 05 3e 13 3e 6d 5b 9b be
       -0.40995884 0.5656001 0.14379127 -0.3034319
0000b0 2d fe ec 3e 4a 61 43 3e a4 ba 80 3e ab 26 de 3e
       0.4628767 0.19080082 0.25142395 0.43388876
0000c0 df e9 3c bf 2f ef 0f be 5f 55 ca be c5 d0 26 be
       -0.7379436 -0.14056085 -0.39518258 -0.16290577
0000d0 3e 29 23 bf 4c eb 87 3e 95 85 00 be 9c 2a 55 bd
       -0.63734806 0.26546705 -0.12550958 -0.05204259
0000e0 db 46 98 be 5b a8 14 3f be e6 8c 3c 0f 31 10 3f
       -0.29741558 0.5806939 0.01719987 0.5632486
0000f0 10 db b3 3c f4 c4 ac 3d 26 75 9d be 84 50 12 3f
       0.021955043 0.08436003 -0.3075344 0.5715411
000100 2f f7 d1 be cd f8 21 be de 6e dc 3e 9d b3 d6 3e
       -0.410089 -0.15817566 0.43053335 0.4193391
000110 41 72 9a 3e fe 73 33 bd a6 fa 77 3e ea 7c 04 bf
       0.30165294 -0.04381179 0.24216709 -0.51753104
000120 2f 10 c9 be 2a 78 f4 be 7f 93 a5 3e b5 c5 fe 3e
       -0.3927016 -0.47747928 0.32339093 0.49760213
000130 b3 02 0b 3f 10 a9 95 be 43 40 03 3f 37 57 8f 3d
       0.54300994 -0.29230547 0.5126993 0.06999057
000140 8a 3f 33 3e da 02 80 3d 71 43 55 be 45 b3 98 3e
       0.17504707 0.06250544 -0.20826508 0.29824272
000150 f8 ec 21 be 17 21 5c 3e 88 b4 c4 be 17 5c c3 be
       -0.15813053 0.21496998 -0.38418984 -0.38156196
000160 a4 2e 2a 3f 02 08 14 3f 2a ab b2 3e ca b3 47 3f
       0.6647742 0.5782472 0.34896213 0.7800871
000170 10 90 70 3e b4 85 62 3e 85 39 e4 be f8 00 1a bf
       0.23492455 0.22121316 -0.44575134 -0.6015773
000180 94 1e e1 3e 9b be f1 be 02 6d 0d 3f 43 0d cd bd
       0.43968642 -0.47215733 0.5524446 -0.10012295
000190 a3 d2 0b bf e5 85 ac 3e 9d 3f 01 3f 29 ba 9e 3d
       -0.5461828 0.33695903 0.5048769 0.07750351
0001a0 22 08 1a bf d9 92 e7 3e ae 20 31 bf 13 42 dd bd
       -0.6016866 0.45229223 -0.6919049 -0.10803618
0001b0 ba e3 4e 3e c9 81 f6 3e a3 79 79 be ea ed 08 3f
       0.20204058 0.48145893 -0.24362807 0.5348803
0001c0 00 fc ca be a3 76 2f 3f 32 8a e3 be 18 94 f9 3e
       -0.39645386 0.685404 -0.44441372 0.487458
0001d0 98 d1 15 bf a5 3c 9c be 0b ae 0f bf ec 42 22 3e
       -0.5852294 -0.30515018 -0.56124943 0.15845841
0001e0 81 b2 3c bf 0f 9c 44 bf 65 f6 c1 be 6d 0e 08 bf
       -0.73709875 -0.76800627 -0.37883297 -0.5314701
0001f0 16 13 8c bd ab 40 f5 be 7b 02 4b 3e 5f 88 19 3f
       -0.06839578 -0.479009 0.19825165 0.5997371
000200 af 1a 05 bf 3c 5d 99 3e e5 9c 68 3d d1 1f 02 3f
       -0.5199384 0.29953945 0.05679025 0.508298
000210 ff 4c e3 3e 6f f4 11 bf 26 9a 05 bf 23 f0 08 3f
       0.4439468 -0.570136 -0.52188337 0.5349142
000220 38 c4 e5 3e dd ad 09 bf 3e 7c 79 3e 68 80 dd be
       0.44876266 -0.5378092 0.24363801 -0.4326203
000230 49 7d 26 bf bd 0a 00 3f 2e 8c cf 3d b1 92 f9 be
       -0.6503492 0.50016385 0.10134159 -0.4874473
000240 20 74 ab 3e 9d 36 0e bf bd bb 18 bf 5a ce 84 be
       0.33487034 -0.55552083 -0.59661466 -0.25938684
000250 c5 69 07 bf cd 10 c4 3e 18 4c 93 3e 08 fb d1 3e
       -0.52895766 0.38294068 0.28768992 0.41011834
000260 31 69 08 3f dc 85 0f 3f ec 7d 01 3f d8 3a fc be
       0.5328551 0.5606363 0.50582767 -0.49263644
000270 6b 37 fc be e8 3d d2 3e 2f dd 00 3f 46 e0 00 bf
       -0.4926103 0.41062856 0.503375 -0.50342214
000280 cb 0c ff be 8a dc 93 3e 68 00 06 3f 2c ab f0 3e
       -0.49814448 0.28879195 0.5234437 0.47005594
000290 8e 06 2b 3f d6 ec 30 3e 70 97 c0 3e 98 9f 7d be
       0.66806877 0.17277846 0.37615538 -0.24767911
0002a0 b3 3f e0 3e 3d 01 ea 3e 9e 3c ce 3e d6 49 38 bf
       0.437986 0.4570407 0.40280622 -0.71987665
0002b0 b4 da 54 bf 42 8f 0f bf e9 bb 57 3e c3 09 94 3e
       -0.83146214 -0.5607797 0.21067776 0.28913698
0002c0 e0 3a ee 3e 9f 85 b1 be c5 5d ef be 2a fe a6 be
       0.46529293 -0.34672257 -0.46751228 -0.32615787
0002d0 61 8e e2 bd 06 11 33 bd ad 02 15 bf cf 28 26 bf
       -0.11062313 -0.043717407 -0.5820721 -0.6490602
0002e0 62 60 f4 3e de b3 ba be 29 83 d4 bd 9e f6 c2 3e
       0.47729784 -0.36465353 -0.10376579 0.3807878
0002f0 1b ae 10 bf e9 d2 91 be 88 5d 1d bf 73 9d 97 be
       -0.56515664 -0.28481224 -0.6147084 -0.29612312
000300 b3 61 09 3f 3e e9 b8 be 35 62 25 3f a7 68 d2 3e
       0.536647 -0.3611545 0.6460298 0.41095468
000310 82 7c 38 3f d5 63 47 3f f9 49 18 bf 59 8a 07 bf
       0.72064984 0.77886707 -0.59487873 -0.52945477
000320 96 d3 28 3f e5 7e 20 be 7c 87 29 3f cc 1b c5 be
       0.65947855 -0.15673406 0.6622236 -0.3849777
000330 c1 09 ae 3e d3 44 fe be 07 a2 f9 be 82 7d 9e be
       0.33991817 -0.49661884 -0.4875643 -0.3095513
000340 e5 65 1f 3f dc 95 2b bf c6 bf c0 be 22 1a 0a bf
       0.62264854 -0.6702554 -0.37646312 -0.53946126
000350 ae c6 16 3f 4f 08 17 3f 72 eb d5 be f7 1a 22 3e
       0.5889691 0.5899705 -0.41781193 0.15830599
000360 f6 64 21 3f 48 10 2b be a5 1b 5c bf 18 07 bf 3e
       0.6304468 -0.1670543 -0.8597968 0.373101
000370 f9 2b a3 3d ba 62 34 3e 32 bd 06 bf 3e b6 ec 3e
       0.079673715 0.17615786 -0.5263244 0.4623279
000380 38 3e d1 3e 6d 5f f6 3e c6 9d 11 3f ec c5 0a bf
       0.40867782 0.4811968 0.5688137 -0.54208255
000390 97 a0 01 3f c4 e1 af 3e 7e 07 4c be 4c a6 19 bf
       0.50635666 0.34351933 -0.19924733 -0.60019374
0003a0 b9 76 f0 3e f3 83 80 3e a1 a0 20 bf 56 3a ed be
       0.46965578 0.2510067 -0.627451 -0.4633357
0003b0 bb 68 e2 be c0 0f a1 be 65 c5 f7 3e d1 cb c3 be
       -0.44220528 -0.3145733 0.48392788 -0.38241437
0003c0 d5 35 08 3f 9f 5e 08 3f 27 9f db 3e c1 aa 0c 3e
       0.5320714 0.5326938 0.4289486 0.13737012
0003d0 13 66 12 3e 82 3a 21 be 78 11 46 3f 0b b0 0e bd
       0.1429675 -0.15744975 0.77370405 -0.034835856
0003e0 35 0d a7 be 92 b1 c8 be 2f 89 94 3e 47 37 33 bf
       -0.32627264 -0.39197975 0.29010913 -0.7000622
0003f0 f8 50 08 3f 73 15 73 be 79 7e 27 bc 41 03 ee be
       0.5324855 -0.23738651 -0.0102230245 -0.46486858

layer2.5.weight f4 [7, 256]
000000 80 1e 2a 3e 77 98 41 3e dc 4c 00 3e f4 96 54 3e
       0.16613197 0.18905817 0.1252932 0.20760709
000010 43 4b e2 3b 5b 9e d2 3d 5c 32 65 be ea 6a 4f 3e
       0.0069059446 0.1028411 -0.22382492 0.20255628
000020 93 93 3a bd d4 3e 67 3e 24 88 8d bd 31 ac 7d 3d
       -0.045550894 0.22582561 -0.069107324 0.061931793
000030 c3 eb 5e 3e 3e 14 0b 3c d6 cb 72 3e 38 96 9e be
       0.21769623 0.008488713 0.2371057 -0.30973983
000040 3a 7f 03 3d 00 51 89 3e 14 a7 2f be e7 3d 69 3e
       0.032103755 0.2681961 -0.17153579 0.2277752
000050 1a 8d 9e 3d b8 54 28 be 44 f6 fe 3d 1d f1 6b be
       0.07741757 -0.16438568 0.12449315 -0.23041196
000060 30 c8 95 3d 63 b6 d5 3d d1 59 e3 3d 51 80 17 3e
       0.07313573 0.10435178 0.111011155 0.14795043
000070 8f 06 87 be 39 0b 0a 3e c7 b5 d6 3d df fc 18 3d
       -0.2637219 0.13480844 0.1048389 0.03735053
000080 55 00 47 3e 35 48 65 bc 4c 42 9c be b3 45 3f 3c
       0.1943372 -0.013994266 -0.3051933 0.011674332
000090 01 53 7d be 14 fb 12 3e 41 a7 99 bd f4 e9 30 bb
       -0.24738695 0.14353591 -0.07502604 -0.0026994916
0000a0 24 58 59 3e 8b c7 30 be b8 e0 b3 3d 74 05 87 bd
       0.21225029 -0.1726362 0.08783096 -0.06592837
0000b0 44 80 21 be 07 a2 46 3e 8a 25 73 3e 5a 31 e6 3c
       -0.15771586 0.19397746 0.23744789 0.028099705
0000c0 00 d3 32 3e 1c f6 6a 3e 09 3b f6 3d 31 a4 c7 3d
       0.17463303 0.22945446 0.12022979 0.09748114
0000d0 ed 43 82 3e d5 e5 a1 bd b4 ed d7 bd 4c d8 23 3e
       0.25442448 -0.07905165 -0.10543385 0.1600048
0000e0 1d 63 60 3d 81 ec 15 be 5b 15 1a be 55 e2 53 be
       0.05478202 -0.14641 -0.15047209 -0.20691808
0000f0 31 9a a8 bd 1a 22 f1 3d a9 6f 2b 3e af 64 4f 3a
       -0.08232535 0.117740825 0.16741814 0.00079114264
000100 14 fe 4b 3e 68 5d c7 3c aa 9a de bd 18 6c 36 be
       0.19921142 0.024336532 -0.108693436 -0.17814672
000110 59 02 81 be aa de cb bd e8 33 a5 3d ee d0 38 3e
       -0.25197104 -0.09954579 0.08066541 0.1804845
000120 7b c8 7e 3e b1 9c b5 3d ac 09 c1 bd b4 f5 b4 bd
       0.24881165 0.08867777 -0.09425673 -0.08835927
000130 69 cd e1 bd 6f 5c 49 3e 4d 78 37 bd d5 fe 19 3e
       -0.11025507 0.19664167 -0.044792462 0.15038617
000140 19 d0 06 be 4c 08 03 3d 91 55 5e 3e e1 de a3 be
       -0.1316532 0.031990334 0.21712328 -0.3200598
000150 d5 40 4d 3e 2e f6 c0 bd d9 89 a7 3d 60 d7 3c 3e
       0.20044263 -0.09421955 0.08180589 0.18441534
000160 0a e9 3a be 54 30 2d be ed 10 7a be 38 ab ce 3c
       -0.1825296 -0.16912967 -0.24420519 0.025228128
000170 24 1b cc bd 31 1f 85 3e ff c5 27 3e 69 34 be 3d
       -0.09966114 0.2600036 0.16384123 0.0928734
000180 7f cd a3 be 80 b7 4e 3e d6 64 2d be ba 16 01 bb
       -0.3199272 0.20187187 -0.16932997 -0.0019697384
000190 56 a9 65 3e f1 19 fe bd 95 c8 44 be 0a f6 da bd
       0.22427878 -0.12407292 -0.19217141 -0.106914595
0001a0 83 37 13 3e 19 e3 77 be fe dc 0c be da a7 a6 3d
       0.14376645 -0.24207725 -0.13756177 0.08137484
0001b0 31 2c 1e 3d 3a 27 53 be 23 5e 28 3e bb 16 9f be
       0.038616363 -0.20620432 0.1644216 -0.3107203
0001c0 85 a3 91 3d 44 8b d3 bd a7 93 a0 3e 1d ff 7a be
       0.07111267 -0.10329297 0.3136265 -0.2451138
0001d0 d7 bd 30 3e 36 d4 d0 3c 29 83 26 3c bb 1c df 3d
       0.17259918 0.025491815 0.010163107 0.10894152
0001e0 fa 4f 57 3e e1 bf c4 bd 8d ac 6c 3d 1b 9d 0d 3e
       0.21026602 -0.096069105 0.057781745 0.13829462
0001f0 a0 6e ac 3e 4a 07 02 3e a1 c9 27 3e b5 2e 42 be
       0.3367815 0.12698093 0.16385509 -0.1896313
000200 29 de 14 3e 02 86 94 bd 8d 59 12 be 24 04 35 be
       0.14537872 -0.072521225 -0.14291973 -0.17677361
000210 24 a3 ab 3c 75 6d 32 3e 42 bc 80 3e b8 b6 30 be
       0.020951815 0.17424567 0.2514363 -0.17257202
000220 bf cd 8b be fd 2d 11 3e 16 a3 be bd 3c b9 b2 3d
       -0.2730541 0.141777 -0.0930845 0.08726737
000230 21 61 19 3e 99 15 23 be 3f 9f 05 be 2b c6 f4 3d
       0.14978458 -0.15926208 -0.13049029 0.1195186
000240 47 d3 66 bd 40 e4 6c 3e ad 6f d3 3d f1 33 8f 3e
       -0.056353834 0.23133945 0.10324035 0.27969316
000250 b9 65 fd 3d e3 eb 02 be f0 76 17 be 89 45 90 bd
       0.12372918 -0.12785296 -0.14791465 -0.07044513
000260 7b ef 2e be 89 74 17 be 2e 8a 44 bd 92 36 d6 3d
       -0.17083542 -0.14790548 -0.04798334 0.10459627
000270 78 a7 04 3d db fd e0 bd 95 cf 20 be 7c 41 14 3e
       0.032386273 -0.10985919 -0.15704186 0.14478105
000280 fd 66 2d 3e e5 41 19 bc 67 68 55 be 0d d5 72 bd
       0.16933818 -0.009354089 -0.20840608 -0.059285212
000290 09 47 76 be 95 5f c5 bd 6c 79 2c be d3 0e 16 3e
       -0.24050535 -0.096373715 -0.16843194 0.14654092
0002a0 ef 22 60 be 25 73 6d be 8f 37 70 be c1 91 a3 3e
       -0.21888326 -0.23188455 -0.23458694 0.3194714
0002b0 84 e4 2c 3e 44 64 43 3e 2d b8 84 be bf a3 a0 be
       0.16884047 0.19081217 -0.25921765 -0.31374928
0002c0 43 78 70 be ac ab f0 3d 5b f7 18 3e b0 69 5f 3e
       -0.23483376 0.11751494 0.14938109 0.2181766
0002d0 e5 a6 ae 3d 15 c1 ec 3d 4f c8 21 3e 98 f3 a0 3d
       0.08527926 0.11560265 0.15799068 0.07858962
0002e0 7e fb 94 be a2 86 28 3e 8a 31 14 3e 47 e9 0b be
       -0.29098123 0.16457608 0.14472023 -0.13663207
0002f0 6c a6 cb 3d b1 ad c2 3d ce b0 27 3e d1 22 47 3e
       0.09943852 0.09505785 0.1637604 0.19446875
000300 0d d6 88 be fe 43 05 3e 94 12 16 be 36 1d 14 be
       -0.26725808 0.13014218 -0.14655524 -0.14464268
000310 6d b3 47 be aa bc 86 bd 35 2f 39 3e 69 8d 86 bd
       -0.19502039 -0.065789536 0.18084414 -0.065699406
000320 56 6d 06 3e 43 98 4e 3e 43 25 4d be d6 58 8b 3d
       0.13127646 0.2017527 -0.20033745 0.068040535
000330 ee 90 74 bd 48 6b 23 be a7 ff e0 3d 1c a9 f5 3d
       -0.05970853 -0.15958893 0.10986262 0.11995146
000340 11 17 96 3d 8d 1d d7 3d e1 64 e5 3d 06 47 08 3e
       0.07328618 0.10503683 0.11200882 0.13308343
000350 29 c2 1c be 67 ba ac bd 94 d4 63 3e 3d 5c 38 be
       -0.15308441 -0.08433991 0.22249061 -0.18003936
000360 23 fe 26 bd 2b c6 4b bd 82 16 76 3d 70 fc 8e be
       -0.040769707 -0.049749535 0.06008006 -0.2792697
000370 04 86 0a 3e 12 bb db bd 35 20 21 3e e8 00 d4 bd
       0.13527685 -0.1072904 0.15734942 -0.10351735
000380 1f 46 15 bc 7c 85 8d be ff 52 21 be 89 48 85 3e
       -0.009110956 -0.27640903 -0.15754317 0.26031902
000390 cb 34 8e be dd be b5 bd b3 33 5c 3d f6 66 81 3e
       -0.27774653 -0.08874295 0.05376024 0.25273865
0003a0 ea 4c 59 be 91 25 4f be 03 ff 82 3e 15 2f 42 3d
       -0.21220747 -0.20229174 0.25585184 0.047408182
0003b0 02 c4 8d 3e 6d 8f 25 3e f4 73 66 be ca 9c 32 3c
       0.27688605 0.16167994 -0.2250517 0.010901639
0003c0 8e 3a 92 be fb 70 3e be 69 92 c3 bd 1a 8d 7c 3d
       -0.285603 -0.18597786 -0.0954941 0.061658002
0003d0 f9 a3 76 3d ba 60 58 3e c9 7b 2d be 4f ca 3e 3d
       0.06021497 0.21130648 -0.16941752 0.046579655
0003e0 06 19 96 3d a1 53 f7 3d 5c 23 6a be bb a5 9c 3e
       0.073289916 0.12076498 -0.22865051 0.30595192
0003f0 45 bd 17 be db 66 f0 3d 7e 43 2f 3e 13 ab 49 3e
       -0.14818294 0.11738368 0.1711559 0.19694166

layer2.5.bias f4 [7]
000000 21 a2 bd 3e e7 fd a3 3f 0f 73 16 be 0f d7 af bf
       0.37037757 1.281186 -0.14692329 -1.3737506
000010 de 5c f5 be 16 44 57 bf 56 a5 da 3f
       -0.47922415 -0.84088266 1.7081707
