Saved_data_files/bpi_no_repeat/lr_all_variants/MLP/EventPredictor_parameters_feedforward_1e-05.pt (torch, 298370 bytes, 6 tensors)

layer2.0.weight f4 [256, 24]
00000000: 526b 1d3e 545f 453e 42d3 343d 3361 553e
00000010: 3d76 db3d f158 d43d d822 2dbe 2cba e5bd
00000020: 733b 08be 054c 47be 8935 37be 0f4a 433d
00000030: 5ce8 b1bd c08b 343e d024 093e 3c10 dd3d
00000040: a5d1 1f3e 40e2 90bd 4e19 ac3d c911 a83d
00000050: 0929 7dbd 6f15 503e 65ee 1f3e 960a 213e
00000060: 75cb c5bd de6c 143e 2093 433e a26f 1cbe
00000070: 825d 0b3e 5a11 36be 6150 82bd 2e92 fabd
00000080: 5711 153d 0de3 433d ccf4 1cbe bc25 4f3e
00000090: 86f1 663d 4791 393d b22b b2bc c3d7 debd
000000a0: 6d9d 1f3e 1df6 0abe 86cf 76bd 85db 703d
000000b0: e0ad d2ba 9ac4 983b 895c 01be 3eb3 b33d
000000c0: 6f7e 593d 883a f7bb 582f 363e 5bb2 aabc
000000d0: 5a0c 0bbe 6565 ee3d 09b1 8bbd 26c8 2b3d
000000e0: 29a3 aa3d 2385 eb3d c9eb 33bd ac3a 173e
000000f0: 2081 01bd ca6d bbbd 16cd 0e3d 8160 cfbc
00000100: 5906 1cbe 2e98 1e3e b9b4 85bd 3ac0 3b3e
00000110: 02e7 46be b4c4 35be e1b1 063e 363c 09be
00000120: 4008 2a3b 9472 a0bc 2f55 40be d961 80bd
00000130: 69fe 263d 8fcc e43d 3e13 59bd 3511 4ebd
00000140: 7de8 a33d bbd0 443e e2c6 39be 9297 a53d
00000150: 4a60 89bd 5223 1b3d aecf 0b3e e1f7 6f3d
00000160: fe5d dbbd acb4 1bbe c177 a7bd 54e5 503e
00000170: 8734 86bd 5774 493e 2462 2e3e 5058 7b3d
00000180: e0f0 01bc 25f6 313e 8fb8 5bbe 432f 32be
00000190: b0c2 c2bd 6dc1 ac3d 6255 4abe 1561 463e
000001a0: fc98 31be 37ce 4a3e 68c1 bdbd 45a1 a23d
000001b0: f92d eabd 93c8 ac3d 5028 4f3c fbb9 233e
000001c0: 40cc e5bd 1fcd ed3c ffb4 3a3c 2e56 25be
000001d0: 1ece 653d a4c0 203e 20ca afbd dc4e 10be
000001e0: 1b48 93bd 62bb a53d 569a 423e 9b10 a83c
000001f0: d067 c3bd 560e 3f3e c96e 9cbd fda5 0fbc
00000200: 772d f43a 15ef 253e 4c71 e03d 62f2 31be
00000210: f41d a9bd 20b6 4bbd 02db 8abd 6bff 22be
00000220: 7f04 e63d 0883 a9bd abde a83d a27c 3d3e
00000230: ef8b 6b3d f253 f3bd aae1 0b3d 3d96 dc3d
00000240: 7c39 313e 2f17 2bbd 87ce 8cbd 4dec 27be
00000250: 64f1 f3bd 46b7 b0bc 9646 3f3e 474f 41be
00000260: 2470 853d ac49 86bd 9d73 883b 4946 09be
00000270: 04b6 44be bd87 f23d a33a 3a3e 436d 953d
00000280: 1503 1cbe bb33 1a3e e246 22be dad3 cbbd
00000290: 3fbf 163d 1655 113e 5b21 353e 2d0a 843c
000002a0: f957 93bd 3599 bbbc e2b7 383e aeb7 1fbb
000002b0: f3fd cb3c 39ee 453e ab18 d93d 4fd0 26be
000002c0: 0b80 853d 519f 17bc 8f0b 1ebe 4240 87bd
000002d0: 7c5a 99bc ffde 43bd 591b 3f3e c08c 06bd
000002e0: 4c29 b43d c47d c1bd ef50 7b3c b253 063e
000002f0: 8a40 4fbe 1b79 90bc 978a a2bd d048 d0bd
00000300: 1b2c ba3d ea08 c53b 725d 28be 25c8 d73d
00000310: ace1 243e 695b 16be ba90 de3d 90f7 05be
00000320: f5ce 263e 1c25 2f3e 5151 d2bc 9fa2 c6bd
00000330: adcd 383d eed5 99bd 4dc4 c03d dd67 ccbd
00000340: edaf 423e 58e9 4c3e 4f01 3ebe 58e2 143e
00000350: 8899 ac3c b8d1 0b3e 738c 4bbe 6ead 313e
00000360: 3d4e 0dbd e295 783c 56d8 993d 0e20 be3d
00000370: 6ba4 383e 1e20 14be e5e2 22be f292 24be
00000380: 14a1 303e 87a8 053e 1971 27bd db96 073d
00000390: 3574 ea3d f085 0e3e 4561 633b f0ee f3bd
000003a0: 6da9 ff3c 6aa3 293d d79b 0d3e 1955 12be
000003b0: edcf 5b3c dcf5 473e 8c5e 253e 01f5 3ebd
000003c0: 4fb4 933d 274f 213d 218b 3fbd 9184 5f3d
000003d0: 047d 2dbe c756 763d 1714 a1bd e850 1a3e
000003e0: faa8 8cbd 8265 a93c c255 21be 00fb 40be
000003f0: 5a2a 72bd 66a6 1f3e b139 31be 525a cd3c
0.1537297 0.19274646 0.044146784 0.2083786 0.107159115 0.10368527 -0.16907823 -0.1121715
-0.13303928 -0.19462593 -0.17891516 0.04767805 -0.08686897 0.17631435 0.13392949 0.10794112
0.15607317 -0.07074404 0.08403264 0.08206517 -0.061806712 0.20320676 0.15618284 0.15726694
-0.09657947 0.14494655 0.19099092 -0.1527696 0.13609889 -0.17780057 -0.06362987 -0.12234913
0.03639349 0.047823954 -0.15327758 0.20229238 0.05638268 0.045304563 -0.021749351 -0.10880997
0.15587397 -0.13570447 -0.060256504 0.0588031 -0.0016073547 0.0046621086 -0.12632956 0.08774422
0.053099092 -0.0075448193 0.17791498 -0.020837 -0.1357893 0.11640433 -0.06820876 0.041938923
0.083319016 0.11500003 -0.043926034 0.14768475 -0.031617284 -0.091518 0.034863554 -0.025314571
-0.15236796 0.1548774 -0.06528611 0.18335047 -0.1942406 -0.17750818 0.13153793 -0.13401875
0.0025944859 -0.019585885 -0.18782495 -0.06268663 0.04076997 0.11171829 -0.052996866 -0.05030938
0.08003328 0.1922025 -0.18142274 0.0808555 -0.06707819 0.03787548 0.13653442 0.058586005
-0.10711287 -0.1520564 -0.08177138 0.20399982 -0.065529875 0.19673286 0.17029625 0.06136352
-0.007930964 0.17379053 -0.21457122 -0.17400841 -0.0950979 0.084353305 -0.19759133 0.19372971
-0.17343515 0.19805227 -0.09265405 0.07940916 -0.1143455 0.08436694 0.012643889 0.15988915
-0.11220598 0.029028473 0.011395692 -0.16146156 0.05610477 0.15698487 -0.08583474 -0.14092582
-0.071914874 0.08092381 0.19004187 0.02051573 -0.09541285 0.18657812 -0.07638318 -0.008767602
0.0018629272 0.16204484 0.1095911 -0.17377618 -0.08257666 -0.049734235 -0.06780054 -0.15917747
0.11231326 -0.08276945 0.082455955 0.18504575 0.057506498 -0.11881246 0.034150757 0.10770843
0.17307085 -0.041770156 -0.068753295 -0.16398735 -0.11911276 -0.021571767 0.1867927 -0.18877898
0.0651553 -0.065570205 0.004164173 -0.13405718 -0.19210058 0.11842296 0.1818643 0.07296231
-0.1523555 0.15058796 -0.15847352 -0.09952517 0.03680348 0.14192614 0.17688505 0.016118133
-0.07194514 -0.022900203 0.18038896 -0.0024370956 0.024901366 0.19329156 0.10600408 -0.16290401
0.06518563 -0.009254293 -0.15434097 -0.06604053 -0.018719904 -0.047820088 0.18662776 -0.032849073
0.08796939 -0.09447816 0.01533912 0.13117865 -0.20239463 -0.017635873 -0.0793659 -0.10170138
0.09090444 0.0060130255 -0.16441897 0.105362214 0.16101712 -0.14683308 0.10867448 -0.13082719
0.16289885 0.17104 -0.02567354 -0.09698986 0.045118023 -0.07511507 0.094124414 -0.09980748
0.19012423 0.20010889 -0.18555187 0.14539468 0.021069303 0.1365422 -0.19877796 0.17351314
-0.034498442 0.015172454 0.07511966 0.09283458 0.1803147 -0.14465377 -0.15906866 -0.1607168
0.17248946 0.1305257 -0.040879343 0.03310285 0.11447946 0.1391828 0.0034695428 -0.11910808
0.031208718 0.04141561 0.1382898 -0.14290275 0.013416273 0.19527382 0.16149348 -0.046620373
0.072121255 0.039382126 -0.046763543 0.054569785 -0.16942221 0.06014135 -0.0786516 0.15069926
-0.06868167 0.020678286 -0.1575537 -0.18845749 -0.05912242 0.1559082 -0.17307164 0.025067482

layer2.0.bias f4 [256]
00000000: 6810 5e3e 0b7b 353e 738c ab3c fb7f 6a3d
00000010: 51ca 243e e8bc fa3c e3a4 44bd bf92 d8bd
00000020: d1bc a33d 13fc e2bd a510 83bd 5d13 d63d
00000030: 3dab d93d 7b43 40bd 4953 953d 4b9f ea3c
00000040: 04cf d7bb 71e2 1fbe 8a39 4c3c 5bea f63d
00000050: d855 edbd e641 c73d 8c53 f73d 28f1 5b3d
00000060: 759a 0f3d aeda 273e 609e aabd 3a17 2f3e
00000070: f834 46bd 0b6a 213b f544 493e b637 3cbd
00000080: b68d 4dbe 94b0 323d d501 2cbe d2d6 0c3e
00000090: fd0d 92bd 8bfa fbbc 81f7 ab3c 8a9e 30be
000000a0: 40be a53d 6607 083e 2256 dcbd af2b 37be
000000b0: 150a 25be 4778 543e 9163 963d c6aa 3a3e
000000c0: 165a 4fbd d830 cc3d ec6d 563e 18c8 1bbe
000000d0: e138 a4bd c551 173e 8ec1 33be a864 3b3d
000000e0: 13fd 093e 4593 9dbb 223b babd 6233 813d
000000f0: 0e5d c93d 210d 3dbe 57fb 8d3b 38fe 413e
00000100: 7e75 dd3d f7e9 89bd 68ed 21be 71a4 943d
00000110: 8080 0d3e 174f a23c 9990 133e 508b c63d
00000120: 8684 5b3b 6afb e93d 4e22 dc3d 55c1 a33d
00000130: fcc0 1a3e 2362 a4bd a57f 1fbd 21a7 6cbd
00000140: 8145 b53d 5587 c63d 91be 313e 13b9 fabd
00000150: e85c f0bd 18d3 40be 7690 ff3d 3a03 fc3d
00000160: 26f1 433e 7e50 1cbe 0302 e93d 262b 013e
00000170: cd38 f73d 8682 273e eba3 b3bc 940f 283e
00000180: b300 1fbe 1295 0abe 6ea1 413d d3fd 453e
00000190: fdc8 0dbe 86ac 2d3e 2a3c 54be 3c23 023a
000001a0: 0a93 2f3e bbd9 55be de35 1a3d 24a7 2a3d
000001b0: 3050 10bd e95c 19be c20c abbd 870a 46be
000001c0: b3d4 24bb 1e13 1bbe f6b2 4c3e 9497 0ebe
000001d0: 7ae2 10be 5abb e3bd 9035 68bd 324a 08be
000001e0: c390 3f3e a77f 443d ebd1 883d 891b df3d
000001f0: dee4 ddbd 6521 8e3d a963 4c3e d84b 57bd
00000200: 0932 7b3c 116d 153e 5cb1 343e 0385 763c
00000210: 3412 273e aea0 0f3d 8881 103e 12ea 203e
00000220: 0e67 d3bd 68ac b4bd fda2 31be 5bdb 25bd
00000230: 04ce 103e 91e1 a53d 4cf8 2cbc e20f cd3d
00000240: 3fa6 18be ceff 393e f507 8f3c d722 2c3d
00000250: 42a0 be3d 9d86 4a3e d100 a6bd 552b 92bd
00000260: 258c d6bd ed6f babd 3ffc eb3d 1656 173d
00000270: 149b 213e be2a 5f3d 7b87 1ebe e830 f23c
00000280: 99ac 0bbe 580f a1bd 6e49 2a3e e8cd 4c3e
00000290: 1372 483d 26b4 35be 9846 e2bd 7c03 b53c
000002a0: f176 423d d7b5 bfbd 60ec 813b 5dd5 063e
000002b0: 0771 1e3e e4bd 2fbc b889 063e 0f65 773d
000002c0: 3ff2 bfbd 9fb5 1ebe 3e57 69bd 3616 5b3e
000002d0: 8b01 0a3d 4131 bf3d 3a82 e5bd ed03 e0bd
000002e0: 44a9 f13d ecd8 37be 63e8 1fbe bc44 e53d
000002f0: 5a3b dbbd a6d8 d93d d263 d6bc bf1c 123e
00000300: f1e2 f13c 2ddb f1bd f156 e33d 108d 3ebd
00000310: ae19 0bbe 1982 ae3d 155d 943d 55e9 6fbd
00000320: a6f2 18be 37dd 073e 0b99 cabb 3256 b9bd
00000330: 3311 e9bd f484 b03d eedf 4cbe 1525 10bd
00000340: c89f bb3d aa14 c53d 60c7 8c3d ecea 213e
00000350: f3f3 243c 94b8 533e ceb0 dfbd 9c44 0a3d
00000360: d492 17be 3008 373d d281 2c3d 2cd1 43be
00000370: 03f6 853d 6118 103e b944 6ebd 2a42 c73d
00000380: 47f5 973d d11e a33d d3a3 05be 7da7 e8bd
00000390: 2d82 0b3e 4c07 0c3e 8586 933d 5560 7bbc
000003a0: 3705 1c3e d6da c23c 2010 0e38 402a 8bbd
000003b0: 7d55 12bd 871a 963c 25ec 1fbe 0822 39be
000003c0: 57ea 103b 585b 21bd 0c60 203d f5e9 8fbc
000003d0: 4f21 4ebe 91e5 373e 141a febd 45f5 1f3d
000003e0: ced3 593a e77e 39bc 0044 ce3d 3077 e23d
000003f0: 1edc 89bd ee66 84be 6a5e 37be 68a8 023e
0.21685946 0.17722718 0.020940995 0.057250958 0.16092803 0.030607656 -0.04800881 -0.105748646
0.07994998 -0.110832356 -0.06399659 0.10452912 0.10628364 -0.046939354 0.07291276 0.02864041
-0.0065859575 -0.15613724 0.01246489 0.120564185 -0.11588639 0.09729366 0.12076482 0.05369678
0.03505941 0.16392013 -0.08330989 0.17098704 -0.04839036 0.0024629857 0.19655211 -0.045951568
-0.2007359 0.04362543 -0.16797574 0.13753822 -0.07131574 -0.030759117 0.020992042 -0.17247978
0.08092928 0.13284072 -0.10758616 -0.17887758 -0.16117127 0.20749007 0.073432095 0.18229207
-0.050623022 0.09970254 0.2094037 -0.15213048 -0.08018661 0.14777286 -0.17554304 0.04575029
0.13475446 -0.0048088157 -0.0909331 0.063086286 0.09832202 -0.1846204 0.0043329406 0.18944633
0.108134255 -0.067340784 -0.1581322 0.07257927 0.1381855 0.019813104 0.14410628 0.096945405
0.0033495738 0.114249066 0.107487306 0.079958595 0.1511268 -0.080265306 -0.03894009 -0.057776574
0.088511474 0.09693781 0.17357852 -0.12242331 -0.117364705 -0.18830526 0.124787256 0.12305303
0.1913496 -0.1526508 0.11377337 0.12614116 0.12071381 0.16358384 -0.021928748 0.16412193
-0.1552761 -0.13533428 0.047273092 0.19335108 -0.13846202 0.16960344 -0.20726076 0.0004964357
0.17145935 -0.20883839 0.037649028 0.041663304 -0.035232723 -0.14976849 -0.08352043 -0.19339953
-0.0025151193 -0.15144011 0.19990143 -0.1392501 -0.14148894 -0.11119719 -0.056691706 -0.13309553
0.18707566 0.0479733 0.06680664 0.10893924 -0.108346686 0.06939963 0.19959892 -0.052562565
0.0153317535 0.14592387 0.17645782 0.015046361 0.16315538 0.035065345 0.14111912 0.1571429
-0.103223905 -0.088219464 -0.17347331 -0.040492397 0.14141089 0.08099664 -0.010557245 0.10012795
-0.14907168 0.18163988 0.017459849 0.042025413 0.093079105 0.19777913 -0.081056245 -0.07137171
-0.10475949 -0.091033794 0.115227215 0.036947332 0.15781814 0.05448412 -0.15481369 0.029564336
-0.1364006 -0.07864255 0.16629574 0.20000422 0.048936915 -0.17744502 -0.11048621 0.022096388
0.047476713 -0.09360855 0.0039649457 0.13167329 0.15472804 -0.010726426 0.13138473 0.06039911
-0.09372377 -0.1549897 -0.056967966 0.21395192 0.033692878 0.09335566 -0.11206479 -0.10938249
0.11799863 -0.17953843 -0.15615992 0.11194751 -0.1070468 0.106370255 -0.026170645 0.14268778
0.02952716 -0.118093826 0.11100567 -0.046521246 -0.13584015 0.08520908 0.072443165 -0.058572132
-0.14936313 0.1326798 -0.006182795 -0.090496436 -0.113802336 0.08619109 -0.20007297 -0.035191614
0.09161335 0.09623082 0.06873965 0.15812272 0.010067928 0.2067588 -0.10922395 0.033756837
-0.14802104 0.044685543 0.042115994 -0.19122761 0.06541064 0.140718 -0.058171008 0.09729417
0.0741983 0.07964862 -0.13050775 -0.11360071 0.13623877 0.13674659 0.07203392 -0.015342792
0.15236364 0.02378599 3.3870456e-05 -0.06795168 -0.03572606 0.018323196 -0.15617426 -0.18079388
0.0022112334 -0.039393753 0.039154097 -0.017567614 -0.20129894 0.17958666 -0.12407318 0.039052267
0.00083094544 -0.01132176 0.10071564 0.110578895 -0.06731437 -0.2585978 -0.1790711 0.12759554

layer2.2.weight f4 [256, 256]
00000000: d351 5dbd 3740 fb3a 359c fb3c 63b6 91bd
00000010: 09a1 7a3b 0d6c a63c e7b5 fd3b 4f2f 5dbd
00000020: e93b 42bd 9679 443d b3a0 743d ed98 fabb
00000030: 9528 e13b fd24 62bd 2451 edbd 565b c63c
00000040: ef3e 5ebd 0b91 843d face d7bc 270f 81bd
00000050: a502 a93c 8f52 3ebd 0ba2 393d c66e aabc
00000060: c9ed dd3c cb37 853d a062 9ebc cf8d 473d
00000070: 3b34 463d c74c cfbc bbc8 bf3c 1c6a 0c3b
00000080: 334d ee3c 702e 233d cba6 28bd c4cd 13bc
00000090: 374c 6a3d 1730 f03a 0a91 8ebc 9ea6 203c
000000a0: d02f df3c 6982 c2bb 743c 0abd fb1e 85bc
000000b0: e6bf d8bb d246 9b3c 8e38 fdbc 97be 1abd
000000c0: 0ced a3bc d633 53bd 517a 1f39 63b3 93bd
000000d0: 10a3 60bd 8196 30bd a7b3 a0bc ed1a 153d
000000e0: 78d1 3fbc fe74 913d 51fd 853d 6d12 243d
000000f0: 60ab 563d 356d a23d e78d adbc 6cb6 60bc
00000100: 3204 6bbb 19e9 81bd aa45 503d c7bf 2ebd
00000110: b928 8a3d 14ef 6f3c 3438 c5bb f352 903c
00000120: 1fb7 e23c 8b26 ad3c 898a ec3c 720e 83bc
00000130: 42e8 423c d4e7 3ebd 21db b8bc 759e 27bd
00000140: 6569 4fbd d89d 503d 1c47 26bd 023c 32bc
00000150: bd09 08bb 6003 243d 281b 89bd 839a febc
00000160: 281d 3bbd 8161 b23b 954c 9f3d db33 683c
00000170: 223e 5dbd 799c fe3b 17ea 33bd c2ed c5bb
00000180: 8457 f03b 9e33 c4bc 8a39 02bb 79ff 143d
00000190: 9e89 7dbd c13e b13b e3b8 863d 5f7f 14bc
000001a0: 0634 813d f3b1 17bd c2f0 c8bb 0db1 f8bb
000001b0: 09c1 723d 4782 34bd fa80 03bd a089 473c
000001c0: e0e9 803d bcc9 643c e6f5 fa3b 1e19 483d
000001d0: 8101 133d 86ca 99bb 960f 82b9 e69b 8b3c
000001e0: ab74 79bd 5851 26bd 5e26 263d 0d7f 163d
000001f0: b503 1ebd 1ad5 723d 5367 0abc 0955 acbd
00000200: ea46 a83c 75c2 26bd 8f72 50bc 61a2 ff3c
00000210: 53d1 263d e4e3 70bc 7488 3b3d c0e6 34bd
00000220: 5a5b 153d 078b 8e3d ed99 6a3d b86c 863b
00000230: 9efd e0bc e1f0 833b 7ed8 1a3d b567 353d
00000240: 4d1e 0e3d a804 10bd 9d3c f83c 276e 06bc
00000250: 28f0 04bd eac2 3ebd 589a 38bd a8c3 b0bc
00000260: f468 70bd 9c4e 7ebd 4627 2dbd 3945 74bd
00000270: 2fff 083d 1488 0a3d 309d 29bd a49d 3abc
00000280: 2247 453d 7968 043c 5e9d 183d 7714 293d
00000290: bd64 833d 733c 1b3b 869c 1b3d 9d55 29bd
000002a0: e897 a83b 9d8c a6bd 16cb 73bc 4517 1cbc
000002b0: 3128 3e3c 55aa 0e3d 4b28 113d a799 11bd
000002c0: f71b 423c 64f2 0b3d 0d63 873b 9df0 7cbd
000002d0: f499 e8ba dd14 61bd 42dc aa3c ad94 13bd
000002e0: 5f2d 193d f2e4 843b 95c8 15bd 8f4e d1bc
000002f0: 0e56 053d eab5 7fbd 6300 123d 0c11 2ebd
00000300: d344 823c 686e 82bd 808a ccbc c6f4 1fbd
00000310: 5b79 93bd 498c 7bbc f62f 31bd 2de2 cf3c
00000320: 45d5 85bc 138c a2bb 7f06 633d 7383 293d
00000330: 2a5e e83c 3e61 c33c 3172 d5bc 1e08 be3b
00000340: 4045 f13c 9eb2 923d 3078 033d b898 973c
00000350: 3a1b 2a3c d0e2 c2bb 7823 ce3b 9648 87bb
00000360: f7ac babc bb0e 853c ab13 ae3d a4ae c0bc
00000370: d941 673d 224d 4bbd f129 fdbc 55a4 49bc
00000380: 2d4f 15bd 80a2 9ebd 7a22 863d a670 47bd
00000390: 7cb2 c8bc cfb1 c73c ca4d d63c 2b49 0f3d
000003a0: d446 4c3d c740 9abd 1fa1 c73c e213 343c
000003b0: cf72 833d 1147 2cbd 6d15 adbc b7ea adbc
000003c0: 1497 a93c 4d67 a3bc 7d2e 47bd ccdc b9bd
000003d0: 4429 b4bc c71a 3dbd bf8a c13b 1785 913c
000003e0: c64f 27bb 6c98 83bd 44dd 1bbd 2130 423d
000003f0: fbe7 19bd 653e 03bd a076 11bd ce3f 043d
-0.05403311 0.0019168918 0.030714134 -0.07114866 0.0038242957 0.020315195 0.0077426317 -0.054000195
-0.047420416 0.047967516 0.059723567 -0.0076476247 0.006871293 -0.055211056 -0.11587742 0.024213474
-0.054259237 0.06472977 -0.026343811 -0.06301718 0.020631144 -0.046465453 0.04532055 -0.020804774
0.027090924 0.06504782 -0.019334137 0.048719224 0.048389655 -0.025305165 0.023411145 0.002142555
0.029089546 0.039839208 -0.04117469 -0.009021226 0.05720159 0.0018324879 -0.017403144 0.00980535
0.027244478 -0.0059359563 -0.03374906 -0.016250124 -0.006614673 0.018954668 -0.030910756 -0.037779417
-0.020010494 -0.051563106 0.00015208988 -0.0721195 -0.05484301 -0.04311228 -0.019616915 0.03640263
-0.011707656 0.071023926 0.06542457 0.040056635 0.05240953 0.07930986 -0.021185828 -0.013715368
-0.0035860655 -0.06343288 0.050847687 -0.042663362 0.067460485 0.014644403 -0.006018663 0.017617678
0.02767521 0.021136543 0.028874652 -0.015998099 0.011896195 -0.046607807 -0.022565426 -0.0409226
-0.05063762 0.05093178 -0.04059516 -0.010878565 -0.0020757758 0.04004228 -0.06694633 -0.031079536
-0.045682102 0.0054437523 0.07778279 0.01417252 -0.054014333 0.007770118 -0.043924417 -0.006040306
0.0073346514 -0.023950394 -0.0019870722 0.03637645 -0.06189882 0.005409092 0.06578233 -0.009063571
0.06308751 -0.03703494 -0.006132216 -0.0075894655 0.059266124 -0.044069555 -0.032105424 0.012178808
0.06294608 0.013964113 0.007658708 0.04885208 0.035890106 -0.004693332 -0.00024807145 0.017042112
-0.06090228 -0.04060492 0.040563934 0.03674226 -0.038577754 0.05928526 -0.008447486 -0.08414657
0.020541627 -0.040712792 -0.012722625 0.031205358 0.04072697 -0.014702771 0.04578443 -0.044165373
0.036464073 0.06960111 0.0572757 0.0041023158 -0.027464684 0.0040265177 0.03780412 0.044288356
0.034696866 -0.03516069 0.03030234 -0.008204973 -0.032455593 -0.046572603 -0.04506907 -0.021577671
-0.05869384 -0.062086686 -0.042273782 -0.05963633 0.033446487 0.03382118 -0.04140967 -0.0113901235
0.04816354 0.008081549 0.037259452 0.041279282 0.06415699 0.0023687154 0.03799107 -0.041341413
0.0051450618 -0.081322886 -0.014879962 -0.009527032 0.011606262 0.03483041 0.035438817 -0.035546925
0.011847488 0.03416671 0.004131681 -0.061752904 -0.0017746077 -0.054951537 0.02085698 -0.03603046
0.037396785 0.0040556127 -0.036568243 -0.025550155 0.03255277 -0.062429346 0.0356449 -0.042496726
0.015901959 -0.063687146 -0.024968386 -0.039051794 -0.07200881 -0.015353271 -0.04325863 0.025376404
-0.016337046 -0.004960546 0.055426117 0.041385125 0.028365213 0.02385008 -0.026055427 0.0057993075
0.029451966 0.07162975 0.03209704 0.01850544 0.010382468 -0.0059474483 0.0062908493 -0.004128526
-0.022787554 0.016242376 0.08499845 -0.023520775 0.05645928 -0.049634106 -0.030903788 -0.012307246
-0.03645246 -0.07745838 0.06549545 -0.048691414 -0.02449917 0.024376778 0.02616014 0.034981888
0.049872234 -0.075318865 0.02436882 0.010991069 0.064183824 -0.04205996 -0.02112838 -0.021230085
0.020701922 -0.019946719 -0.04862832 -0.09075317 -0.021992333 -0.046168115 0.0059064324 0.017763657
-0.0025529726 -0.064255565 -0.038052812 0.04740918 -0.03757475 -0.032041926 -0.03551352 0.03228741

layer2.2.bias f4 [256]
00000000: 8f8f 2f3d ceb2 603d f73c 51bc e3db 9dbd
00000010: ec39 c7bc eb39 033d 0241 49bd dd08 2abd
00000020: 71b3 ef3c a5d1 83bd 4661 e3bb d74f 8cbd
00000030: d400 fb3c 1309 143d c4b3 babc e637 073d
00000040: 0744 98bd 1180 013c d862 98bd bf4d b13c
00000050: cd62 2fbd 62c5 7fbd d1d8 793c 0c84 623c
00000060: c0d0 e63a f9c0 18bd c262 393c 93fd 07bd
00000070: 9d87 613c 12c0 a13c aa80 913c 967c 17bd
00000080: 7660 febb 47a8 62bc 098a 9f3c cdb9 d0ba
00000090: 97bf 243d ed9c 87bc eb64 f5bc 8cc5 993d
000000a0: 50d7 ab3c 3ab9 81bc c0b6 5cbd 5b34 343d
000000b0: 4b1a a9bd bdf4 ee3b 26f5 58bd 2356 0abd
000000c0: 4157 2d3d 3f55 993d f1b5 963d ab6c 413c
000000d0: 6df6 34bd 50d4 09bc 2264 9e3d 7351 333c
000000e0: 03f0 bbbc 9c16 2d3c 1544 ef3c 7b11 afbc
000000f0: ebba 4f3a 7ca1 a93d 0fc1 e0bb 6b20 b0bc
00000100: a7f9 1fbd 65a5 38ba fdb5 583d ce06 4cbd
00000110: 47a2 693b bf65 4dbd 6abd f43c 1f24 1dbd
00000120: 89b7 c6bc 8d70 1ebd 8b8b d23c ad15 733d
00000130: d686 ed3c 3339 c63c 6241 923b b67b 61bc
00000140: e8f6 063d 8915 3f3d 5b21 af3d a12d 4b3d
00000150: 9fd2 043d aa28 9fbc ca51 4d3d 19e7 f33c
00000160: 3e52 c1bd c145 333c a0a2 4abc 57a6 a3bc
00000170: 5cf6 4cbd 79db a43d 23e0 d7bc 035a 86bb
00000180: 8a1f 1b3d c2f8 a5bd 49b1 0dbd 6a22 573c
00000190: e98c 2cbd 1159 953d 601d 833d c01e 12bd
000001a0: 00f6 e9bb 0e88 873d 2472 cebc db96 9d3d
000001b0: 7722 9e3c f218 623b fd22 ba3d d01b ca3c
000001c0: bd32 db3c dff5 253d 8b78 b7bc ac73 9dbd
000001d0: 08e4 63bd 118a 7fbc 8633 24bd 6d6f 283c
000001e0: fa77 dc3c 6154 f539 cec8 4c3c cde8 07bd
000001f0: 8c39 67bc e502 823d 5e24 b5bd bdb0 2cbc
00000200: ca20 363c 140d dfbc cc74 3d3d f2ce 8a3d
00000210: e7d3 8dbd b245 8b3b 427f e93c 61a2 1ebc
00000220: 1e17 9b3d e7d7 833c 3abf a3bd d681 8fbc
00000230: 4083 5dbd 8494 28bd f73c 573d f417 653d
00000240: 6fde ae3d dfd6 0b3d 89e9 a83d c1d6 323c
00000250: ce68 9abd a35f 19ba 7838 093d a40a 3f3d
00000260: c98c 3c3d b447 9f3d d40b 3f3c 6768 7f3d
00000270: 9abc 023d 9e06 1e3c 1164 85bd 8c7e ab3c
00000280: 8029 c93b f327 81bc 561d 7f3d 7f6c 943d
00000290: 2bca 1e3d 73bf 18bd b659 ec3c 3e2e 6e3c
000002a0: 7bba 4c3b 4722 27bd 75d3 f2bc 4717 943d
000002b0: cf3f 273c 7590 6fbd 61e0 b6bc 415b ccbc
000002c0: 3104 a73c 9982 d9bc 9abc 29bd 681d 793d
000002d0: 4a0a 363c bfc0 29bd 0427 853d 01d2 c4bc
000002e0: 6894 9d3c fcce 8abc 9b65 ab3d 3057 54bd
000002f0: 5b1a cbbb d32b 4cbd 2ca4 f4bc ee50 c2bc
00000300: 6537 093d 885a 5abd 17aa 093d ff37 943d
00000310: eff3 96bd 8a4f 0abd f5bf 723c ab5b 67bd
00000320: 67e8 34bd 3dd4 03bc f162 10bd 71ec f93c
00000330: 4633 94bc 59f8 913d 31f4 bf3b 9898 acbc
00000340: 02f1 87bc a122 77bc 6b50 54bd f1fe e03c
00000350: ff5f 9fbd d719 a73c 16aa 85bc 2544 87bc
00000360: 1b23 903d 966a e03c 3707 94bc 70ae e73c
00000370: 20a5 3cbb ee61 b4bd 0264 853c e3a0 54bc
00000380: 6eef 6e3a 397c 623d 297e 34bc 729a 4e3d
00000390: 1a99 ecbb c270 40bd dd22 923b d608 c73c
000003a0: b356 463d 988d b1ba a0f3 03bd 3566 4cbd
000003b0: 858d 243d ade1 5c3d 248c 88bd 786f 77bd
000003c0: cb3a 8bbd 2b07 afbb 120c 2b3c 351a cb3c
000003d0: ec2f 2fbd f12e e93c 3c25 f73b daf5 043d
000003e0: 4172 93bd fbc2 44bc dd52 67bd 7b22 36bd
000003f0: de1d b63c d2d0 19bd 580b 33bd 2595 753c
0.042861518 0.05485802 -0.012770883 -0.07707956 -0.024319611 0.032037657 -0.049134262 -0.04151236
0.029260369 -0.06436471 -0.006939086 -0.06851166 0.030640043 0.036141466 -0.022790797 0.033012293
-0.0743485 0.007904069 -0.07440728 0.021643518 -0.042818833 -0.0624441 0.015249447 0.013825428
0.001760982 -0.037293408 0.01131505 -0.03320081 0.013765243 0.019744907 0.017761547 -0.03698405
-0.007762964 -0.013834066 0.019475 -0.0015924514 0.040221777 -0.01655432 -0.029955348 0.07508382
0.020976692 -0.015835393 -0.05388522 0.043995243 -0.08256968 0.0072923587 -0.052968167 -0.033773553
0.04231954 0.074869625 0.07358921 0.011805694 -0.044180322 -0.008412436 0.077339426 0.010944712
-0.022941595 0.0105644725 0.029207269 -0.02137064 0.0007924276 0.08282754 -0.006858952 -0.021499833
-0.039056446 -0.00070436887 0.052907933 -0.049811177 0.0035649703 -0.05014586 0.029875476 -0.038364526
-0.024257438 -0.038681556 0.025701305 0.059346844 0.028994959 0.024197197 0.0044633606 -0.013762405
0.032950312 0.046651397 0.08551284 0.049604062 0.032427426 -0.01942857 0.05012683 0.029773282
-0.094395146 0.010941924 -0.012367874 -0.019976778 -0.050039634 0.080496736 -0.026351994 -0.0041000857
0.037871875 -0.081040874 -0.0345929 0.013130764 -0.04212657 0.07292379 0.06402087 -0.035673857
-0.007139921 0.06617747 -0.02520091 0.07694789 0.019303543 0.0034499732 0.09088705 0.024671465
0.026757592 0.040517684 -0.022396347 -0.07688078 -0.05563739 -0.015596882 -0.0400882 0.010280472
0.026912678 0.0004679291 0.012499047 -0.033181 -0.014112841 0.06348208 -0.08844827 -0.010540185
0.011116216 -0.027227916 0.046253964 0.06777753 -0.06925183 0.0042502517 0.028503064 -0.009682269
0.07572769 0.016094161 -0.07995458 -0.017517965 -0.054080248 -0.04115726 0.052548375 0.055931047
0.085385196 0.034140464 0.08247668 0.010915459 -0.07539521 -0.0005850738 0.03350112 0.046641007
0.0460327 0.07777348 0.011660535 0.062355425 0.031918146 0.009645132 -0.06513227 0.020934366
0.0061389804 -0.01576612 0.062283836 0.072472565 0.03876702 -0.037291955 0.028851371 0.014537392
0.003123908 -0.040804174 -0.029641846 0.07231002 0.010208084 -0.058487374 -0.02232379 -0.024945857
0.02038774 -0.026551532 -0.04143963 0.06081906 0.011110852 -0.041443583 0.06501582 -0.024025919
0.019235805 -0.016944401 0.08368989 -0.05184096 -0.00619821 -0.04984648 -0.02986344 -0.02372023
0.033500094 -0.053308994 0.033609476 0.07237243 -0.073707454 -0.03376726 0.014816274 -0.056483906
-0.04416695 -0.008046207 -0.035250608 0.030508252 -0.018090855 0.07127447 0.0058579673 -0.021068856
-0.016594414 -0.01508394 -0.051834505 0.027465316 -0.07781982 0.020398064 -0.016316455 -0.016511986
0.07037946 0.027394574 -0.018069847 0.02828142 -0.0028784946 -0.08807741 0.016283039 -0.0129778115
0.00091146573 0.05529425 -0.011016407 0.05044026 -0.0072203996 -0.046982534 0.0044597224 0.024296205
0.048422527 -0.0013546227 -0.03221476 -0.04990216 0.040174026 0.05392616 -0.06667355 -0.06040904
-0.06798323 -0.0053414307 0.0104398895 0.02479277 -0.04277031 0.028464766 0.0075422805 0.032461025
-0.071995266 -0.012009378 -0.05647551 -0.044466477 0.022231039 -0.037552662 -0.04371199 0.014989172

layer2.5.weight f4 [7, 256]
00000000: 775d 223d dac7 c0ba 8267 b83d 8b28 873d
00000010: 47d9 913c 2d18 b6bd 3a92 823d 9594 c13c
00000020: 648a db3b 2eb2 68bc 48c5 8c3c fc4e 963d
00000030: 89cd a03d 5f42 e13b 6085 63bd e963 b6bd
00000040: 35e0 09bd a35d cebd 0940 8dbc c905 bc3d
00000050: 8c17 293e d266 a23d 78ac f8bc 9cfe b33d
00000060: 2785 593d 6e8c 063e 8de0 92bd 8a89 bd3c
00000070: dd55 e03b 1d9a 64bd c393 d23c bca9 c03d
00000080: 398d afbc c5ff 90bb d387 39be 5029 a8bc
00000090: 5527 d13c ffdc b43d 364f 94bc becc 69bc
000000a0: f24d 543d 85db 81bd c8bd 56bd ba12 84bc
000000b0: 0c30 49bd f7e0 67bc e7d5 ccbc 9600 513d
000000c0: 6b72 21bc afd8 683c 6458 d33d 219d 23bd
000000d0: eaef 8a3c 190a 013b e5fb 48bd 6a83 85bc
000000e0: f142 05bd 0fc1 0f3e 8cb9 b8bc 976a dd3d
000000f0: 9f05 143e ee4a a8bc 7fbc 2a3d 7c6e 8b3c
00000100: 9801 28bd ce7f 343d 75a3 29bc b013 5d3d
00000110: 783f 8cbd ddac d93d 1269 19bc 5e2b a5bc
00000120: db2f 50bd a5d1 3bbc 86eb f5bc 847a 83bc
00000130: 2fb9 693d 9275 0dbc b34b bb3c 7228 c9bc
00000140: 2034 d33b fc8c a7bc 5c09 1bbc f53b 48bc
00000150: 8c3e f6bd 503c ffbc 7f7b 0e3d 327c f6bc
00000160: d3fa 133c 2e6f 8a3d 79b4 99bc 633d 58bc
00000170: 10dc 1b3d 8e9c d8bd 3d0e d13c 39c5 1a3c
00000180: ce16 f3bc 8426 e5bb ad9a 843d 1fce 133c
00000190: c081 33bd f103 13be 49c3 6aba 3840 dd3d
000001a0: 8e54 97bd aa62 acbc 7921 52bd e2db 863b
000001b0: 8037 24be 04b3 983d 9cc7 523d 1a99 ca3d
000001c0: 8c8e 2fbd 4479 93bd 50fa 083d f9c0 f8ba
000001d0: 268b 5bbd bb28 d2bd d240 be3d b87e 803b
000001e0: 8ceb e63d 60e0 babd 49c5 e43c 6206 23bd
000001f0: ff43 cc3c 39fc f13c f2ed 523d 0f87 bdbb
00000200: dac8 fa3c a266 72bc 0c8c bfbc 364a b6bb
00000210: d491 87bd 0869 d8bc 1ba9 6f3d e977 493e
00000220: 0ae9 b8bd 89e0 193c 37ff 233e 5a54 79bd
00000230: df4d ce3d e20c bf3d bb9a 80bd 513d 0ebd
00000240: 42bf d1bd 6a42 ba3c d51f 6dbd 4539 803d
00000250: ec93 da3d 35db 603b 6485 a73c c6d8 263d
00000260: 1e92 833b ddf2 03bd a2eb 81bc 23b1 803c
00000270: d367 0cbd 7d88 4dbc 7a11 5abc e6ac 963d
00000280: 57d7 623b a3d0 d5bd d99f 4ebc 4f55 f9bd
00000290: 7204 e23d c231 8a3d 0421 2bbc bef6 18be
000002a0: 0f77 c83b 7008 af3c d64c 073e 4441 df3c
000002b0: bc80 44bd 43ab f93d f11a 04be 0e99 c4ba
000002c0: 71dc 38be 3d33 84bc 06a0 d33d 8fba dfbd
000002d0: 1972 30be d174 833e e65b b7bc 53eb 0c39
000002e0: 5b8c 4d3c 9480 973d 0c37 82bd ab64 903d
000002f0: 78ec 8bbd 123c de39 ad9f 8abd 29d6 96bc
00000300: 82b2 823c 9d98 783d 088e e9bc ed29 ce3c
00000310: b95e 603d 9ef6 2cbd 81ae f2bb c0ed 953d
00000320: de6d 693c 7410 dcbd 5f4a 3e3d 592d cf3b
00000330: 4336 84bb 23b0 1ebe 713e 22bc 7bac 963d
00000340: bc18 b8bd 661f 6cbd 8eec e1bd 2595 92bc
00000350: 5b57 5d3e c7e5 26ba 81b8 0cbd 07c0 c33d
00000360: 33d2 babc d5fa dabd 6c4b 8cbd 229b 33bd
00000370: 28e7 efbc d26e 353d 31ff 0fbd 826b ae3c
00000380: 04cd 2fbd 8376 30be a9df 673c 9361 ffbd
00000390: 08b2 7fbc e710 cebd 7007 313e 68da c43d
000003a0: 44f0 063c 16b7 d8bc 2fa6 47bd e78f 80bc
000003b0: 4b6f 063d 50b3 ed3c 9348 abbd 0569 dcbb
000003c0: f3f1 e93d 1931 6abd f599 47bd 7259 24be
000003d0: fc67 dc3c ebc7 073e b13d 323d 4666 9c3c
000003e0: 5a8e 863a 2d6e 013e 0360 9e3a 6c32 91bc
000003f0: db61 f7bc 0b92 7e3d 2b1e 37bd f20a e23c
0.039639916 -0.0014707998 0.090041175 0.0659953 0.017803801 -0.0889133 0.06375547 0.02363042
0.006699847 -0.014202638 0.017183915 0.07339284 0.07851703 0.006874367 -0.05554712 -0.08905775
-0.033661086 -0.100764535 -0.017242448 0.09180791 0.16512889 0.07929768 -0.030355677 0.08788797
0.0531055 0.13139507 -0.07171736 0.023136873 0.006846173 -0.055811036 0.025705224 0.09407374
-0.021429645 -0.0044250214 -0.18118219 -0.020527512 0.02553145 0.08831214 -0.018104177 -0.014270006
0.051832147 -0.06340698 -0.052427083 -0.01612221 -0.049118087 -0.014152757 -0.02500434 0.05102595
-0.0098539395 0.014211818 0.103195935 -0.03994477 0.016960103 0.0019689857 -0.04906835 -0.016298015
-0.032534543 0.1403849 -0.022549413 0.10811346 0.1445527 -0.020543542 0.04168367 0.017020456
-0.041017145 0.044067197 -0.010353913 0.053973854 -0.06848043 0.10628674 -0.00936343 -0.02016228
-0.05082689 -0.011463557 -0.030019533 -0.016049631 0.05706137 -0.008633988 0.022863245 -0.024555419
0.006445423 -0.020452969 -0.009462681 -0.012221326 -0.120236486 -0.031156689 0.034785744 -0.030088518
0.009031969 0.06759487 -0.018762814 -0.0131982295 0.038051665 -0.105767354 0.025519485 0.009446436
-0.02967396 -0.006993117 0.064748146 0.009021311 -0.04382491 -0.14356972 -0.00089554914 0.108032644
-0.073891744 -0.02104314 -0.051301453 0.0041155675 -0.16036797 0.074560195 0.051459894 0.09892483
-0.042860553 -0.07200864 0.03344184 -0.0018978409 -0.0535995 -0.10261675 0.09289707 0.003921356
0.11275396 -0.091248274 0.027926104 -0.03980101 0.024934767 0.029539214 0.051496454 -0.0057839225
0.030613352 -0.014794977 -0.02338221 -0.005563046 -0.066196114 -0.02641727 0.05851088 0.19674648
-0.09028824 0.009391912 0.16015325 -0.06087146 0.100734465 0.09328629 -0.062795125 -0.034726445
-0.10241558 0.022736747 -0.057891686 0.06260923 0.10672745 0.0034310345 0.020449348 0.040734075
0.0040152213 -0.032214034 -0.015859429 0.015709465 -0.034278702 -0.012544748 -0.013309831 0.073571965
0.0034613216 -0.10440185 -0.012611353 -0.121744744 0.11036004 0.06747772 -0.010444883 -0.14937875
0.0061177085 0.021366328 0.13212904 0.0272528 -0.047974333 0.12190869 -0.12900902 -0.0014999227
-0.18052842 -0.016137714 0.103332564 -0.10924255 -0.17231025 0.2567506 -0.022382688 0.00013439106
0.01254567 0.07397571 -0.063581556 0.07050451 -0.06832212 0.00042387896 -0.06768737 -0.018412666
0.01595426 0.06069242 -0.028510109 0.025166476 0.054777835 -0.04222738 -0.0074060564 0.07320738
0.014247386 -0.10745326 0.046457645 0.0063225445 -0.004034789 -0.15496878 -0.0099025825 0.07357117
-0.08989093 -0.05764713 -0.11031447 -0.017893383 0.21615355 -0.0006366637 -0.034355644 0.09558111
-0.022805309 -0.10692374 -0.06850323 -0.043849118 -0.029285029 0.04429514 -0.03515548 0.021291498
-0.042920128 -0.17232709 0.014152446 -0.12469783 -0.015606411 -0.100618176 0.17287993 0.0961197
0.008235995 -0.02645449 -0.04874247 -0.015693618 0.03282098 0.029016167 -0.08363452 -0.0067263865
0.11423101 -0.05717573 -0.04873081 -0.16049746 0.026905052 0.13259856 0.043515865 0.019091737
0.0010265813 0.12639685 0.0012083057 -0.017724238 -0.030198028 0.062150996 -0.044706505 0.02759311

layer2.5.bias f4 [7]
00000000: 95ab 83bd eed6 05bd b139 7fbd ddf9 08bc
00000010: 676b 97bb f59d e5bc d0b3 dc3d
-0.06429211 -0.032675676 -0.06231088 -0.008360353 -0.0046209577 -0.028029421 0.10776484
