Saved_data_files/bpi_no_repeat/lr_all_variants/weighted/TimestampPredictor_parameters_weighted_0.001.pt (torch, 274439 bytes, 7 tensors)

layer1.weight f4 [4, 1]
-0.04276671 0.06323787 -0.06805373 -28.244705
00000000: 252c 2fbd db82 813d c15f 8bbd 28f5 e1c1

layer1.bias f4 [6]
-23.185026 -7.188291 -23.031746 13.846496 -5.8959827 -8.460236
00000000: ef7a b9c1 7b06 e6c0 0441 b8c1 3f8b 5d41
00000010: e4ab bcc0 205d 07c1

layer2.1.weight f4 [256, 6]
0.78065145 0.09373595 0.14414498 0.06937234 -0.23669915 0.066152096 0.47755978 0.17612024
0.048762407 0.22267587 0.070498064 -0.25860047 1.3601955 2.1962278 0.11193251 1.1964262
0.46454373 0.59704554 0.55414647 0.07915414 0.1277936 -0.2558326 -0.23695771 0.14393026
3.6495392 1.4619122 0.41885972 1.1938449 0.6028749 3.2604828 0.73413855 -0.22518653
-0.00574497 0.38820782 -0.036144193 0.006772541 2.621028 2.6446133 0.3423628 0.8765806
0.45875418 2.2662249 0.015454102 0.20069781 -0.0034047128 0.01887305 0.3078759 -0.56034285
0.45389673 0.8789871 0.22195864 -1.0909309 -0.16274208 -1.7649858 0.88070047 -0.12015954
0.34063867 0.028381431 -0.37650084 0.2117321 1.7779106 1.7349778 0.1759332 1.3817078
0.1306201 0.41860557 0.063470505 -0.049771126 -0.024601936 0.04838927 -0.11249009 0.2258943
2.5536048 2.6022084 0.25944805 1.6656313 0.44261706 2.07483 1.973221 2.8034902
0.15367147 0.27119574 0.33892235 0.23704372 0.5719305 -0.4654486 -0.011591921 0.1280598
-0.023488043 0.033155594 0.060641408 0.25929892 0.14325035 -0.28968632 0.25471088 -0.34896743
1.8819875 -0.4105838 0.19224817 0.9257348 0.13494983 0.8412026 1.2936814 2.2090285
0.19365749 2.2507377 0.42741835 0.6296895 0.109745555 -0.35750747 -0.021323584 -0.90677553
0.12285936 1.5826333 0.52867985 -0.1298901 0.0070612426 0.34511817 0.081986494 0.036349174
1.4449426 2.5086365 0.32709706 0.27226862 0.24852335 0.07898572 0.4119054 0.15236363
-0.04671401 0.09974841 0.06461975 0.05143697 1.2928153 1.0831157 0.14767942 1.1799039
0.24996796 2.6660402 0.6342833 -0.41234857 0.0046103923 0.15746263 -0.076010644 0.07622606
0.0900876 0.82557803 -0.20560741 -0.35440126 -0.31716704 -0.5671818 1.414134 -0.09500508
0.22461326 0.103049465 -0.31783196 0.120644026 0.2592834 1.2609347 0.14201178 -0.62740207
0.042661544 1.7127436 0.64758 0.45160115 0.20582743 -0.1467122 -0.032434266 -0.30536848
1.721864 0.1520452 0.26756552 0.5906683 0.14321859 3.2115543 0.7652918 0.06854919
0.11281511 0.023457125 -0.22363959 0.20203489 0.8744863 1.7367398 -0.034326866 0.4384276
0.235521 0.21889658 1.0431451 -0.41329548 -0.12575212 -2.8920097 -0.77293 -1.0336374
-0.032708656 0.06256175 -0.002807769 0.5937923 0.021678673 -0.5345993 1.0852317 2.837729
-0.054196797 0.99688625 0.32226586 1.9203728 0.29962862 1.4948804 -0.36081725 -1.7665799
-0.2337992 -1.0402391 0.2956602 -0.7788323 0.021378787 -0.028681237 -0.026326837 0.06996432
1.831238 2.0262434 0.16533653 0.14416592 0.44683287 1.2488734 -0.031926714 -0.15325004
-0.017563324 0.20350718 0.06501204 -0.31924897 0.7175123 0.6729331 0.12339241 0.35718217
0.10528794 1.6567559 -0.122692 0.67376095 0.0856868 -0.19840267 0.16735917 -0.13581969
-0.099812865 0.38627264 0.008001412 0.037698537 0.079295486 -0.1759765 0.9820098 0.8009583
-0.045186695 0.12551403 0.165686 -0.14079836 0.77294964 -0.1967326 -0.026985483 0.2639006
00000000: c6d8 473f a2f8 bf3d be9a 133e 1613 8e3d
00000010: 4361 72be c07a 873d b782 f43e dd58 343e
00000020: 17bb 473d 2505 643e 4a61 903d 4867 84be
00000030: e31a ae3f ff8e 0c40 df3c e53d 7e24 993f
00000040: add8 ed3e fad7 183f 8bdc 0d3f 911b a23d
00000050: 53dc 023e 7efc 82be 0ba5 72be 7462 133e
00000060: 0d92 6940 f01f bb3f c874 d63e e9cf 983f
00000070: 0256 1a3f c0ab 5040 81f0 3b3f 4c97 66be
00000080: 4d40 bcbb 2dc3 c63e ef0b 14bd 31ec dd3b
00000090: ecbe 2740 5841 2940 2d4a af3e 9667 603f
000000a0: d4e1 ea3e d409 1140 3433 7d3c ba83 4d3e
000000b0: 9a21 5fbb a89b 9a3c e9a1 9d3e a172 0fbf
000000c0: 2765 e83e 4c05 613f 2049 633e a0a3 8bbf
000000d0: dca5 26be 0eeb e1bf 9675 613f 3416 f6bd
000000e0: 3168 ae3e 2d80 e83c b8c4 c0be 4dd0 583e
000000f0: 9392 e33f c113 de3f d527 343e cddb b03f
00000100: 47c1 053e 7853 d63e d3fc 813d cfdc 4bbd
00000110: 008a c9bc d433 463d 3461 e6bd d650 673e
00000120: 436e 2340 958a 2640 60d6 843e 6833 d53f
00000130: b49e e23e 04ca 0440 8192 fc3f 626c 3340
00000140: 0e5c 1d3e 2bda 8a3e 3b87 ad3e 97bb 723e
00000150: 0a6a 123f 474f eebe 0aec 3dbc 1c22 033e
00000160: ff69 c0bc 29ce 073d 2063 783d d4c2 843e
00000170: 38b0 123e c451 94be 7769 823e dcab b2be
00000180: f7e4 f03f 0a38 d2be b4dc 443e f5fc 6c3f
00000190: 4a30 0a3e 0e59 573f 5a97 a53f b960 0d40
000001a0: 264e 463e 160c 1040 94d6 da3e 5533 213f
000001b0: 47c2 e03d 380b b7be ccae aebc 7122 68bf
000001c0: b09d fb3d ba93 ca3f 9057 073f e901 05be
000001d0: ff61 e73b 54b3 b03e 89e8 a73d dfe2 143d
000001e0: e1f3 b83f 808d 2040 4479 a73e cb66 8b3e
000001f0: e87c 7e3e 44c3 a13d 44e5 d23e 3605 1c3e
00000200: 3157 3fbd e548 cc3d 5c57 843d 92af 523d
00000210: f97a a53f 89a3 8a3f 4639 173e 1707 973f
00000220: 9af7 7f3e 67a0 2a40 6460 223f 5a1f d3be
00000230: c612 973b e23d 213e 78ab 9bbd 691c 9c3d
00000240: d97f b83d 1559 533f c08a 52be 1574 b5be
00000250: b863 a2be d432 11bf 5802 b53f 0692 c2bd
00000260: 0501 663e 990b d33d dfba a2be 3714 f73d
00000270: cbc0 843e 4f66 a13f 896b 113e 6c9d 20bf
00000280: dfbd 2e3d 2f3b db3f cec7 253f 4438 e73e
00000290: 6dc4 523e b93b 16be cbd9 04bd 4259 9cbe
000002a0: 0a66 dc3f bdb1 1b3e 59fe 883e 0a36 173f
000002b0: e5a7 123e 1b8a 4d40 2aea 433f 8563 8c3d
000002c0: 9c0b e73d 2829 c03c c701 65be 3ce2 4e3e
000002d0: 56de 5f3f 7d4d de3f 549a 0cbd 9579 e03e
000002e0: 6b2c 713e 6d26 603e c785 853f 779b d3be
000002f0: 2ac5 00be b016 39c0 bede 45bf 3b4e 84bf
00000300: 83f9 05bd 6020 803d 8c02 38bb c602 183f
00000310: 7997 b13c 80db 08bf dfe8 8a3f 5a9d 3540
00000320: 76fd 5dbd f033 7f3f 0800 a53e c7ce f53f
00000330: ec68 993e 3e58 bf3f 0abd b8be 4a1f e2bf
00000340: 0f69 6fbe 8e26 85bf c660 973e 8e61 47bf
00000350: 9122 af3c eaf4 eabc 61ab d7bc 7449 8f3d
00000360: 0266 ea3f f9ad 0140 fb4d 293e 3ba0 133e
00000370: 47c7 e43e 15db 9f3f 96c5 02bd 94ed 1cbe
00000380: f6e0 8fbc 3064 503e 0825 853d 9a74 a3be
00000390: e3ae 373f 5845 2c3f 29b5 fc3d 95e0 b63e
000003a0: 34a1 d73d 9410 d43f f145 fbbd 997b 2c3f
000003b0: 907c af3d 122a 4bbe 3460 2b3e 5114 0bbe
000003c0: b06a ccbd 87c5 c53e 5b18 033c c869 1a3d
000003d0: ac65 a23d 2f33 34be ff64 7b3f 9a0b 4d3f
000003e0: af15 39bd c086 003e 97a9 293e 722d 10be
000003f0: 07e0 453f 4574 49be a910 ddbc fb1d 873e

layer2.1.bias f4 [256]
28.63519 30.725698 -8.156317 25.034071 -7.5406814 33.541424 -6.0897136 32.327133
-11.000447 17.972124 -8.108187 27.880058 -5.547875 -6.318997 37.107227 30.470686
-11.656879 -7.682298 -5.4413934 30.62296 -4.2425265 21.588324 -6.4518447 33.100533
-12.846944 11.336693 -4.9384604 -0.7953816 -7.737909 16.231699 -7.7735257 -20.678139
41.27318 -11.745202 -14.920869 40.834663 -0.95823056 39.22721 -5.4359035 -6.5133753
31.985012 6.3531785 34.501484 23.854013 36.32584 -8.266914 27.044872 38.42607
-7.662628 26.5304 36.81691 -13.699532 12.6159 40.586533 -4.8507404 -10.379837
-17.186163 -8.526761 38.190773 35.932217 -0.88400006 -3.7149742 -10.640862 8.835452
37.816338 29.464388 -7.1708884 -14.689443 -6.101731 -4.683204 -10.19321 40.027027
-18.928783 -5.0600963 -10.586289 -13.348431 -7.0127163 27.337572 -5.2951565 -6.3899693
-6.1772304 34.797718 38.17698 9.073595 15.465831 20.384008 40.369587 -7.162448
-4.586331 -6.541525 39.769993 38.685028 8.949469 -7.536086 -5.459229 -4.475633
35.003227 -7.240545 -10.297924 -6.614293 39.89798 40.396942 -4.0038342 -15.822688
-11.019041 22.025192 -7.6044183 42.45271 25.279955 -4.4168553 -4.7032137 -3.6565862
-6.3888254 29.471878 -8.298407 -5.0079618 -1.6002924 -5.1142917 -4.263063 38.495396
-6.799724 -11.986243 40.345142 -8.328357 -11.785275 32.777374 35.863873 22.325645
41.111362 -6.489326 -0.80605376 20.845991 -4.927033 -16.053556 -15.957492 44.19903
26.781132 28.961824 -3.1166441 32.24149 23.445486 -4.5730476 44.94441 36.563213
44.20668 -14.186932 37.830635 -21.09736 -6.683436 -7.1463895 28.751112 -17.173145
45.22436 31.30494 42.309334 35.30985 -18.796457 19.395061 23.689953 -2.533419
28.362946 23.058159 -8.273124 35.062695 -3.521293 20.587938 32.439716 -4.256386
39.018898 25.616152 38.170452 38.092644 36.572815 -11.360371 -3.5573163 -4.285547
-8.958304 7.0265803 31.821285 -10.664826 -9.325596 9.017677 -6.9618554 -7.3844123
-9.860205 42.9244 38.528152 19.899908 32.640076 29.977034 32.79812 -4.7440996
36.294342 -10.022085 -4.5891848 -5.1518164 -4.3987184 -8.130298 42.211914 38.727367
30.766785 -18.376785 35.597286 -9.700857 18.036558 -8.683927 36.7312 -10.652998
12.172417 -4.530429 -12.915812 -3.8050735 -18.262138 -4.6408906 -7.277092 -15.892179
-5.9726315 -3.9486487 -9.70584 30.965809 -8.398571 37.499676 30.112127 -6.1246614
44.050285 -2.1397 34.013145 -19.395449 31.66726 -6.032968 25.205027 40.726105
26.982563 39.585094 28.454325 35.73125 40.61601 -5.6370497 -1.5314598 -8.486491
-15.83806 28.352053 -10.706982 -17.77122 24.778759 -7.91085 28.583994 27.758888
-11.830339 21.52914 32.85148 31.804678 42.094975 12.6241255 19.414557 -12.2398405
00000000: de14 e541 3bce f541 4680 02c1 c745 c841
00000010: 434d f1c0 6b2a 0642 efde c2c0 fc4e 0142
00000020: d501 30c1 e9c6 8f41 22bb 01c1 5c0a df41
00000030: 3188 b1c0 3935 cac0 cd6d 1442 f7c3 f341
00000040: 9482 3ac1 63d5 f5c0 e51f aec0 d2fb f441
00000050: c7c2 87c0 e3b4 ac41 8375 cec0 f266 0442
00000060: 158d 4dc1 1863 3541 de07 9ec0 219e 4bbf
00000070: f39c f7c0 85da 8141 b9c0 f8c0 d46c a5c1
00000080: bc17 2542 59ec 3bc1 e1bb 6ec1 b256 2342
00000090: 994e 75bf aae8 1c42 ecf2 adc0 926d d0c0
000000a0: 4ee1 ff41 3d4d cb40 8501 0a42 05d5 be41
000000b0: a94d 1142 4845 04c1 e65b d841 4cb4 1942
000000c0: 4034 f5c0 423e d441 8444 1342 4831 5bc1
000000d0: bada 4941 9c58 2242 4439 9bc0 d013 26c1
000000e0: 437d 89c1 9d6d 08c1 5ac3 1842 97ba 0f42
000000f0: d44d 62bf 23c2 6dc0 f940 2ac1 035e 0d41
00000100: ee43 1742 11b7 eb41 eb77 e5c0 f507 6bc1
00000110: 6141 c3c0 cfdc 95c0 6317 23c1 ad1b 2042
00000120: 266e 97c1 4fec a1c0 7161 29c1 2c93 55c1
00000130: 2c68 e0c0 59b3 da41 ec71 a9c0 a17a ccc0
00000140: dfab c5c0 dd30 0b42 3ab5 1842 722d 1141
00000150: 0b74 7741 7312 a341 757a 2142 c632 e5c0
00000160: 39c3 92c0 2c54 d1c0 7914 1f42 78bd 1a42
00000170: 0631 0f41 9e27 f1c0 01b2 aec0 6338 8fc0
00000180: 4e03 0c42 8bb2 e7c0 4cc4 24c1 4aa8 d3c0
00000190: 8897 1f42 7896 2142 691f 80c0 bb29 7dc1
000001a0: fe4d 30c1 9833 b041 6557 f3c0 93cf 2942
000001b0: 593d ca41 e156 8dc0 ba80 96c0 8205 6ac0
000001c0: 4271 ccc0 68c6 eb41 46c6 04c1 3941 a0c0
000001d0: 62d6 ccbf 47a8 a3c0 036b 88c0 49fb 1942
000001e0: 5797 d9c0 a7c7 3fc1 6d61 2142 f340 05c1
000001f0: 7d90 3cc1 081c 0342 9b74 0f42 ec9a b241
00000200: 0972 2442 8fa8 cfc0 8a59 4ebf 97c4 a641
00000210: 41aa 9dc0 af6d 80c1 e351 7fc1 cfcb 3042
00000220: c23f d641 d1b1 e741 1977 47c0 49f7 0042
00000230: 5b90 bb41 6856 92c0 13c7 3342 bb40 1242
00000240: a4d3 3042 acfd 62c1 9252 1742 65c7 a8c1
00000250: b5de d5c0 39af e4c0 4702 e641 9a62 89c1
00000260: bfe5 3442 8470 fa41 c23c 2942 493d 0d42
00000270: 255f 96c1 1629 9b41 0685 bd41 8923 22c0
00000280: 50e7 e241 1c77 b841 b75e 04c1 3340 0c42
00000290: dd5c 61c0 19b4 a441 45c2 0142 5034 88c0
000002a0: 5a13 1c42 e1ed cc41 8bae 1842 de5e 1842
000002b0: 904a 1242 14c4 35c1 12ab 63c0 3323 89c0
000002c0: 3755 0fc1 bfd9 e040 fe91 fe41 21a3 2ac1
000002d0: a435 15c1 6848 1041 85c7 dec0 1b4d ecc0
000002e0: 66c3 1dc1 96b2 2b42 d41c 1a42 0333 9f41
000002f0: 708f 0242 f7d0 ef41 4631 0342 aacf 97c0
00000300: 682d 1142 765a 20c1 9ada 92c0 aedb a4c0
00000310: 4dc2 8cc0 b315 02c1 00d9 2842 d3e8 1a42
00000320: 6022 f641 a803 93c1 9f63 0e42 b636 1bc1
00000330: df4a 9041 5df1 0ac1 c0ec 1242 ae72 2ac1
00000340: 38c2 4241 46f9 90c0 2aa7 4ec1 5386 73c0
00000350: dc18 92c1 2d82 94c0 f0dd e8c0 5d46 7ec1
00000360: cc1f bfc0 a9b6 7cc0 1f4b 1bc1 fab9 f741
00000370: 8c60 06c1 abff 1542 a3e5 f041 3afd c3c0
00000380: 7e33 3042 d8f0 08c0 760d 0842 e129 9bc1
00000390: 8c56 fd41 130e c1c0 e5a3 c941 88e7 2242
000003a0: 4adc d741 2357 1e42 75a2 e341 cdec 0e42
000003b0: cb76 2242 b662 b4c0 e006 c4bf abc8 07c1
000003c0: b268 7dc1 01d1 e241 cc4f 2bc1 752b 8ec1
000003d0: e63a c641 af25 fdc0 05ac e441 3412 de41
000003e0: 1249 3dc1 ae3b ac41 ea67 0342 fb6f fe41
000003f0: 4161 2842 6bfc 4941 0351 9b41 63d6 43c1

layer2.3.weight f4 [256, 256]
-0.1175077 -0.038529813 -0.05647354 -0.0013059911 -0.04142538 -0.035698663 -0.024554098 -0.16238299
-0.098442115 -0.11895972 -0.1415347 -0.009930339 -0.04148109 0.015436936 -0.0029478353 -0.03500379
-0.037788756 -0.090959325 -0.07773537 0.04908434 -0.10443438 -0.22292696 -0.044125035 -0.022292202
-0.1628819 -0.11672332 -0.01830961 -0.051295076 -0.06200614 -0.10307459 0.009048841 0.06851007
-0.018932926 0.08141362 -0.059955116 0.12517084 -0.02400659 0.045104187 -0.10066842 -0.19846572
-0.06838452 -0.06463657 -0.014257659 -0.12243208 0.015159555 -0.10136684 -0.006381351 -0.07854786
-0.06736036 -0.05198726 -0.020264322 -0.12836044 0.032883618 -0.122162975 -0.065893024 -0.05774477
-0.0068051405 -0.036389165 0.011706085 -0.032941032 -0.039419662 -0.028585117 -0.048219956 -0.10552359
-0.10245499 -0.20646308 -0.06746448 -0.09960376 -0.036650296 -0.07489046 -0.09211965 -0.122351885
-0.07265303 -0.08746766 0.017438723 0.033649776 -0.06287689 0.0035087322 -0.11376586 -0.027372818
-0.12394089 0.019635225 -0.08645324 -0.041144636 -0.07024169 -0.055769354 -0.0468402 -0.029776432
-0.09472608 -0.10346575 0.0518402 -0.0018496495 -0.08291222 -0.024641467 -0.10265344 0.008976494
0.0074836873 -0.10889446 -0.013536452 -0.008851305 -0.068110295 -0.06550179 -0.0055452543 -0.104245044
-0.0853716 0.01540653 0.0049402113 0.005312933 -0.13040307 -0.047563937 -0.046266247 -0.122409664
-0.044167764 0.087494425 0.030796533 -0.09452712 0.0030095407 -0.042527296 -0.06848662 0.069941655
-0.04670896 -0.15708338 0.0067646177 -0.11590041 -0.07302441 -0.010437539 -0.060800854 -0.060548257
0.02608865 0.018513972 -0.07735952 -0.046982985 -0.089221336 -0.05564644 -0.14730795 -0.022822764
-0.11617276 -0.037011344 -0.13635774 -0.13157225 -0.116559036 -0.114674 -0.011080451 -0.023233918
-0.054221533 -0.1205069 -0.032912485 -0.12563428 0.038406596 0.018091274 -0.12464643 0.04538068
0.035663143 -0.0904012 0.07989853 -0.08142114 -0.04108553 -0.046110623 -0.0648854 0.018265339
-0.13065548 0.0015516009 0.033534467 -0.023910848 0.04581006 0.0038360774 0.035375834 -0.07953131
0.043270633 -0.007679515 0.01757801 -0.16579425 -0.08286078 0.013969079 -0.16445446 -0.10004438
0.03117715 -0.031173524 -0.02358194 0.06035983 -0.08072736 -0.13965121 -0.047751874 -0.18444967
-0.10089937 -0.08914328 -0.010660632 -0.07582801 -0.09190122 -0.13515979 -0.061937947 -0.029363578
-0.0780645 -0.07370464 -0.09183841 0.00968847 0.015326839 -0.07018033 -0.003089242 -0.09470314
0.008298701 -0.017611014 0.011430202 -0.030694686 -0.04184655 -0.16854694 -0.09006374 -0.089259446
-0.014943014 -0.0296148 -0.10808182 -0.047847502 -0.07357985 -0.011111795 0.022710543 -0.18639329
-0.12539433 -0.08527363 -0.07764358 -0.024895227 -0.091003254 -0.061469886 -0.069032684 0.014926854
0.08407291 0.08535152 -0.026049698 -0.10947966 -0.037065256 -0.12481533 -0.07101044 -0.070398115
-0.073048025 -0.12289573 -0.07105718 -0.050537426 -0.018602254 -0.102067396 -0.1038346 -0.024228677
-0.15742484 0.014428797 -0.06165599 -0.002408659 -0.04115142 -0.09664161 -0.101762734 -0.08218501
-0.12891835 -0.12347784 -0.02953871 0.04158202 -0.063546054 -0.04432052 0.026749339 -0.15308069
00000000: e1a7 f0bd 70d1 1dbd cc50 67bd ca2d abba
00000010: a9ad 29bd c338 12bd ad25 c9bc ba47 26be
00000020: 059c c9bd 27a1 f3bd 79ee 10be dcb2 22bc
00000030: 13e8 29bd 34eb 7c3c 7830 41bb 2260 0fbd
00000040: 62c8 1abd e248 babd b933 9fbd a90c 493d
00000050: b1e1 d5bd f746 64be 74bc 34bd 239e b6bc
00000060: 83ca 26be a30c efbd 09fe 95bc c91a 52bd
00000070: 26fa 7dbd c518 d3bd 9741 143c 024f 8c3d
00000080: 3919 9bbc 2fbc a63d 7f93 75bd c92c 003e
00000090: 78a9 c4bc 2bbf 383d 3f2b cebd 993a 4bbe
000000a0: 2f0d 8cbd 2e60 84bd f598 69bc acbd fabd
000000b0: c85f 783c 6b99 cfbd a71a d1bb b3dd a0bd
000000c0: 3af4 89bd 98f0 54bd 5d01 a6bc eb70 03be
000000d0: f9b0 063d 9530 fabd ecf2 86bd c885 6cbd
000000e0: a8fd debb ce0c 15bd e1ca 3f3c 2ded 06bd
000000f0: 8376 21bd 562b eabc 4a82 45bd c11c d8bd
00000100: ecd3 d1bd 0f6b 53be d12a 8abd 0efd cbbd
00000110: 9f1e 16bd 2b60 99bd 3aa9 bcbd a093 fabd
00000120: 1dcb 94bd 3f22 b3bd a7db 8e3c 59d4 093d
00000130: 99c5 80bd c2f2 653b 13fe e8bd f63c e0bc
00000140: b9d4 fdbd 0dda a03c 650e b1bd 4787 28bd
00000150: e0da 8fbd 686e 64bd 82db 3fbd b4ed f3bc
00000160: bfff c1bd dae5 d3bd 6456 543d f06f f2ba
00000170: e2cd a9bd e7dc c9bc f73b d2bd 2512 133c
00000180: b839 f53b 0f04 dfbd ffc7 5dbc 1005 11bc
00000190: 697d 8bbd cd25 86bd f7b4 b5bb 6d7e d5bd
000001a0: 4ed7 aebd ac6b 7c3c 7fe1 a13b 1d18 ae3b
000001b0: 6288 05be 67d2 42bd ad81 3dbd ebb1 fabd
000001c0: 42e9 34bd 4730 b33d 0349 fc3c 6f97 c1bd
000001d0: b73b 453b 1a31 2ebd b742 8cbd 923d 8f3d
000001e0: e551 3fbd 77da 20be baa9 dd3b 325d edbd
000001f0: d28d 95bd 3602 2bbc 510a 79bd 7301 78bd
00000200: ddb7 d53c 9daa 973c ab6e 9ebd 3b71 40bd
00000210: adb9 b6bd 85ed 63bd e5d7 16be cef6 babc
00000220: fceb edbd 3599 17bd 5da1 0bbe e0ba 06be
00000230: 81b6 eebd 34da eabd c88a 35bc 0f55 bebc
00000240: 6617 5ebd 52cc f6bd 3ecf 06bd 46a6 00be
00000250: 3c50 1d3d 2734 943c a146 ffbd 18e1 393d
00000260: 8413 123d 4424 b9bd d7a1 a33d 20c0 a6bd
00000270: 4d49 28bd 7ede 3cbd a3e2 84bd 31a1 953c
00000280: 8dca 05be 165f cb3a 705b 093d afe0 c3bc
00000290: 54a3 3b3d b366 7b3b 40e6 103d 50e1 a2bd
000002a0: 8c3c 313d 71a4 fbbb c2ff 8f3c f8c5 29be
000002b0: eab2 a9bd 90de 643c c066 28be 11e4 ccbd
000002c0: 3967 ff3c 9e5f ffbc ea2e c1bc de3b 773d
000002d0: 6354 a5bd ba00 0fbe 7897 43bd 60e0 3cbe
000002e0: 54a4 cebd c190 b6bd eea9 2ebc b74b 9bbd
000002f0: b536 bcbd 5467 0abe a5b2 7dbd e38b f0bc
00000300: 48e0 9fbd 75f2 96bd c715 bcbd 63bc 1e3c
00000310: 6c1d 7b3c b4ba 8fbd e174 4abb b8f3 c1bd
00000320: 46f7 073c f944 90bc be45 3b3c 6c73 fbbc
00000330: 4a67 2bbd 9297 2cbe 5773 b8bd a8cd b6bd
00000340: 8bd3 74bc bd9a f2bc 005a ddbd befb 43bd
00000350: 08b1 96bd 3f0e 36bc 760b ba3c e2dd 3ebe
00000360: 5f67 00be f1a3 aebd 9903 9fbd 13f1 cbbc
00000370: ea5f babd d9c7 7bbd 0261 8dbd c38f 743c
00000380: 6b2e ac3d c7cc ae3d 2d66 d5bc df36 e0bd
00000390: bdd1 17bd 2e9f ffbd ec6d 91bd e32c 90bd
000003a0: 349a 95bd c2b0 fbbd 6d86 91bd 5500 4fbd
000003b0: c163 98bc b608 d1bd 3ca7 d4bd 387b c6bc
000003c0: fa33 21be c366 6c3c fe8a 7cbd 98da 1dbb
000003d0: 648e 28bd 09ec c5bd fb68 d0bd 9d50 a8bd
000003e0: 2c03 04be f3e1 fcbd 2afb f1bc e951 2a3d
000003f0: 6f24 82bd 6f89 35bd 6e21 db3c 2fc1 1cbe

layer2.3.bias f4 [256]
0.34871292 0.11149793 -0.31347597 0.1409727 -0.29420534 -0.35638458 -0.1720508 27.82185
-0.10096761 0.5801293 31.59223 -0.41506425 3.2599413 1.0031642 0.6343768 0.014543645
0.09898102 -0.11845016 -0.0818983 -0.13315892 -0.19464436 -0.045561157 0.7004231 2.2501922
0.2881045 -0.17551872 0.12275601 -0.31418896 -0.17623043 -0.32724822 0.28038862 0.21820283
-0.25915635 -0.011069147 -0.047582753 -0.30084702 -0.21282807 -0.10537223 -0.3895268 -0.1678195
-1.4168943 -0.51467675 -0.04694613 29.940216 0.06854976 -0.18761767 21.856771 -0.084735714
-0.06508732 -0.24850766 -0.18499856 1.8226155 -0.09276662 0.24004072 -0.6928058 -0.12576222
27.79401 -0.1257329 0.041217938 0.02110876 32.88655 0.04153396 -0.005819132 -0.1242708
-0.1012532 0.021698022 -0.22599468 -0.23700112 0.4275072 0.054152735 -0.05776116 -0.23102811
6.388894 0.29828632 -0.25712946 -0.108211756 4.7442327 -0.26002255 0.005346991 -0.046928838
-0.17462116 -0.049946923 -0.4959655 -0.22439443 0.819443 -0.33544478 0.011261205 0.26513535
-0.073920615 -0.1864026 -0.061399568 -0.17650104 0.07807519 -0.06649563 0.5092671 1.2402877
-0.20875263 -0.3859881 -0.41520116 -0.20502773 0.7766883 -0.24153976 -0.06105538 -0.29056656
1.0156194 1.0243316 0.03599936 -0.13920249 0.2967363 -1.3685712 -0.06530169 -0.7148548
-0.13841085 -0.08191742 -0.9890547 0.40277657 0.032355525 -0.1785654 -0.21602936 -0.09910693
0.10335389 9.328313 1.6943343 -0.04358031 -0.14788328 11.419343 0.095692955 0.8375724
-0.057965633 0.5084896 0.1419416 31.306494 32.19398 0.3019929 -0.085963 0.6440854
31.906548 5.821909 0.47251344 -0.215638 -0.10928365 -0.15727216 -0.07340838 17.377333
-1.2825385 -0.03522071 0.04311719 0.14173968 -0.27573916 -0.34490803 -0.08334462 -0.11914734
29.36763 -0.30025652 -0.06874949 30.067274 -0.00526971 -0.6576001 0.019096764 30.263521
-0.18526018 31.695993 33.716953 0.21139507 0.17995088 0.22883119 0.13827568 29.183699
-0.14974636 0.33091503 -0.54819363 -0.074321575 0.474094 1.3368883 -0.1694098 0.02092809
-0.2982783 -0.107627526 0.73596925 -0.016565816 33.286797 31.664236 -0.21390267 -0.15258116
-0.16046876 -0.15162528 12.32861 -0.44140399 0.49721065 0.30158973 -0.25008222 -0.24879138
-0.20218642 0.16015577 -0.22851394 -0.33488056 -0.033670586 4.256641 -0.05855985 -0.230333
-0.005892958 0.5752854 -0.3086483 -0.32925037 0.63849616 -0.039303217 0.09763756 20.246374
-0.13574234 1.9076564 0.35461593 29.22929 -0.11759413 1.6613445 -0.18642692 -0.22903815
0.5169736 1.0829377 -0.14905696 33.48006 29.546513 1.3046405 0.004683658 -0.23465747
-0.10847991 -0.19336605 -0.3174733 9.485644 7.059714 1.5734229 -0.17220856 -0.09454705
0.6164379 0.45560867 31.866371 34.18501 0.11896574 -0.256036 -0.056959793 0.1548516
-0.15448977 31.054003 -0.56252784 -0.25664577 -0.21030426 -0.16923736 -0.34075797 -0.20974353
0.24936503 -0.15051936 30.687893 -0.38065392 1.2822433 24.919275 -0.3207707 -0.12035094
00000000: 808a b23e 0759 e43d ec7f a0be 265b 103e
00000010: 15a2 96be 0a78 b6be 162e 30be 2693 de41
00000020: 1bc8 cebd 5b83 143f e3bc fc41 4d83 d4be
00000030: e1a2 5040 af67 803f 8566 223f 7848 6e3c
00000040: 90b6 ca3d ff95 f2bd 4cba a7bd d05a 08be
00000050: da50 47be 569e 3abd ee4e 333f 2603 1040
00000060: 6f82 933e 2ebb 33be 8167 fb3d 60dd a0be
00000070: c075 34be 148d a7be 198f 8f3e 9070 5f3e
00000080: 24b0 84be 5e5b 35bc 22e6 42bd 9f08 9abe
00000090: 9aef 59be 65cd d7bd 0f70 c7be e0d8 2bbe
000000a0: cb5c b5bf dbc1 03bf 964a 40bd 9085 ef41
000000b0: d163 8c3d d91e 40be abda ae41 eb89 adbd
000000c0: 804c 85bd cb78 7ebe 4370 3dbe 774b e93f
000000d0: 6dfc bdbd 3ccd 753e b95b 31bf d0c7 00be
000000e0: 225a de41 20c0 00be 24d4 283d 47ec ac3c
000000f0: d48b 0342 831f 2a3d 6bae bebb b081 febd
00000100: d65d cfbd 0dc0 b13c 266b 67be 6cb0 72be
00000110: 39e2 da3e 42cf 5d3d f796 6cbd a292 6cbe
00000120: d271 cc40 fcb8 983e 79a6 83be 209e ddbd
00000130: c1d0 9740 ad21 85be d035 af3b 7438 40bd
00000140: e4cf 32be 2595 4cbd 31ef fdbe a7c7 65be
00000150: 04c7 513f 6bbf abbe eb80 383c d2bf 873e
00000160: b163 97bd 53e0 3ebe 1d7e 7bbd b0bc 34be
00000170: e3e5 9f3d dc2e 88bd 545f 023f bfc1 9e3f
00000180: 40c3 55be 3ba0 c5be 3f95 d4be caf2 51be
00000190: 0bd5 463f 3356 77be 3515 7abd 24c5 94be
000001a0: d1ff 813f 4c1d 833f 1174 133d 198b 0ebe
000001b0: d2ed 973e 572d afbf e4bc 85bd b900 37bf
000001c0: 93bb 0dbe 52c4 a7bd b032 7dbf bb38 ce3e
000001d0: 3a87 043d d9d9 36be cd36 5dbe 93f8 cabd
000001e0: 34ab d33d c540 1541 f2df d83f 4481 32bd
000001f0: b76e 17be a1b5 3641 abfa c33d 256b 563f
00000200: 5f6d 6dbd 602c 023f 2459 113e b373 fa41
00000210: a3c6 0042 d09e 9a3e 5f0d b0bd c8e2 243f
00000220: 9c40 ff41 144d ba40 48ed f13e 35d0 5cbe
00000230: 1bd0 dfbd f40b 21be 2257 96bd c704 8b41
00000240: 392a a4bf 9743 10bd a79b 303d 3524 113e
00000250: af2d 8dbe c997 b0be 96b0 aabd 8503 f4bd
00000260: e8f0 ea41 39bb 99be 88cc 8cbd c789 f041
00000270: 88ad acbb 7b58 28bf d170 9c3c b11b f241
00000280: d8b4 3dbe 6591 fd41 29de 0642 f377 583e
00000290: 0b45 383e b952 6a3e 2498 0d3e 3778 e941
000002a0: 1c57 19be b26d a93e 6b56 0cbf e935 98bd
000002b0: 73bc f23e 281f ab3f c379 2dbe 6371 ab3c
000002c0: efb7 98be d26b dcbd 7b68 3c3f 09b5 87bc
000002d0: ae25 0542 5b50 fd41 4d09 5bbe 3c3e 1cbe
000002e0: ec51 24be a843 1bbe fd41 4541 b4ff e1be
000002f0: 6592 fe3e f869 9a3e c70a 80be 2bc3 7ebe
00000300: f509 4fbe e0ff 233e 8fff 69be 7775 abbe
00000310: 2bea 09bd 6736 8840 74dc 6fbd 6adc 6bbe
00000320: b719 c1bb e745 133f 2607 9ebe 8193 a8be
00000330: 7c74 233f 69fc 20bd 33f6 c73d 93f8 a141
00000340: 0a00 0bbe 162e f43f 3890 b53e 96d5 e941
00000350: 31d5 f0bd f0a6 d43f b3e6 3ebe fa88 6abe
00000360: 6258 043f b49d 8a3f 63a2 18be 95eb 0542
00000370: 425f ec41 76fe a63f 5f79 993b 0c4a 70be
00000380: b72a debd c001 46be dc8b a2be 33c5 1741
00000390: 2de9 e140 ec65 c93f 7157 30be e2a1 c1bd
000003a0: e0ce 1d3f 8a45 e93e 54ee fe41 73bd 0842
000003b0: 4fa4 f33d 2717 83be ac4e 69bd 6b91 1e3e
000003c0: 9132 1ebe 996e f841 d301 10bf 1367 83be
000003d0: 005a 57be 8f4c 2dbe d477 aebe 02c7 56be
000003e0: 8c59 7f3e bf21 1abe ce80 f541 12e5 c2be
000003f0: 8c20 a43f ad5a c741 0f3c a4be 8e7a f6bd

layer2.6.weight f4 [1, 256]
-0.014627345 -0.0005540966 0.007068164 0.07424226 0.03618183 0.014293463 -0.022544293 0.2811096
0.0074006426 0.008108727 0.32247308 -0.018650917 0.01020406 0.021253826 0.02764548 -0.0018347959
-0.011671242 -0.022254983 0.104957014 0.028562482 -0.020336336 0.054356992 0.002628811 0.023751419
-0.008360528 -0.020566236 0.004172076 -0.0032639767 -0.00871339 -0.023749627 -0.00551966 0.013629132
0.0006726295 0.0048156353 -0.008593288 -0.014003984 0.031618908 0.0029910035 -0.03386225 0.017191894
-0.024445975 0.02104379 -0.051037338 0.18261789 -0.023687681 -0.013247227 0.21194355 0.014402255
0.03626223 -0.039143536 -0.008034642 -0.021906221 -0.030053455 -0.0025180466 0.00023594212 -0.05647823
-0.0657672 0.00054935564 -0.025700804 0.003595797 0.046780594 -0.003277343 -0.03442054 -0.029288335
-0.007775075 0.092792265 -0.01605281 0.012195226 -0.044165444 -0.030553225 -0.0106618665 -0.0006965765
0.10632689 0.017643115 0.003716404 -0.08899795 -0.0012386079 0.01924176 -0.0022615502 0.0077630044
-0.026886513 -0.053465214 -0.017741106 -0.007194978 0.02384379 0.016527146 0.058913335 0.014658483
-0.0030176938 0.020714566 -0.02225626 0.005958942 -0.014059097 -0.054589905 0.032548513 0.008708403
-0.041467015 -0.01728651 0.024130749 0.008035078 0.032984525 -0.012022339 -0.011963539 0.0049719694
-0.0030428825 0.0006770748 -0.0009632966 0.006442667 0.024262125 0.018403046 0.0064361505 -0.044579044
0.01569868 -0.016567003 -0.0063646254 0.024798112 -0.0026555306 -0.029093381 -0.030180084 0.05486952
0.0534892 0.073783435 0.0019682248 5.3621734e-05 -0.02129976 0.371284 0.034898262 2.0235235e-05
0.013232433 -0.0046376386 0.0013868546 0.23635173 0.03307417 0.024257109 0.05064822 -0.009950124
0.1539464 -0.015329502 0.02747011 -0.0039402805 0.004685244 0.008357292 0.0030678825 0.33932087
0.008404212 -0.0037011688 -0.0008761318 -0.15119356 0.0073946123 0.004850736 0.022130225 0.04204946
0.16802102 -0.006295216 -0.0070816837 0.2061473 0.0056885085 0.021017583 0.014549839 0.27086332
0.030616706 0.13731037 0.098292306 0.32652068 0.09853969 -0.022303123 0.014553618 0.26964393
0.018715858 -0.019443916 0.012368163 -0.036744446 0.08127679 -0.015663998 0.033893663 -0.024647046
-0.03339231 0.022243349 0.004337617 -0.023301514 0.13050482 0.18782417 -0.010518505 0.018464275
-0.02561542 -0.016437309 0.17000015 0.01556663 0.031638995 -0.033231672 -0.0069802124 0.016520604
-0.04612123 -0.02953719 -0.01106183 -0.027078042 -0.0039322367 0.031506076 0.009041724 -0.029615514
-0.011700435 -0.013769406 -0.016343318 -0.011509409 -0.0065608 -0.035873964 -0.018454405 0.083601914
0.010328389 0.011751727 -0.012833647 0.10705258 -0.009302557 -0.0085845245 0.046790425 -0.008098928
-0.0034962606 -0.008063926 -0.0027452006 0.13969502 0.42390072 -0.00090744573 0.036582515 0.010985205
0.005256321 -0.0038450826 0.01987519 0.026126746 0.089459285 0.0040204055 -0.0028536392 0.016668582
0.029814897 -0.00516484 0.34668303 0.16870035 0.03286693 -0.0048345784 -0.013264194 0.00850908
-0.022601336 0.30769488 0.0021479453 0.000953573 0.0037289811 0.0021620877 -0.0019834084 -0.02119285
0.012003345 -0.021842552 0.05742812 -0.030434322 -0.027260033 0.12606783 -0.012476487 -0.014967498
00000000: 88a7 6fbc cb40 11ba 0f9c e73b 530c 983d
00000010: 6633 143d 212f 6a3c cfae b8bc 99ed 8f3e
00000020: 1781 f23b 77da 043c 311b a53e cfc9 98bc
00000030: ee2e 273c 811c ae3c c678 e23c 897d f0ba
00000040: bd38 3fbc 1550 b6bc b4f3 d63d defb e93c
00000050: 6398 a6bc 70a5 5e3d 2148 2c3b 5692 c23c
00000060: 99fa 08bc 867a a8bc e9b5 883b 71e8 55bb
00000070: 9bc2 0ebc 948e c2bc 44de b4bb b94c 5f3c
00000080: 6753 303a 7acc 9d3b ddca 0cbc f770 65bc
00000090: d482 013d b604 443b 25b3 0abd 04d6 8c3c
000000a0: ed42 c8bc 0764 ac3c 870c 51bd 2f00 3b3e
000000b0: ab0c c2bc e60a 59bc bb07 593e 70f7 6b3c
000000c0: b487 143d f954 20bd bba3 03bc ad74 b3bc
000000d0: aa32 f6bc d005 25bb 3b67 7739 b755 67bd
000000e0: f4b0 86bd a202 103a 7e8a d2bc 77a7 6b3b
000000f0: 029d 3f3d b1c8 56bb 8dfc 0cbd 17ee efbc
00000100: 0ec6 febb df09 be3d 2f81 83bc 7cce 473c
00000110: d3e6 34bd c24a fabc 1caf 2ebc 759a 36ba
00000120: eac1 d93d 4b88 903c ea8e 733b 8f44 b6bd
00000130: c958 a2ba e5a0 9d3c 8436 14bb cd60 fe3b
00000140: 1b41 dcbc 57fe 5abd cc55 91bc dac3 ebbb
00000150: 0d54 c33c f063 873c 1c4f 713d 222a 703c
00000160: 80c4 45bb 98b1 a93c c352 b6bc 3b43 c33b
00000170: 2058 66bc aa99 5fbd 9751 053d b1ad 0e3c
00000180: 51d9 29bd 709c 8dbc d9ad c53c 8fa5 033c
00000190: c81a 073d 58f9 44bc b802 44bc e7eb a23b
000001a0: 196b 47bb b87d 313a be85 7cba 021d d33b
000001b0: 5dc1 c63c fcc1 963c 58e6 d23b 8498 36bd
000001c0: 859a 803c 86b7 87bc 598e d0bb 6925 cb3c
000001d0: 6908 2ebb 3e55 eebc 393c f7bc ddbe 603d
000001e0: 7e17 5b3d c51b 973d 55fd 003b e6e7 6038
000001f0: d67c aebc f018 be3e 7bf1 0e3d d6be a937
00000200: d9cc 583c 55f7 97bb 1ec7 b53a 3006 723e
00000210: c878 073d d8b6 c63c 8274 4f3d d805 23bc
00000220: 20a4 1d3e 9728 7bbc ff08 e13c 781d 81bb
00000230: ad86 993b 06ed 083c 870e 493b 77bb ad3e
00000240: d2b1 093c 4f8f 72bb 36ac 65ba 7cd2 1abe
00000250: 814e f23b ecf2 9e3b 724a b53c 0e3c 2c3d
00000260: b40d 2c3e 1948 cebb 780d e8bb 4718 533e
00000270: ab66 ba3b 112d ac3c 7362 6e3c 99ae 8a3e
00000280: e3cf fa3c 179b 0c3e 7a4d c93d b82d a73e
00000290: 2dcf c93d 0ab5 b6bc 4c72 6e3c c50e 8a3e
000002a0: 0052 993c d948 9fbc d6a3 4a3c 5881 16bd
000002b0: 7274 a63d c951 80bc 15d4 0a3d 9ae8 c9bc
000002c0: 60c6 08bd af37 b63c 9222 8e3b d1e2 bebc
000002d0: 0ea3 053e fb54 403e cf55 2cbc 6442 973c
000002e0: 6ed7 d1bc 89a7 86bc 8514 2e3e 2e0b 7f3c
000002f0: e497 013d ef1d 08bd 44ba e4bb 3856 873c
00000300: 9de9 3cbd faf7 f1bc ae3c 35bc c5d2 ddbc
00000310: fed9 80bb 840c 013d bd23 143c 3c9c f2bc
00000320: 2eb3 3fbc 1399 61bc 6ce2 85bc f691 3cbc
00000330: fbfb d6bb 94f0 12bd b12d 97bc 7b37 ab3d
00000340: 6738 293c 518a 403c 3844 52bc 623e db3d
00000350: c169 18bc 1ba6 0cbc 51a7 3f3d 5eb1 04bc
00000360: 8521 65bb 8f1e 04bc d3e8 33bb 360c 0f3e
00000370: 8409 d93e a7e1 6dba 8cd7 153d 4afb 333c
00000380: 373d ac3b c8fd 7bbb 4bd1 a23c c207 d63c
00000390: 6e36 b73d 9bbd 833b 1f04 3bbb 8d8c 883c
000003a0: 5f3e f43c d13d a9bb 7080 b13e c9bf 2c3e
000003b0: 799f 063d 626b 9ebb 1052 59bc ab69 0b3c
000003c0: 7026 b9bc 2f8a 9d3e 8bc4 0c3b 33f9 793a
000003d0: ec61 743b d0b1 0d3b 12fc 01bb a19c adbc
000003e0: aea9 443c 27ef b2bc c039 6b3d 6651 f9bc
000003f0: 6f50 dfbc ed17 013e 2e6a 4cbc 3d3a 75bc
