Saved_data_files/bpi_no_repeat/lr_all_variants/binary/EventPredictor_parameters_binary_1e-05.pt (torch, 280455 bytes, 8 tensors)

layer1.weight f4 [4, 1]
0.26561612 -0.47116253 0.5357068 -0.5688474
00000000: d6fe 873e 373c f1be 1524 093f fc9f 11bf

layer1.bias f4 [6]
0.036905445 0.05235631 -0.5509799 0.073619604 -0.3522329 0.1557843
00000000: 2a2a 173d 9273 563d 050d 0dbf e0c5 963d
00000010: df57 b4be eb85 1f3e

layer2.1.weight f4 [256, 6]
-0.39484662 0.3322564 0.120631434 -0.24962164 -0.19241768 -0.27924314 -0.3685171 -0.09724822
-0.19333725 0.18078563 -0.3725541 0.37117574 -0.4014318 -0.40920234 0.2580527 -0.50347924
-0.23405257 -0.052960936 0.30005562 0.22596335 -0.050947465 0.17809196 0.26536196 0.13885202
0.19162175 0.35692716 -0.012659364 0.29860055 0.4517887 -0.25687817 0.34595507 -0.34343636
0.116686285 0.14740975 0.29598913 0.0040606475 0.35394266 0.026741838 0.055025026 -0.35416493
0.15224351 -0.1502087 -0.059993364 -0.12429607 -0.095704645 -0.20228478 0.00048317068 0.25734165
-0.04280198 -0.26032564 -0.2912365 0.37579775 -0.15960024 0.20465878 0.053881627 0.3319675
-0.09893405 -0.15403755 0.09034615 0.0022988522 -0.17032129 -0.19463688 -0.22437371 0.16845083
-0.242345 -0.09004569 -0.17221044 0.26810223 -0.0264484 -0.008310271 0.19984636 -0.09917126
-0.3678742 0.19032297 -0.4467664 0.21344058 0.30759904 0.17381735 -0.24653725 -0.18907149
0.14433368 0.102152035 -0.05575434 0.29105547 0.36800835 -0.23064618 0.19787621 -0.27047166
0.6173563 -0.19102004 0.34791997 0.27361012 0.02442774 0.41951862 0.19669923 0.36574715
-0.3697504 0.0995673 0.104172304 -0.3096212 -0.10013057 -0.18091877 -0.26807454 0.2900486
0.06343329 -0.17400165 -0.033652894 0.056690294 -0.37792385 0.2017193 0.23907812 -0.41069728
-0.17135125 -0.079567455 0.13925189 0.07178434 0.35583833 0.3113723 -0.31627685 -0.22972037
-0.071629435 -0.16568124 -0.06725838 -0.3497947 0.09715244 -0.38078183 -0.07309839 0.18125233
-0.3326693 -0.1511656 0.16885175 -0.27755225 0.13389009 -0.08690912 -0.2211436 -0.14549568
0.2275174 0.10051803 -0.05395985 0.13111727 0.40615043 -0.26387215 -0.3059222 -0.12280797
0.044968512 -0.22363973 -0.0028529689 0.41688296 -0.14447895 -0.050194766 0.02393527 -0.19219959
-0.040571943 -0.20806384 -0.13583049 0.0024377445 0.21625434 -0.022565624 -0.13158044 0.2569842
-0.115608275 -0.24890643 0.10411654 -0.18357542 0.08439312 -0.10884476 -0.10859695 0.18571392
-0.20413132 0.020789128 -0.093500815 0.0610392 -0.13689673 0.3466804 -0.11962603 -0.06441049
0.026828399 0.3047603 0.022526052 -0.2613831 0.08974978 -0.3549348 -0.32015625 -0.3705365
-0.38367254 -0.33201045 -0.39736024 0.21585396 -0.3364085 -0.38417232 -0.19055302 -0.22103103
-0.034579184 -0.12505174 -0.018469471 -0.2289534 0.0005595117 -0.6288949 0.29577434 -0.070673876
0.11578154 0.31038514 -0.29396293 0.420759 -0.37312847 -0.23567395 -0.17957194 0.1552565
-0.15638697 0.23158655 -0.24578705 0.32879212 -0.11175568 0.35988694 -0.15734436 0.2707309
0.2841339 0.27379206 0.25088164 0.2775694 -0.24576153 -0.32421297 -0.19285975 0.20260642
-0.13708553 -0.23997228 -0.09602551 0.021810327 0.17604965 -0.08453823 -0.2808219 -0.25022876
0.010326572 -0.20009102 -0.37989855 0.16517103 -0.19008861 -0.1503973 -0.17497693 0.26887122
0.14133236 0.28389046 -0.34549528 -0.37915295 -0.24546175 0.39189956 -0.3734213 -0.10188711
-0.021987317 -0.051163595 -0.3466597 -0.15100157 -0.21625873 0.0670122 -0.06288199 -0.32692942
00000000: 5629 cabe 831d aa3e 9d0d f73d d19c 7fbe
00000010: 2409 45be f5f8 8ebe 46ae bcbe 132a c7bd
00000020: 33fa 45be de1f 393e 69bf bebe bf0a be3e
00000030: 7888 cdbe f882 d1be 7c1f 843e 04e4 00bf
00000040: 7aab 6fbe 91ed 58bd e4a0 993e f062 673e
00000050: 4aae 50bd bd5d 363e 86dd 873e 392f 0e3e
00000060: 7e38 443e 28bf b63e 3969 4fbc 2ce2 983e
00000070: d950 e73e 8985 83be 0621 b13e e4d6 afbe
00000080: 38f9 ee3d 95f2 163e e38b 973e 2e0f 853b
00000090: f937 b53e b311 db3c ec61 613d 1b55 b5be
000000a0: b9e5 1b3e 4fd0 19be 9abb 75bd f08e febd
000000b0: cc00 c4bd be23 4fbe 1252 fd39 49c2 833e
000000c0: 2151 2fbd 6749 85be f31c 95be 9068 c03e
000000d0: 3f6e 23be 1292 513e fbb2 5c3d a5f7 a93e
000000e0: ef9d cabd 05bc 1dbe 6707 b93d 57a8 163b
000000f0: b468 2ebe e44e 47be 39c2 65be 607e 2c3e
00000100: 4a29 78be e069 b8bd ef57 30be b244 893e
00000110: 51aa d8bc ce27 08bc 86a4 4c3e 4d1a cbbd
00000120: 025a bcbe 06e4 423e 91be e4be 2b90 5a3e
00000130: 9f7d 9d3e 2dfd 313e 4374 7cbe f59b 41be
00000140: 35cc 133e 1635 d13d aa5e 64bd 3905 953e
00000150: 976b bc3e 832e 6cbe 10a0 4a3e 437b 8abe
00000160: 100b 1e3f c29a 43be 9122 b23e a016 8c3e
00000170: af1c c83c 25cb d63e 866b 493e 3643 bb3e
00000180: ed4f bdbe f1e9 cb3d 4a58 d53d ac86 9ebe
00000190: 4211 cdbd c542 39be 1141 89be 4081 943e
000001a0: 50e9 813d 7d2d 32be 9ed7 09bd 1534 683d
000001b0: 3c7f c1be 818f 4e3e e5d0 743e ea46 d2be
000001c0: b476 2fbe 43f4 a2bd 0c98 0e3e ab03 933d
000001d0: 7130 b63e 316c 9f3e 0aef a1be d13b 6bbe
000001e0: 74b2 92bd 58a8 29be c3be 89bd 4a18 b3be
000001f0: dcf7 c63d d6f5 c2be 9cb4 95bd 369a 393e
00000200: a153 aabe 28cb 1abe 79e7 2c3e 541b 8ebe
00000210: 7c1a 093e 69fd b1bd 7873 62be d2fc 14be
00000220: 52fa 683e 66dc cd3d 0105 5dbd 9b43 063e
00000230: f3f2 cf3e 401a 87be d6a1 9cbe bf82 fbbd
00000240: e730 383d d001 65be e0f8 3abb af71 d53e
00000250: 4af2 13be 0799 4dbd e613 c43c f8cf 44be
00000260: c42e 26bd b00e 55be 2617 0bbe 91c2 1f3b
00000270: c771 5d3e 8bdb b8bc 06bd 06be 6f93 833e
00000280: 08c4 ecbd 54e1 7ebe 0d3b d53d 32fb 3bbe
00000290: 4dd6 ac3d 00ea debd 1468 debd ca2b 3e3e
000002a0: cd07 51be f64d aa3c 5b7d bfbd 3d04 7a3d
000002b0: a82e 0cbe 1880 b13e 7efe f4bd a6e9 83bd
000002c0: 3bc7 db3c 8b09 9c3e 8e88 b83c 01d4 85be
000002d0: bcce b73d 04ba b5be 85eb a3be f6b6 bdbe
000002e0: ba70 c4be 46fd a9be cd72 cbbe d208 5d3e
000002f0: bc3d acbe 3cb2 c4be 5520 43be f555 62be
00000300: e7a2 0dbd 900d 00be 4a4d 97bc c372 6abe
00000310: 32ac 123a 42ff 20bf bc6f 973e 77bd 90bd
00000320: df1e ed3d cdea 9e3e 4f82 96be b96d d73e
00000330: b20a bfbe 8354 71be b5e1 37be 8ffb 1e3e
00000340: e823 20be 0625 6d3e 9aaf 7bbe 7157 a83e
00000350: 29e0 e4bd 1a43 b83e e11e 21be 3e9d 8a3e
00000360: 007a 913e 792e 8c3e 8f73 803e 941d 8e3e
00000370: e9a8 7bbe 3eff a5be 077d 45be 0f78 4f3e
00000380: 2660 0cbe 4bbb 75be 06a9 c4bd 92ab b23c
00000390: 5c46 343e 6122 adbd e3c7 8fbe fc1d 80be
000003a0: c830 293c a9e4 4cbe 1082 c2be 9822 293e
000003b0: 97a6 42be c001 1abe 272d 33be 7da9 893e
000003c0: 6eb9 103e 175a 913e c2e4 b0be 5620 c2be
000003d0: 535a 7bbe 0fa7 c83e 1431 bfbe 30aa d0bd
000003e0: bf1e b4bc eb90 51bd 617d b1be 28a0 1abe
000003f0: ee72 5dbe b13d 893d 46c8 80bd 4b63 a7be

layer2.1.bias f4 [256]
-0.11110421 0.24138385 -0.16266134 -0.09167554 -0.26640028 0.07068682 0.09026425 -0.14621796
0.12468184 0.1893163 0.06741232 0.38378936 0.2685193 -0.27633783 -0.23565984 0.23219624
0.31380108 0.17471799 -0.27693647 -0.31461215 -0.26721972 0.28410968 -0.09659885 0.36769676
0.3636682 -0.26912963 -0.29319176 -0.3491841 0.18577553 -0.4513716 0.3410526 -0.016554236
-0.23850448 0.2552565 0.40614465 -0.26301742 0.19382678 -0.020466642 0.2491337 0.1624589
-0.20786138 -0.0628524 0.12312191 0.33066446 0.29964846 -0.41204128 -0.35162455 -0.37015355
0.06360932 0.4507371 0.022059085 -0.09277709 -0.21339077 -0.021800589 0.2103896 -0.14398408
-0.36215276 -0.2224565 0.18865953 0.30847317 -0.059084706 0.036100857 0.27041858 0.35052794
0.29572818 -0.30750513 -0.3744352 -0.4637138 0.40439323 0.17137972 0.23300335 -0.2933543
-0.1958457 0.15931214 -0.17452668 0.21808717 -0.34584397 -0.29815388 0.13782093 0.20610376
-0.18834847 -0.37126327 0.38175595 0.3061997 0.3423971 -0.0028128035 0.0733641 -0.07723052
-0.20170538 0.058671236 -0.042228863 -0.24991718 -0.07982465 0.024141453 0.1015006 -0.35950994
-0.14137335 -0.1949362 -0.0005645328 0.34825346 0.041696653 0.10049434 0.08060033 0.3854961
-0.23925309 0.0379527 -0.3405913 0.05718786 -0.21177907 0.031725705 0.29157624 0.053742174
0.25561434 -0.034941565 -0.39915097 0.05233811 0.3536685 -0.025180425 0.13389145 0.13696137
-0.110871114 -0.15994662 -0.14626463 0.2308465 0.32149798 0.24034895 -0.2570809 -0.10715916
-0.007948982 0.15496607 0.07522122 -0.18170935 -0.03108963 -0.09636589 0.3795574 0.31497023
0.1162351 0.10753695 0.37632236 -0.26672003 0.3837245 0.10740567 0.19921528 0.2575372
0.12572801 -0.38336143 0.10761852 0.2100915 0.24706197 -0.19155407 0.45124012 0.45028135
-0.33212695 0.27134964 0.19250596 -0.42198524 -0.34391153 0.4184141 0.27320313 0.26248515
0.29073694 -0.0072579333 0.39157102 -0.1162415 0.27722397 0.42829505 0.24417205 -0.40552026
0.005668729 0.41236037 -0.34454772 -0.3189137 -0.26410452 0.34316653 -0.15587185 0.06839867
0.09208848 0.12923574 -0.13386331 0.2911513 -0.29402676 -0.0097966725 0.12198276 -0.2893822
0.30654386 -0.027635492 -0.19779085 0.2594094 0.04326227 -0.027278716 0.31878227 -0.32360458
0.040274847 0.14844644 -0.3829903 -0.11994293 -0.410063 -0.10667393 0.24385296 0.48801932
0.015011892 -0.33322233 -0.32543522 0.17627616 0.30931583 0.2169184 -0.44324917 0.16510662
-0.4152411 -0.24775411 0.18934862 -0.08408704 0.20977853 0.3278149 -0.07635983 -0.13465111
-0.012924249 0.17921335 0.20255364 -0.015226756 0.044504516 0.109585345 -0.08507198 -0.21882641
0.011757914 -0.16229959 -0.067287095 -0.058215536 0.5181675 -0.1964611 0.34251797 0.104289025
-0.29175484 -0.22380264 0.25387192 0.20660985 -0.14102039 -0.034717366 0.13910073 -0.13798298
-0.27970323 -0.10829649 0.1235315 -0.21027575 0.061293375 -0.37231648 0.16319197 -0.36924613
0.1801793 0.059258066 0.20770994 0.31979483 0.42802772 0.034536052 0.275745 -0.35215902
00000000: 9b8a e3bd 542d 773e b290 26be 63c0 bbbd
00000010: 9e65 88be 40c4 903d 77dc b83d 29ba 15be
00000020: 3159 ff3d 22dc 413e 780f 8a3d 0a80 c43e
00000030: 5d7b 893e 277c 8dbe d050 71be dac4 6d3e
00000040: 89aa a03e 46e9 323e 9eca 8dbe d814 a1be
00000050: 06d1 88be d376 913e 9ed5 c5bd c042 bc3e
00000060: b832 ba3e 5ccb 89be 3b1d 96be 42c8 b2be
00000070: f13b 3e3e 2e1a e7be 729e ae3e c09c 87bc
00000080: 853a 74be fbb0 823e 31f2 cf3e 38aa 86be
00000090: 877a 463e a9a9 a7bc e81c 7f3e a05b 263e
000000a0: 9dd9 54be c2b8 80bd 5727 fc3d da4c a93e
000000b0: 866b 993e 13f7 d2be 2208 b4be c484 bdbe
000000c0: 9a45 823d 03c7 e63e 41b5 b43c ea01 bebd
000000d0: 1c83 5abe 2697 b2bc 5f70 573e 9070 13be
000000e0: 166c b9be a3cb 63be f72f 413e 32f0 9d3e
000000f0: ce02 72bd 7ede 133d 4e74 8a3e 6678 b33e
00000100: af69 973e 5071 9dbe f8b5 bfbe e56b edbe
00000110: a10c cf3e 2a7e 2f3e 6e98 6e3e 8932 96be
00000120: c68b 48be b922 233e 1fb7 32be 3e52 5f3e
00000130: 7612 b1be a0a7 98be ee20 0d3e dd0c 533e
00000140: 6cde 40be 3816 bebe 8475 c33e 35c6 9c3e
00000150: ac4e af3e 0357 38bb eb3f 963d 092b 9ebd
00000160: db8b 4ebe 4051 703d 2cf8 2cbd 4aea 7fbe
00000170: 1b7b a3bd 4cc4 c53c 8cdf cf3d b011 b8be
00000180: 2dc4 10be 5b9d 47be 28fd 13ba 474e b23e
00000190: 1cca 2a3d facf cd3d c911 a53d bf5f c53e
000001a0: c3fe 74be 4a74 1b3d fc61 aebe d13d 6a3d
000001b0: 9ddc 58be d0f2 013d 7b49 953e c120 5c3d
000001c0: e2df 823e e31e 0fbd 845d ccbe 7c60 563d
000001d0: 0a14 b53e 2e47 cebc d71a 093e 9a3f 0c3e
000001e0: 6510 e3bd 0cc9 23be 65c6 15be 0663 6c3e
000001f0: 629b a43e 091e 763e 1ca0 83be 4376 dbbd
00000200: 723c 02bc 6daf 1e3e 950d 9a3d 0412 3abe
00000210: aeaf febc 7b5b c5bd 5955 c23e c743 a13e
00000220: ab0c ee3d 553c dc3d 53ad c03e 878f 88be
00000230: 8a77 c43e 81f7 db3d 17ff 4b3e eadb 833e
00000240: d8be 003e f347 c4be 1967 dc3d 3a22 573e
00000250: d0fd 7c3e c026 44be f208 e73e 478b e63e
00000260: 8b0c aabe 57ee 8a3e 4820 453e 730e d8be
00000270: 2c15 b0be 5f3a d63e 48e1 8b3e 7464 863e
00000280: 79db 943e f5d3 edbb ff7b c83e 0610 eebd
00000290: 4df0 8d3e 7d49 db3e 3d08 7a3e 5aa0 cfbe
000002a0: bfc0 b93b e620 d33e 8f68 b0be a848 a3be
000002b0: b538 87be 86b3 af3e df9c 1fbe 9a14 8c3d
000002c0: e398 bc3d 6056 043e 7713 09be c811 953e
000002d0: ad8a 96be 3982 20bc 19d2 f93d e729 94be
000002e0: 51f3 9c3e d463 e2bc af89 4abe 4fd1 843e
000002f0: c733 313d 9d77 dfbc 6e37 a33e 80af a5be
00000300: 3df7 243d 5802 183e 4e17 c4be a4a4 f5bd
00000310: c7f3 d1be dd77 dabd 97b4 793e abdd f93e
00000320: 70f4 753c 1e9c aabe 729f a6be bd81 343e
00000330: a55e 9e3e db1f 5e3e 8ef1 e2be b611 293e
00000340: 7b9a d4be 41b3 7dbe 9be4 413e d335 acbd
00000350: 2fd0 563e 5bd7 a73e 8b62 9cbd fbe1 09be
00000360: 3bc0 53bc b483 373e 396a 4f3e a579 79bc
00000370: 5e4a 363d 486e e03d 383a aebd 0814 60be
00000380: 44a4 403c dd31 26be d1cd 89bd 6a73 6ebd
00000390: a0a6 043f 192d 49be 845e af3e 7c95 d53d
000003a0: e460 95be 852c 65be 80fb 813e 8891 533e
000003b0: a667 10be cc33 0ebd 6c70 0e3e 694b 0dbe
000003c0: 4335 8fbe 8dca ddbd 15fe fc3d 8752 57be
000003d0: c30e 7b3d 44a0 bebe cc1b 273e d40d bdbe
000003e0: ec80 383e 96b8 723d eab1 543e 26bc a33e
000003f0: 7326 db3e ad75 0d3d 732e 8d3e 304e b4be

layer2.3.weight f4 [256, 256]
0.029213104 -0.022521488 0.03986124 -0.028152192 -0.06643881 0.022835242 -0.034164213 0.016938392
0.050743613 -0.0363613 -0.06218415 -0.0068803253 -0.03473715 0.027770132 -0.053769376 0.01896188
0.009699742 -0.040386543 -0.0208881 -0.030630851 0.041634038 -0.01868988 0.013814122 -0.0823665
0.0555965 -0.059971552 0.066020966 -0.015501308 0.042769562 -0.016103445 0.0074915136 -0.029952316
-0.06782169 -0.001735091 -0.026144426 0.015468104 0.035199586 0.0487957 -0.07770664 -0.006645643
-0.0023715445 0.04593333 -0.025785474 0.0063346825 -0.009654166 -0.06439816 -0.045996584 -0.0063945963
0.019563245 -0.034107763 0.06435229 -0.056879498 0.021171367 0.0589438 0.04353799 -0.0438624
-0.024125926 -0.03002835 0.057877745 0.05036382 0.022450313 -0.059209567 -0.003450595 0.076748624
-0.019915348 -0.0008410008 0.0041232044 -0.049925122 -0.040888306 0.0040049423 -0.056783743 -0.0634392
0.024284666 0.07352711 -0.034007743 0.037222106 -0.009788503 0.051051117 -0.010163367 0.051420618
-0.025990305 -0.04071199 -0.0617023 0.06320061 0.054709673 -0.009528825 0.006620366 -0.047240634
0.09068681 0.0017513747 -0.021818511 -0.023176901 0.035174333 -0.009250936 0.057078976 0.051077947
-0.041146483 -0.040725064 -0.0062694894 0.08113257 0.018611347 0.042948168 0.031649888 -0.030067502
0.006378255 0.012208863 0.03604136 0.01191193 0.024201438 -0.024905125 0.044468123 0.03615026
-0.020738741 0.023145083 -0.019562948 0.011900277 -0.013617892 0.013666301 0.021780996 -0.015204074
-0.055539973 0.015627861 0.0063201906 0.03085735 -0.07516086 0.013602504 -0.031708628 0.016189998
0.01781686 0.055401932 -0.03715416 0.036981627 -0.029032432 0.055044923 0.019428875 0.0035971808
0.010486683 0.0036046635 -0.010197521 -0.08315657 0.004241061 0.008528665 0.001238074 0.019450538
-0.04973267 0.086890385 -0.04160987 0.020901203 -0.05824889 -0.03124194 0.049093354 0.06331749
-0.07984249 -0.0582671 -0.058098413 0.015863692 -0.02246211 0.026897807 -0.05688956 0.03035633
0.03653782 0.020810558 -0.07749797 -0.020392483 0.027669039 -0.023070347 0.011944202 0.038940676
-0.049757108 -0.031153692 -0.06514749 -0.046134632 0.0164679 -0.02864111 -0.029979927 0.051810164
-0.031272944 -0.061230574 0.009509872 0.0055522756 0.04570325 -0.069827564 -0.012699135 -0.037320137
-0.0043775784 0.012100532 -0.05603774 0.020125374 -0.026596585 0.017005276 -0.025675075 0.0021387606
0.032804538 0.004846261 -0.035921905 -0.031123973 0.018283272 0.025723439 0.032549374 0.042372946
0.02595567 0.049800266 -0.0588645 0.017071135 0.04006849 0.10889396 -0.06589678 -0.045538254
0.016905714 0.002927593 0.02424018 -0.018723559 -0.05173246 -0.017969297 -0.0062341006 -0.04800349
-0.016803918 0.0283175 0.004990255 -0.07337302 -0.044412587 -0.0690653 -0.0025129702 -0.030637112
0.07207485 0.026491158 -0.027767124 -0.041848876 0.039797924 -0.042840946 0.012035317 -0.04392809
-0.004671188 -0.033539023 0.059163384 0.026811678 -0.038638487 0.069657765 0.03224222 0.0109591875
0.035424042 0.003780088 -0.057322424 0.015547742 -0.058780916 0.0053768847 0.00041887013 -0.009084278
0.045503188 -0.023941556 0.030033981 -0.04874284 0.0034016585 0.0025591315 0.028816467 0.0044234795
00000000: 5250 ef3c fc7e b8bc 8a45 233d 6d9f e6bc
00000010: 1211 88bd f910 bb3c c6ef 0bbd 62c2 8a3c
00000020: 89d8 4f3d 96ef 14bd cfb4 7ebd 5a74 e1bb
00000030: 8b48 0ebd 307e e33c 473d 5cbd f255 9b3c
00000040: abeb 1e3c 5c6c 25bd 851d abbc 8ded fabc
00000050: 7488 2a3d 851b 99bc a154 623c c4af a8bd
00000060: 28b9 633d bba4 75bd 0036 873d 33f9 7dbc
00000070: 232f 2f3d 5feb 83bc 5f7b f53b 8f5e f5bc
00000080: 19e6 8abd fe6b e3ba d62c d6bc ee6d 7d3c
00000090: 712d 103d 00de 473d a924 9fbd b2c3 d9bb
000000a0: ea6b 1bbb 9624 3c3d 0f3c d3bc 2b93 cf3b
000000b0: 822c 1ebc 2fe3 83bd ea66 3cbd c389 d1bb
000000c0: 1943 a03c 95b4 0bbd 22cb 833d 7afa 68bd
000000d0: 936f ad3c 0e6f 713d e454 323d 0fa9 33bd
000000e0: bca3 c5bc 04fe f5bc 3711 6d3d 4b4a 4e3d
000000f0: b8e9 b73c bb85 72bd 6123 62bb 622e 9d3d
00000100: 8325 a3bc 9c76 5cba f21b 873b 497e 4cbd
00000110: 7f7a 27bd e43b 833b 1296 68bd 69ec 81bd
00000120: a3f0 c63c 6295 963d b44b 0bbd 3576 183d
00000130: f55f 20bc fa1a 513d 4084 26bc 6d9e 523d
00000140: 9fe9 d4bc 9ec1 26bd 8dbb 7cbd 526f 813d
00000150: 4017 603d ca1e 1cbc a8ef d83b 657f 41bd
00000160: 02ba b93d 628e e53a bcbc b2bc 7cdd bdbc
00000170: f612 103d 3d91 17bc a5cb 693d 1c37 513d
00000180: 3789 28bd 53cf 26bd 4a70 cdbb d528 a63d
00000190: d376 983c 6bea 2f3d 50a3 013d 1f50 f6bc
000001a0: ae00 d13b af07 483c 1ba0 133d 412a 433c
000001b0: 1842 c63c d505 ccbc 3524 363d 4c12 143d
000001c0: 4be4 a9bc c29a bd3c 7a42 a0bc 61f9 423c
000001d0: 941d 5fbc 9fe8 5f3c 0f6e b23c 821a 79bc
000001e0: e27d 63bd 0006 803c 9a19 cf3b 8ec8 fc3c
000001f0: f0ed 99bd 09dd 5e3c e8e0 01bd e3a0 843c
00000200: aaf4 913c 23ed 623d f62e 18bd 0c7a 173d
00000210: 6cd5 edbc c976 613d 4e29 9f3c aebe 6b3b
00000220: 56d0 2b3c 383c 6c3b 8113 27bc fe4d aabd
00000230: 99f8 8a3b d0bb 0b3c df46 a23a bc56 9f3c
00000240: 7cb4 4bbd 96f3 b13d 1c6f 2abd 0039 ab3c
00000250: 6396 6ebd 19ef ffbc 1d16 493d 9aac 813d
00000260: 7684 a3bd 7ca9 6ebd 9af8 6dbd 93f4 813c
00000270: 7502 b8bc ca58 dc3c 0705 69bd d7ad f83c
00000280: aea8 153d e77a aa3c 41b7 9ebd 230e a7bc
00000290: 2eaa e23c 06fe bcbc 9db1 433c 4280 1f3d
000002a0: 1cce 4bbd 0736 ffbc 0c6c 85bd abf7 3cbd
000002b0: b0e7 863c c3a0 eabc 7798 f5bc e536 543d
000002c0: 0f18 00bd e9cc 7abd 4bcf 1b3c ddef b53b
000002d0: 5533 3b3d c101 8fbd 0810 50bc 00dd 18bd
000002e0: ca71 8fbb 4f41 463c d487 65bd f8dd a43c
000002f0: 15e1 d9bc a64e 8b3c 8954 d2bc 732a 0c3b
00000300: 0d5e 063d 62cd 9e3b d922 13bd b4f7 febc
00000310: cdc6 953c f6b9 d23c 7e52 053d 418f 2d3d
00000320: fca0 d43c 5dfb 4b3d e71b 71bd c4d8 8b3c
00000330: db1e 243d cc03 df3d e4f4 86bd 5286 3abd
00000340: da7d 8a3c dcdc 3f3b 5893 c63c 2662 99bc
00000350: 6ae5 53bd 5934 93bc 6d47 ccbb 4f9f 44bd
00000360: 5fa8 89bc 1afa e73c 4b85 a33b 9844 96bd
00000370: f9e9 35bd 1c72 8dbd a5b0 24bb aefa fabc
00000380: fb9b 933d fc03 d93c e177 e3bc ba69 2bbd
00000390: 2603 233d fd79 2fbd c72f 453c f1ed 33bd
000003a0: c410 99bb 3760 09bd 4e55 723d 2aa4 db3c
000003b0: 6443 1ebd bba8 8e3d 6b10 043d 2a8e 333c
000003c0: cd18 113d 5abb 773b ebca 6abd f5bb 7e3c
000003d0: 42c4 70bd 9430 b03b cc9b db39 39d6 14bc
000003e0: 8d61 3a3d 1521 c4bc d309 f63c 92a6 47bd
000003f0: 5cee 5e3b 1ab7 273b 8310 ec3c d6f2 903b

layer2.3.bias f4 [256]
-0.02497427 -0.16719367 -0.16264568 0.12888321 -0.21660924 -0.0945818 0.19761299 0.2420515
-0.053162236 -0.06480979 -0.13497986 0.02872974 0.09060007 -0.15359862 -0.20920907 0.1909918
-0.056144517 -0.23511697 -0.17553203 -0.021260345 0.069001324 0.21775274 -0.14611986 0.24382414
-0.2275508 -0.093368195 -0.10104476 0.13494857 -0.005557862 -0.059536215 -0.004384315 0.09356937
0.077506326 0.047149308 -0.15013932 -0.26718733 -0.13735358 -0.18564439 -0.22131115 -0.056142528
0.07829181 0.31295714 -0.20300715 0.27606994 0.20346555 -0.19055493 -0.29468837 -0.17496444
-0.123472236 -0.17752628 -0.05016112 -0.2018536 -0.08040083 -0.03478157 0.15472323 -0.22355887
0.012198726 0.12815131 0.022959389 0.16092134 0.15491186 0.24311695 -0.22695413 0.30568436
0.22688454 -0.23864195 0.04866007 0.14553672 0.20667155 -0.082891375 0.06937046 0.3004973
0.112115815 -0.063164964 0.008631536 0.028622525 -0.18016578 -0.214924 0.020570135 0.26834622
0.20979728 0.040856976 0.13106106 -0.18495978 0.20306723 -0.2844856 -0.27240294 -0.12951373
-0.10322293 0.21256687 -0.02159229 0.035640933 0.031012587 -0.23381473 -0.0073994533 -0.028171819
-0.08695766 0.005981535 -0.28422046 0.12497312 -0.12187174 0.23269883 0.06346369 0.19556783
0.23303212 0.08624406 -0.12342842 -0.08664557 0.24172664 -0.004582504 0.088419504 0.12618347
0.29535028 -0.026087547 0.0070639374 0.16472931 0.15492056 0.14135131 0.03736674 -0.06820038
-0.14698352 -0.13656022 -0.20186062 0.13083048 0.13621077 -0.17499092 0.18350868 0.029127372
-0.29067183 0.23757964 -0.18855661 0.3917828 -0.15539305 0.07698874 -0.112201765 -0.20366874
0.18863411 0.27696794 0.1823907 0.17377967 0.1984676 -0.10104664 0.2268936 0.19682436
0.1164113 0.12466439 0.08081622 0.23812127 -0.03032624 -0.21824323 -0.008905199 0.110974856
0.109487794 -0.32804835 0.14527714 0.075419135 -0.18041591 0.14138116 -0.04680383 -0.19816598
0.1917491 0.030647488 0.22850567 -0.03588012 -0.18678576 0.13045268 0.005569264 0.08348356
0.18147105 0.11856866 0.11618668 -0.13231952 0.23874958 0.18703839 -0.3238958 0.3212214
-0.00852622 0.0123004075 0.15771574 -0.07385379 0.23195653 -0.17548935 0.24086498 -0.027502218
-0.22213498 -0.2363542 0.07471845 0.23144008 0.1488392 -0.32453233 0.16054933 -0.03702892
-0.18606526 0.09957011 -0.1199387 -0.07005364 -0.22193617 0.050661262 0.16268565 0.15233926
-0.079142764 -0.099054895 0.110041425 -0.19095874 -0.25433826 -0.116734706 -0.07197128 0.2870913
-0.16062792 0.07563784 -0.06652846 0.09731687 0.051026173 0.117254145 0.10325979 0.15045305
0.26418814 0.26829988 -0.18279621 0.017583346 0.22777551 0.14241014 -0.2549088 -0.22374165
-0.21316424 -0.06932096 0.12665157 0.09583563 -0.277729 -0.028366541 0.076513864 0.09413861
0.1857505 -0.032975107 0.15586238 -0.08417894 0.13355097 0.0598191 0.016761333 0.10809556
0.1287394 -0.040199436 -0.07181915 -0.22486678 -0.25607026 -0.007261349 0.0655525 0.33076057
0.059411697 -0.08316136 0.12791154 0.100605994 0.11905949 -0.08913589 0.21591996 -0.00785441
00000000: d796 ccbc d134 2bbe 978c 26be f6f9 033e
00000010: d0ce 5dbe 1ab4 c1bd 0f5b 4a3e 59dc 773e
00000020: a5c0 59bd ffba 84bd 2938 0abe a25a eb3c
00000030: 888c b93d f548 1dbe e73a 56be 5b93 433e
00000040: cbf7 65bd 81c2 70be abbe 33be 2d2a aebc
00000050: 9150 8d3d 93fa 5e3e 72a0 15be 09ad 793e
00000060: 1403 69be d337 bfbd 8ef0 cebd f52f 0a3e
00000070: ba1e b6bb 3fdc 73bd 4daa 8fbb 4ca1 bf3d
00000080: a3bb 9e3d a21f 413d 1fbe 19be c7cc 88be
00000090: 6ba6 0cbe 9019 3ebe 649f 62be b5f5 65bd
000000a0: 7557 a03d eb3b a03e 1be1 4fbe 0a59 8d3e
000000b0: 4659 503e d520 43be 65e1 96be e129 33be
000000c0: 03df fcbd 73c9 35be bf75 4dbd b6b2 4ebe
000000d0: 31a9 a4bd 1f77 0ebd c46f 1e3e 9eec 64be
000000e0: 2add 473c 193a 033e 5415 bc3c 90c8 243e
000000f0: 37a1 1e3e a6f3 783e aa66 68be a982 9c3e
00000100: 6c54 683e 8e5e 74be c84f 473d 9407 153e
00000110: b5a1 533e f4c2 a9bd 1a12 8e3d c8da 993e
00000120: fa9c e53d a25c 81bd 496b 0d3c c979 ea3c
00000130: 617d 38be 0915 5cbe b382 a83c ad64 893e
00000140: 19d5 563e a559 273d df34 063e 1966 3dbe
00000150: dbf0 4f3e 19a8 91be 6678 8bbe 3f9f 04be
00000160: 8b66 d3bd 21ab 593e 50e2 b0bc 3afc 113d
00000170: 1c0e fe3c 216d 6fbe 1d77 f2bb 96c8 e6bc
00000180: dc16 b2bd c100 c43b 5885 91be e8f1 ff3d
00000190: e497 f9bd 9a48 6e3e 40f9 813d ef42 483e
000001a0: f99f 6e3e baa0 b03d 0ac8 fcbd 3c73 b1bd
000001b0: 3087 773e d428 96bb 4915 b53d 3d36 013e
000001c0: 2738 973e 8db5 d5bc 9a78 e73b cdae 283e
000001d0: 7fa3 1e3e 66be 103e de0d 193d a4ac 8bbd
000001e0: d982 16be 71d6 0bbe 8db4 4ebe 6df8 053e
000001f0: d67a 0b3e d230 33be b3e9 3b3e 879c ee3c
00000200: f0d2 94be 1448 733e fc14 41be c197 c83e
00000210: 5b1f 1fbe 46ac 9d3d 0aca e5bd 8a8e 50be
00000220: 4d29 413e bece 8d3e a1c4 3a3e 4cf3 313e
00000230: 173b 4b3e 8af1 cebd cc56 683e 538c 493e
00000240: 0c69 ee3d 0b50 ff3d f982 a53d 10d6 733e
00000250: bc6e f8bc 277b 5fbe 1de7 11bc c946 e33d
00000260: 233b e03d f4f5 a7be 88c3 143e 5975 9a3d
00000270: f3be 38be 39c6 103e 5fb5 3fbd 06ec 4abe
00000280: e059 443e 7110 fb3c 64fd 693e 08f7 12bd
00000290: c444 3fbe 6395 053e 5f7e b63b 6ef9 aa3d
000002a0: 8cd3 393e 20d4 f23d 48f3 ed3d c57e 07be
000002b0: c57a 743e fe86 3f3e acd5 a5be 2277 a43e
000002c0: 8fb1 0bbc a687 493c 3c80 213e a840 97bd
000002d0: 0386 6d3e 7bb3 33be 4fa5 763e 554c e1bc
000002e0: 5a77 63be d606 72be fd05 993d a1fe 6c3e
000002f0: 4e69 183e 1a29 a6be 0b67 243e a3ab 17bd
00000300: e487 3ebe 6aeb cb3d 6ca2 f5bd 4878 8fbd
00000310: 3c43 63be 2f82 4f3d 1197 263e d3fe 1b3e
00000320: 9a15 a2bd 4bdd cabd 665d e13d b08a 43be
00000330: a038 82be 9b12 efbd ae65 93bd a2fd 923e
00000340: a57b 24be 03e8 9a3d 1340 88bd 114e c73d
00000350: d200 513d f122 f03d de79 d33d 5d10 1a3e
00000360: ab43 873e 9a5e 893e ee2e 3bbe f30a 903c
00000370: fc3d 693e f7d3 113e 6883 82be 881c 65be
00000380: ba47 5abe 26f8 8dbd f3b0 013e 7945 c43d
00000390: 7f32 8ebe f360 e8bc 4db3 9c3d becb c03d
000003a0: 6135 3e3e e810 07bd 639a 1f3e 0266 acbd
000003b0: 96c1 083e df04 753d 104f 893c 3461 dd3d
000003c0: 43d4 033e 2aa8 24bd eb15 93bd 7a43 66be
000003d0: a41b 83be 9cf0 edbb 6440 863d 7359 a93e
000003e0: ae59 733d 8150 aabd 3efb 023e 840a ce3d
000003f0: 76d5 f33d e18c b6bd 1f1a 5d3e c9af 00bc

layer2.6.weight f4 [7, 256]
0.07050318 0.06446542 -0.028445281 -0.0772269 0.17208849 -0.036433514 -0.1453711 -0.17923619
-0.01670271 -0.0079140095 0.0059085656 0.048620366 -0.06251277 0.09201504 0.16172145 -0.06897608
0.06391773 0.08387198 0.100402586 0.0481277 0.0015041165 -0.08146909 -0.007955885 -0.13674095
0.094791226 -0.008598176 0.0026303208 0.002068138 0.016651189 0.09484994 -0.031445548 -0.01941045
-0.034892205 -0.087171115 0.081178464 0.18554316 0.12052596 0.13054188 0.059614014 -0.0058303187
-0.0056249234 -0.2796117 0.06349281 -0.124493346 -0.06833709 0.059860256 0.29439998 0.11079139
0.06203574 0.013528178 -0.00080243184 0.14398874 0.006917348 0.037005592 -0.086621925 0.08017125
0.049129944 -0.035404403 -0.0070972573 -0.105081566 -0.016201904 -0.16024704 0.08654596 -0.23778309
-0.16786005 0.16206294 0.0032599182 -0.062209718 -0.10391597 0.08719349 0.035098758 -0.2696447
-0.021215184 -0.026458846 0.024132142 -0.0667207 0.11482101 0.12903833 0.08904159 -0.22435713
-0.09083047 -0.022798838 -0.12071425 0.0787351 -0.11281802 0.2040232 0.13357389 -0.019771056
-0.0030979912 -0.07730363 0.0038582908 0.012964953 0.03567191 0.030776115 0.009652568 0.058968812
0.082029775 0.09080021 0.13419311 -0.15738094 0.083439454 -0.06673024 -0.11182856 -0.14710486
-0.1458738 -0.052738056 0.04806249 0.027458714 -0.10438336 0.09461795 0.038658947 0.045393284
-0.16475783 0.03913721 -0.02226403 -0.088843696 -0.057916857 -0.06714133 0.04410752 0.090097934
0.09949858 -0.0029421365 0.023093356 -0.018867992 -0.082242556 0.029521357 -0.157855 0.020879552
0.13668878 -0.035565007 0.02822761 -0.11697068 0.08835551 -0.060562484 0.03686395 0.22147089
-0.06753978 -0.07750725 -0.11320275 -0.07001097 -0.07082604 -0.015468806 -0.055102292 -0.12034326
-0.098599926 -0.048838504 0.032923713 -0.13935977 0.05371401 0.15694718 0.044940468 -0.083468504
0.00825937 0.10811817 -0.10830808 -0.02189011 0.1255013 -0.036800936 0.012076141 0.024222072
-0.13053127 -0.10834129 -0.10163839 0.0429547 0.096472345 -0.06861189 0.009757743 0.004579985
-0.16615446 -0.016746376 -0.01630383 0.08877145 -0.033274323 -0.07726599 0.09601943 -0.31293204
-0.030747274 -0.067690566 -0.044798683 0.045559026 -0.074153975 0.11295208 -0.121280864 -0.009284686
0.07115448 0.12121243 0.023863072 -0.0855677 -0.06909907 0.2150772 -0.022676922 -0.03396163
0.060793858 -0.08870626 -0.0060216007 0.024875969 0.14746653 0.023910526 -0.004796023 -0.09763234
0.022522796 0.04902899 -0.0194939 0.10591202 0.16745162 0.031846277 -0.00074048416 -0.16394792
-0.014873387 0.014119516 -0.0010914473 -0.04046685 -0.008759262 -0.08049057 -0.014427532 -0.033876244
-0.1901824 -0.3303353 0.077565216 -0.059374183 -0.17482384 -0.06052748 0.048327573 0.16557333
0.19771503 0.055843305 -0.08173715 -0.047925085 0.13392036 0.0097857835 -0.05616119 -0.0004911035
-0.09270234 -0.009707194 -0.12520184 0.02963733 -0.101078525 0.03193867 0.001818995 0.032920323
-0.091777444 -0.057074096 -0.0044061146 0.02745528 0.14862713 -0.050905086 0.068725415 -0.34306017
0.0640989 0.06919335 -0.05774061 -0.01609095 -0.046339627 0.029687092 -0.16538385 -0.011251368
00000000: f963 903d 7206 843d 1406 e9bc 2329 9ebd
00000010: f737 303e 4f3b 15bd 29dc 14be b189 37be
00000020: 1fd4 88bc c3a9 01bc a49c c13b 2626 473d
00000030: b206 80bd 6272 bc3d 4f9a 253e 5543 8dbd
00000040: 4ce7 823d 13c5 ab3d df9f cd3d 8d21 453d
00000050: c625 c53a 44d9 a6bd 6659 02bc d205 0cbe
00000060: e721 c23d 5ddf 0cbc 7661 2c3b 9989 073b
00000070: 1368 883c af40 c23d 0ccd 00bd aa02 9fbc
00000080: 21eb 0ebd c586 b2bd e540 a63d 07ff 3d3e
00000090: 51d6 f63d c5ac 053e d32d 743d 420c bfbb
000000a0: 4751 b8bb 4429 8fbe 8508 823d 5ef6 febd
000000b0: 51f4 8bbd 0730 753d 98bb 963e 99e6 e23d
000000c0: 3019 7e3d 4ba5 5d3c 4a5a 52ba c971 133e
000000d0: ecaa e23b 2d93 173d d666 b1bd d330 a43d
000000e0: 7b3c 493d 3504 11bd 1c90 e8bb 0135 d7bd
000000f0: dbb9 84bc cd17 24be 023f b13d 697d 73be
00000100: 81e3 2bbe d4f3 253e 5aa4 553b 9ecf 7ebd
00000110: e5d1 d4bd 8092 b23d b7c3 0f3d df0e 8abe
00000120: 77cb adbc 39c0 d8bc c5b0 c53c dda4 88bd
00000130: 4727 eb3d a022 043e 705b b63d e0bd 65be
00000140: 5305 babd a1c4 babc 0839 f7bd de3f a13d
00000150: 220d e7bd 75eb 503e 98c7 083e e9f6 a1bc
00000160: ab07 4bbb 5e51 9ebd 61db 7c3b f46a 543c
00000170: b51c 123d 311e fc3c ce25 1e3c 4889 713d
00000180: 3aff a73d 76f5 b93d eb69 093e 7828 21be
00000190: 4ee2 aa3d dda9 88bd 5f06 e5bd a8a2 16be
000001a0: f15f 15be dc03 58bd 2cdd 443d 19f1 e03c
000001b0: f1c6 d5bd 0ec7 c13d d858 1e3d 4fee 393d
000001c0: 47b6 28be 574e 203d 0e63 b6bc aff3 b5bd
000001d0: 3a3a 6dbd 6581 89bd 16aa 343d 4485 b83d
000001e0: e9c5 cb3d dcd0 40bb 472e bd3c 0c91 9abc
000001f0: c96e a8bd c6d6 f13c bea4 21be 980b ab3c
00000200: 25f8 0b3e 9dac 11bd 973d e73c 538e efbd
00000210: bcf3 b43d 5e10 78bd a7fe 163d 44c9 623e
00000220: 4c52 8abd 1fbc 9ebd d8d6 e7bd e961 8fbd
00000230: 3e0d 91bd e070 7dbc f1b2 61bd 8776 f6bd
00000240: c2ee c9bd e20a 48bd 04db 063d 54b4 0ebe
00000250: 3903 5c3d c3b6 203e 7f13 383d 89f1 aabd
00000260: 4f52 073c 0f6d dd3d a0d0 ddbd e352 b3bc
00000270: 6a83 003e 94bc 16bd 02db 453c 5e6d c63c
00000280: fda9 05be 0ae2 ddbd ca27 d0bd 44f1 2f3d
00000290: 4b93 c53d 6484 8cbd f1de 1f3c b313 963b
000002a0: 6524 2abe b22f 89bc 9c8f 85bc cecd b53d
000002b0: a84a 08bd a23d 9ebd d6a5 c43d a138 a0be
000002c0: b5e1 fbbc 5aa1 8abd d37e 37bd 1a9c 3a3d
000002d0: 0ade 97bd 6c53 e73d 1a62 f8bd cc1e 18bc
000002e0: 71b9 913d 393e f83d 7d7c c33c 1e3e afbd
000002f0: d083 8dbd 333d 5c3e f4c4 b9bc 5a1b 0bbd
00000300: fb02 793d a1ab b5bd d950 c5bb b0c8 cb3c
00000310: 7701 173e 02e0 c33c f527 9dbb 77f3 c7bd
00000320: ba81 b83c 9fd2 483d acb1 9fbc 67e8 d83d
00000330: 7078 2b3e 3e71 023d 0d1d 42ba f7e1 27be
00000340: 82af 73bc 8b55 673c e50e 8fba 91c0 25bd
00000350: 0283 0fbc 3dd8 a4bd 7561 6cbc d1c1 0abd
00000360: 2dbf 42be b521 a9be 83da 9e3d 5832 73bd
00000370: 0505 33be aaeb 77bd 22f3 453d 0e8c 293e
00000380: cf75 4a3e f3bb 643d cf65 a7bd 184d 44bd
00000390: 6b22 093e 8d54 203c 4709 66bd 66bd 00ba
000003a0: b9da bdbd ec0a 1fbc e934 00be fcc9 f23c
000003b0: 4202 cfbd 1fd2 023d 586b ee3a 76d7 063d
000003c0: d0f5 bbbd 87c6 69bd 2b61 90bb e5e9 e03c
000003d0: b631 183e da81 50bd e9bf 8c3d 95a5 afbe
000003e0: 4946 833d 3eb5 8d3d 6b81 6cbd 2bd1 83bc
000003f0: 9fce 3dbd 5832 f33c 625a 29be a857 38bc

layer2.6.bias f4 [7]
-0.31985837 -0.4831967 -0.13733676 -0.22589599 -0.0038183224 0.04693935 0.1853605
00000000: 7ac4 a3be 8f65 f7be 02a2 0cbe 4751 67be
00000010: d23c 7abb 7a43 403d 25cf 3d3e
