Saved_data_files/bpi_no_repeat/lr_all_variants/binary/TimestampPredictor_parameters_binary_1e-05.pt (torch, 274311 bytes, 7 tensors)

layer1.weight f4 [4, 1]
0	0xbf586916	-0.8453535
1	0xbdd57557	-0.104227714
2	0x3e685f15	0.22692521
3	0xbe84dfc1	-0.2595196

layer1.bias f4 [6]
0	0x3f0d74d5	0.55256397
1	0x3f0f9d4b	0.56099385
2	0x3f1f5e5a	0.62253344
3	0x3f37581b	0.71618813
4	0x3f23f976	0.6405252
5	0x3f247a5c	0.64249206

layer2.1.weight f4 [256, 6]
0	0xbe9e5895	-0.30926958
1	0x3ecdc6e0	0.40190792
2	0x3e8cff22	0.275384
3	0xbe9b2541	-0.3030186
4	0x3e94d251	0.2906671
5	0xbe519878	-0.20468318
6	0xbea2ec4a	-0.318209
7	0x3e49a5a0	0.19692087
8	0xbeac4b53	-0.33651218
9	0x3e802150	0.25025415
10	0x3d8e7f7e	0.06957911
11	0xbdd60f52	-0.10452141
12	0xbdfc6936	-0.12324755
13	0xbcdabbc9	-0.026700871
14	0xbcec00ef	-0.028809039
15	0x3df9c24e	0.12195264
16	0xbea1c491	-0.3159528
17	0x3e2228d0	0.15835881
18	0xbad112b8	-0.0015951013
19	0x3e2e5c38	0.17027366
20	0x3eeeb9c6	0.4662611
21	0x3eae7f5c	0.34081542
22	0xbeab32a7	-0.33437082
23	0x3e2892ce	0.16462252
24	0x3e90347d	0.28165045
25	0xbea59960	-0.32343578
26	0x39a785ab	0.00031952313
27	0x3d287579	0.041127656
28	0x3e184333	0.14869384
29	0xbead47f1	-0.3384395
30	0xbe8aa50a	-0.2707904
31	0x3d0adb81	0.03390074
32	0x3dcbbf16	0.09948556
33	0x3e150a76	0.14554772
34	0x3f025925	0.50917274
35	0x3ec35ec4	0.38158238
36	0xbe8a5f19	-0.2702568
37	0xbecbf32c	-0.39833963
38	0x3e2302f3	0.15919094
39	0xbe1e86ac	-0.1548106
40	0x3e2f7857	0.1713575
41	0x3e800cd6	0.25009793
42	0xbeb22d44	-0.3480016
43	0xbe0ce3a5	-0.13758714
44	0x3b985847	0.0046491954
45	0x3ece18b8	0.40253234
46	0xbe5a19d4	-0.21298915
47	0x3e4ee39b	0.20204012
48	0xbea92a3c	-0.33040035
49	0xbe2dcb2a	-0.16972032
50	0xbe76caeb	-0.24100845
51	0x3ddff810	0.10935986
52	0xbe24112e	-0.16022179
53	0xbeb1be63	-0.34715566
54	0x3e5b83fa	0.21437064
55	0xbeb5e3f8	-0.3552549
56	0xbe64aed6	-0.2233232
57	0x3e0819e8	0.13291132
58	0x3e8fb4dd	0.28067675
59	0x3e8c3066	0.27380675
60	0xbe5af433	-0.21382217
61	0xbe5eb51d	-0.21748777
62	0x3c8a097d	0.016850227
63	0x3d886f2c	0.06661829
64	0x3ea80cd7	0.32822296
65	0xbdc35d07	-0.09539228
66	0xbe84b07b	-0.25915894
67	0xbe270db6	-0.16313824
68	0x3e90d3b6	0.28286523
69	0x3e815ec4	0.25267613
70	0x3da67c56	0.08129184
71	0x3d65527c	0.055986866
72	0x3d585ced	0.052822996
73	0xbe82c5d9	-0.2554157
74	0x3db50159	0.08838148
75	0x3e901f5e	0.2814893
76	0x3e98a372	0.298122
77	0x3e0b515b	0.13605253
78	0x3e22d3f3	0.15901165
79	0xbe9d3132	-0.30701596
80	0x3e72c6eb	0.23708694
81	0x3dc60d41	0.09670497
82	0x3d3b6828	0.045753628
83	0xbea62181	-0.32447436
84	0x3eaa5b32	0.33272702
85	0x3dc7e1de	0.097598776
86	0xbd12b1cb	-0.035814088
87	0x3e45d9cd	0.19321366
88	0x3e922eec	0.28551424
89	0x3d5f5eeb	0.05453388
90	0x3e70d8ed	0.2352025
91	0xbe39472f	-0.1809356
92	0xbeb5ec20	-0.35531712
93	0xbe822cb5	-0.25424734
94	0xbe07961c	-0.13240856
95	0x3ebd6b56	0.36995953
96	0x3caadf09	0.020858305
97	0xbeb545a8	-0.35404706
98	0x3e135680	0.14388466
99	0x3e9db810	0.3080449
100	0x3efb4d9d	0.49082652
101	0x3c273671	0.010205851
102	0xbe9a3b26	-0.30123252
103	0xbd8d665c	-0.06904289
104	0x3d515050	0.051101983
105	0xbdf4dd68	-0.119562924
106	0xbe15a1b0	-0.1461246
107	0xbe28a73e	-0.16470048
108	0x3e153278	0.14570034
109	0xbe53fee2	-0.20702699
110	0xba1884f2	-0.000581815
111	0x3e411b67	0.1885811
112	0x3efa9e8d	0.4894909
113	0x3eb15150	0.3463235
114	0x3ed078bb	0.4071711
115	0x3e0e6fbb	0.1390981
116	0x3e7acead	0.24492903
117	0x3de0c1fc	0.109744996
118	0xbd9efa92	-0.07762636
119	0x3e4d0506	0.20021448
120	0xbdd17590	-0.102275014
121	0xbe10cb29	-0.1414
122	0x3ec7a839	0.3899553
123	0x3de80c8c	0.11330518
124	0x3efd95db	0.49528393
125	0x3ba2e95b	0.004971666
126	0xbe8ca93b	-0.27472863
127	0xbe8f6410	-0.2800603
128	0x3ea0dd5d	0.31418887
129	0xbe40385d	-0.18771501
130	0xbd2654dc	-0.040608272
131	0xbdaa3266	-0.08310394
132	0xbdfb3ef7	-0.12267869
133	0x3e65a38e	0.22425672
134	0x3e7046c7	0.234645
135	0xbde2dce0	-0.11077285
136	0xbeab0300	-0.33400726
137	0x3e994f24	0.29943192
138	0xbda07027	-0.07833891
139	0x3ddda667	0.10822754
140	0xbea11744	-0.31463063
141	0xbd00c9ff	-0.03144264
142	0x3e874b73	0.2642475
143	0xbd67185b	-0.05641971
144	0x3eadf532	0.33976132
145	0xbd1cfc68	-0.03832665
146	0x3eab6d52	0.33481842
147	0xbdd2e5df	-0.10297751
148	0x3ef50d0e	0.47861522
149	0xbe167c4e	-0.14695856
150	0x3eb69326	0.3565914
151	0xbd907dae	-0.070552215
152	0x3ebe696d	0.37189808
153	0xbe7ddca1	-0.24791194
154	0x3eb8781f	0.36029145
155	0x3ec1ed2b	0.37876257
156	0x3e5a5753	0.21322374
157	0xbe7ae0b2	-0.24499777
158	0x3ee77a62	0.45210558
159	0x3e6d7445	0.23188885
160	0x3d026c62	0.031841643
161	0x3ae93b2a	0.0017794122
162	0x3ee30fe7	0.4434807
163	0x3e9f171a	0.31072313
164	0x3e3d6beb	0.18498199
165	0x3dea15b2	0.11429919
166	0x3df35d99	0.11883087
167	0xbea3dff9	-0.32006815
168	0xba8931ff	-0.001046717
169	0x3e5e38d0	0.2170136
170	0xbe9af4b7	-0.30264828
171	0x3e383e85	0.179926
172	0x3e56fb79	0.20994367
173	0x3e991f6b	0.29906783
174	0x3ec305a5	0.38090244
175	0xbe9c35cf	-0.30509803
176	0xbce97c21	-0.028501572
177	0x3e6ef498	0.23335493
178	0x3ee6704b	0.45007548
179	0x3eb6ea50	0.3572564
180	0x3e229c79	0.15880002
181	0x3ef59e01	0.4797211
182	0x3e706550	0.23476148
183	0x3d550b95	0.052013
184	0x3f006e46	0.50168264
185	0x3b402704	0.002932013
186	0x3e958c9d	0.29208842
187	0x3e9cf3ec	0.30654848
188	0xbe78ac44	-0.24284464
189	0xbe738244	-0.23780161
190	0xbe1636c2	-0.14669326
191	0xbdada288	-0.08478266
192	0xbe3d62e7	-0.1849476
193	0x3d885d86	0.06658463
194	0xbe1dd6e3	-0.15414004
195	0x3eab5eac	0.33470666
196	0x3a977022	0.0011553804
197	0x3e7ff3f7	0.24995409
198	0xbeb26a7d	-0.3484687
199	0x3eb43051	0.35193112
200	0xbe6c420f	-0.23072074
201	0x3dc26d21	0.09493471
202	0x3e1e969c	0.1548714
203	0xbdec854a	-0.1154886
204	0x3e6e93b5	0.23298533
205	0x3ee58200	0.44825745
206	0xbd814d58	-0.0631358
207	0x3de7488c	0.11293134
208	0x39be418d	0.00036288463
209	0xbe4fd79d	-0.20297094
210	0x3e815715	0.2526175
211	0x3e4d7fe5	0.20068319
212	0xbe733046	-0.23748884
213	0x3e0570ee	0.1303136
214	0xbea34993	-0.3189207
215	0x3e6033d5	0.21894772
216	0xbe760d9b	-0.24028628
217	0x3ef1dd17	0.4723899
218	0x3e2c8461	0.16847374
219	0x3d70888a	0.058723964
220	0x3eef73ea	0.46768123
221	0x3b364a74	0.0027815374
222	0xbe65943f	-0.22419833
223	0x3d5ad8b0	0.053429306
224	0x3ea83b3d	0.32857695
225	0x3e129bee	0.14317295
226	0xbec030eb	-0.3753732
227	0x3e7dd0ca	0.24786678
228	0x3d2e61d3	0.04257376
229	0x3e8173ee	0.2528376
230	0x3e9dcf1f	0.30822083
231	0x3e9dcbd1	0.30819562
232	0x39c11493	0.00036827158
233	0x3ebd2553	0.3694254
234	0xbe9ce01a	-0.30639726
235	0x3eb6ab68	0.35677648
236	0x3ed02012	0.40649468
237	0xbe95ec60	-0.29281902
238	0x3d2802e0	0.041018367
239	0x3eaa3786	0.33245486
240	0x3db644e7	0.08899861
241	0xbe95a09f	-0.29224107
242	0xbeaf2ffc	-0.34216297
243	0xbd7f8c11	-0.062389437
244	0xbd3e741e	-0.046497457
245	0x3e35e70d	0.1776392
246	0xbe7aba41	-0.24485113
247	0x3e927bff	0.28610227
248	0x3dc96ad1	0.09834827
249	0x3e782e8d	0.24236508
250	0x3e073483	0.13203625
251	0x3e1f1ff0	0.15539527
252	0x3eb483a0	0.35256672
253	0xbe5e674c	-0.21719092
254	0xbec9b3c4	-0.39394963
255	0xbe2fc84b	-0.1716625

layer2.1.bias f4 [256]
0	0xbcc9de42	-0.024642114
1	0x3d8bc94d	0.068255045
2	0x3e1bb460	0.15205526
3	0x3f2f3875	0.6844552
4	0x3f38ee9e	0.722391
5	0x3f7e3524	0.99299836
6	0xbe3218e5	-0.17392309
7	0xbed1e57e	-0.409954
8	0xbe7975ff	-0.24361418
9	0x3e150fac	0.1455676
10	0x3f62214c	0.88332057
11	0xbf263951	-0.6493121
12	0x3ec2be14	0.38035643
13	0x3f310081	0.69141394
14	0x3fa0a226	1.2549484
15	0x3cc124a1	0.023577036
16	0x3f8d4367	1.1036195
17	0xbea5f8b7	-0.32416317
18	0x3f868585	1.0509497
19	0x3f57b428	0.8425927
20	0x3f9d0deb	1.2269872
21	0xbec37d13	-0.38181362
22	0x3f0d9d18	0.5531783
23	0xbc6e7b06	-0.014555698
24	0x3ef4dde5	0.47825542
25	0x3f879a43	1.0593952
26	0x3f1b2d0e	0.60615623
27	0x3f6c3fba	0.9228474
28	0x3ef92451	0.4866052
29	0x3f3624e9	0.7115007
30	0x3fa232b3	1.2671722
31	0xbe6db7a0	-0.23214579
32	0xbd72a876	-0.059242688
33	0x3e5c4fb7	0.21514784
34	0x3f315f4a	0.69286025
35	0x3f0f907d	0.56079847
36	0x3f9dd5b1	1.2330838
37	0xbcd22b01	-0.025655271
38	0x3f28efd6	0.6599096
39	0x3f546ba5	0.8297675
40	0xbedb686b	-0.42853102
41	0x3f48212b	0.7817561
42	0xbed4811c	-0.41504753
43	0x3ed497e8	0.41522145
44	0xbda01078	-0.07815641
45	0xbec74f5f	-0.38927743
46	0x3eb29ff3	0.34887657
47	0x3f5c92df	0.8616161
48	0x3f6f8841	0.9356728
49	0x3e12a436	0.14320454
50	0xbb0dc79d	-0.0021633871
51	0x3f866df0	1.05023
52	0xbf096aa2	-0.53678334
53	0x3f6b4f74	0.9191811
54	0x3f32bd0a	0.698197
55	0xbd287b8e	-0.041133456
56	0x3eae0900	0.3399124
57	0x3edf0880	0.43561172
58	0x3f459b1e	0.77189815
59	0xbf19fa37	-0.6014742
60	0x3f249d30	0.6430235
61	0xbecac0ac	-0.39600122
62	0x3efa44f3	0.4888073
63	0xbe105b2b	-0.14097278
64	0x3f79b1e6	0.97537076
65	0xbf227318	-0.6345687
66	0x3ec100d2	0.37695938
67	0xbf506e1e	-0.81418025
68	0x3f2f65ee	0.6851491
69	0xbf1a7227	-0.6033043
70	0xbe5f5466	-0.21809539
71	0xbcc9b8e2	-0.024624292
72	0x3f0382cc	0.51371455
73	0xbcb5e3cb	-0.022203347
74	0x3b96414b	0.0045854202
75	0x3ed5e613	0.41777095
76	0x3f2a3c26	0.6649803
77	0x3ebf155e	0.3732099
78	0xbed1ccbe	-0.40976518
79	0x3f44d2b2	0.76883996
80	0x3bf7e73d	0.0075654075
81	0xbf074570	-0.5284033
82	0xbd314017	-0.04327401
83	0xbf3e7403	-0.7439577
84	0x3f576053	0.84131354
85	0x3f149aaf	0.5804853
86	0xbae3a7e0	-0.0017368756
87	0xbd435729	-0.047690544
88	0xbf37aa00	-0.71743774
89	0x3f18216e	0.5942601
90	0x3f013916	0.5047773
91	0xbe94c8b8	-0.29059386
92	0x3f279294	0.65458035
93	0x3f8a4e9d	1.0805241
94	0x3e09e952	0.13467911
95	0x3d6de295	0.058077414
96	0x3ec00cb0	0.3750968
97	0x3f4c14b1	0.7971907
98	0xbe08f1f6	-0.13373551
99	0x3f5afbef	0.8554067
100	0x3f79c524	0.9756644
101	0xbec1ee6c	-0.37877214
102	0x3e91c739	0.28472307
103	0xbeef500d	-0.4674076
104	0x3f3fdb0a	0.749436
105	0x3f3e705f	0.74390215
106	0x3fa39beb	1.2781957
107	0x3ebc710c	0.36804998
108	0x3e8c0729	0.27349213
109	0xbe64ffe6	-0.22363243
110	0x3de2118e	0.110385045
111	0xbd4928fa	-0.049111344
112	0x3df6e4c1	0.1205535
113	0xbe7ecae0	-0.24882078
114	0xbd42d5e7	-0.047567274
115	0x3f85a657	1.0441388
116	0x3f5c49c9	0.8605009
117	0x3d62f861	0.055412654
118	0xbc697da1	-0.014251144
119	0x3d619f49	0.055083547
120	0x3f3878d5	0.72059375
121	0x3f56302b	0.8366725
122	0x3e07f171	0.13275696
123	0xbebca0d0	-0.3684144
124	0xbda3f93e	-0.080065235
125	0x3e471c50	0.19444394
126	0x3ed8031e	0.42189878
127	0xbf1d2580	-0.61385345
128	0xbef3d801	-0.47625735
129	0xbf264984	-0.64955926
130	0x3f979cb4	1.1844697
131	0xbcb96b9a	-0.022634316
132	0x3ef287a6	0.47369117
133	0xbe8881c1	-0.26661494
134	0xbee3e336	-0.44509286
135	0x3f59f0b7	0.85132927
136	0x3f4079cc	0.7518585
137	0xbd07cbf1	-0.033153478
138	0x3e3de8c2	0.18545821
139	0xbe769ceb	-0.24083297
140	0x3ed59533	0.41715392
141	0xbed00568	-0.40629125
142	0x3f3b5316	0.73173654
143	0x3f0e2603	0.5552675
144	0xbe95e6e8	-0.2927773
145	0xbe5a7098	-0.21332014
146	0x3ef1e313	0.47243556
147	0xbec5d74e	-0.38640827
148	0x3e0d359e	0.13789985
149	0x3da2a5ab	0.07941755
150	0xbf210842	-0.62903225
151	0x3ea5e5e3	0.32401952
152	0x3f2b52f5	0.6692346
153	0xbe70112d	-0.23444052
154	0x3e04e442	0.12977698
155	0xbecbf5e7	-0.39836046
156	0x3ee4a336	0.4465577
157	0x3f8a7b35	1.081885
158	0x3f3bf33f	0.7341804
159	0x3f1fbfd4	0.6240208
160	0x3edacb5a	0.4273327
161	0x3f036ac6	0.513348
162	0xbd3248b1	-0.043526355
163	0x3faa1d2c	1.3290153
164	0x3ea9fad3	0.33199176
165	0xbed4c8de	-0.415595
166	0x3f73f3a7	0.9529366
167	0xbd476aea	-0.048685946
168	0x3f198876	0.5997385
169	0xbbc62ea0	-0.0060480386
170	0xbedc516b	-0.43030867
171	0x3e1c59b4	0.15268594
172	0x3f704ca4	0.93866944
173	0x3f4bf626	0.7967247
174	0xbe85edbd	-0.26157942
175	0x3de7392d	0.11290202
176	0xbf2a2c8e	-0.66474235
177	0x3f2e1dd2	0.6801425
178	0xbe3335a1	-0.17500927
179	0x3f34d779	0.70641285
180	0x3f0f3406	0.55938756
181	0xbe699fd4	-0.22814876
182	0xbe3980b9	-0.1811551
183	0x3f0b47f3	0.5440666
184	0x3ea38277	0.31935474
185	0x3f69b94c	0.91298366
186	0xbaff06af	-0.0019456948
187	0xbf2d12b3	-0.6760666
188	0xbed336fa	-0.4125288
189	0x3d9834e6	0.074319646
190	0xbe58eaa9	-0.21183266
191	0x3f70f875	0.94129115
192	0x3e939225	0.28822437
193	0xbf8fea12	-1.1243308
194	0xbf091f0e	-0.5356301
195	0xbec0412e	-0.37549728
196	0xbe7e7e85	-0.24852951
197	0xbe9eefbc	-0.31042278
198	0x3f0de21a	0.5542313
199	0x3f5da3c4	0.8657801
200	0x3f7da244	0.9907572
201	0xbe4a1c0b	-0.1973726
202	0xbd57339b	-0.05253945
203	0xbf4781c0	-0.7793236
204	0x3f626ace	0.8844422
205	0x3e88f8ea	0.26752406
206	0xbe9457f0	-0.2897334
207	0x3f3e23f2	0.742736
208	0x3f53109b	0.8244721
209	0x3f0b46aa	0.544047
210	0x3f13dbd4	0.57757306
211	0x3de03a29	0.10948593
212	0xbe1b0ae7	-0.15140878
213	0xbda7be7d	-0.0819063
214	0x3f2e20ba	0.68018687
215	0x3f0f1554	0.5589192
216	0xbc1651a6	-0.00917474
217	0x3f8497d1	1.0358831
218	0x3f053b22	0.52043355
219	0xbef377c8	-0.47552323
220	0xbf136648	-0.57577944
221	0xbe998df5	-0.29991117
222	0x3ef6fffb	0.48242173
223	0xbe996118	-0.2995689
224	0x3faa0e81	1.3285676
225	0xbf283078	-0.6569896
226	0x3e85b78a	0.26116592
227	0x3da11089	0.07864482
228	0x3e9b8d3c	0.3038119
229	0x3eaf90e2	0.34290224
230	0xbe865cd2	-0.2624269
231	0xbea827ca	-0.32842857
232	0x3f8ac552	1.0841467
233	0xbec9cc9b	-0.39413914
234	0x3fa0b10b	1.2554029
235	0x3f810e39	1.0082465
236	0xbf320d82	-0.6955186
237	0x3f295ee8	0.6616044
238	0xbe987acc	-0.29781187
239	0x3f162419	0.5864883
240	0xbee6d666	-0.45085448
241	0xbe61e28d	-0.22059079
242	0xbe0f256a	-0.13979116
243	0x3f556a70	0.83365536
244	0x3f004a49	0.5011335
245	0xbf02788e	-0.509652
246	0xbf1625ff	-0.5865173
247	0xbf328bcc	-0.69744563
248	0x3ef7420d	0.4829258
249	0x3eeae0f0	0.4587474
250	0x3efad13a	0.48987752
251	0xbeb20058	-0.34765887
252	0x3e732002	0.23742679
253	0xbf1a4ceb	-0.6027362
254	0x3ec3f8fd	0.382759
255	0x3f6a6c21	0.9157124

layer2.3.weight f4 [256, 256]
0	0xbce16268	-0.027512744
1	0xbd3de4bb	-0.046360712
2	0xbd29bde9	-0.041440878
3	0x3cc405cd	0.023928547
4	0x3d3fd737	0.046836104
5	0xbd7a3fd3	-0.061096024
6	0x3ca09a4e	0.019604828
7	0xbd28bf72	-0.0411982
8	0x3c3710a9	0.011173406
9	0xbd5b5b59	-0.053553913
10	0x3c041350	0.008061245
11	0xbd819a97	-0.06328314
12	0x3cc3119a	0.023812104
13	0x3cf11ff0	0.029434174
14	0x3b988054	0.00465397
15	0x3d15a704	0.03653623
16	0x3d4a8a52	0.04944832
17	0xbc8f809f	-0.017517386
18	0xbd4b2637	-0.04959699
19	0xbc802c28	-0.015646055
20	0x3d607cee	0.054806642
21	0xbd0f49d4	-0.034982517
22	0x3d49ee14	0.049299315
23	0xbd0f0242	-0.034914263
24	0xbcb2c804	-0.02182389
25	0xbccdc6d6	-0.025119226
26	0xbc9a41df	-0.018830238
27	0xbd22e99c	-0.03977357
28	0xbb2775fe	-0.0025552507
29	0xbce26bdb	-0.02763932
30	0x3d197726	0.037467144
31	0xbd435bd1	-0.047694985
32	0x3d50e5e2	0.051000483
33	0x3d207847	0.039177205
34	0x3d3151bf	0.04329085
35	0xbbfd2a67	-0.007726002
36	0xbd5ddae7	-0.05416384
37	0x3ba62d85	0.0050713443
38	0xbd2a936b	-0.041644495
39	0xbd691079	-0.056900475
40	0x3d38b8c9	0.0450981
41	0x3d1aee75	0.037825067
42	0xbd2d5ffa	-0.04232786
43	0x3d25e6eb	0.040503424
44	0xbb36f816	-0.0027918867
45	0x3d506ecc	0.050886914
46	0x3c87c9ad	0.016575659
47	0xbd69294a	-0.056924142
48	0x3d4331e6	0.04765501
49	0xbd4f0d86	-0.050550006
50	0xbd27ba8a	-0.040949382
51	0xbd333e54	-0.043760613
52	0xbd70df6d	-0.058806825
53	0xbd7f2098	-0.062286943
54	0x3d265ef3	0.040617894
55	0xbca930cf	-0.020653157
56	0xbd33dc46	-0.04391124
57	0x3c06b142	0.0082209725
58	0xbd25cba7	-0.04047742
59	0x3bce1dbb	0.0062901652
60	0x3cab5c16	0.020917933
61	0x3cf060f5	0.029343108
62	0xbd2e4be8	-0.04255286
63	0xbd652f73	-0.055953454
64	0x3d48042d	0.048832107
65	0xbc890187	-0.016724361
66	0x3d3329b5	0.043740947
67	0x3ce94639	0.028475868
68	0xbd4e53c9	-0.050372873
69	0xbd2e764d	-0.04259329
70	0xbb9b0581	-0.0047308807
71	0x3d01efae	0.031722717
72	0xbd5ed7b6	-0.054404937
73	0xbcc3d7c6	-0.0239066
74	0xbcbe7fb1	-0.023254247
75	0x3d23a2ee	0.039950304
76	0xbce519ba	-0.027966369
77	0x3d075cc2	0.033047445
78	0xbd5ac7cc	-0.053413197
79	0xbd445641	-0.04793382
80	0x3bbda1ae	0.005787096
81	0xbc8b3466	-0.016992759
82	0xbd5a515d	-0.05330025
83	0xbd1af3ef	-0.03783029
84	0xbd886b35	-0.06661073
85	0x3d26438b	0.040591758
86	0xbc2c9e83	-0.010535839
87	0x3d2c8e5a	0.042127945
88	0x3d1aac0b	0.03776173
89	0x3d407f99	0.046996687
90	0x3d551038	0.05201742
91	0xbcb70582	-0.022341494
92	0xbd6ac898	-0.057320207
93	0x3baca944	0.0052692015
94	0xbd485d43	-0.048917066
95	0xbd8c42de	-0.068486914
96	0xbd095583	-0.033528816
97	0x3d3d769d	0.046255697
98	0xbcbaf3ce	-0.022821333
99	0xbcbc8c95	-0.023016253
100	0xbd1cd0c3	-0.03828503
101	0xbc9e805e	-0.01934832
102	0xbd3d52ea	-0.04622165
103	0x3d196e45	0.037458677
104	0xbc084519	-0.008317255
105	0xbc4ef19e	-0.012630848
106	0xbcf1bb06	-0.029508125
107	0xbd4868ab	-0.048927944
108	0x3b2a23da	0.002596131
109	0xbd4531c8	-0.04814318
110	0x3c8b442e	0.017000284
111	0xbc74bb9d	-0.014937309
112	0x3cf67600	0.030085564
113	0x3c9af868	0.018917277
114	0x3d09fa53	0.033685993
115	0xbd3d6f32	-0.046248622
116	0x3cc38972	0.02386925
117	0xbd5c5518	-0.05379209
118	0x3cf21d47	0.029554976
119	0x3cfabe44	0.030608304
120	0x3cba580e	0.022747066
121	0xbc42e7db	-0.011896099
122	0x3bb7f70e	0.005614168
123	0x3d540285	0.051760215
124	0x3d2b7174	0.041856244
125	0x3c04dd9b	0.0081094755
126	0xbcb01d87	-0.021498455
127	0xbb425daf	-0.002965789
128	0xbcb3fa8b	-0.021970054
129	0xbbef01b9	-0.0072939065
130	0x3cab72b8	0.020928726
131	0xbd77fd74	-0.060544446
132	0xbd4c1fa5	-0.049834866
133	0xbc9e26c2	-0.01930559
134	0xbcf4c81c	-0.029880576
135	0xbccd5c1f	-0.02506834
136	0xbd4a7401	-0.049427036
137	0xbc8f8787	-0.01752068
138	0x3c0e6de8	0.008693196
139	0xbd22388c	-0.03960471
140	0xbcac79ab	-0.02105411
141	0x3b2c0b67	0.0026251914
142	0x3d05f1b8	0.032701224
143	0xbceebc6b	-0.029142579
144	0xbd7f7a4c	-0.06237249
145	0x3c2134f0	0.009839281
146	0x3b98ea27	0.004666585
147	0xbd5c457a	-0.053777196
148	0xbb9bb5a6	-0.004751879
149	0x3d18e0f4	0.037323907
150	0x3c7bcb4c	0.015368294
151	0xbbbe4baa	-0.0058073597
152	0xbc96773e	-0.018367406
153	0xbd81ab5e	-0.06331514
154	0x3d38e6f7	0.04514214
155	0x3c9a3198	0.018822476
156	0x3d3d8d25	0.046277184
157	0x3d1c5d3f	0.038174864
158	0xbcd91c3f	-0.026502727
159	0xb8312a9a	-4.2239764e-05
160	0xbc04872d	-0.008088869
161	0xbcfec4bd	-0.031099671
162	0xbc2d1c08	-0.010565765
163	0x3d11706d	0.03550761
164	0xbcde4c1b	-0.0271359
165	0xbd61835c	-0.055056915
166	0xbd7f325e	-0.062303893
167	0xbc825837	-0.015911205
168	0x3d55de7c	0.05221413
169	0xbc29f199	-0.010372543
170	0xbccb3f13	-0.02481035
171	0x3d45b334	0.048266605
172	0x3c78d84e	0.01518829
173	0xbd7081de	-0.0587176
174	0xbd835429	-0.06412537
175	0xbd224c1b	-0.03962336
176	0xb975a1c8	-0.00023425289
177	0xbc3159ae	-0.010824604
178	0xbce157e9	-0.02750774
179	0xbbf00eeb	-0.007325997
180	0x3d17ffde	0.03710925
181	0x3d2ebb7c	0.042659268
182	0x3c8424da	0.016130853
183	0x3d24b215	0.040208895
184	0x3d22af9a	0.039718248
185	0xbcf996a2	-0.030467335
186	0x3d541a1e	0.05178272
187	0x3ccc24e8	0.024919942
188	0xbc6fab4e	-0.014628245
189	0x3d2108fb	0.039315205
190	0x3b073020	0.002062805
191	0xbc23360a	-0.009961614
192	0x3d42647d	0.047459114
193	0x3c7f9b9d	0.015601066
194	0xbd88ab3e	-0.06673287
195	0x3d21e553	0.03952534
196	0xbc49a078	-0.012306325
197	0xbd835b74	-0.06413928
198	0xbd1c213a	-0.038117625
199	0xbc742888	-0.0149022415
200	0x3d10a5c6	0.035314344
201	0xba8bf25b	-0.0010677086
202	0x3d632af9	0.055460904
203	0x3bc88a9f	0.0061200405
204	0x3d42142a	0.04738251
205	0x3cd54a66	0.026036453
206	0x3d467e4c	0.04846029
207	0xbd251608	-0.040304214
208	0x3c84f366	0.016229343
209	0xbd282bfa	-0.041057564
210	0xbd8ad55f	-0.067789786
211	0x3aeec54f	0.0018216762
212	0x3cbad804	0.022808082
213	0xbbfe946f	-0.0077691595
214	0xbd8b7659	-0.068096824
215	0xbca89cdc	-0.020582609
216	0xbbb4ccaa	-0.005517562
217	0xbccf81c1	-0.025330426
218	0x3d6876a7	0.05675378
219	0x3d623e1c	0.055235013
220	0x3ceb71df	0.028740821
221	0xbb647995	-0.0034862508
222	0x3c24f68f	0.01006855
223	0xbc249e25	-0.01004747
224	0x3ccb4740	0.024814248
225	0xbc219da9	-0.009864249
226	0xbcfed926	-0.031109404
227	0x3d14dc14	0.036342695
228	0x3d1d5114	0.0384074
229	0xbd64a0f6	-0.055817567
230	0xbd0dcc76	-0.034618817
231	0xbc831563	-0.016001409
232	0x3c3714e5	0.011174415
233	0xbc9a371b	-0.018825104
234	0x3c033c46	0.008009976
235	0xbc63fc8f	-0.013915195
236	0x3d64b04d	0.055832196
237	0xbb50e21e	-0.0031873058
238	0xbbe4acb4	-0.0069785956
239	0xbcc5b78e	-0.024135377
240	0xbc8dee27	-0.017325474
241	0x3abc9e9c	0.0014390531
242	0x3c18e02b	0.00933079
243	0xbd1ff285	-0.039049644
244	0x3d6d1510	0.057881415
245	0x3c10103e	0.008792935
246	0x3cce79b9	0.025204526
247	0x3c26f3d5	0.01018997
248	0xbd8dfaa7	-0.06932574
249	0xbd81e748	-0.063429415
250	0xb9dae921	-0.00041753895
251	0xbc8c9319	-0.017159985
252	0x3cf0523d	0.02933609
253	0x3d18c0ee	0.037293367
254	0xbd64997e	-0.055810444
255	0xbcc5c26c	-0.02414056

layer2.3.bias f4 [256]
0	0x3d8978e5	0.06712512
1	0x3f3c0163	0.73439616
2	0xbda71cb6	-0.08159773
3	0x3f406ade	0.75163066
4	0xbe71a51c	-0.2359814
5	0x3f03e786	0.5152515
6	0xbdc8b91a	-0.0980093
7	0x3f29ee96	0.6637968
8	0x3f37c4f2	0.7178489
9	0x3d913aec	0.070913166
10	0xbe496a8b	-0.19669549
11	0x3e81fe9b	0.2538956
12	0xbcd28b18	-0.02570109
13	0x3ce05322	0.02738339
14	0x3f415c8b	0.75531834
15	0xbd41e796	-0.04734
16	0x3f404ea4	0.75119996
17	0x3f283011	0.65698344
18	0xbe8913d2	-0.26772934
19	0xbe792c5d	-0.2433333
20	0xbe840478	-0.2578466
21	0xbce3accc	-0.027792357
22	0xbe730337	-0.23731695
23	0xbd26ecbf	-0.040753122
24	0x3f308eb3	0.6896774
25	0xbba22dd0	-0.004949309
26	0xbd7283d6	-0.05920776
27	0x3f30fed8	0.6913886
28	0xbdd1efe6	-0.10250835
29	0x3cbf9f5e	0.023391422
30	0x3f24d1ff	0.6438293
31	0x3e7f0158	0.24902856
32	0xbde5155d	-0.11185715
33	0xbca839f2	-0.020535443
34	0x3f314bd8	0.69256353
35	0x3f23a849	0.6392866
36	0x3f3b2076	0.73096406
37	0x3f40d2ec	0.7532184
38	0x3f435d1e	0.7631396
39	0x3ef3d2aa	0.4762166
40	0xbe065b88	-0.13120854
41	0x3f317135	0.69313365
42	0xbd09dcf2	-0.033657975
43	0xbdc42da2	-0.09579016
44	0x3cdeaeea	0.027183015
45	0x3f3258db	0.6966683
46	0x3c804c3f	0.015661357
47	0x3f40d94d	0.75331575
48	0x3f482cd6	0.78193414
49	0x3f3b698a	0.73207915
50	0x3f30c3fd	0.69049054
51	0x3ceb0f08	0.02869369
52	0x3f383f9c	0.7197206
53	0xbd9aede9	-0.07564909
54	0x3f3d442d	0.73932153
55	0xbd03b953	-0.03215916
56	0xbd80be5b	-0.062863074
57	0xbd579e2d	-0.052641083
58	0xbe4cfedb	-0.20019095
59	0x3f2f9e94	0.68601346
60	0x3f338214	0.7012036
61	0xbe0f209d	-0.13977285
62	0xbdab1f20	-0.08355546
63	0xbde79546	-0.113077685
64	0xbdc4b1ad	-0.096042015
65	0xbd9098b5	-0.070603766
66	0x3f325ac1	0.6966973
67	0x3ef7c4d9	0.4839237
68	0x3f2d7d33	0.67769164
69	0x3f458ca1	0.7716771
70	0xbe9dfbcc	-0.30856168
71	0x3f2a11da	0.6643349
72	0xbe793d41	-0.24339773
73	0x3f253e81	0.645485
74	0x3f0b556d	0.54427224
75	0x3f2bca99	0.67106014
76	0x3f3ca19b	0.7368409
77	0x3f41c17c	0.7568586
78	0xbe0dce8f	-0.13848327
79	0xbd82b6ca	-0.063825205
80	0x3f340ccf	0.70332044
81	0xbe29ff6a	-0.16601339
82	0xbdd8b059	-0.10580511
83	0x3f329629	0.69760376
84	0x3f2ed32e	0.68290985
85	0xbdd6a48b	-0.10480603
86	0xbd168c2c	-0.036754772
87	0x3c85dc7b	0.016340485
88	0xbd7cb223	-0.061693322
89	0xbdcb0404	-0.09912875
90	0xbdf078b6	-0.11741774
91	0x3f306263	0.68900126
92	0xbcc3a3f0	-0.023881882
93	0x3f3237ff	0.69616693
94	0x3d414e10	0.047193587
95	0xbd208017	-0.039184656
96	0x3f2f07bc	0.68371177
97	0x3f27c9a1	0.65542036
98	0xbaaff22e	-0.0013423616
99	0x3f3fa663	0.7486326
100	0xbd2ccbc6	-0.04218652
101	0xbdb3a086	-0.08770852
102	0xbe1e4d71	-0.15459229
103	0xbd622622	-0.055212148
104	0xbe9f07a9	-0.31060532
105	0x3f29c546	0.6631664
106	0x3f3156cf	0.69273084
107	0xbe0b2fc2	-0.13592437
108	0xbdf1f196	-0.11813657
109	0xbed165cb	-0.40897974
110	0x3f3295bd	0.6975973
111	0xbee91bd5	-0.45529047
112	0x3d6c26d7	0.057654228
113	0x3f3354d1	0.70051295
114	0x3f37def8	0.718246
115	0x3f28d023	0.6594259
116	0xbbad681d	-0.0052919523
117	0x3f24fa87	0.64444774
118	0x3e8bb217	0.2728431
119	0x3f2e0ae3	0.6798536
120	0x3f42c213	0.76077384
121	0x3f308807	0.6895756
122	0xbdc54d3f	-0.09633874
123	0xbdaeb88e	-0.08531295
124	0x3f363d6e	0.71187484
125	0x3f1270b4	0.5720322
126	0x3f284f3e	0.65745914
127	0xbcafb1a3	-0.021447008
128	0x3e824912	0.25446373
129	0xbe14d064	-0.1453262
130	0x3d4410df	0.047867652
131	0x3e3344d0	0.17506719
132	0xbe1548ac	-0.14578503
133	0x3f3bbca0	0.73334694
134	0xbdb9da4c	-0.0907484
135	0xbde51268	-0.11185151
136	0x3f3214cd	0.6956299
137	0xbe200ec0	-0.15630627
138	0xbce27d87	-0.027647747
139	0x3eff7f0d	0.4990162
140	0x3f32fd6a	0.6991793
141	0x3f2b9477	0.67023414
142	0xbef16106	-0.47144336
143	0x3f0b00f5	0.54298335
144	0x3f2b252c	0.66853595
145	0xbd1e3397	-0.03862342
146	0x3eff3d30	0.4985137
147	0x3e3692a3	0.17829375
148	0xbebac247	-0.36476347
149	0x3d56aea2	0.052412637
150	0x3cb18612	0.021670375
151	0xbd8b745f	-0.068093054
152	0x3e0aade5	0.13542898
153	0x3f4740ab	0.7783305
154	0x3b8be4f8	0.0042692386
155	0x3f4689d8	0.7755408
156	0xbdb45362	-0.088049665
157	0x3f3108fc	0.69154334
158	0x3edcae46	0.4310171
159	0xbe16da92	-0.14731815
160	0xbc66c89f	-0.014085918
161	0xbca6cbfa	-0.020360935
162	0x3f4b92bc	0.79520774
163	0xbddf9697	-0.109173946
164	0xbd9b657d	-0.07587717
165	0xbe9a8f35	-0.30187383
166	0x3ca5cfe9	0.02024074
167	0x3f2e42ce	0.68070686
168	0xbd902a15	-0.070392765
169	0x3e82a94e	0.25519794
170	0xbd5746ee	-0.05255788
171	0xbd9e737e	-0.07736872
172	0xbed56c56	-0.41684216
173	0x3f3dac4f	0.7409105
174	0xbb8a24c5	-0.004215809
175	0xbd64a83c	-0.055824503
176	0xbd7822c4	-0.06058003
177	0xbd7f15da	-0.0622767
178	0xbd6f05fd	-0.05835532
179	0x3f30e041	0.69092184
180	0xbdb52496	-0.08844869
181	0xbd54aa55	-0.051920254
182	0xbef411cf	-0.47669837
183	0x3f365ee0	0.7123852
184	0x3f3c54b6	0.7356676
185	0xbde4b0f6	-0.11166565
186	0xbdf44f54	-0.11929193
187	0xbcc889b9	-0.024479734
188	0xbe5b93fe	-0.21443173
189	0xbeea363c	-0.45744503
190	0x3f37095f	0.71498674
191	0x3f4b7f36	0.79490983
192	0xbd346d35	-0.04404946
193	0x3d28490d	0.04108529
194	0x3f30a08d	0.6899498
195	0xbe764971	-0.24051453
196	0x3f3ab55a	0.7293297
197	0xbd8878fa	-0.066636994
198	0x3f406b4b	0.75163716
199	0x3f3dd8b9	0.7415882
200	0xbe0e0812	-0.13870266
201	0xbe19595d	-0.14975496
202	0x3f2ad092	0.66724503
203	0xba020ad9	-0.0004960723
204	0x3f4a0bd0	0.78924274
205	0xbd5f5764	-0.0545267
206	0xbe3112ff	-0.17292403
207	0xbe6fe90e	-0.23428747
208	0x3d80949d	0.06278346
209	0x3f3d3d20	0.73921394
210	0xbc95ac7d	-0.018270725
211	0xbd837fe2	-0.06420876
212	0xbc1e912d	-0.009678167
213	0xbd0bdb8a	-0.034144916
214	0x3f21b2fd	0.6316374
215	0x3f398cd5	0.7248052
216	0xbd8709e1	-0.06593681
217	0x3f290d10	0.66035557
218	0xbe38669a	-0.1800789
219	0x3f359f10	0.70945835
220	0x3f2a3ae8	0.66496134
221	0x3f2333af	0.6375074
222	0x3f26e1a7	0.6518807
223	0xbdb54522	-0.08851077
224	0xbdeb5ebf	-0.11492681
225	0xbdb624a9	-0.08893711
226	0x3f435276	0.762977
227	0x3ee70b10	0.45125628
228	0x3f33af87	0.7018971
229	0xbe162523	-0.14662604
230	0x3dccec3a	0.10005994
231	0x3f411283	0.7541887
232	0x3f42e67a	0.7613293
233	0x3d9be548	0.07612091
234	0xbd0b6f12	-0.03404147
235	0xbd6ff0ec	-0.05857937
236	0xbd1aa989	-0.037759338
237	0x3f3aff53	0.73045844
238	0x3f41ff64	0.7578032
239	0xbd1ff72c	-0.03905408
240	0x3f26d30d	0.6516579
241	0x3f2e04a0	0.6797581
242	0xbe18cdfa	-0.14922324
243	0x3e81cfcf	0.25353858
244	0x3f3e5c1a	0.74359286
245	0x3f3c0637	0.73446983
246	0x3f2eae1a	0.6823441
247	0x3f470795	0.77745944
248	0xbcb71441	-0.022348525
249	0xbd566496	-0.05234202
250	0x3c6a8eca	0.01431627
251	0x3f419d5a	0.75630724
252	0x3f412986	0.75453985
253	0x3f43773b	0.76353806
254	0x3f3e9074	0.7443917
255	0x3f33dcd0	0.7025881

layer2.6.weight f4 [1, 256]
0	0x3d15455e	0.036443107
1	0x3c9aad24	0.018881388
2	0xbd3b6408	-0.045749694
3	0x3c738d97	0.014865301
4	0xbc065e6a	-0.008201221
5	0x3d91db70	0.071219325
6	0xbd26fee4	-0.040770426
7	0x3d4e6172	0.0503859
8	0x3c964f6b	0.018348416
9	0x3ccafbba	0.024778236
10	0xbbc0943b	-0.0058770454
11	0x3ad6dd49	0.0016392852
12	0x3bb0de90	0.0053976253
13	0xbc1a73a4	-0.009426985
14	0x3d7defa6	0.061996125
15	0xbca97cb9	-0.020689355
16	0x3cd07629	0.025446968
17	0x3c040881	0.008058668
18	0xbd8a2347	-0.0674501
19	0xbb22ccf9	-0.0024841412
20	0xbd816fe7	-0.06320172
21	0xbd5a03f5	-0.05322643
22	0xbc17da4b	-0.009268354
23	0xbd2d4abe	-0.042307608
24	0x3d50aded	0.05094712
25	0xbc63052b	-0.013856213
26	0xbd76838d	-0.06018405
27	0x3d80ab81	0.06282712
28	0xbd463370	-0.0483889
29	0xbc5faad8	-0.013651572
30	0x3cf80f5d	0.030280763
31	0x3d020d23	0.03175081
32	0xbd3682a1	-0.04455817
33	0xbd3f4a33	-0.04670162
34	0x3d4dd790	0.050254405
35	0x3b84728f	0.0040419768
36	0x3d1ad74f	0.03780299
37	0x3d97cfb8	0.07412666
38	0x3d539deb	0.051664274
39	0x3cda3849	0.026638167
40	0xbcf95899	-0.030437754
41	0x3d037996	0.032098375
42	0xbd15e318	-0.036593527
43	0xbd142801	-0.036170963
44	0xbd584b09	-0.052805934
45	0x3d968318	0.07349223
46	0xbcbc3b26	-0.022977423
47	0x3c8671b9	0.016411649
48	0x3da48496	0.08033101
49	0x3d10b5e0	0.0353297
50	0x3c4f23ea	0.01264284
51	0x3d53f562	0.051747687
52	0x3d734eed	0.05940144
53	0xbd630385	-0.05542328
54	0x3d49a883	0.04923297
55	0xbc97ee76	-0.018546324
56	0xbd7c6a61	-0.06162489
57	0xbd04f639	-0.03246138
58	0xbcc9cf22	-0.024634901
59	0x3de1cbe9	0.11025221
60	0x3d486c94	0.048931673
61	0xbda70cbb	-0.08156725
62	0xbc84afb1	-0.016197057
63	0xbc493165	-0.012279843
64	0xbd5e20fe	-0.054230683
65	0xbd05c876	-0.032661878
66	0x3d6982b2	0.057009406
67	0x3c809b09	0.015698927
68	0x3d0df0a5	0.034653325
69	0x3db425ea	0.08796294
70	0xbbba167e	-0.005678951
71	0x3d55803a	0.05212424
72	0xbd697bfb	-0.057003003
73	0x3c0a7a68	0.0084520355
74	0x3bf82e56	0.007573883
75	0x3d4f22b7	0.050570216
76	0x3c5bba66	0.01341114
77	0x3ca20ade	0.019780573
78	0xbd3054ae	-0.043049507
79	0xbbd94ce9	-0.006631483
80	0x3d0ab104	0.03386022
81	0xbbb11f46	-0.0054053394
82	0xbd0c79d7	-0.034295883
83	0x3ca6752f	0.02031955
84	0x3d62ff53	0.055419277
85	0xbd1ddbc5	-0.038539667
86	0xbb5b79f5	-0.003348944
87	0xbd23474e	-0.039862923
88	0xba73ac7b	-0.0009295416
89	0xbc037973	-0.008024561
90	0xbc32915d	-0.010898915
91	0x3d9d4127	0.076784424
92	0xbce26c2a	-0.027639467
93	0x3c9a9ff3	0.018875098
94	0xbd252092	-0.040314265
95	0xbbd19ee3	-0.0063971146
96	0x3d826841	0.06367541
97	0x3d47d587	0.04878762
98	0xbd0e2fa5	-0.034713406
99	0x3d1c6eba	0.038191535
100	0xbce6262a	-0.02809437
101	0xbcfb256f	-0.030657498
102	0x3b98192c	0.0046416726
103	0xbcdb5c50	-0.026777416
104	0xbda774e0	-0.08176589
105	0x3d766eee	0.060164385
106	0x3c0e2e83	0.008678081
107	0xbb30f8e9	-0.002700383
108	0xbc2851cf	-0.010273411
109	0xbc576783	-0.013147238
110	0x3cfd6e72	0.030936453
111	0xbbd81fdf	-0.006595596
112	0x3bb0dbcf	0.005397297
113	0x3d5a6b30	0.05332488
114	0x3c49066a	0.012269596
115	0x3d408f00	0.047011375
116	0xbd311777	-0.04323527
117	0x3d67888c	0.056526706
118	0x3b8f6904	0.0043765325
119	0x3d9fc09f	0.078004114
120	0x3d5ab8c1	0.05339885
121	0x3cf2fac3	0.029660588
122	0xbba64c6a	-0.0050750272
123	0xbd1a8ad4	-0.037730053
124	0x3ca7d70c	0.020488285
125	0x3d375951	0.044762913
126	0x3daa9808	0.08329779
127	0x3d2a96e9	0.041647825
128	0x3cbea58b	0.023272296
129	0xba8adba0	-0.0010594018
130	0xbcc1acd5	-0.023641983
131	0x3c63ddf4	0.013907898
132	0xbb89fcdb	-0.004211051
133	0x3d2d0a46	0.042246126
134	0xbd225d31	-0.039639656
135	0xbc8de873	-0.017322754
136	0x3d629c18	0.055324644
137	0xbd0ca4c4	-0.03433682
138	0xba7483d2	-0.0009327504
139	0x3c1ac731	0.009446905
140	0x3d4849a4	0.048898354
141	0x3d973645	0.07383398
142	0xbbc71832	-0.0060758824
143	0x3c89764d	0.016780043
144	0x3cf40178	0.029785857
145	0xbd590fb0	-0.052993476
146	0x3c491911	0.012274043
147	0x3d542bff	0.05179977
148	0xbb98df38	-0.0046652816
149	0x3c02eac5	0.007990544
150	0xbd5eacef	-0.05436414
151	0xbc146d64	-0.009059284
152	0x3c1c08b8	0.009523563
153	0x3c4fe2c2	0.012688341
154	0xbcd92464	-0.02650661
155	0x3df5f0f6	0.1200885
156	0xbd3e910c	-0.046525046
157	0x3c8f9241	0.017525794
158	0x3d7d3740	0.06182027
159	0xbbd5d4be	-0.006525605
160	0xbc8c1bb3	-0.017103052
161	0xbc8157a1	-0.015788855
162	0x3d70d386	0.058795474
163	0xbd0900df	-0.033448096
164	0xbd3cf9e1	-0.04613674
165	0xbbccb846	-0.006247553
166	0xbcac3bd0	-0.021024615
167	0x3d5d175a	0.053977348
168	0xbd426e93	-0.047468733
169	0xbca5a5b7	-0.02022062
170	0xbd6ff0e9	-0.05857936
171	0xbc93e9ff	-0.018055914
172	0xbe1202e9	-0.14258923
173	0x3d0d92ed	0.034563947
174	0x3cd165f3	0.025561308
175	0xbd2d7713	-0.042349886
176	0xbcb3cb50	-0.021947533
177	0xbca02611	-0.019549401
178	0xbd372bda	-0.044719554
179	0x3d79f400	0.061023712
180	0xbcdba422	-0.026811663
181	0xbd4555a6	-0.048177384
182	0xbe11994c	-0.14218634
183	0x3d655b56	0.055995308
184	0x3db6afc1	0.08920241
185	0xbd6bc42b	-0.057560127
186	0xbcae4959	-0.02127521
187	0xbcb1699c	-0.021656804
188	0xbb9efe88	-0.00485212
189	0xbe10900c	-0.1411745
190	0x3cb30389	0.021852272
191	0x3d13b3de	0.036060207
192	0xbcc746ce	-0.024325754
193	0xbd0277df	-0.0318526
194	0x3d4f1c4c	0.050564095
195	0xbdade08a	-0.08490093
196	0x3d447d50	0.04797107
197	0xbcfcdab4	-0.030866005
198	0x3d8305c8	0.06397587
199	0x3d3d5b5e	0.046229713
200	0xbcd0a710	-0.025470287
201	0xbd509e8a	-0.050932445
202	0x3dbe7760	0.09300113
203	0x3cbbcfe1	0.022926273
204	0x3d8a1b46	0.06743483
205	0xbd2dffad	-0.04248016
206	0xb98800ca	-0.0002594053
207	0xbcdba1ff	-0.026810644
208	0x3c59e3c6	0.013298934
209	0x3d408ebc	0.047011122
210	0xbd5eb38a	-0.05437044
211	0xbd4e5c78	-0.050381154
212	0xb93b279e	-0.00017848468
213	0xbc6430b1	-0.013927625
214	0x3d0f4d20	0.03498566
215	0x3d79c71d	0.060980905
216	0xbd3adcde	-0.04562079
217	0x3d70bdd7	0.058774795
218	0xbb93f6b8	-0.004515495
219	0x3c82dc44	0.015974171
220	0x3d79fe11	0.061033312
221	0x3c6c4b2c	0.014422219
222	0x3cf277d4	0.029598154
223	0xbd21dfa3	-0.039519917
224	0xbd2c90b9	-0.042130206
225	0xbbe7ab12	-0.0070699537
226	0x3cff176c	0.031139098
227	0x3cef1d8d	0.029188896
228	0x3cf6b3fe	0.030115124
229	0xbc0d6b1c	-0.008631494
230	0x3ce0b1d8	0.027428553
231	0x3d98ad92	0.07454981
232	0x3d91d3dd	0.07120488
233	0x3bf12567	0.007359195
234	0xbcb8d15f	-0.022560773
235	0xbccb2c86	-0.024801504
236	0xbb67974d	-0.0035337985
237	0x3daaae12	0.083339825
238	0x3d8461e9	0.064639874
239	0xbd228cb9	-0.039684985
240	0x3c8df06c	0.017326556
241	0x3d0bb22b	0.03410546
242	0xbc83be3b	-0.01608192
243	0x3ca63e51	0.020293387
244	0x3c334dc1	0.010943831
245	0x3d48b3db	0.04899965
246	0x3cfc8ab3	0.030827856
247	0x3d9b05e6	0.075694844
248	0xbc33d5df	-0.010976284
249	0xbd3a06ff	-0.04541683
250	0xbcb45244	-0.022011884
251	0x3d24aa7d	0.040201653
252	0x3c9f238a	0.019426126
253	0x3c4fd9c6	0.012686199
254	0x3d72a6f9	0.05924127
255	0x3da29cb3	0.07940044
