Saved_data_files/bpi/lr_all_variants/laplacianOnBinary/EventPredictor_parameters_laplacianOnBinary_1e-05.pt (torch, 280583 bytes, 8 tensors)

layer1.weight f4 [4, 1]
000000 59 e7 be be da 53 c0 3e ec bf 89 3f 96 ef ac be
       -0.3728588 0.37563974 1.0761695 -0.3377654

layer1.bias f4 [6]
000000 cd 3c 01 3d ef 64 8a 3d 11 ed e9 3e 5c 27 83 be
       0.031552125 0.06757533 0.4568868 -0.25615966
000010 fe 98 61 bf 82 1f c2 3e
       -0.8812407 0.37914664

layer2.1.weight f4 [256, 6]
000000 67 55 80 bd 6e d6 ab 3e 30 cf 2d bd 19 0b 87 3c
       -0.06266289 0.33562034 -0.042433918 0.016484784
000010 97 9f 8c 3c 4e 06 c7 3c 44 4d 1a 3e 1a e0 c0 be
       0.017165942 0.024294998 0.15068537 -0.37670976
000020 fb b2 62 3e 2e 37 cd 3e 64 fe 9b 3e 9a ad e8 3d
       0.22138588 0.4008116 0.30467522 0.11361237
000030 29 48 68 3d c2 5d 94 be af eb 91 3d 30 a9 22 be
       0.056709442 -0.28977782 0.07125031 -0.15884852
000040 a4 cc 90 ba 19 61 cb bb 8a e9 64 be b6 55 d9 3d
       -0.0011047316 -0.0062066433 -0.22354713 0.10612051
000050 f9 ec ab be 24 ba f6 3d 36 3d af be 3c 70 34 3d
       -0.33579233 0.12047222 -0.34226388 0.044052348
000060 2f 53 35 be 65 2a 9a 3e d6 cf b8 bd 97 24 6b be
       -0.17707513 0.3011047 -0.090240166 -0.22963177
000070 0e a7 ce 3a 80 31 d1 bd d7 42 87 3e 60 a4 96 3e
       0.0015766339 -0.102145195 0.26418182 0.29422283
000080 24 e8 12 be dc 2a 33 bd 50 ca 13 3e 23 28 c7 3d
       -0.14346367 -0.043742046 0.14432645 0.09724452
000090 22 fb 87 3e ca 38 be 3e 53 27 bd bb a4 19 a1 bc
       0.26558787 0.37152702 -0.00577251 -0.019665547
0000a0 b5 05 42 ba d5 1b e8 3e ce 22 9c 3e b6 cc 50 be
       -0.0007401363 0.45333734 0.30495304 -0.20390591
0000b0 01 9c 89 3d c7 2f 9f 3c 97 f2 89 3e 8f 65 1d be
       0.067192085 0.019431962 0.26942894 -0.15370773
0000c0 01 6a ac bc a9 48 1f be c2 d9 08 be 3b f6 9c 3e
       -0.02104664 -0.15555061 -0.13364318 0.3065661
0000d0 79 20 5e 3e f1 15 4e bc 9a aa a0 be b4 50 66 be
       0.21692075 -0.012578473 -0.3138016 -0.22491723
0000e0 fc 48 ae 3d eb 96 0f 3e 96 84 db be ec bc 58 3e
       0.085100144 0.14022414 -0.42874593 0.21165818
0000f0 05 b2 54 3e 12 fe c7 3e a4 7d 5f 3e cf 26 31 be
       0.20771034 0.39061028 0.21825272 -0.1729996
000100 21 d6 b9 bc b2 b7 2e 3e 57 ca 8e 3e e6 32 4f 3e
       -0.022685112 0.17062262 0.27888748 0.2023426
000110 b4 8a 8d be 8d ff e6 be ae 94 90 be 6f 8b a4 ba
       -0.27644885 -0.45116845 -0.28238434 -0.0012553761
000120 7c 2b cd 3e 0a 14 a5 be 2d e7 8e 3e 09 2e c9 3e
       0.40072238 -0.3224185 0.27910748 0.39292935
000130 1f 40 cc be 59 b8 53 be af 4d f6 3d cf 1b d4 bd
       -0.3989267 -0.20675792 0.12026536 -0.103568666
000140 a4 bf 41 be c7 e1 84 bd 06 f3 91 be ed 4f a0 3a
       -0.18920761 -0.06488376 -0.28505725 0.0012230851
000150 53 ac 6d 3e 8b 2c 20 be 6b 7a 11 3e 39 da 86 be
       0.23210268 -0.15641992 0.14206855 -0.26338366
000160 0b 37 3d 3e 64 48 10 bc 81 0a dc be 99 94 35 3e
       0.18478028 -0.008806322 -0.42976764 0.17732467
000170 fe c1 0d bf e8 55 11 3e fd f0 d4 3e 2c 45 c9 bc
       -0.55374134 0.14192927 0.4159011 -0.024569117
000180 50 14 8f be a1 2c 52 3e 33 f6 6a be 9a 9b 87 3e
       -0.27945185 0.20524837 -0.2294548 0.26485902
000190 c7 e2 f0 bd 58 83 25 3d 83 e2 60 be 74 08 3f 3e
       -0.11762004 0.040408462 -0.21961407 0.18655568
0001a0 7a 9c 74 be 64 c6 08 3e 0d 9c 84 be d4 af a6 3b
       -0.23887816 0.1335693 -0.25900307 0.0050868783
0001b0 33 66 71 3e e1 70 e3 3d b4 5a ef 3d 62 0b 45 3e
       0.23574142 0.11105514 0.11687222 0.19242623
0001c0 b1 9c 40 be 0f 34 80 3e 6b 2e ea bd 7d 34 33 3d
       -0.18809773 0.25039718 -0.11434635 0.04375123
0001d0 e2 60 20 bf f7 98 4a 3f 11 70 da 3e 38 17 8f bf
       -0.6264783 0.79139656 0.42663625 -1.1178961
0001e0 99 90 93 3e 3a c5 e3 bd ea 64 7b 3e 04 11 e6 bd
       0.28821257 -0.11121602 0.24550214 -0.11233714
0001f0 fc 79 f1 3e 4c 98 25 be 8b fb 8f be 4e 7e 1b 3e
       0.4716338 -0.16171378 -0.281216 0.151849
000200 f8 25 16 be 17 9a 21 3e 28 fa 12 3e ca 84 45 bd
       -0.14662921 0.15781437 0.1435324 -0.04822234
000210 76 23 97 3e 51 3a 5a be ec 6d fb ba 9b c9 ff 3d
       0.29519242 -0.21311308 -0.001918254 0.12489625
000220 a6 15 9d 3b 21 4c 91 3c e3 03 c8 3d 5c ee 48 3d
       0.0047938405 0.017736496 0.09766366 0.049055442
000230 42 38 57 3e 6a 42 8d 3e 6e 1c f1 3e 9d 04 30 be
       0.21017554 0.27589732 0.47092003 -0.1718926
000240 bf 74 92 be fa 02 a6 be 8f 4b 94 bc e9 75 09 be
       -0.28604695 -0.32424146 -0.018102435 -0.13423885
000250 03 01 85 3e d2 46 eb bc 46 f2 d0 bd 2b f5 b7 be
       0.25977334 -0.028720293 -0.1020246 -0.35929236
000260 e6 ad 97 bb 02 f3 91 be c9 a5 3c bf 5a 68 17 3f
       -0.0046288846 -0.28505713 -0.7369047 0.591436
000270 b4 5c ef bd a5 af b3 3e 06 cd 1e 3e d6 a0 82 3e
       -0.116876036 0.35094944 0.15507898 0.25513333
000280 aa 3f 10 3e 23 7a 75 3e d7 cf bf be 3e 87 85 bd
       0.14086786 0.23972373 -0.37463257 -0.06519936
000290 ed ed a3 3d 1d fa 6e be d6 19 96 be 19 1c 7a 3d
       0.08004365 -0.23337598 -0.29316586 0.061061952
0002a0 ab 08 83 be 04 6a 0f 3e a1 dc 80 be 81 93 c5 3d
       -0.2559255 0.14005286 -0.25168326 0.09647275
0002b0 78 7c 7a be d6 8d cd 3d 44 fd 21 3e 4c 3a 8e be
       -0.24461544 0.10036819 0.1581927 -0.27778852
0002c0 05 e2 6c 3f c5 db 60 be c6 7e 0f bf b8 85 6a 3f
       0.9253238 -0.21958835 -0.56052816 0.9161029
0002d0 22 27 08 3d a0 e1 1e bd 53 22 18 3e cb 67 ee be
       0.033240445 -0.03878939 0.14856844 -0.46563563
0002e0 18 32 fc 3c 81 76 07 3d 0c 65 6c 3e d8 1f 5c 3e
       0.030785605 0.033072 0.23085421 0.21496522
0002f0 77 8d 48 be b5 9e 4a 3e 5e 23 53 3d b8 e5 69 3e
       -0.19585215 0.19787104 0.0515474 0.22841537
000300 59 c9 c1 3e 07 1e 8b be 30 70 a2 be c1 01 fb 3d
       0.3784893 -0.27171347 -0.31726217 0.12256194
000310 59 ce 92 be c5 ae 20 be 2c fa 85 be 8f e9 95 bd
       -0.28673056 -0.1569167 -0.26167428 -0.073199384
000320 a1 5e 91 3d 85 5f 74 be 7d 35 b9 bb b8 93 ff 3b
       0.07098127 -0.23864563 -0.0056521283 0.007799592
000330 cd 89 8b be d9 66 d8 3d 47 5a b1 be c3 2f 46 be
       -0.2725357 0.10566492 -0.3463919 -0.19354157
000340 7c b0 eb 3e f3 f0 91 be d6 bd d1 be 92 26 fd 3d
       0.46033084 -0.28504142 -0.40965146 0.12360872
000350 d1 db 41 3e 8a 97 de bd 32 c2 ba 3a 25 3f 22 bb
       0.1893151 -0.108687475 0.0014248549 -0.0024756875
000360 e0 9d b1 3d 61 33 2e be 6b 23 84 be 71 7a 15 bf
       0.086726904 -0.17011787 -0.25808272 -0.58389956
000370 8a fa 6d bc eb b1 03 bd 46 8e 6e be 18 8a 67 3d
       -0.014525065 -0.032152098 -0.2329646 0.05652818
000380 0e 7b 4a be e0 86 39 3e 87 0b 25 be 49 bb 75 be
       -0.19773504 0.18117857 -0.16117679 -0.23997225
000390 4d f1 c1 b9 c3 35 a5 3e 0e 25 24 3c ea cc cb be
       -0.00036991612 0.3226758 0.0100186 -0.39804775
0003a0 63 ad 94 3c fe f0 85 be ff 76 db bd 1f 74 b7 3d
       0.018149083 -0.26160425 -0.10716056 0.08957695
0003b0 2a 8e 4d 3e f1 19 94 be 82 bc cb 3e a1 95 04 be
       0.20073763 -0.28926042 0.39792258 -0.12947704
0003c0 8e d2 c9 3e b0 5a 7a be ab d7 47 be 9b d4 91 3e
       0.39418453 -0.24448657 -0.19515865 0.28482518
0003d0 91 9d 3f be 3f 74 e0 be 6e ec 8d 3e dd b2 ba 3e
       -0.1871245 -0.4383869 0.27719444 0.36464587
0003e0 d0 32 24 3f 2e 6b c8 bd a3 fa 64 bf c1 33 8c 3f
       0.64140034 -0.09786068 -0.8944494 1.0953294
0003f0 04 2a 9a 3d 31 75 c6 3e 4d b0 13 bf 43 1b 82 be
       0.07527545 0.38761285 -0.5769089 -0.25411424

layer2.1.bias f4 [256]
000000 10 98 49 be 84 c0 70 3e d9 71 b2 3e 70 41 eb be
       -0.19686913 0.23510939 0.34852484 -0.45948362
000010 a3 c9 a8 3e df 76 ba be 26 a7 d1 3e 75 3f 3e be
       0.32966337 -0.36418816 0.40947837 -0.18578894
000020 ee b8 d6 be d8 a6 c2 3e af 4e ad bd eb 09 ce 3e
       -0.41937965 0.38017917 -0.08462273 0.40241942
000030 fb 98 2a 3e 88 71 d8 be b8 bf 03 3e de 35 f1 bd
       0.1665992 -0.42274117 0.12866104 -0.117778525
000040 91 46 3c 3d 1f e7 26 3c 5f a5 b8 3e 3d fd 0c bd
       0.045965735 0.0101869395 0.36063668 -0.034421194
000050 bf cf cd bc 3e 22 8c be 24 b4 03 3f 8c 21 cb bd
       -0.025123475 -0.27369875 0.5144675 -0.09918508
000060 57 60 22 3e 4c fb 7a be 93 31 25 be fe ce 99 3b
       0.15857063 -0.24509925 -0.16132192 0.004693865
000070 f8 fa ad 3c e5 24 a0 3e 70 ce 61 3e f2 13 9e bb
       0.021237835 0.31278148 0.22051406 -0.004824155
000080 a5 71 9a be 51 08 f1 3e d0 70 14 be 94 a6 b3 3e
       -0.3016483 0.47076657 -0.1449616 0.35088027
000090 18 eb a1 be ef 71 b5 be 1e 7a c1 3e 33 79 9c be
       -0.31624675 -0.35438487 0.3778848 -0.30561218
0000a0 f9 5b fe bd f9 ae 18 3e 38 1f 77 3e d2 c0 b2 be
       -0.12419886 0.14910497 0.24133003 -0.34912735
0000b0 81 82 af be c6 e4 c1 3d 19 82 ef bd 74 94 e2 3e
       -0.34279254 0.09467463 -0.11694736 0.44253886
0000c0 64 6b 96 3c eb 0f d7 3e 43 45 50 3e 56 a9 ee 3e
       0.018361755 0.42004332 0.20338921 0.46613568
0000d0 96 4b 6c be f7 ad 8d 3e f0 8e c6 3e 70 47 a7 be
       -0.23075709 0.27671787 0.38780928 -0.3267169
0000e0 f6 5b 0b be c5 bb e6 3d 22 e4 3b 3e 85 27 fd 3d
       -0.13609299 0.11266283 0.18348745 0.123610534
0000f0 85 58 a3 be a6 5c e6 3e ef 26 f0 3e 39 ba 94 be
       -0.31903473 0.4499256 0.46904704 -0.29048327
000100 ae ff cd 3d c7 3b 55 be 40 1e e8 be 9e 28 5c 3e
       0.10058533 -0.20823584 -0.4533558 0.21499869
000110 10 ee 36 3e 50 83 ad be bc 58 b6 bd 80 aa 1c be
       0.17864251 -0.33889246 -0.089036435 -0.15299416
000120 2f 24 4b be b1 d8 b5 3e 71 01 36 3d d8 20 0f be
       -0.19838022 0.35516885 0.04443497 -0.13977373
000130 e1 57 4d bd 55 64 03 3e ec 72 fb bd 50 85 8d 3e
       -0.050132636 0.12831242 -0.12277779 0.27640772
000140 88 e0 0e be cb 2f b7 be 2b f1 16 be 6e ff 78 3e
       -0.1395284 -0.3577865 -0.14740436 0.24316189
000150 b8 12 95 be 29 07 07 bc eb 7c e2 3e 87 29 bf 3d
       -0.29115844 -0.008241453 0.4423593 0.093340926
000160 6f bd 87 3e 5f 5b 91 be 5f a4 f1 be 1f 80 d0 bd
       0.26511714 -0.28390023 -0.47195718 -0.10180687
000170 8b aa 27 be f8 44 86 3e af 34 b2 be 7a f6 0c be
       -0.1637365 0.26224494 -0.3480582 -0.13765898
000180 5e 58 03 3e a3 a5 24 be 32 b1 4e be a7 09 05 be
       0.12826678 -0.1607881 -0.20184782 -0.12991963
000190 c1 bd 67 3e 7f f6 22 3e 24 18 dd be 3c 0f 1b 3e
       0.22630979 0.15914343 -0.4318248 0.1514253
0001a0 db 59 68 3e c5 da ac 3e b7 20 ba be 4c 34 c0 3c
       0.22690527 0.33760658 -0.36353084 0.023462437
0001b0 c4 f7 75 bd f4 5e 44 39 24 01 c8 3d ed e5 c1 3e
       -0.06005074 0.0001872739 0.097658426 0.37870732
0001c0 5e 3a 20 3e 04 e0 04 be b3 ee 31 3e 73 84 95 bd
       0.15647265 -0.1297608 0.17376213 -0.07300653
0001d0 d6 be 26 3e 1c d5 df bd 0e a9 08 3e bd 39 93 bd
       0.16283736 -0.10929319 0.13345739 -0.07188747
0001e0 a9 c8 b5 3e 6f a3 86 3e 2b 60 38 be 9f 87 29 be
       0.35504654 0.26296565 -0.18005435 -0.16555642
0001f0 2b 75 25 be 36 99 47 3e 8b 5f 51 be 04 7b 41 3d
       -0.16157977 0.19492039 -0.20446603 0.047236457
000200 76 5f 0e be a1 00 bc be ed e7 70 3e 77 8d dc 3e
       -0.13903603 -0.3671923 0.23525973 0.4307668
000210 93 66 cd 3d 3d 94 25 be be 85 81 3b b3 e7 e1 bd
       0.1002933 -0.1616983 0.003952711 -0.11030521
000220 84 e1 c7 be 80 52 6c 3e 1b 00 4e 3e bc 45 92 3e
       -0.39039242 0.23078346 0.20117228 0.28568828
000230 95 54 1f bd ae 87 01 3f 6b cf 52 3d 1a e2 4c 3e
       -0.038899023 0.50597656 0.05146734 0.20008126
000240 6f 6a 01 be 6e fd 47 3e e3 cf cc 3e 15 1e 9a be
       -0.12638257 0.1953027 0.40002355 -0.30101076
000250 4f 73 15 be 45 75 93 be 46 48 b2 3e 1a 43 58 3e
       -0.14594768 -0.28800407 0.34820765 0.21119347
000260 86 24 0c 3e a2 3f d4 3e 84 58 0d be 48 63 9e 3e
       0.13685808 0.41454798 -0.13803297 0.3093512
000270 01 0a bc 3e d7 09 31 3d 16 44 bc be b9 7c 3a bd
       0.36726382 0.043222275 -0.36770695 -0.0455291
000280 7f 1b a9 be 20 9d a7 3e 1d 0e be 3e 60 85 30 3e
       -0.3302879 0.32737064 0.37120143 0.17238379
000290 4a 8f 7e 3e 6c d7 9a 3e 68 0a ce be 89 53 82 be
       0.24859348 0.3024248 -0.40242314 -0.25454357
0002a0 21 9d 99 3e e5 d1 d1 3e 7d c8 c1 3e 9f 63 fd 3d
       0.30002692 0.4098045 0.37848273 0.12372517
0002b0 47 5f a3 3c ca e0 22 3e d2 a9 d6 3d 9e 0f a5 bc
       0.019942893 0.15906063 0.104816094 -0.020149048
0002c0 7a 49 e1 3e 48 65 8c 3d da d2 33 3e 12 59 f2 bd
       0.4400137 0.06855255 0.17560902 -0.11833395
0002d0 a1 54 fb bd 2b aa ff 3d 34 50 92 3e bb fb b0 be
       -0.12272001 0.12483629 0.28576815 -0.34567055
0002e0 91 da fb be 7e ed 0b 3e aa cf 8a be 98 7b a7 3d
       -0.4919019 0.13664815 -0.2711156 0.081778705
0002f0 37 f9 a2 3e c9 44 75 be 95 9b d4 bd 24 87 83 3e
       0.3183076 -0.2395202 -0.103812374 0.25689042
000300 ed 50 e7 be 67 ef f9 3e e1 ef 11 3d 62 95 6a be
       -0.4517893 0.48815462 0.035629157 -0.22908548
000310 26 e4 df be 94 c1 98 be 8a 4b 20 be 07 a1 a6 be
       -0.4372875 -0.29835188 -0.15653816 -0.3254473
000320 b9 67 c9 3e 56 b5 23 3e 20 96 23 be 4f 46 f2 be
       0.39336947 0.15987143 -0.15975237 -0.47319266
000330 d9 b5 59 3e 86 3c e2 be d1 aa aa be b3 f7 9c be
       0.21260776 -0.441868 -0.33333448 -0.3065773
000340 07 b2 a4 be 9f be 8c bd b1 81 5b 3e 31 ee ec 3d
       -0.32167074 -0.068722956 0.21436192 0.11568869
000350 cd 07 f2 be 98 5e de be 37 f9 76 3e 64 c3 98 3e
       -0.47271577 -0.43431544 0.24118505 0.2983657
000360 56 75 1b 3e 83 78 03 3e e0 f8 66 be 55 96 12 3f
       0.15181479 0.1283894 -0.22555876 0.5726064
000370 39 d9 28 be 42 81 81 be 3f 81 dd 3d a0 5d f7 be
       -0.16489114 -0.25293928 0.10815667 -0.48313618
000380 ba f4 87 be de 04 93 be 77 61 82 3e f1 5b 3c be
       -0.265539 -0.2871465 0.25464985 -0.18394448
000390 80 8d 0d bc e2 93 d4 be 2b 9a 62 3e 9b b3 36 bd
       -0.008639693 -0.41519076 0.22129123 -0.04460488
0003a0 fb 8f 32 be c3 13 e7 3e 27 91 ee 3e b5 db 18 be
       -0.17437737 0.45132264 0.46595117 -0.14927562
0003b0 3d a6 bb bd 45 47 b9 bd 81 c2 78 be 08 62 0c bd
       -0.09162567 -0.09046797 -0.24292947 -0.034273177
0003c0 90 c2 e2 be 12 c1 e2 3e d5 71 ce 3e 36 77 07 3f
       -0.44289064 0.44287926 0.40321222 0.52916276
0003d0 1f 05 a7 bd a0 a9 85 3e b2 c6 0a 3e 48 30 52 3d
       -0.08155274 0.26105976 0.13552359 0.051315576
0003e0 ed ed 9a 3e 12 6f 29 3e ac bf 99 3e 4e 84 61 bc
       0.30259648 0.16546276 0.30029047 -0.013764454
0003f0 b9 60 db 3e 3a 91 12 3e 8a 6f b8 3d d6 a3 f3 3c
       0.4284723 0.14313212 0.090056494 0.029741209

layer2.3.weight f4 [256, 256]
000000 28 92 d1 3c 80 48 f7 bb aa 3c 4f 3d 88 9a 92 bc
       0.025582388 -0.0075464845 0.050594963 -0.017895952
000010 b0 f9 fa 3c 5d e4 63 3d db 84 f3 b9 8a 68 0a bd
       0.030636638 0.055637706 -0.00046447557 -0.033791102
000020 3f 25 6a 3c 5c 6b 44 bd 3e b9 00 3c 78 a6 22 3d
       0.014291107 -0.04795395 0.007856665 0.03970954
000030 d7 7d 8a 3b 6d d3 ba 3c 91 a4 85 3d 6a b7 9c 3c
       0.004226427 0.022805894 0.06525529 0.019130427
000040 27 4e 86 bd 44 78 d9 3c d4 ae 5e bd 2a 05 9f 3c
       -0.06557875 0.026546605 -0.054365948 0.019411642
000050 1a 3a 09 bd 9e a9 35 3c 0c f4 1c 3c 41 41 0b 3d
       -0.033502676 0.011087803 0.00957967 0.033997778
000060 97 56 e5 3b b9 12 7e 3d 66 ed 28 3d 34 c8 00 bd
       0.0069988477 0.062029574 0.041242026 -0.03144093
000070 27 73 87 3d c0 d3 89 bd 9a 58 e1 bc a3 15 33 3d
       0.066137604 -0.06729841 -0.027508069 0.043721806
000080 c1 b1 dd 3c eb 5d c9 bb 4b 1f 2f bd 11 c5 25 3c
       0.027062299 -0.006145229 -0.042754453 0.010117785
000090 26 50 63 bd 89 7e 24 3d bb 60 39 3c 77 bb 29 bd
       -0.055496357 0.040159736 0.011314566 -0.041438546
0000a0 0d 58 55 3d 14 65 ac bd 8c 93 a5 bd b2 75 82 3c
       0.052085925 -0.084177166 -0.08084783 0.015925262
0000b0 3e b8 06 bd 73 98 fa bb b1 a0 35 bc 07 0d 6a bd
       -0.03289055 -0.007647568 -0.011085675 -0.05714133
0000c0 e3 36 51 bd 22 7d dd bc 82 d3 c1 bd d4 90 8c 3c
       -0.051077735 -0.027037207 -0.0946417 0.017158903
0000d0 8a ab c9 3c fe b6 9c 3a f6 db 9b 3c 6e 11 59 3d
       0.024617929 0.0011956391 0.019025784 0.052995138
0000e0 2a 16 0b bb bf c0 42 3c 27 f7 bd 3c 52 b4 b2 ba
       -0.0021222928 0.011886775 0.02318914 -0.0013634062
0000f0 97 a0 fd 3c f8 22 3b 3c 6b ef 80 3b 6c 5b 2c bb
       0.030960364 0.011421911 0.003934791 -0.002629961
000100 9c 2d 7c 3b cd 11 c4 3c 5e 7a 05 bd 0f 41 ea 3c
       0.0038479334 0.02393427 -0.0325874 0.028595475
000110 31 f9 eb bc 9a 58 e3 bc 6c 9e de 3c f3 5e 34 3d
       -0.028805347 -0.02775221 0.02717515 0.044035863
000120 69 45 28 bd c1 e9 72 bd 50 71 da bc e1 fc 2a 3c
       -0.04108182 -0.059304956 -0.02666536 0.010436268
000130 5c 87 f8 3c c2 77 ac bd 76 f2 a4 bb 43 c2 08 ba
       0.030337982 -0.084212795 -0.0050337864 -0.00052169355
000140 5b f3 0d bc 10 f1 dc 3c b2 1e 7c bd 79 55 33 3d
       -0.0086639775 0.026970416 -0.06155271 0.043782685
000150 d9 51 e6 3c f3 20 dd 3c 2a 10 ec 3c 9d e8 c2 bc
       0.0281152 0.02699325 0.028816301 -0.02379256
000160 92 23 45 3d e0 40 46 bd 6f 78 86 3c b3 a5 81 bd
       0.048129626 -0.048401713 0.01641485 -0.06330433
000170 26 57 ed bc 9b bf 6f bd c0 91 0e bd b9 80 62 3c
       -0.02897222 -0.05853234 -0.034806967 0.013824635
000180 f3 46 ed 3b 4a db 9e 3c 42 d0 0f bd 62 e6 29 3c
       0.007241124 0.019391675 -0.03511072 0.010369869
000190 be 79 11 bd 78 b4 45 ba 1d b9 fb 3c 67 32 cd bd
       -0.035516493 -0.00075418456 0.030727917 -0.10019379
0001a0 cd da df 3c 36 74 2d bd 48 60 7b 3d 9b 54 83 bd
       0.027326012 -0.042347156 0.061371118 -0.064126216
0001b0 7a e2 b9 bc ee e9 35 3c d2 b2 4c bd be 3c 8c bd
       -0.022691 0.011103136 -0.049975224 -0.06847523
0001c0 cf 19 f1 bc 3f 04 29 3c 67 25 18 3d 53 99 82 3d
       -0.029431252 0.010315954 0.037145045 0.063769005
0001d0 f6 11 23 bd 7c 93 08 3d 37 cb b6 bc c4 9e 36 3c
       -0.03981205 0.033343777 -0.022313697 0.011146251
0001e0 0d 31 4a bd 05 8f 8a bd df 51 90 bc fb e6 be 3c
       -0.049363185 -0.0676556 -0.017617164 0.0233035
0001f0 93 ef e7 bc 31 4d ad 3c 99 13 42 3d 93 c6 d1 bc
       -0.02831248 0.021154972 0.04738197 -0.025607383
000200 5d 3c 9b 3d 15 fb 6a 3d 5b d5 75 3d 40 df 4e bc
       0.07579873 0.057368357 0.060017925 -0.012626469
000210 69 7b ec bc c3 6f ec 3b e2 7f 8f 3c 06 df f3 3c
       -0.02886744 0.0072154715 0.017517034 0.029769432
000220 bd 9a 62 bc ab 3a 17 3d f3 88 d5 3c a7 9c 14 bb
       -0.013830838 0.036921185 0.026066279 -0.002267638
000230 58 4e 4b 3c c0 55 b9 3c 11 27 5a 3d 62 e0 5e bd
       0.012408815 0.022623897 0.053259913 -0.054413207
000240 5a c4 91 3c e2 83 60 3d f8 50 3e bc f3 31 c2 b9
       0.017793823 0.054813273 -0.011615984 -0.00037039779
000250 37 d7 c2 3c 12 85 96 bd 52 aa a4 bd 23 ba 3a bb
       0.023784263 -0.073496 -0.080402985 -0.0028492294
000260 ef 27 d7 bb c9 d4 85 3c 82 f1 8e 3d 33 91 e6 3c
       -0.0065660398 0.016336815 0.06979658 0.028145408
000270 22 9a ad bc 39 26 1b 3d 1e 03 91 3c 99 d3 63 bc
       -0.02119166 0.03787825 0.017701682 -0.013905429
000280 b7 22 a2 bb 34 ad aa 3c 28 f6 36 bd a3 7b a9 3b
       -0.004947986 0.020834543 -0.044668347 0.0051722093
000290 ab 3f 02 3d 45 5b 27 bd df 6e 06 3d 68 1b 68 bd
       0.031799 -0.040858526 0.03282058 -0.05666676
0002a0 52 f0 c2 bc 16 50 2b bd b7 54 25 3d 7f bf 7d bd
       -0.023796234 -0.041824423 0.040363993 -0.061950203
0002b0 19 d5 c6 bc 16 9c 70 bc 27 e5 ff bd 33 34 93 bd
       -0.024271535 -0.014685651 -0.12494879 -0.071876906
0002c0 8e 7b 71 bb 81 f2 14 bd a4 6c b5 bc 0a 86 fd 3c
       -0.0036847326 -0.036364082 -0.02214653 0.030947704
0002d0 82 df bf bc 2a 1b aa bc 43 52 38 3d 88 9c 93 bd
       -0.023422007 -0.020764906 0.045000326 -0.0720759
0002e0 3c 62 42 bc 2b 72 14 3d 44 d2 90 bd eb 29 0d 3d
       -0.011864241 0.03624169 -0.07071355 0.034463804
0002f0 3b 26 b3 bc f4 10 2c bb 10 07 21 bc d3 1b d9 bc
       -0.021868816 -0.0026255222 -0.009828344 -0.026502525
000300 b0 48 ae bd 95 09 18 bd 10 82 9c 3d 8d 75 8f bb
       -0.08509958 -0.037118513 0.07641995 -0.004378027
000310 f8 22 91 3d a3 86 29 bd 35 ad 5c bd 90 32 ce bc
       0.07086748 -0.041388165 -0.05387612 -0.025170594
000320 58 92 a6 3c 26 a6 df bc 96 5f c6 3c 0c 16 fc bc
       0.020333454 -0.027300905 0.0242155 -0.030772232
000330 85 96 90 bd b1 a4 3e bc c3 e2 3c bc d0 a2 28 3c
       -0.07059959 -0.011635945 -0.011528674 0.010292724
000340 09 d2 e7 bc 8d f4 9f 3c 15 42 0e 3c d6 f8 3c bb
       -0.028298395 0.01952579 0.008682747 -0.0028834841
000350 28 09 69 bc d3 0b 81 3c 73 b5 3d b8 aa 86 f9 3b
       -0.014223374 0.015752709 -4.52301e-05 0.00761493
000360 b6 b3 94 bc 48 95 02 3c ea cd b5 39 8a 87 05 bb
       -0.0181521 0.007970162 0.00034676428 -0.0020374977
000370 ad f9 99 3c 62 39 ea bb d8 84 8b 3c 10 a9 c9 3c
       0.018795813 -0.007147954 0.017031118 0.024616748
000380 23 29 d8 bc 18 ab a7 3c c9 86 a2 3c 0c 14 35 3c
       -0.026386803 0.020467326 0.019839661 0.011052143
000390 ee 26 3c 3b 59 38 0d 3d c6 b6 10 bd bd b2 3c bd
       0.0028709727 0.034477565 -0.035330556 -0.046068896
0003a0 24 10 34 3c ba 55 3a 3d 7a b7 46 3d bd 9e e4 bc
       0.010990176 0.04549191 0.04851482 -0.027907724
0003b0 cc 14 a1 bd a8 01 df 3c 7d 31 2a 3d 47 d2 cb 3b
       -0.07865295 0.02722247 0.041551102 0.0062201354
0003c0 46 7c b6 bc bd 30 71 bc ea 67 ea 3c 03 18 86 bc
       -0.022276055 -0.014721093 0.028614003 -0.016368872
0003d0 39 3b f3 bc 71 45 08 3d 77 cd 8a 3d e6 3a 6f 3c
       -0.029691326 0.03326935 0.067774706 0.014601445
0003e0 c4 ab d2 bc be b7 e7 bc 66 b4 4d bd ab 1b 2c 3d
       -0.02571667 -0.028285857 -0.05022087 0.042018574
0003f0 af 7a 4d bd 6e d8 ae bb 8e f1 df bc 58 58 48 3d
       -0.05016583 -0.005335859 -0.027336862 0.048912376

layer2.3.bias f4 [256]
000000 94 bf ea 3e 09 32 0e be 1e b4 46 3e de 7b db 3d
       0.45849288 -0.13886274 0.19404647 0.10716985
000010 57 69 8c bd da cf 65 bd 7a af 88 3e 9b 15 1c 3e
       -0.068560295 -0.056106426 0.26696378 0.15242617
000020 d8 c6 c8 3e ce 15 5e be 2b 45 bb bd bb 83 94 3e
       0.39214206 -0.21688005 -0.09144052 0.29006752
000030 bf 95 b1 be 61 cc 08 bf 54 3d a9 bd cb b5 9b be
       -0.3468456 -0.5343686 -0.082636505 -0.30412135
000040 94 f0 df 3e be da 25 bf 2e 6f 31 3e 93 c6 bc be
       0.43738234 -0.647869 0.17327568 -0.3687025
000050 b0 3e b3 bd 8d 40 ed be e1 cd 96 be 64 d2 d1 be
       -0.08752191 -0.4633831 -0.29453948 -0.40980828
000060 1f 87 fe bd bc 91 87 3e aa 24 9b 3d 8d c3 cd bd
       -0.12428116 0.26478374 0.075753525 -0.10047064
000070 10 49 db be 68 f7 18 3f 61 9b ee bd 09 33 04 bf
       -0.4282918 0.5975251 -0.1165073 -0.51640373
000080 f3 f7 d4 3e b5 c8 19 3e d9 d9 e3 3a 4c 51 48 be
       0.4159542 0.1501797 0.0017383649 -0.19562262
000090 e2 ba a8 3e 33 3a 0b bf 8b a5 f7 3e 02 68 5e be
       0.3295508 -0.5438568 0.48368487 -0.21719363
0000a0 b8 55 13 bd 4b 39 24 be 37 d4 88 3e c6 47 8b bd
       -0.03597042 -0.1603748 0.26724407 -0.06800799
0000b0 bc 34 b9 3d 06 5b 03 bd 43 68 5a be ba e8 fe 3e
       0.090432614 -0.03206923 -0.21328835 0.4978693
0000c0 16 7f 51 be 78 68 ae bd 26 96 8d bc 98 5a 14 bf
       -0.20458636 -0.085160196 -0.01728351 -0.57950735
0000d0 bd c1 c5 3d ae bb a5 ba df bb b3 3d 29 27 5f 3d
       0.09656093 -0.0012644434 0.08776068 0.054480705
0000e0 b1 19 01 3e 9e 73 01 3f cf 8a 16 3e f4 2f aa be
       0.12607457 0.5056704 0.14701389 -0.3323971
0000f0 ce 3e 76 be e3 08 ac 3e 1e 55 0b bd e4 ff 8f be
       -0.24047396 0.3360053 -0.03401672 -0.28124917
000100 38 02 52 bd 00 ad 1d 3d b3 f0 8d 3e 7b 6f 49 bd
       -0.051271647 0.038495064 0.277227 -0.04917858
000110 4b 3b f8 bd 93 28 72 be 14 4c 87 bd b7 f3 83 3d
       -0.12120684 -0.2364829 -0.066063076 0.06442969
000120 0b d6 d3 be eb 9d f0 be 93 d5 08 bf dc 07 db 3e
       -0.4137424 -0.46995482 -0.5345089 0.42779434
000130 f5 fd 7c be 82 eb 36 bc ac 1b 8d 3e 68 8e 0e 3e
       -0.24706252 -0.011164548 0.27560174 0.13921511
000140 81 90 c4 bd f6 43 1a bf 70 31 19 be e9 77 4e 3c
       -0.095978744 -0.6025995 -0.14960265 0.012601831
000150 f9 07 7d 3e b2 2c 94 be 03 10 ee be 8e db dd 3d
       0.24710073 -0.2894035 -0.4649659 0.10832892
000160 5a c2 49 3e 57 17 09 3f 3b ed 39 bb 86 14 84 3e
       0.19703045 0.5355124 -0.002837016 0.25796908
000170 7e 1f d1 bc e3 47 37 bf dd 39 ec 3e 39 95 a4 3e
       -0.025527712 -0.71594065 0.46137896 0.32145098
000180 52 03 33 3f e6 3e 18 3f 9a da b8 3e 22 1e a4 3b
       0.6992694 0.59470975 0.3610428 0.005008475
000190 45 f6 c0 be a8 be a5 be 09 c6 d8 3b de 55 87 be
       -0.3768789 -0.32372022 0.0066154045 -0.264327
0001a0 0c 23 67 be f5 50 ac be ca df 7b be 78 f2 fe be
       -0.22571963 -0.33655515 -0.24597088 -0.49794364
0001b0 32 ab eb be f6 84 e6 bd 04 08 00 be 4d a7 6b 3c
       -0.4602905 -0.11255829 -0.12503058 0.014383149
0001c0 b3 fc 0d 3e d6 d1 52 3e 7a e8 f6 3d e8 c3 0f 3e
       0.13865928 0.20587859 0.1205606 0.14039576
0001d0 42 31 93 3e 76 82 81 be 47 c2 22 3e 0a ec c0 be
       0.28748518 -0.25294846 0.15894423 -0.37680084
0001e0 03 36 d5 3d 6d 23 41 3e 50 4a 24 3e 75 63 53 3e
       0.104106925 0.1886117 0.16043973 0.20643409
0001f0 7b 9d 2d 3f 69 47 e8 3e 5e ba 29 bd 4c 38 a2 3e
       0.6781842 0.45366982 -0.0414375 0.31683576
000200 f6 e6 14 bf ad 67 f0 bd 53 27 d3 bd ee 79 5d be
       -0.5816492 -0.117385246 -0.10310235 -0.21628544
000210 5b 4f 95 be 34 67 bf be 8b 6e 4a be 83 4a 99 be
       -0.29162106 -0.37383425 -0.19768731 -0.2993966
000220 c6 aa ab 3d 93 03 ab 3e d8 57 44 3b 16 30 a2 bd
       0.08382182 0.33401164 0.0029959586 -0.07919328
000230 f9 42 bb 3d 46 33 24 3c 78 0a 9a bd 4a fe d1 be
       0.091436334 0.01002199 -0.07521528 -0.4101432
000240 82 32 74 be c0 9e 1c bd 49 be 15 be f6 ed 0d 3d
       -0.23847392 -0.038237333 -0.1462337 0.034650765
000250 c9 b2 e3 3c 52 a0 b2 bd 4a a6 9e 3e ab 27 28 3f
       0.027795212 -0.08721985 0.30986243 0.6568553
000260 da 38 3f 3e 07 a1 82 be 1b f6 f0 be 3e 2a 15 be
       0.18674031 -0.2551348 -0.47062764 -0.14566895
000270 ae 67 ab 3e ed 10 ad be d5 ef 51 be e5 d6 b8 3e
       0.3347754 -0.33801976 -0.20501645 0.36101452
000280 3d f3 2f bf 16 32 aa 3e dc cd fc be bb 49 0e bc
       -0.6873053 0.33241338 -0.49375808 -0.008684571
000290 73 0d c1 3e f8 63 62 3e bb d3 1d be 3d 14 2d be
       0.37705573 0.22108448 -0.154128 -0.16902252
0002a0 36 65 5f 3e f8 2b ef be 47 a7 25 3e bc 86 3c 3e
       0.21815953 -0.46713233 0.16177092 0.18410772
0002b0 0c a9 33 3f 43 38 70 3e 10 bb 18 bf 69 9f db 3e
       0.7017982 0.23458962 -0.59660435 0.42895058
0002c0 1e a6 c7 3e 29 a9 a6 3e 40 bc ca be 20 5d 7e be
       0.38993925 0.32550934 -0.39596748 -0.24840212
0002d0 82 d4 49 3e a9 d6 ed 3e c3 be f6 bd 13 3e 4d bf
       0.19709972 0.46452835 -0.12048104 -0.8017284
0002e0 fe cd af bd 1f 53 26 be 17 a7 a2 3d fd 55 5a 3e
       -0.08584212 -0.16242646 0.07942026 0.21321864
0002f0 f5 5c ba 3e bd c4 b7 3d f2 bb 93 3e 15 b6 22 3e
       0.36399046 0.08973072 0.28854328 0.15889771
000300 9e 2e 19 3f 88 fb 86 3e 74 15 02 bf 54 0e df 3d
       0.5983676 0.26363778 -0.50813985 0.10891405
000310 dc dd 24 3e 27 77 04 3f a8 a5 f5 bd 02 bc c7 3e
       0.16100258 0.5174431 -0.11994487 0.39010626
000320 05 72 52 3d 83 7f cb bd dc b2 ed be 7a c9 fb 3e
       0.05137827 -0.0993643 -0.4642552 0.49177152
000330 4e e5 e5 3e e1 b6 bb 3e 69 7f 0f 3f 4b 99 6b be
       0.44901508 0.36662963 0.5605379 -0.23007695
000340 2f b9 c8 3c 6e 5e 44 be 63 7a 66 3e 9c 3f e6 3e
       0.024502365 -0.19176647 0.22507624 0.44970405
000350 4c 00 17 be 41 63 88 be 7f 2c 6b bc 15 1a af be
       -0.14746207 -0.26638225 -0.01435387 -0.34199587
000360 9a fc f8 be d0 cb 3a 3d 23 72 79 3e 29 57 6b 3d
       -0.4863022 0.045604527 0.24359946 0.05745617
000370 b2 4d ba 3e 5a 5e 1b be ad e6 de be e1 6c b9 3e
       0.36387402 -0.15172711 -0.43535367 0.3621588
000380 e2 71 92 be be c9 59 be 7d 30 e3 3e 20 0f 95 3e
       -0.2860251 -0.21268365 0.4437293 0.29113102
000390 4f dc eb bd 26 e5 a3 be 49 be f0 be e9 bc 15 3d
       -0.1151663 -0.32010764 -0.47020176 0.036557112
0003a0 3e d9 7c 3e 65 19 b1 be a4 76 94 be 3e b4 7d be
       0.24692246 -0.34589687 -0.28996766 -0.24775788
0003b0 e5 9d 9d 3e ef a2 e4 3d 09 bd fb 3b ed e2 ff be
       0.30784526 0.111638896 0.007682447 -0.49977818
0003c0 52 10 f3 bd b9 67 c3 be d7 05 a4 3e 6a db 9e 3e
       -0.11868347 -0.38165072 0.32035705 0.31026775
0003d0 31 83 3e 3e 8e f0 c1 be 00 70 00 3f 66 e6 e1 be
       0.18604733 -0.3787884 0.501709 -0.44121093
0003e0 a1 57 24 be e9 4d e6 be aa 31 12 3e af ba 87 3e
       -0.16049053 -0.44981316 0.14276758 0.26509616
0003f0 a8 93 e4 be ff 9d ff 3e 36 99 f2 3e b7 96 ce be
       -0.44643903 0.4992523 0.47382516 -0.4034936

layer2.6.weight f4 [7, 256]
000000 2e 6a 8f bc 41 95 ca 3c ae 75 97 bd 4d 0c e7 bc
       -0.017506685 0.024729373 -0.073954925 -0.028204108
000010 60 63 77 3d ca c3 b7 3c 17 45 82 be 01 40 14 be
       0.060397506 0.022432227 -0.25443336 -0.1447754
000020 d4 6b a6 bd 79 e2 03 3e b1 93 5e 3d 29 a4 39 be
       -0.08126035 0.12879361 0.05434007 -0.18129028
000030 99 0e 71 3d a4 9a a1 3d f9 2a 52 3d f6 9c 54 bc
       0.058851812 0.078908235 0.051310513 -0.0129768755
000040 3c d9 5f bb 27 19 9f 3d 52 c6 93 bc 1f 9b c5 3c
       -0.0034156581 0.07768469 -0.018038902 0.024121819
000050 64 a3 dc 3a 9f 17 ba 3c 47 ad 07 3d 57 64 15 3d
       0.0016833362 0.022716342 0.033124235 0.036472645
000060 b5 e0 2e 3e 93 7c e0 be 9a 97 36 bd c8 04 9c 3c
       0.17077906 -0.43845043 -0.044578172 0.019045249
000070 46 47 da 3d 31 0d 6b bd 93 57 f2 3d a8 f7 92 3d
       0.106581256 -0.057385627 0.1183311 0.07176143
000080 a6 0f 3a be b3 d3 b4 bd 3b 03 d1 3c 47 a9 86 3c
       -0.18170032 -0.08829441 0.025514236 0.01643814
000090 49 e9 55 bb f8 5f 9e 3d 72 5f a4 bd 6f de 47 3e
       -0.003264027 0.07733148 -0.08026017 0.19518445
0000a0 bb c9 91 bb 89 5d 81 3d fb 0f e2 bc ba af ea 3b
       -0.004449097 0.063166685 -0.02759551 0.0071620615
0000b0 a0 65 b5 3c f4 9c 00 3a 9e 6a df 3c da f6 71 bb
       0.022143185 0.00049062003 0.027272519 -0.0036920817
0000c0 ce b2 94 3e 1e 74 81 3d 8c b9 4d bc 97 a3 c3 3d
       0.29042667 0.06320976 -0.012556445 0.09552687
0000d0 21 dd be bb df 66 fa 3b cb 26 c7 bc ee 70 0d bd
       -0.0058247005 0.0076416577 -0.02431049 -0.034531526
0000e0 d1 98 83 bd 20 8d 3d be a4 12 68 be d5 66 e0 3c
       -0.06425632 -0.18510866 -0.22663361 0.027392784
0000f0 40 77 a4 3d cc 2f 22 be 12 24 06 3e 4e fd 11 3e
       0.08030558 -0.15838546 0.13099697 0.14256784
000100 67 69 5c bc 4a 86 27 3c e4 e8 00 bd a3 65 fb 3c
       -0.013452864 0.010224888 -0.0314721 0.030688113
000110 f9 9b 85 3d 3b 9a 31 bc dc d9 a8 3d 7d 0c 59 bc
       0.0652389 -0.010839994 0.082446784 -0.013247606
000120 1a 00 32 bc a6 d4 63 3d 00 a8 08 3e 0e b6 e0 bd
       -0.010864282 0.05562272 0.13345337 -0.10972224
000130 76 79 78 bc 6b 01 03 3d c7 da 8e bd 4c 6a 0b 3d
       -0.015165677 0.031983774 -0.06975322 0.03403692
000140 9d 52 05 3c 4f 52 b4 3d 1a 98 e4 3c 5f da ac 3a
       0.008137372 0.088047616 0.027904559 0.0013187638
000150 91 fc c5 bd f3 00 9d 3c 19 3c 53 3d ba e9 52 bd
       -0.09667314 0.019165492 0.051570985 -0.05149243
000160 8f ef 5e be 71 ef 07 be 5b 74 f2 bc 17 b6 2b be
       -0.21771072 -0.13274933 -0.029596498 -0.1676868
000170 4f fe 1c bd 8f 14 58 3d 11 67 25 be 77 72 5e bc
       -0.038328465 0.05275398 -0.16152598 -0.013577095
000180 22 0b 21 bd df a4 48 bd 71 cf 69 be 12 9c 34 bd
       -0.039317258 -0.04898536 -0.22833039 -0.044094153
000190 19 35 89 3d 9b 47 35 3e 88 e1 5e bb da ca e2 3d
       0.06699581 0.17703097 -0.0034008939 0.11073847
0001a0 50 d2 24 3e 03 b6 b0 3e ea 9d 9a 3d 95 79 d6 3d
       0.16095853 0.34513864 0.07549651 0.10472409
0001b0 f5 a6 39 3e 63 17 8b 3d 06 9b f2 3d a5 02 89 bc
       0.18130095 0.0679157 0.118459746 -0.016724894
0001c0 d7 c2 00 3c 9a 5c a3 3b f7 76 68 3c 7e 59 78 bd
       0.007858953 0.004985404 0.01418852 -0.06063222
0001d0 58 13 56 be 90 2e 24 3e 10 77 7f bd 59 a4 17 3e
       -0.20905817 0.16033387 -0.062369406 0.14808787
0001e0 09 10 34 bd d0 ce f3 bc 7b db 22 bd 7c d5 d5 bd
       -0.043960605 -0.029761702 -0.039760094 -0.104411095
0001f0 e6 b8 56 bd e2 bd 2c 3d be 69 1c bd 12 2b 33 be
       -0.052422427 0.042173274 -0.03818678 -0.17496899
000200 20 89 a6 3d 38 4d 8f 3d e2 fc 93 bc 50 f5 0a 3e
       0.08131623 0.0699715 -0.01806492 0.13570142
000210 fb b8 a3 3e f5 04 d0 3d 83 72 56 3d 05 aa 4c 3e
       0.31977066 0.101571955 0.0523553 0.19986732
000220 93 a5 9a bd d8 e2 07 be b7 f7 b2 bc 4d 26 66 3d
       -0.07551112 -0.13270128 -0.021846635 0.05618887
000230 5e aa 3b bc 71 64 4c 3c 47 4f 14 3d b0 79 8e 3d
       -0.011454193 0.012475119 0.036208417 0.06956804
000240 70 dc 2d 3e bb bd df 3c 37 89 f5 3d fe 69 27 bb
       0.16978621 0.02731215 0.11989062 -0.0025545354
000250 69 4c af 3c 87 f3 c7 3c 48 57 c4 bd 60 6e a1 bd
       0.02139874 0.024408115 -0.0958696 -0.078823805
000260 3a e5 95 bc 7f 8c a2 3d 09 00 f5 3d 21 8d 02 3e
       -0.01829778 0.07936954 0.11962897 0.12749149
000270 47 d8 7a bd c5 ed a4 3a 6e 7b b0 3d a8 4f 0b be
       -0.061241414 0.0012583068 0.08617292 -0.13604605
000280 3b f4 61 3d 88 f7 3e bc 6d 23 75 bc 9d 95 83 bc
       0.055164557 -0.011655696 -0.014962059 -0.016062552
000290 88 bd 80 3c ec 91 dd bd f3 96 9c 3d c5 c4 7b 3e
       0.015715376 -0.10818848 0.07645979 0.2458678
0002a0 b5 e8 9d bd 65 33 0f 3d a9 b7 0f be 6e d9 29 bd
       -0.07710401 0.034961123 -0.14034905 -0.041467123
0002b0 5d a5 3f bd aa c6 57 bd 75 ee 3a 3d 7f d8 a9 3c
       -0.046788562 -0.052679695 0.045637567 0.020733116
0002c0 0c 04 8a bd 1a 1a 4f bd 2e 01 ae 3d a6 12 20 3e
       -0.06739053 -0.050562 0.08496319 0.15632114
0002d0 82 54 0a be 03 8c 69 bd 0b 45 74 3c 74 b9 c0 3d
       -0.135088 -0.05701829 0.014909039 0.094103724
0002e0 13 a2 03 bd 69 78 67 3e 84 9a 6b bc 91 d4 7b 3c
       -0.032136988 0.22604527 -0.014380101 0.015370504
0002f0 dc 39 cb bc af 54 db bd 4b 39 89 bd 5f 75 29 be
       -0.024807863 -0.107095115 -0.06700381 -0.1654868
000300 c6 bd ba bd c2 42 97 bc a7 36 49 bc 23 78 8a bd
       -0.09118228 -0.01846445 -0.012281097 -0.067611955
000310 0a cf 79 be 22 b0 7c bd e7 8e 44 3c 89 3d da bc
       -0.24395385 -0.06169141 0.011996961 -0.02664067
000320 38 13 42 bd 34 22 4f 3d 90 a8 8e 3d 82 ea f8 3c
       -0.04738161 0.050569728 0.069657445 0.03038526
000330 b1 b3 9e bc 65 7e b5 bd c1 bb 26 bd 7a 7a 81 3e
       -0.019372793 -0.088619985 -0.0407064 0.25288755
000340 b6 3a d4 3b 11 83 f5 3d 1d 9f 63 be 52 5c 2c 3d
       0.0064767255 0.119878896 -0.22228666 0.04208023
000350 7f 67 15 3e 78 52 33 3c 2c 55 53 3d 10 a2 dd bc
       0.14590262 0.010944955 0.051594898 -0.027054816
000360 fd 25 06 3e 7e 65 f5 bc 1b 2c 24 be d3 8c 17 bd
       0.13100429 -0.029955622 -0.1603245 -0.036999535
000370 d7 ef f1 bd 10 9b 1d 3d 87 88 20 bd 6b 97 80 bd
       -0.11813324 0.038477957 -0.039192703 -0.06278881
000380 cc c3 e8 3c 5a a8 06 bc f3 6e 05 bd 93 0d 6a bd
       0.028413676 -0.008218849 -0.032576513 -0.05714185
000390 f6 24 5e 3d c9 6a 8d 3d 0f 1b 9e 3c d9 d2 22 bc
       0.054234467 0.06905133 0.019300012 -0.009937965
0003a0 61 10 4a bd d4 09 12 3d d3 0e dd 3d 8b 4f ee 3d
       -0.049332026 0.035653904 0.10793843 0.11636265
0003b0 cd 8f fe bd 4c cf de ba c2 7f f2 bc dd 9d cd 3d
       -0.124297716 -0.0016999035 -0.029601935 0.10039876
0003c0 69 7d f8 3c 72 8e 58 3d 2b fc bd bd e6 93 d1 bd
       0.030333238 0.05287022 -0.09276613 -0.102332875
0003d0 4f ea ae bd 92 2f 8e 3d 15 2b c6 3c 33 f0 c4 3c
       -0.085407846 0.06942667 0.024190465 0.024040317
0003e0 01 ae b0 3d 2e 7c c8 3d 96 f7 a8 bc c1 e1 45 3c
       0.086269386 0.097893104 -0.02062587 0.01207775
0003f0 c6 a1 c2 3d 29 4c 62 bd 72 ea 03 be 06 c2 5a 3d
       0.09503512 -0.055248413 -0.12882403 0.05340769

layer2.6.bias f4 [7]
000000 27 09 f3 be c4 40 0b bf 37 49 0e be bc f8 8c 3d
       -0.4746792 -0.543957 -0.13895117 0.0688338
000010 81 f4 04 3d 78 16 a6 3b b6 b0 27 3e
       0.03245974 0.0050685965 0.16376004
