Saved_data_files/bpi/lr_all_variants/laplacianOnBinary/EventPredictor_parameters_laplacianOnBinary_0.0001.pt (torch, 280583 bytes, 8 tensors)

layer1.weight f4 [4, 1]
0	0x3f5fe61b	0.8746049
1	0xbe4bc7bd	-0.19900413
2	0xbf941416	-1.156863
3	0xbe572334	-0.21009523

layer1.bias f4 [6]
0	0x3e1d9703	0.15389638
1	0xbe86ff58	-0.26366687
2	0x3e9f6e8d	0.3113903
3	0x3e17beff	0.14818953
4	0xbea8ea1f	-0.3299112
5	0x3e35424f	0.17701076

layer2.1.weight f4 [256, 6]
0	0x3ea19083	0.31555566
1	0x3e1d115f	0.15338658
2	0x3dc321cd	0.09527931
3	0xbc356f18	-0.01107385
4	0x3d5bc42e	0.05365389
5	0xbc9197a4	-0.017772503
6	0x3e998ee4	0.2999183
7	0xbdfa29ff	-0.12215041
8	0x3e8ca3c1	0.27468684
9	0x3c198e56	0.009372314
10	0x3b70daed	0.0036751584
11	0x3df71bd8	0.12065858
12	0xbddba488	-0.10724741
13	0xbe032e6f	-0.12810682
14	0x3f22f161	0.63649565
15	0xbd899ab5	-0.06718961
16	0xbe14ba04	-0.14524084
17	0xbd8471c7	-0.06467014
18	0xbeb58142	-0.35450178
19	0xbec727f7	-0.38897678
20	0x3e67ed81	0.22649194
21	0xc005b145	-2.0889447
22	0xbd468736	-0.04846879
23	0xbfd56a50	-1.6673069
24	0xbe4a2a92	-0.19742802
25	0x3e1c8c91	0.15287997
26	0x3f03f6e8	0.51548624
27	0xbfaaf4f6	-1.3356006
28	0x3b916082	0.0044365535
29	0xbec1eb8d	-0.37875023
30	0xbe659918	-0.22421682
31	0x3e0bee4e	0.13665125
32	0x3d8200e0	0.06347823
33	0xbe4d9468	-0.20076144
34	0x3e644bd3	0.2229455
35	0xbda3d3fa	-0.07999416
36	0xbdc1055e	-0.09424852
37	0x3e26306e	0.16229412
38	0x3f236638	0.6382785
39	0xbc9eccd9	-0.019384788
40	0xbdc5fcf6	-0.09667389
41	0xbe339974	-0.17539006
42	0xbea9c4a1	-0.33157828
43	0x3c2fcebb	0.010730441
44	0x3de4c8a4	0.11171082
45	0xbd9ec8c1	-0.077531345
46	0xbdd34da8	-0.10317546
47	0xbb8c515a	-0.004282159
48	0x3bf4571c	0.0074566733
49	0x3e4114d1	0.18855597
50	0xbb2e5da7	-0.0026606114
51	0x3eeef654	0.46672308
52	0x3db0c8f5	0.086320795
53	0x3e36c59d	0.17848821
54	0x3eb9f0ea	0.36316615
55	0xbe90dafe	-0.28292078
56	0x3cbe29e6	0.023213338
57	0x3ecde548	0.4021399
58	0xbd78682a	-0.060646214
59	0x3d6b16b0	0.057394683
60	0x3eb57452	0.35440308
61	0x3debdb58	0.11516446
62	0x3cf1058e	0.029421594
63	0xbe610c02	-0.21977237
64	0x3db34229	0.087528534
65	0xbded1082	-0.11575414
66	0x3ebaffd6	0.36523312
67	0x3e355757	0.17709099
68	0xbf3a22f6	-0.72709596
69	0xbfb9c5c0	-1.4513474
70	0x3e18e79a	0.14932099
71	0xbff436c3	-1.9079212
72	0x3e952577	0.29130146
73	0xbe64c7b0	-0.223418
74	0xbe82e9f0	-0.25569105
75	0xbdc95497	-0.09830587
76	0x3da58309	0.080816336
77	0x3cea23b3	0.028581476
78	0xbe8d4713	-0.27593288
79	0xbeaff8a1	-0.34369376
80	0xbddbea88	-0.10738093
81	0x3eb62005	0.35571304
82	0xbd417a58	-0.047235817
83	0x3e8ad115	0.27112642
84	0x3e709ba6	0.23496875
85	0x3d97f1fe	0.07419203
86	0x3e39b669	0.1813599
87	0xbd27b1c9	-0.040941034
88	0xbdce2fec	-0.10067734
89	0xbe1aaa20	-0.1510396
90	0xbee91631	-0.45524743
91	0x3e133719	0.14376487
92	0xbd9c6177	-0.076357774
93	0xbce7ca16	-0.028294604
94	0x3c986db0	0.01860699
95	0x3a80dfee	0.0009832361
96	0xbe857828	-0.26068234
97	0x3db9f4fd	0.09079931
98	0x3e0d96ac	0.13827008
99	0xbe17801a	-0.1479496
100	0xbdd5fdc4	-0.104487926
101	0xbdef4045	-0.1168218
102	0x3e953568	0.29142308
103	0xbe81d89a	-0.25360566
104	0xbf6557d9	-0.8958717
105	0x3ff7ec67	1.9369019
106	0x3f952f35	1.1655031
107	0x3f6a32e6	0.91483915
108	0xbf03eafc	-0.5153043
109	0x3e571c1c	0.21006817
110	0x3d013f80	0.0315547
111	0xbe0ff545	-0.14058407
112	0x3baa9516	0.0052057607
113	0x3e195508	0.14973843
114	0xbe91b2a4	-0.28456604
115	0xbe38ff91	-0.18066241
116	0x40309454	2.7590532
117	0x3fd16a46	1.6360557
118	0xbfd5d6eb	-1.6706213
119	0x40c63ce6	6.194934
120	0x3ee8e8bb	0.4549006
121	0x3e14cbf2	0.14530924
122	0xbd9d0352	-0.07666649
123	0xbd144bca	-0.03620509
124	0x3e9a02cc	0.3008026
125	0x3da457f3	0.080245875
126	0xbe97e8fb	-0.29669937
127	0xbeaaa60b	-0.33329806
128	0xc0058520	-2.0862503
129	0xbee1a8db	-0.4407414
130	0x3fa62343	1.2979511
131	0xbeb82b45	-0.35970512
132	0x3eb49302	0.35268408
133	0x3d07b174	0.033128217
134	0x3e4af0da	0.1981844
135	0xbcb90d73	-0.02258942
136	0x3cdbae15	0.026816407
137	0x3db35250	0.08755934
138	0xbe8682b9	-0.26271608
139	0xbe6a1d3e	-0.22862718
140	0x4068f2ca	3.6398187
141	0x3d5ecaf8	0.054392785
142	0xbe915d9c	-0.2839173
143	0x3f3d535f	0.7395534
144	0xbec8c25b	-0.3921078
145	0xbdf35b73	-0.11882677
146	0xbe2818ff	-0.16415785
147	0xbca7a525	-0.02046449
148	0x3e87a901	0.26496127
149	0xbca25095	-0.019813815
150	0xbe20e15a	-0.15710965
151	0x3d655248	0.055986673
152	0x3de273b7	0.11057227
153	0xbee10534	-0.43949282
154	0x3e59332f	0.21210931
155	0x3c41a24f	0.011818483
156	0x3c336dc5	0.010951464
157	0x3e8213f2	0.25405842
158	0xbc809f35	-0.015700916
159	0xbc1676e6	-0.009183621
160	0x3c386aa0	0.01125589
161	0xbdb49ff4	-0.08819571
162	0x3e92e35d	0.2868909
163	0x3ebe45b3	0.3716255
164	0xbddbcf44	-0.10732892
165	0x3e8f781b	0.2802132
166	0xbc260af2	-0.0101344455
167	0xbd821e65	-0.063534535
168	0x3ed9eba7	0.425626
169	0xbe315a8c	-0.17319697
170	0x3df2cad0	0.1185509
171	0x3d472662	0.04862059
172	0x3e05b8f3	0.13058834
173	0xbe2980ce	-0.16553041
174	0xbe2981a4	-0.1655336
175	0x3ed65658	0.4186275
176	0xbb9a1a39	-0.004702833
177	0xbdd70cbc	-0.10500476
178	0x3d070f6d	0.032973696
179	0x3d6d82d8	0.05798611
180	0xbeb2e4ba	-0.3494013
181	0xbe594add	-0.21219964
182	0x3e52b54d	0.20576973
183	0xbd23edd8	-0.040021747
184	0xbeb899ed	-0.36054936
185	0xbd2b18d8	-0.04177174
186	0x3e2cd48c	0.16877955
187	0x3d93daaf	0.07219445
188	0x3ecc05c5	0.39848152
189	0xbcefd7df	-0.02927774
190	0x3dbf7445	0.093483485
191	0x3cb244fd	0.021761412
192	0xbe855f61	-0.2604933
193	0xbe013cd5	-0.12620862
194	0x3e84dd5e	0.2595014
195	0x3d46dd4e	0.048550896
196	0xbea00c09	-0.31259182
197	0xbe3b1169	-0.1826836
198	0xbea73d4c	-0.32663953
199	0x3ede2707	0.4338915
200	0x3ed78d43	0.42099962
201	0xbe916451	-0.28396848
202	0xbe1fbc11	-0.15599085
203	0xbd5046fd	-0.05084895
204	0xbd159f2f	-0.036528762
205	0x3eac5075	0.33655134
206	0xbfceafd8	-1.6147413
207	0xbe3c2016	-0.18371615
208	0x3f7a4eb5	0.9777635
209	0xbf1042d3	-0.56351966
210	0x3ebdc97e	0.3706779
211	0x3e24b55d	0.1608481
212	0x3c8ba43b	0.017046085
213	0xbf9b3d88	-1.2128153
214	0x3c30829f	0.01077333
215	0xbf018be1	-0.50604063
216	0x3ece99b4	0.4035164
217	0xbd9e698d	-0.07734976
218	0x3dff852d	0.12476573
219	0xbee53aa5	-0.44771305
220	0xbdcde973	-0.100542925
221	0xbeb55f9e	-0.35424513
222	0xbea9e3bd	-0.33181563
223	0x3e2df75e	0.16988894
224	0x3b908c77	0.004411276
225	0xbdd5c5b7	-0.10438102
226	0xbc0cf91b	-0.008604313
227	0xbd1af0bb	-0.037827235
228	0xbec2ca48	-0.38044953
229	0xbcc75de1	-0.024336757
230	0x3d217fdc	0.039428577
231	0x3ea53cc6	0.3227293
232	0x3ddcae13	0.107753895
233	0x3e79b457	0.243852
234	0x3da9c4c5	0.08289484
235	0xbeb20423	-0.3476878
236	0xbbe17bbd	-0.006881206
237	0xbf0f17de	-0.55895793
238	0xbeb7b410	-0.35879564
239	0xbf72287c	-0.94593024
240	0x3e9d2739	0.30693987
241	0x3c94fec3	0.018187886
242	0xbd727c15	-0.059200365
243	0xbdfb4443	-0.12268879
244	0x3d989ab5	0.07451383
245	0xbe98b249	-0.2982352
246	0xbed05b4e	-0.4069466
247	0x3e64aeff	0.2233238
248	0x3e539173	0.20660953
249	0xbe431d2a	-0.19054094
250	0xbe7c9c1d	-0.24668927
251	0x3c501af3	0.012701738
252	0x3e8aebb6	0.27132958
253	0x3da00a4d	0.07814465
254	0xbf3ed5c6	-0.7454494
255	0x3e98e4e5	0.29862133

layer2.1.bias f4 [256]
0	0x3ea5c4ee	0.32376808
1	0x3e84a40e	0.25906414
2	0x3e6de3fa	0.23231497
3	0xbfe35c9c	-1.7762637
4	0xbf1d3795	-0.61412936
5	0xbf7dad50	-0.9909258
6	0x3dec936f	0.11551558
7	0x3b9ab175	0.0047208616
8	0x3ef0203c	0.46899593
9	0x3f413993	0.75478476
10	0x3d884522	0.06653811
11	0xbf8124ff	-1.0089415
12	0xbf0f3900	-0.5594635
13	0x3d832eab	0.064053856
14	0x3ecc0a4e	0.39851612
15	0xbe0fccdb	-0.1404299
16	0xbd06cdd3	-0.032911133
17	0x4043a1d3	3.056752
18	0x3f329180	0.69753265
19	0xbeccf88f	-0.40033385
20	0x3e61384c	0.21994132
21	0xc03da7c1	-2.963364
22	0x3f64c42a	0.8936182
23	0x40300496	2.75028
24	0xbf6e8a2c	-0.93179584
25	0xbf48f5f0	-0.7850027
26	0x3d5ae12e	0.053437404
27	0x3f44f6ff	0.76939386
28	0xbefe3fd3	-0.4965807
29	0x3ee26efd	0.44225302
30	0xbe750346	-0.2392703
31	0x3f04da78	0.51895857
32	0x3b03b629	0.002009759
33	0x3f004164	0.5009978
34	0xbfc208b9	-1.5158912
35	0xbf441ce3	-0.7660658
36	0xbf1b443a	-0.6065098
37	0xbe6f5ac6	-0.23374471
38	0x3f082511	0.5318156
39	0xbee2feee	-0.4433512
40	0xbe945eda	-0.28978616
41	0x3da12cdf	0.078698866
42	0xbdc3a9df	-0.09553885
43	0xbca5a08d	-0.020218158
44	0x3f3db04a	0.7409712
45	0xbf98f7df	-1.1950644
46	0x3dd7c8a7	0.10536318
47	0x3ee3c8f6	0.4448926
48	0xbe8b39c4	-0.2719251
49	0xbf12e097	-0.57373947
50	0x3f7f2a7f	0.9967422
51	0x3ebb65b4	0.3660103
52	0xbeedf0af	-0.4647269
53	0xbe290145	-0.1650439
54	0x3e732b28	0.23746932
55	0x3d9fb8dd	0.07798932
56	0x3f9010e3	1.1255153
57	0xbe9a0075	-0.30078474
58	0xbea11c98	-0.31467128
59	0xbf52bc22	-0.8231832
60	0xbc55b84f	-0.013044431
61	0x3f2e7cdd	0.68159276
62	0x3e0ef96c	0.13962334
63	0x3f15dfb2	0.58544457
64	0x4031c763	2.7777946
65	0xbee15064	-0.44006646
66	0xbe2b06be	-0.1670179
67	0xbd8250c1	-0.06363059
68	0x3fb4fa34	1.4138856
69	0x3f1925b2	0.59823143
70	0x3f65fe4e	0.89841163
71	0xbfb01e91	-1.3759328
72	0xbea57bdd	-0.32321063
73	0xbcc25b8d	-0.023725295
74	0x4014cccf	2.3250005
75	0xbef9803b	-0.48730645
76	0x3e8affce	0.27148288
77	0x4021ae1e	2.5262523
78	0xbee1a707	-0.44072744
79	0x3e0264c0	0.12733746
80	0xbe4d3bc2	-0.20042327
81	0xbfa6c217	-1.3027982
82	0xbeb9284f	-0.36163566
83	0xbed3f5a3	-0.41398343
84	0x3f1bdc66	0.60883176
85	0x3f19d149	0.6008497
86	0xbf1d3132	-0.6140319
87	0xbdae41fe	-0.08508681
88	0x3db6d0f6	0.08926575
89	0xbf897760	-1.0739555
90	0x3f832aee	1.0247476
91	0x3ec1f786	0.37884158
92	0xbf04e422	-0.51910603
93	0xc01014ed	-2.2512772
94	0x3e00187b	0.12509339
95	0xbe91d79c	-0.2848481
96	0x3efe13d0	0.4962449
97	0x3dd7c721	0.10536028
98	0x3e2051e8	0.15656245
99	0x3f249d55	0.6430257
100	0x3fd51711	1.6647664
101	0x3eca79b4	0.39545977
102	0x3ec36641	0.3816395
103	0x3f523f7a	0.8212811
104	0xbe56da56	-0.20981726
105	0xbf61964a	-0.8811995
106	0x3c8cad0a	0.017172355
107	0xbea423a8	-0.32058454
108	0x3e2c178b	0.16805856
109	0x3eabe767	0.33574983
110	0x3fa27030	1.2690487
111	0x3f12095e	0.57045543
112	0x3cd240f9	0.025665747
113	0x3f7bc224	0.9834311
114	0xbedfbb91	-0.4369779
115	0xbb9875ba	-0.004652706
116	0x3f3e7dae	0.7441052
117	0x3ef1e641	0.47245982
118	0x3e203ffe	0.15649411
119	0x3f501784	0.8128588
120	0xbfaec98b	-1.3655256
121	0xbed7779c	-0.42083442
122	0x3e5c4477	0.21510492
123	0x3ff00da9	1.8754169
124	0x3e337414	0.17524749
125	0x3f02696f	0.5094213
126	0x3f8056d5	1.0026499
127	0x3e34d2b2	0.17658499
128	0x3ad7d518	0.0016466705
129	0x3ec76fbf	0.38952443
130	0xbf37143b	-0.71515244
131	0x3f2cce2d	0.675021
132	0xbeeff294	-0.4686476
133	0x3f6fd396	0.9368223
134	0x3ec04ab3	0.3755699
135	0xbf3ce879	-0.73792225
136	0x3f059d86	0.52193487
137	0xbf1d12eb	-0.6135699
138	0xbe47a094	-0.1949485
139	0xbd24df7d	-0.040252198
140	0x3d480fd7	0.04884323
141	0x3f196f27	0.5993523
142	0x3f82a81e	1.0207555
143	0xbdccd22f	-0.10001027
144	0x3be1e5ac	0.006893834
145	0x40710814	3.766118
146	0xbe96ba6d	-0.29439107
147	0x3e1b458e	0.15163252
148	0xbef37e86	-0.47557467
149	0x3ec4822b	0.3838056
150	0xc0499cc2	-3.1501927
151	0x3fba0ec5	1.4535757
152	0x402e3e90	2.7225685
153	0x3eb7b2c0	0.35878563
154	0x3d6b7f04	0.05749418
155	0xbf41ed3c	-0.75752616
156	0x3dc46718	0.09589976
157	0x3c736871	0.014856444
158	0xbf476057	-0.7788138
159	0xbf0321db	-0.51223534
160	0x3e8d4d2a	0.27597934
161	0x404c45de	3.1917644
162	0x3ea9aec8	0.3314116
163	0xbead16ad	-0.33806363
164	0xbf927d34	-1.1444459
165	0xbe9c76cb	-0.30559382
166	0x3e91d013	0.2847906
167	0x3f773fb3	0.9658157
168	0xbf533e0c	-0.8251655
169	0xbf06a7a9	-0.5259958
170	0x3f363cf0	0.71186733
171	0xbdfccca1	-0.12343717
172	0x3da7d725	0.081953324
173	0x3e7dc186	0.24780855
174	0x400eb02a	2.2295022
175	0xbcba3551	-0.022730501
176	0x3ed7a034	0.42114413
177	0xbf1a2b7b	-0.60222596
178	0x3dec24b6	0.115304396
179	0x3f2841bc	0.657253
180	0xbc611464	-0.013737772
181	0xbffa4e36	-1.9555118
182	0xbf51e1d5	-0.8198522
183	0x3f5dda85	0.8666156
184	0xbeca73ba	-0.39541417
185	0x3eb31955	0.34980264
186	0x3f1fa1be	0.62356174
187	0xbe4d5039	-0.20050134
188	0x3f7f0327	0.99614185
189	0x3f5a1146	0.8518261
190	0x3e308304	0.17237478
191	0x3e551ec2	0.20812514
192	0xbe60fca9	-0.21971382
193	0x3f2334cc	0.63752437
194	0xbf1b7c7d	-0.6073683
195	0xbdc9e23c	-0.09857604
196	0x3e2e7cf8	0.1703986
197	0x3e50651e	0.20351073
198	0xbe7bca52	-0.24588898
199	0x3d8da912	0.06917013
200	0x3e5753b0	0.21028018
201	0xbe056bd3	-0.13029413
202	0x3e7f7ae1	0.24949218
203	0xbf249a99	-0.642984
204	0x3f37ebc8	0.7184415
205	0x3e62b662	0.22139886
206	0xbdd5359c	-0.10410616
207	0xbe68114d	-0.2266285
208	0xbec2d97f	-0.3805656
209	0x3d9c2c76	0.07625668
210	0xbf82899b	-1.0198244
211	0x3eb039e0	0.34419155
212	0x3eb83a3e	0.35981935
213	0xbf097d72	-0.5370704
214	0x3e0acf7d	0.13555713
215	0x3f20c486	0.6279987
216	0xbf420d8c	-0.7580192
217	0x3d80ae42	0.06283237
218	0xbf6e650f	-0.93122953
219	0xbfd3cb58	-1.654643
220	0xbe8ef08c	-0.27917898
221	0x3f957b0f	1.167818
222	0xbfa19bbc	-1.2625651
223	0xbf08469a	-0.5323273
224	0x3f39ff69	0.7265535
225	0xbf066503	-0.5249788
226	0xbe1bfa2e	-0.15232155
227	0x3e0eed19	0.13957633
228	0xbf5476ae	-0.8299359
229	0x3f8cb001	1.0991212
230	0x3d8c6d93	0.06856837
231	0xbea6034b	-0.32424387
232	0xbf6c58e1	-0.9232312
233	0x3c453d71	0.012038575
234	0xbb5d7da5	-0.0033796814
235	0x3e3cb569	0.18428577
236	0x3eae532d	0.34047833
237	0x3f33b240	0.7019386
238	0x3e63615f	0.22205113
239	0xbed98432	-0.4248367
240	0x3eea2d27	0.45737574
241	0x3d803b2f	0.062612884
242	0x3da0813d	0.0783715
243	0x3f8c2048	1.0947351
244	0x3df3e73b	0.11909338
245	0x3ffadfaa	1.9599507
246	0x3e903bd0	0.28170633
247	0x3ef1ab5d	0.47201052
248	0x3ff9ae39	1.9506294
249	0xbef70791	-0.4824796
250	0x3f8f882e	1.1213434
251	0x3debdad5	0.11516348
252	0x3eae160e	0.340012
253	0xbeea43c9	-0.4575484
254	0xbf6f4525	-0.9346488
255	0x3e040935	0.12894137

layer2.3.weight f4 [256, 256]
0	0x3eab54cb	0.3346313
1	0xbcef9fdd	-0.029251033
2	0xbeb0338e	-0.34414333
3	0x3e4bb1ab	0.19891994
4	0x3e0f6f12	0.14007214
5	0xbda3e25e	-0.080021605
6	0xbed62885	-0.4182779
7	0xbddb656d	-0.10712705
8	0x3e813f91	0.2524381
9	0xbd551640	-0.052023172
10	0xbe9385f0	-0.28813124
11	0xbe04c48f	-0.12965606
12	0xbe4c1944	-0.19931513
13	0xbd288728	-0.04114452
14	0x3dd4fc3d	0.10399673
15	0x3da09f75	0.07842914
16	0xbe11040d	-0.14161702
17	0x3e6b7144	0.22992426
18	0x3db2fd3d	0.087397076
19	0xbf304292	-0.6885158
20	0x3e1ed0ad	0.15509291
21	0xbeeea4c4	-0.4661008
22	0xbdee6101	-0.11639596
23	0x3dd9b9ab	0.106311165
24	0xbec35395	-0.38149706
25	0xbe94bc6a	-0.2905
26	0xbcf562d5	-0.029954353
27	0xbedc580a	-0.43035918
28	0xbeaf749e	-0.3426866
29	0x3ebb0732	0.36528927
30	0x3e8deebe	0.27721208
31	0x3ca00e4d	0.01953807
32	0x3e16f71f	0.14742707
33	0x3d7e644c	0.06210737
34	0x3d88c33e	0.066778645
35	0xbd0519d3	-0.03249533
36	0xbdd74507	-0.10511213
37	0x3e3b6956	0.18301901
38	0xbd4209f2	-0.047372766
39	0x3e0bfa6d	0.13669749
40	0x3e6631df	0.22479962
41	0xbe951324	-0.29116166
42	0x3e054eb1	0.130183
43	0xbdfeac54	-0.12435213
44	0x3e8d741d	0.2762765
45	0xbcef9440	-0.029245496
46	0x3e758acf	0.23978733
47	0x3a7b7078	0.0009591649
48	0xbd0d2415	-0.03445824
49	0x3d12a3f0	0.035800874
50	0xbd3c7c6b	-0.04601709
51	0xbed8839c	-0.4228791
52	0x3e8aa17f	0.27076337
53	0xbe09613a	-0.13415995
54	0x3d558b4b	0.052134793
55	0xbd90d0cf	-0.07071077
56	0x3d516435	0.051120955
57	0xbdf588e3	-0.11989
58	0x3e955b19	0.29171064
59	0xbe94c9c0	-0.29060173
60	0x3d880dba	0.06643243
61	0x3e9849ed	0.297439
62	0xbe36ffbf	-0.17870997
63	0xbdfa429e	-0.122197375
64	0xbebcd4bd	-0.36881056
65	0xbdca1d89	-0.09868915
66	0xbcf7dd08	-0.030256763
67	0x3e8f7c87	0.28024694
68	0x3db3d76a	0.08781321
69	0x3daece2b	0.08535417
70	0x3ee9bc70	0.4565158
71	0x3e55206c	0.20813149
72	0xbdb6151a	-0.088907436
73	0x3e574ddf	0.21025799
74	0x3e50d2c7	0.20392905
75	0x3e4a99ee	0.19785282
76	0x3e0f7c6a	0.14012304
77	0x3e2f7b57	0.17136894
78	0xbe5c9a87	-0.21543323
79	0x3e9e854d	0.30961075
80	0xbf0e2c9c	-0.5553682
81	0xbde691c3	-0.112582706
82	0x3df1cc27	0.11806517
83	0x3e9623fb	0.29324326
84	0xbe0f7579	-0.14009656
85	0x3eb9d189	0.36292675
86	0x3dc6cc66	0.09706955
87	0x3d95b059	0.07309026
88	0x3d3ecf0b	0.04658417
89	0xbafb9677	-0.0019194622
90	0x3e31e03a	0.17370692
91	0xbecc7b78	-0.3993795
92	0x3e1f0073	0.15527515
93	0x3d4291af	0.047502216
94	0x39f2a000	0.00046277046
95	0xbc6260f5	-0.013817062
96	0xbd067228	-0.03282371
97	0xbe2283c6	-0.1587058
98	0x3d3eff21	0.04663003
99	0x3eb4fa24	0.35347092
100	0x3e57aaa7	0.21061192
101	0xbe17d631	-0.14827801
102	0x3de4abe5	0.11165599
103	0x3ee3a126	0.44458884
104	0xbd0d79d1	-0.03454
105	0x3e6b0c0e	0.22953817
106	0x3e60da78	0.21958339
107	0xbe1fb5e1	-0.15596725
108	0xbe05999a	-0.13046876
109	0xbdba5940	-0.09099054
110	0xbf753fa2	-0.9580022
111	0xbd32dfa2	-0.043670304
112	0xbe133f1e	-0.14379546
113	0xbd0c1ad3	-0.03420527
114	0xbec3f620	-0.38273716
115	0x3bc27e90	0.0059354976
116	0x3dca5a52	0.098805085
117	0x3e9c4483	0.3052102
118	0xbd9df294	-0.07712284
119	0x3d330186	0.043702625
120	0xbd8679ca	-0.06566198
121	0xbe969c26	-0.29416007
122	0x3e00e8b7	0.12588774
123	0xbcb623eb	-0.022233924
124	0xbd5c9cb0	-0.053860366
125	0xbdb86f5a	-0.090056136
126	0xbde2e2d2	-0.11078419
127	0xbd942853	-0.07234254
128	0xbefe11a7	-0.49622843
129	0x3bf03ec4	0.007331701
130	0x3e6cc06c	0.23120278
131	0x3e1ca71a	0.15298119
132	0xbd83730a	-0.06418426
133	0x3e207bf6	0.15672287
134	0x3e4b7bc1	0.19871427
135	0xbe8e148b	-0.27750048
136	0x3d941e52	0.07232346
137	0xbd167c25	-0.036739487
138	0xbf02e4f2	-0.5113059
139	0x3e520ada	0.20511952
140	0xbdfef0bb	-0.124482594
141	0xbeac98f2	-0.33710438
142	0x3eada9f3	0.33918723
143	0x3e7b5708	0.24544919
144	0xbbd0c880	-0.0063715577
145	0x3e16d58d	0.147299
146	0xbda98b03	-0.082784675
147	0xbd476202	-0.048677452
148	0x3cdacd88	0.026709333
149	0xbe43bbd5	-0.19114621
150	0x3e4f02bf	0.20215891
151	0xbe989b2a	-0.2980588
152	0xbe38df5f	-0.1805396
153	0xbe83f9fa	-0.25776654
154	0xbe3881fd	-0.18018337
155	0x3e6790be	0.22613809
156	0xbcd47fb4	-0.0259398
157	0xbcbec7e9	-0.023288684
158	0x3d8a4e5c	0.06753227
159	0x3ddb4c42	0.107079044
160	0xbe85e269	-0.261493
161	0x3b7b69a7	0.0038362534
162	0x3e2bcc8a	0.16777244
163	0xbe34eb6e	-0.17667934
164	0x3bc52784	0.0060166735
165	0x3e622d9a	0.22087708
166	0x3e33ce80	0.17559242
167	0xbdb70088	-0.08935648
168	0x3ea1253e	0.31473726
169	0x3d8c640c	0.0685502
170	0x3daa49e8	0.08314878
171	0x3d6ccea0	0.05781424
172	0x3eb085da	0.3447712
173	0xbdcd603a	-0.100281194
174	0x3de79665	0.11307982
175	0xbd93ec95	-0.07222859
176	0x3b8613f1	0.0040917327
177	0xbe1e67a9	-0.1546923
178	0xbe5bf54d	-0.21480294
179	0xbecce82b	-0.4002088
180	0xbe0e6b69	-0.13908161
181	0xbdc4b9d6	-0.09605758
182	0x3e3dd08b	0.18536584
183	0x3e8c5837	0.27411053
184	0xbe01f790	-0.12692094
185	0x3e5216ae	0.20516464
186	0x3d58d48e	0.052937083
187	0x3e0e5af3	0.13901882
188	0x3dfbb6ee	0.122907504
189	0xbddc44bc	-0.107552975
190	0x3cfcab8a	0.030843515
191	0x3e95e578	0.29276633
192	0x3e298f52	0.16558579
193	0x3e8e1d67	0.27756807
194	0xbd90629a	-0.07050057
195	0x3e9e5416	0.30923527
196	0x3e6eecc5	0.23332508
197	0x3d133abf	0.035944697
198	0x3e8a1a17	0.2697303
199	0xbcb96a71	-0.022633763
200	0x3d10b40f	0.035327967
201	0xbe18df19	-0.14928855
202	0x3d19550c	0.037434623
203	0xbe33170c	-0.1748926
204	0xbe00d207	-0.12580119
205	0xbe8bda7d	-0.2731513
206	0xbd583785	-0.052787323
207	0xbdbe47e5	-0.092910565
208	0x3eb144b8	0.3462274
209	0xbea1ee7f	-0.3162727
210	0x3e33a239	0.17542352
211	0x3e6999e8	0.22812617
212	0xbdd05e46	-0.10174231
213	0xbe2acac7	-0.16678916
214	0x3c9aa04c	0.018875264
215	0x3d375f43	0.044768583
216	0xbe09b14b	-0.13446538
217	0x3e250354	0.16114551
218	0x3d84c326	0.06482534
219	0xbdef51f7	-0.116855554
220	0xbdd3d046	-0.103424594
221	0xbe767100	-0.24066544
222	0x3c286e4b	0.010280202
223	0xbecbce7f	-0.39805982
224	0x3dfb1e07	0.12261587
225	0xbecde95f	-0.4021711
226	0xbd7dc4b6	-0.061955176
227	0xbe8e3bbf	-0.27779958
228	0x3e099d03	0.13438801
229	0xbe097b0a	-0.13425842
230	0xbe0f2e7a	-0.13982573
231	0xbd9e0130	-0.0771507
232	0xbade5af6	-0.0016964364
233	0x3e2f9d15	0.17149766
234	0x3e56ef35	0.20989688
235	0xbdb0a0c6	-0.08624415
236	0xbdc75bcb	-0.09734305
237	0xbd92ce00	-0.07168198
238	0xbd36e96c	-0.044656202
239	0xbeee558d	-0.46549645
240	0xbe6107b6	-0.21975598
241	0xbe96d30f	-0.294579
242	0xbe1e7649	-0.1547481
243	0x3e164c18	0.14677465
244	0x3c52ed04	0.012873892
245	0x3e48fbe7	0.19627343
246	0x3f4ff65a	0.8123528
247	0x3d569a06	0.052392982
248	0x3e2967ca	0.16543499
249	0x3e032c2b	0.12809817
250	0x3d95eb6f	0.07320296
251	0x3e1175d2	0.14205101
252	0xbecc86b4	-0.3994652
253	0x3df17742	0.11790325
254	0x3d3b0d9c	0.045667276
255	0xbbf88ec2	-0.0075853774

layer2.3.bias f4 [256]
0	0xbff75fb2	-1.9326079
1	0xc02154b7	-2.5207956
2	0xbfe6a94e	-1.8020418
3	0xbfd9585b	-1.6980089
4	0x402c2bff	2.6901853
5	0x402cd5dd	2.7005532
6	0xbfefd61d	-1.8737217
7	0x4019c642	2.4027257
8	0xbfdcd0a0	-1.7251167
9	0x3fecf2e8	1.8511629
10	0x3f18297d	0.59438306
11	0xbff06664	-1.8781247
12	0xc036e978	-2.8579998
13	0x3ffc5f3b	1.9716562
14	0xc010e57a	-2.2640061
15	0x3fd7d05f	1.6860465
16	0x400e0cd1	2.2195323
17	0xbfdd77ff	-1.7302245
18	0x40131c9e	2.2986217
19	0x3ff9c0cd	1.9511963
20	0x3fda3451	1.7047216
21	0x3fbae09e	1.4599798
22	0x4025b67f	2.5892637
23	0x40087552	2.1321607
24	0xbfe08492	-1.7540457
25	0xc024c19a	-2.5743165
26	0x3ff7af76	1.9350421
27	0xbfe3aecc	-1.7787719
28	0xc0198320	-2.3986282
29	0xbfcee814	-1.6164575
30	0x3f9c91b4	1.2231965
31	0xbfef3985	-1.8689429
32	0x40054524	2.082345
33	0x400c84f9	2.195616
34	0x40060ee4	2.0946589
35	0x3fe081c5	1.7539603
36	0xbfe340af	-1.7754115
37	0xbfcfab16	-1.6224086
38	0xbfb3fcbd	-1.4061505
39	0x400031d6	2.0030417
40	0x3f9d5de3	1.2294277
41	0xbffdcff9	-1.9829093
42	0xbd6a871a	-0.05725775
43	0xbfc7be48	-1.5604944
44	0x401f9e29	2.4940283
45	0x3fe97129	1.8237659
46	0x400b8d1e	2.180488
47	0xbfdbad6c	-1.7162299
48	0x3ff22aed	1.891935
49	0xbfebc845	-1.8420492
50	0xbfa90ccc	-1.320703
51	0x3fea78cf	1.8318118
52	0x3d5348fb	0.05158327
53	0xc00ad78a	-2.1694055
54	0xbfe28fec	-1.7700171
55	0xc011f560	-2.2806015
56	0x4024cdb7	2.5750558
57	0x3fd6cdb1	1.6781522
58	0x3ffbbaa3	1.9666332
59	0xbfd7e3e5	-1.6866423
60	0xc005fd34	-2.0935793
61	0xbfedae18	-1.8568754
62	0x3fb3e90c	1.4055495
63	0x400efdb8	2.2342358
64	0x3ffb0ff1	1.961424
65	0xc010a6e9	-2.2601874
66	0xc024701e	-2.569343
67	0xbfe287a6	-1.7697647
68	0xc006e429	-2.1076758
69	0xbf19eb02	-0.6012422
70	0xbfe98852	-1.8244727
71	0x40352171	2.830166
72	0xbfd6aaea	-1.6770909
73	0x400e2480	2.2209778
74	0xc014b59d	-2.3235848
75	0x3fdd2cdd	1.7279316
76	0x3faf9322	1.3716776
77	0xc0052f4b	-2.0810115
78	0xc02883c9	-2.6330435
79	0x4005f534	2.093091
80	0x401577f2	2.335446
81	0xbfff8e04	-1.9965215
82	0xc03136ee	-2.7689776
83	0x400e4e24	2.2235193
84	0xbfe00c3f	-1.7503737
85	0x3fd2d5e3	1.6471523
86	0xbffbef07	-1.968232
87	0x400a8ab4	2.1647158
88	0x3f4b4f88	0.7941823
89	0x3fde7bac	1.7381492
90	0x3fe9d8ce	1.8269289
91	0x402efde8	2.7342472
92	0x3feb8be7	1.840207
93	0x3fe53fcc	1.7910094
94	0xc027915c	-2.618247
95	0x400199ba	2.0250077
96	0xbfe0470c	-1.7521682
97	0x4045ac7f	3.0886533
98	0xbe63e32a	-0.22254625
99	0xbe318a62	-0.17337945
100	0xbfd2c776	-1.6467121
101	0x3fd25046	1.6430748
102	0x400d5475	2.2082798
103	0xc0028db8	-2.0398998
104	0xc008a974	-2.1353426
105	0xc006f096	-2.1084342
106	0x3fc5e8b2	1.5461638
107	0xbfe24a34	-1.7678895
108	0xbea1d4ed	-0.31607762
109	0xbfd2bd1e	-1.6463964
110	0x3fd754de	1.6822774
111	0xc037723e	-2.8663478
112	0x3fcd37b0	1.603262
113	0xbff9e85b	-1.9524034
114	0xc02f3596	-2.7376456
115	0x3fec0c88	1.8441324
116	0x4013414a	2.30086
117	0x4010e086	2.2637038
118	0xc00bb5eb	-2.1829784
119	0xbffde0cf	-1.9834231
120	0x3fbb4eb3	1.4633392
121	0x3fb7a472	1.434706
122	0xc0040e85	-2.0633862
123	0x3fc18026	1.5117233
124	0x3f473a2a	0.77823126
125	0xc01d7f66	-2.4609008
126	0xc00d1820	-2.2045975
127	0x403edd8c	2.9822721
128	0x40364841	2.84816
129	0xbfed6b3b	-1.8548349
130	0xc01b99c8	-2.431261
131	0xc0074fe1	-2.1142504
132	0xc01a0372	-2.4064603
133	0xbff1c79f	-1.8889045
134	0x4029c115	2.6524098
135	0x402274fb	2.53839
136	0x3fd21ebf	1.6415633
137	0xc000ad85	-2.0105908
138	0x3fd1b25e	1.6382558
139	0xbfdda42a	-1.7315724
140	0x3f9df349	1.233987
141	0xbffa69e8	-1.956357
142	0x3fea7639	1.8317329
143	0xc01c41cc	-2.441516
144	0x4020fbea	2.5153756
145	0x401a66cf	2.412525
146	0xc01b7b9f	-2.4294202
147	0xbffa826c	-1.9571052
148	0xc02acd91	-2.6687968
149	0x4020ea67	2.5143068
150	0xbffb41bd	-1.9629437
151	0xc02cda89	-2.7008383
152	0x402218d5	2.5327656
153	0x3fc4d64c	1.5377898
154	0x403639ef	2.847286
155	0xbff9c2ad	-1.9512535
156	0xc001bf39	-2.0272963
157	0xc01094b6	-2.2590766
158	0x4012af53	2.291951
159	0x401457cf	2.3178594
160	0xbfea37f9	-1.8298331
161	0xc001e34a	-2.0294976
162	0x402ebfbe	2.730453
163	0x40113d64	2.269372
164	0xbf9acd16	-1.2093837
165	0xbfeedf7a	-1.866195
166	0x3feded3f	1.8588027
167	0x4014d1e6	2.3253112
168	0xc00a3cab	-2.1599529
169	0xbf6d6bdb	-0.927427
170	0x3ff66f39	1.9252692
171	0xbfb3d2bf	-1.404869
172	0x3ff09c5a	1.8797715
173	0x3fd6443b	1.6739572
174	0x400518c5	2.0796368
175	0x3fe93542	1.8219378
176	0x3fd5f9e6	1.6716888
177	0xbff03d94	-1.8768792
178	0x3fd01518	1.6256437
179	0xc02ffa38	-2.7496471
180	0x3fe6d8d0	1.8034916
181	0xc012e706	-2.2953506
182	0x402e997e	2.7281184
183	0xbfe85c2b	-1.8153127
184	0xc0240ca4	-2.5632715
185	0x3fcbbbb9	1.5916663
186	0x3fec746e	1.8473032
187	0xc0009d6e	-2.0096087
188	0xc00a3984	-2.1597605
189	0x3ff7cee4	1.9360013
190	0x3fd77d43	1.6835102
191	0xc003b3a3	-2.0578392
192	0xbfd37f34	-1.6523194
193	0xbfe6a924	-1.8020368
194	0xbfdacab7	-1.7093114
195	0x3f843be0	1.0330772
196	0x4009d03b	2.1533344
197	0xbf8e99b3	-1.1140655
198	0x4001c6eb	2.027766
199	0x400160c4	2.021531
200	0xc03a9f9d	-2.915992
201	0x3fdd9069	1.7309695
202	0xbfe8a761	-1.817608
203	0xc0062137	-2.0957773
204	0xbff7eb0c	-1.9368606
205	0xc0006592	-2.0061994
206	0xc00d9f26	-2.2128386
207	0xbfdf5a8d	-1.7449509
208	0x3fd99aec	1.7000403
209	0x4004e92d	2.076732
210	0xbff55a27	-1.9168137
211	0xbffae384	-1.9600682
212	0xc0179ab9	-2.3688185
213	0x3fe4c9a6	1.7874038
214	0x3fd7132a	1.6802723
215	0xc0164a2c	-2.348277
216	0xbff79bb6	-1.9344394
217	0xc036c986	-2.85605
218	0x402a4028	2.6601658
219	0xbfdaa55e	-1.7081716
220	0x3e8dd0d1	0.27698377
221	0x3fd2dbf5	1.6473376
222	0x3fcf8716	1.62131
223	0xbfed01a0	-1.8516121
224	0xc009e7cf	-2.1547735
225	0x3e7747a8	0.24148428
226	0x3ffa3dea	1.9550145
227	0x3fde2566	1.7355163
228	0x4009c6f0	2.1527672
229	0xc00352ba	-2.0519242
230	0x3fe66dda	1.8002274
231	0xbff5ce2a	-1.9203541
232	0xbfca7e45	-1.5819784
233	0x3fe04ca1	1.7523385
234	0xbfd4f64e	-1.6637666
235	0xbfeaa0d3	-1.833033
236	0xbfda2042	-1.7041094
237	0xc027390e	-2.6128573
238	0x402a3a27	2.6597993
239	0xbfa105cb	-1.2579893
240	0xc00ea416	-2.228765
241	0x40130803	2.297364
242	0xc006846e	-2.1018329
243	0x3fe063fa	1.753051
244	0xc02b1a43	-2.673478
245	0x3fd21a4d	1.6414276
246	0x3fd6f132	1.6792357
247	0xbff180c2	-1.8867419
248	0x40130c3b	2.2976215
249	0xc0067d34	-2.1013918
250	0x3f84b75a	1.0368454
251	0x3fbf6db2	1.4955351
252	0x3ffbf29b	1.9683412
253	0x3fd45bd2	1.6590521
254	0xbff5bcd1	-1.9198247
255	0x401742a3	2.3634422

layer2.6.weight f4 [7, 256]
0	0x3e61961d	0.2202992
1	0x3e038277	0.12842737
2	0x3e21c859	0.15799083
3	0x3ceff5eb	0.029292068
4	0xbe4f8410	-0.20265222
5	0xbe5296c1	-0.2056532
6	0x3e5b3e77	0.21410547
7	0xbdced13a	-0.100985005
8	0x3ea45f80	0.3210411
9	0xbde65f0f	-0.112486
10	0x3d241875	0.040062387
11	0x3e558ecf	0.20855258
12	0x3e8a331e	0.26992124
13	0xbdb97311	-0.0905515
14	0x3dc7d1c0	0.097568035
15	0xbda7aeb7	-0.08187621
16	0xbe69bf3c	-0.22826856
17	0x3e575a31	0.21030499
18	0xbe49307b	-0.196474
19	0xbe2ab1b3	-0.1666935
20	0xbe821cf9	-0.2541273
21	0xbe46318d	-0.1935484
22	0xbe468ffe	-0.19390866
23	0xbd676c7b	-0.05649994
24	0x3e94cccf	0.29062507
25	0x3e63c7a8	0.22244132
26	0xbdea4e4a	-0.11440714
27	0x3e381855	0.17978032
28	0x3e881aa7	0.26582834
29	0x3e353c05	0.17698677
30	0x3ca3fd7d	0.020018334
31	0x3e717aeb	0.23582046
32	0xbe4479b5	-0.19187053
33	0xbe18980b	-0.1490175
34	0xbe8e1975	-0.27753797
35	0xbe12098a	-0.14261451
36	0x3e88f839	0.2675188
37	0x3e71a3d9	0.23597659
38	0x3e191aa4	0.14951569
39	0xbe2d8ef4	-0.16949064
40	0xbd8449fc	-0.06459424
41	0x3db70541	0.08936549
42	0x3d56122a	0.052263416
43	0x3e114543	0.14186577
44	0xbe843c6f	-0.25827357
45	0xbe28bbaa	-0.16477838
46	0xbe5c56e8	-0.21517527
47	0x3dcce8d9	0.1000535
48	0xbe3c9720	-0.18417025
49	0x3e297170	0.16547179
50	0x3d2b1b3d	0.041774023
51	0xbe4f2682	-0.20229533
52	0xbdc5cb1b	-0.0965788
53	0x3dfadd52	0.12249245
54	0x3e57ba6d	0.2106721
55	0x3e672c1c	0.2257542
56	0xbe80e8b8	-0.2517755
57	0xbe523c59	-0.20530833
58	0xbe9f4ac9	-0.31111744
59	0x3e4e546e	0.20149395
60	0x3db0a719	0.08625621
61	0x3eb717d8	0.3576038
62	0xbe3778ac	-0.17917126
63	0xbe788113	-0.24267988
64	0xbe5815c0	-0.21102047
65	0x3e69165d	0.22762437
66	0x3e5a414b	0.2131397
67	0x3dbab783	0.09117033
68	0x3e31155e	0.17293307
69	0xbb838be8	-0.004014481
70	0x3dd35294	0.10318485
71	0xbe99ca80	-0.30037308
72	0x3dad15be	0.084514126
73	0xbe254bd0	-0.16142201
74	0x3eb2bb16	0.3490836
75	0xbe0179bc	-0.12644094
76	0xbd788770	-0.06067604
77	0x3dd8dfc9	0.10589559
78	0x3e4806c7	0.19533835
79	0xbe233c91	-0.15941073
80	0xbe4c4a12	-0.1995013
81	0x3e64d932	0.22348478
82	0x3e83a181	0.25709155
83	0xbe4899db	-0.19589941
84	0x3e4c9437	0.19978414
85	0xbe254baa	-0.16142145
86	0x3df10a78	0.11769575
87	0xbe931b97	-0.28731987
88	0xbe31812b	-0.1733443
89	0xbe593a25	-0.21213587
90	0xbd09fcd9	-0.0336884
91	0xbe99fa1c	-0.3007363
92	0xbe2d114f	-0.16901134
93	0xbe1eacae	-0.1549556
94	0x3e4c9795	0.19979699
95	0xbe8338a5	-0.25629154
96	0x3e52cde2	0.2058635
97	0xbea2bec9	-0.31786183
98	0xbddc73ef	-0.107643
99	0x3b74f799	0.0037379025
100	0x3e632abf	0.22184275
101	0xbdce5a11	-0.100757726
102	0xbea293c5	-0.31753364
103	0x3e2491c7	0.16071235
104	0x3e5c6e36	0.21526417
105	0x3e05a368	0.13050616
106	0xbe33b17b	-0.17548172
107	0x3dfde56c	0.123972744
108	0xbd934687	-0.071911864
109	0x3dd62d1c	0.10457823
110	0xbeab7308	-0.334862
111	0x3e7f35bf	0.24922846
112	0xbe1173d2	-0.14204338
113	0x3e45b396	0.19306788
114	0x3e8e4582	0.27787405
115	0xbe738d35	-0.23784335
116	0xbe0bddcf	-0.13658832
117	0xbddc5844	-0.10759023
118	0x3da29f19	0.07940502
119	0x3e49618f	0.19666122
120	0xbe7f5ce7	-0.24937783
121	0xbe3ebe30	-0.18627238
122	0x3e415ef0	0.18883872
123	0xbe82da91	-0.25557378
124	0xbd9e5e40	-0.077328205
125	0x3e42fe42	0.19042304
126	0x3e82a635	0.2551743
127	0xbe8ab459	-0.2709072
128	0xbe776ad0	-0.2416184
129	0x3e17241d	0.1475987
130	0x3e60f18b	0.21967141
131	0x3df759b2	0.12077655
132	0x3e8fc452	0.28079468
133	0x3e5bdb7c	0.21470445
134	0xbe8ad441	-0.27115062
135	0xbe7306c1	-0.23733045
136	0xbe09a9f4	-0.13443738
137	0x3e029563	0.12752299
138	0xbe01c84b	-0.12674062
139	0x3ea60234	0.32423556
140	0xbdc96627	-0.09833937
141	0x3e25a08f	0.1617453
142	0xbdd9ead9	-0.10640497
143	0x3e10aa52	0.14127472
144	0xbe36c2e8	-0.17847788
145	0xbe49f5a4	-0.1972261
146	0x3e55eabd	0.20890327
147	0x3e54c3eb	0.20777862
148	0x3e6d53d5	0.2317651
149	0xbe655384	-0.2239514
150	0x3e70d92d	0.23520346
151	0x3e54d94e	0.2078602
152	0xbe6f90e7	-0.2339512
153	0xbe0fbba3	-0.14036421
154	0xbe4476ca	-0.1918594
155	0x3e8458f1	0.25849107
156	0x3db90720	0.09034562
157	0x3e305aac	0.17222089
158	0xbe676edd	-0.22600885
159	0xbe2fe278	-0.17176235
160	0x3e1b9f69	0.15197529
161	0x3e05fa63	0.13083796
162	0xbe559b4d	-0.20860024
163	0xbd34aaf9	-0.044108365
164	0xbd265431	-0.040607635
165	0x3e8742dc	0.26418197
166	0xbe7f5262	-0.2493377
167	0xbe20541e	-0.15657088
168	0x3e21ddd5	0.15807278
169	0x3c37d7e3	0.011220905
170	0xbe48a6a0	-0.19594812
171	0x3b7ee8c0	0.0038896054
172	0xbe32f119	-0.17474784
173	0xbdf420da	-0.119203284
174	0xbe2e630b	-0.1702997
175	0xbe5386ae	-0.20656845
176	0xbe1eb2eb	-0.1549794
177	0x3e41390a	0.18869415
178	0xbd1f2d79	-0.038861725
179	0x3e4a8856	0.1977857
180	0xbe8c75f9	-0.27433756
181	0x3e4a3f5d	0.19750734
182	0xbe4155dd	-0.1888041
183	0x3da5334e	0.08066426
184	0x3e249bb9	0.16075028
185	0x3d3ef3a3	0.04661907
186	0xbe2ceb78	-0.16886699
187	0x3e1261cc	0.14295119
188	0x3e00fa1d	0.1259541
189	0xbe90d62c	-0.282884
190	0xbe862cc1	-0.2620602
191	0x3e70cd30	0.23515773
192	0x3e7c3020	0.24627733
193	0x3e809586	0.25114077
194	0x3e2fd324	0.17170388
195	0xbd774aee	-0.060374193
196	0xbe6a7e5d	-0.22899766
197	0x3e20a033	0.15686111
198	0xbdc1619d	-0.094424464
199	0xbe687990	-0.22702622
200	0x3e32db6b	0.17466514
201	0xbe61dada	-0.22056141
202	0x3e4e6e6a	0.20159307
203	0x3df99890	0.12187302
204	0x3e5b8782	0.21438411
205	0x3e1d6195	0.15369256
206	0x3e6b6f42	0.2299166
207	0x3dedac94	0.11605182
208	0xbe12144b	-0.14265554
209	0xbe13cf66	-0.14434585
210	0x3dc96ef1	0.098356135
211	0x3e8848e1	0.26618102
212	0x3e257aea	0.16160169
213	0xbdb9966f	-0.09061896
214	0xbe6389cd	-0.22220536
215	0x3e66a2a0	0.22522974
216	0x3d55c419	0.052188966
217	0x3e70c4e2	0.23512605
218	0xbe2dc408	-0.16969311
219	0x3e722cc5	0.2364989
220	0x3ac6a8ff	0.0015156566
221	0xbe8aa217	-0.2707679
222	0xbe6fe31e	-0.23426482
223	0x3e279a57	0.1636747
224	0x3e86140f	0.26187178
225	0xbc021218	-0.007938884
226	0xbe6bd5db	-0.23030798
227	0xbe84f52f	-0.2596831
228	0xbe634903	-0.2219582
229	0x3b9bd8d5	0.004756073
230	0xbe298a3f	-0.16556643
231	0x3e1fef53	0.15618639
232	0x3e858ba9	0.26083115
233	0xbe11574e	-0.1419346
234	0x3dfb60bd	0.12274311
235	0x3da05e7e	0.07830523
236	0x3e214b2e	0.15751335
237	0x3e40bfe4	0.188232
238	0xbe10774b	-0.14108007
239	0x3ddec8e7	0.10878163
240	0x3e55ee75	0.20891745
241	0xbe8d9858	-0.27655292
242	0x3e2978e9	0.1655003
243	0xbec1822d	-0.3779463
244	0x3e6d7060	0.23187399
245	0xbe428d02	-0.18999103
246	0xbde46c0e	-0.11153422
247	0x3e83e29e	0.25758833
248	0xbe200cdc	-0.15629905
249	0x3e8f9c8c	0.28049123
250	0xbe189c39	-0.14903344
251	0xbd2c6ff1	-0.042098943
252	0xbe68a0c5	-0.22717579
253	0xbe0fb389	-0.14033331
254	0x3e40e33a	0.1883668
255	0xbe8a7b82	-0.27047354

layer2.6.bias f4 [7]
0	0xbfcd654f	-1.6046542
1	0x3e2b96ee	0.16756794
2	0xbf67bac4	-0.90519357
3	0x3eafc918	0.3433311
4	0x3c4d967b	0.012548084
5	0xbd309ccf	-0.043118294
6	0x3e6463d6	0.2230371
