Saved_data_files/bpi/lr_all_variants/laplacianOnBinary/TimestampPredictor_parameters_laplacianOnBinary_1e-05.pt (torch, 274441 bytes, 7 tensors)

layer1.weight f4 [4, 1]
0.009195299 0.017251616 -1.29836 -4.265184
00000000: e1a7 163c 4353 8d3c a930 a6bf 637c 88c0

layer1.bias f4 [6]
2.907936 3.3484204 -1.5843374 1.06825 -2.256808 1.0237403
00000000: a01b 3a40 854c 5640 91cb cabf 6abc 883f
00000010: 8b6f 10c0 ec09 833f

layer2.1.weight f4 [256, 6]
-0.21796803 -0.28958094 -0.39135388 0.2738985 -0.40069595 -0.3014451 -0.28637192 0.06717277
-0.15175107 -0.43494377 -0.35154536 -0.23611459 -0.43799096 0.2726197 -0.29655567 -0.21444295
0.11860855 0.29713887 0.25693116 0.050114598 0.32970062 0.032927923 0.15157652 0.11288287
0.09945245 -0.026667804 -0.4066702 0.10533922 0.2734129 0.20101516 0.16202511 0.032668184
-0.04643467 0.1739129 0.24565475 0.13415585 -0.34730628 0.35195267 0.34821126 0.35258085
0.3961388 -0.2914037 0.26272863 -0.18718109 -0.40724266 0.23419772 -0.115636595 0.21739112
-0.04347009 0.051372405 0.19680932 0.42674115 -0.12481515 0.25885648 0.0014517613 -0.15393932
0.16686065 -0.4752863 -0.15091889 0.21363494 0.13321213 0.11424023 0.22901596 -0.020092763
0.45243368 0.39132702 -0.2938435 0.20442662 0.23555471 -0.33695298 -0.1779808 0.39779803
0.22487329 -0.2329397 -0.19840965 0.35167727 -0.2542594 -0.32447287 -0.2634051 0.41157427
-0.012602064 -0.1972195 -0.030028133 -0.31000102 -0.40730986 -0.29495552 -0.19690187 -0.13277684
0.06162088 -0.118056476 0.30553958 0.25874937 -0.35983035 0.15978651 -0.07968816 0.3615421
-0.005424672 -0.0094315 0.159689 -0.04936979 0.3228267 0.3623068 -0.016407222 0.1117018
0.35995346 -0.28240168 0.118730746 -0.18440819 0.6764776 -0.15174218 0.039957255 0.29291746
0.096670665 0.18267702 0.30066714 -0.32490456 -0.34961113 -0.10279086 -0.11369186 0.109398216
0.3359783 -0.2111919 -0.37847182 -0.34491614 -0.25616178 -0.31003648 -0.27148136 -0.16851144
0.34292853 0.40157166 0.09341388 0.17776541 -0.30881512 -0.05026 -0.15447952 -0.30456603
0.36262617 0.28419244 0.61962014 0.11311869 0.15353028 0.1997223 0.21315001 -0.09366934
-0.077435106 0.20047073 0.23215446 -0.28153718 -0.43595695 0.22235435 -0.0053854166 -0.2580145
-0.24309964 0.11360774 0.22846724 -0.48356128 -0.12853631 0.29234952 0.123310335 0.29489955
-0.2520216 -0.4234686 0.64965546 -0.00020751497 0.059780892 0.21757025 0.11523926 0.33158726
0.5202529 -0.42614126 0.03564184 -0.14591962 -0.03322601 -0.0477013 0.17966765 0.042704403
0.34264332 -0.30625245 -0.4217094 -0.33360672 -0.01312247 -0.21161713 0.18051013 0.07266614
0.10771565 -0.06839311 -0.20095606 -0.34159935 0.21168663 -0.28439552 -0.43957376 0.050902437
-0.35574788 -0.20091851 0.17304043 -0.08010753 0.13029864 0.3399677 0.1672167 0.40692416
-0.34134147 0.2496865 0.06831925 0.00022156027 -0.18052053 0.0257813 -0.13941857 0.25947753
-0.4330935 -0.17324337 0.1962115 0.09866729 0.10230817 -0.4689708 0.17867385 0.21620479
-0.028234089 -0.39523256 -0.34095025 0.15121259 -0.434241 -0.003742896 0.17024374 -0.11976806
-0.050219648 0.29798287 -0.17054306 0.1018031 0.25698766 -0.24189202 0.011206896 -0.022514677
-0.00804363 0.012692318 0.03585386 -0.022473665 0.08292779 0.4720677 0.16605245 -0.27670938
-0.039962888 -0.011939406 -0.40167558 0.18837316 0.33406788 0.10410339 -0.026857406 0.02560738
0.2319865 -0.16421011 0.468047 -0.00041930194 0.15514608 -0.3917315 0.16809115 0.19781847
00000000: 0333 5fbe f443 94be 895f c8be 6d3c 8c3e
00000010: 0528 cdbe 0357 9abe 579f 92be e191 893d
00000020: a264 1bbe f3b0 debe c1fd b3be 06c8 71be
00000030: 5a40 e0be cf94 8b3e 25d6 97be ef96 5bbe
00000040: 0ae9 f23d 9622 983e 7b8c 833e f744 4d3d
00000050: 85ce a83e 6edf 063d e036 1b3e 222f e73d
00000060: baad cb3d 7076 dabc 1437 d0be 17bc d73d
00000070: c7fc 8b3e ebd6 4d3e e9e9 253e 13cf 053d
00000080: 4832 3ebd 3916 323e eb8c 7b3e 2760 093e
00000090: 21d2 b1be 2433 b43e bf48 b23e 7a85 b43e
000000a0: b4d2 ca3e de32 95be 5e84 863e 66ac 3fbe
000000b0: 1c82 d0be 87d1 6f3e e1d2 ecbd c79b 5e3e
000000c0: b10d 32bd df6b 523d 6288 493e d17d da3e
000000d0: 169f ffbd d688 843e 0749 be3a 45a2 1dbe
000000e0: 85dd 2a3e ba58 f3be 7b8a 1abe 1ec3 5a3e
000000f0: c368 083e c8f6 e93d 2983 6a3e 9499 a4bc
00000100: 63a5 e73e 045c c83e a872 96be 3655 513e
00000110: 4135 713e 1a85 acbe 9940 36be 2fac cb3e
00000120: 2f45 663e bf87 6ebe e62b 4bbe 0b0f b43e
00000130: 4a2e 82be 4f21 a6be 09dd 86be ddb9 d23e
00000140: e378 4ebc e9f3 49be 8ffd f5bc 74b8 9ebe
00000150: eb8a d0be 6904 97be a5a0 49be a7f6 07be
00000160: 2d66 7c3d 98c7 f1bd af6f 9c3e cc7a 843e
00000170: af3b b8be 139f 233e 8c33 a3bd 0c1c b93e
00000180: 72c1 b1bb 9486 1abc 8385 233e fa37 4abd
00000190: 8b49 a53e 4780 b93e 7068 86bc eac3 e43d
000001a0: d24b b83e f496 90be 1b29 f33d 80d5 3cbe
000001b0: a32d 2d3f 4d62 1bbe 38aa 233d 47f9 953e
000001c0: 45fb c53d af0f 3b3e 0bf1 993e e459 a6be
000001d0: 3b00 b3be 0484 d2bd 47d7 e8bd 2c0c e03d
000001e0: 5905 ac3e b042 58be 0fc7 c1be d998 b0be
000001f0: a327 83be 1abd 9ebe 9bff 8abe 438e 2cbe
00000200: 5494 af3e cd9a cd3e c74f bf3d 2308 363e
00000210: 041d 9ebe 6edd 4dbd e12f 1ebe 14f0 9bbe
00000220: 23aa b93e ac81 913e 6d9f 1e3f c6aa e73d
00000230: 0b37 1d3e 0184 4c3e ff43 5a3e b6d5 bfbd
00000240: 4c96 9ebd 3348 4d3e e6b9 6d3e a425 90be
00000250: c035 dfbe dcb0 633e 2678 b0bb 7a1a 84be
00000260: 1def 78be 2dab e83d 51f3 693e 5895 f7be
00000270: 069f 03be d6ae 953e 218a fc3d 13fd 963e
00000280: fa08 81be e0d0 d8be d24f 263f 6098 59b9
00000290: cfdc 743d bcca 5e3e 9002 ec3d cec5 a93e
000002a0: 4b2f 053f 302f dabe 2efd 113d f46b 15be
000002b0: ff17 08bd 7062 43bd ccfa 373e d0ea 2e3d
000002c0: f26e af3e 1fcd 9cbe 4bea d7be 80ce aabe
000002d0: a1ff 56bc 29b2 58be a6d7 383e fcd1 943d
000002e0: 069a dc3d b011 8cbd 6dc7 4dbe 1ce6 aebe
000002f0: 61c4 583e 4a9c 91be d00f e1be 137f 503d
00000300: 9624 b6be 95bd 4dbe 8331 313e 6b0f a4bd
00000310: 026d 053e 3f10 ae3e db3a 2b3e 5d58 d03e
00000320: 4fc4 aebe d1ad 7f3e f7ea 8b3d a252 6839
00000330: 60da 38be 4e33 d33c bec3 0ebe 3dda 843e
00000340: 6ebe ddbe b666 31be abeb 483e 1312 ca3d
00000350: f286 d13d f11c f0be 47f6 363e ca64 5d3e
00000360: 2d4b e7bc ec5b cabe 0891 aebe 79d7 1a3e
00000370: d654 debe 604b 75bb 6054 2e3e f548 f5bd
00000380: 1eb3 4dbd 3691 983e d7a2 2ebe 257e d03d
00000390: e393 833e 8bb2 77be 219d 373c b370 b8bc
000003a0: 6ec9 03bc 71f3 4f3c 7fdb 123d b11a b8bc
000003b0: 0cd6 a93d dcb2 f13e a709 2a3e daac 8dbe
000003c0: 20b0 23bd 809d 43bc 6ca8 cdbe e5e4 403e
000003d0: f20a ab3e 2834 d53d 1004 dcbc 91c6 d13c
000003e0: de8d 6d3e b226 28be dba3 ef3e c1d5 dbb9
000003f0: 9dde 1e3e 0891 c8be 1620 2c3e ed90 4a3e

layer2.1.bias f4 [256]
0.22812736 -1.3071511 -0.089845486 6.217729 -2.9322946 5.317832 -2.4732995 -0.323715
-4.974782 -3.5553076 -2.4661236 -3.713775 1.6856327 0.04696915 0.0027132768 3.2539809
-1.9109492 2.2701006 4.523184 5.3352966 5.3606253 -0.79772174 -1.1008524 4.157879
2.5556998 -4.6124444 -4.321218 4.805097 5.7726417 -0.5021771 1.5735463 2.2521124
-1.8183547 4.0620637 -4.0308204 -2.1246324 -1.7983434 -1.6935477 6.1400137 -2.9670537
-1.1333811 -0.8122029 -2.1638546 3.5734289 -2.6190374 6.360732 6.149264 -0.8576254
-0.31754234 3.9910033 4.894668 4.691036 6.1432104 5.744308 1.01624 4.124929
6.763105 -1.6875533 -3.5125663 -1.8442855 -3.8098001 -4.3819366 6.0808287 0.9788943
3.9553628 6.1154046 1.8864144 -1.093666 5.7958446 4.2262683 -3.820209 -2.369309
5.9462743 5.0855107 -1.7257981 5.9856157 -0.9056223 -0.32801497 7.1136675 1.1028128
3.082775 -0.6489006 0.036633674 -0.660688 -0.119270496 -3.4563825 -1.4283549 -1.9091581
-0.92095244 6.7501793 5.11543 5.597301 4.7759166 -1.607052 1.166675 -3.8027337
-2.8126 5.8258142 0.45528856 5.514394 -1.7032449 3.7953062 -3.4034657 -0.45454264
-3.327061 4.126685 3.7416599 5.8875227 6.313126 -2.4322004 -3.230716 -2.5884302
-2.5672817 3.5093293 -0.52950865 -0.78566474 5.896262 1.3179576 -3.5064836 1.4727012
2.6726177 -1.0613533 -4.4208503 -1.0473748 -4.7165613 0.38586414 -4.758974 -3.1250808
-3.4702017 1.3052003 3.9761996 -3.2951572 5.3171916 -2.4802828 -1.1517701 5.7422442
4.860528 -2.5037522 6.3764377 1.3885756 4.4734573 6.0575137 -3.3846226 1.2307115
-1.2603047 -0.18589306 -3.1187503 4.6994905 -5.1640406 -2.1751466 5.4107523 1.3055826
3.6356885 -2.1931937 -2.4776795 2.2574492 3.6090305 7.0645003 -3.2428205 -4.556048
6.978478 0.23308638 -2.6733234 1.5169303 4.916218 -2.8827362 6.2445846 7.201251
-1.7697477 -1.9960032 6.039063 -1.3694288 -2.0064423 1.6756682 -0.98831224 -1.7216835
2.0583558 5.2289004 1.1697094 1.742382 6.4109473 -4.2374005 -4.693466 -2.5925498
-1.9823931 -2.1142485 3.9175968 -3.301551 -1.4830309 1.7145282 -1.9847089 -4.1286464
-0.9323439 -2.7287402 1.8809608 3.4928768 3.8268392 -1.9471027 0.7846563 3.7816522
6.9991126 6.486125 -2.0310524 -4.8552513 6.840622 -0.011290263 -1.1871759 3.748078
-0.08328136 6.221481 2.7571192 -1.2295452 -0.79035574 -2.293833 -3.2860315 6.624391
0.07267585 -2.5163245 0.7811933 1.4896629 -0.40718856 -0.6746003 -4.862044 -3.0173328
7.3857284 6.1819773 0.7355942 5.679282 -4.0513597 6.9557934 0.026241532 2.0374177
0.4051121 4.266194 1.481398 5.4525146 3.226261 5.4414935 5.3475504 -5.158
6.1124578 5.2765784 1.5499223 -0.017458672 3.9103637 7.2616773 5.2699265 -0.1093209
2.8617525 -2.0433133 0.053826574 2.523556 0.25196463 5.088557 3.6706426 -3.7502408
00000000: 389a 693e ba50 a7bf e900 b8bd a3f7 c640
00000010: b7aa 3bc0 ae2b aa40 8a4a 1ec0 f9bd a5be
00000020: 6a31 9fc0 298a 63c0 f8d4 1dc0 7dae 6dc0
00000030: d0c2 d73f b962 403d 3bd1 313b 3941 5040
00000040: fc99 f4bf 5449 1140 ecbd 9040 c0ba aa40
00000050: 3e8a ab40 7e37 4cbf bbe8 8cbf 580d 8540
00000060: 9690 2340 2599 93c0 6b47 8ac0 5bc3 9940
00000070: 7bb9 b840 ae8e 00bf f769 c93f 9c22 1040
00000080: d9bf e8bf 6dfc 8140 7bfc 80c0 faf9 07c0
00000090: 1e30 e6bf 2cc6 d8bf fe7a c440 35e4 3dc0
000000a0: a212 91bf 87ec 4fbf 987c 0ac0 0fb3 6440
000000b0: 4f9e 27c0 1e8b cb40 c5c6 c440 578d 5bbf
000000c0: e994 a2be 996c 7f40 1fa1 9c40 f81c 9640
000000d0: 2e95 c440 5fd1 b740 2714 823f 6bff 8340
000000e0: 5b6b d840 bf01 d8bf e3cd 60c0 8c11 ecbf
000000f0: c4d3 73c0 d338 8cc0 2696 c240 d198 7a3f
00000100: aa24 7d40 65b1 c340 0776 f13f 3ffd 8bbf
00000110: 8f77 b940 973d 8740 4e7e 74c0 c2a2 17c0
00000120: e147 be40 81bc a240 f4e6 dcbf 2a8a bf40
00000130: ddd6 67bf 94f1 a7be 2aa3 e340 f828 8d3f
00000140: 304c 4540 5a1e 26bf 310d 163d d922 29bf
00000150: 1744 f4bd 5f35 5dc0 55d4 b6bf 4b5f f4bf
00000160: 8ac3 6bbf 7801 d840 9ab1 a340 171d b340
00000170: 4fd4 9840 e1b3 cdbf 9b55 953f fd5f 73c0
00000180: a301 34c0 126d ba40 951b e93e ea75 b040
00000190: ee03 dabf 4ce6 7240 62d2 59c0 d0b9 e8be
000001a0: 91ee 54c0 ce0d 8440 5b77 6f40 9666 bc40
000001b0: 2105 ca40 2ca9 1bc0 0dc4 4ec0 d7a8 25c0
000001c0: 584e 24c0 da98 6040 e18d 07bf 5321 49bf
000001d0: 2eae bc40 d6b2 a83f 3a6a 60c0 7981 bc3f
000001e0: 2b0c 2b40 6dda 87bf 9b77 8dc0 6110 86bf
000001f0: 12ee 96c0 fc8f c53e 8449 98c0 5301 48c0
00000200: c917 5ec0 ce10 a73f 0e7a 7e40 dbe3 52c0
00000210: 6f26 aa40 f4bc 1ec0 346d 93bf 77c0 b740
00000220: 7289 9b40 7a3d 20c0 c70b cc40 d8bc b13f
00000230: 9026 8f40 27d7 c140 a89d 58c0 f487 9d3f
00000240: aa51 a1bf c05a 3ebe 9b99 47c0 3a62 9640
00000250: d23f a5c0 9a35 0bc0 e224 ad40 551d a73f
00000260: 1faf 6840 495d 0cc0 4d92 1ec0 0c7a 1040
00000270: 5bfa 6640 6310 e240 5f8a 4fc0 25cb 91c0
00000280: b14f df40 32ae 6e3e bb17 2bc0 c62a c23f
00000290: a851 9d40 c07e 38c0 a3d3 c740 a670 e640
000002a0: 1887 e2bf 087d ffbf 0140 c140 7149 afbf
000002b0: 8d69 00c0 4c7c d63f 0802 7dbf 2060 dcbf
000002c0: 1abc 0340 2753 a740 0ab9 953f 6006 df3f
000002d0: 7b26 cd40 c998 87c0 e030 96c0 56ec 25c0
000002e0: 0fbf fdbf d94f 07c0 e8b9 7a40 9d4c 53c0
000002f0: f5d3 bdbf a975 db3f f10a febf df1d 84c0
00000300: 17ae 6ebf aea3 2ec0 53c3 f03f 4b8b 5f40
00000310: efea 7440 a93a f9bf 3cdf 483f 9706 7240
00000320: bbf8 df40 568e cf40 c3fc 01c0 385e 9bc0
00000330: 60e6 da40 ccfa 38bc 61f5 97bf 83e0 6f40
00000340: 6b8f aabd 5f16 c740 a474 3040 bd61 9dbf
00000350: c154 4abf 29ce 12c0 574e 52c0 03fb d340
00000360: 13d7 943d 760b 21c0 49fc 473f 46ad be3f
00000370: 057b d0be 9bb2 2cbf dd95 9bc0 fb1b 41c0
00000380: e357 ec40 c2d2 c540 e74f 3c3f aebc b540
00000390: bda4 81c0 dc95 de40 7bf8 d63c 0d65 0240
000003a0: da6a cf3e a984 8840 739e bd3f 007b ae40
000003b0: 0f7b 4e40 b720 ae40 221f ab40 560e a5c0
000003c0: 4199 c340 bbd9 a840 db63 c63f 7d05 8fbc
000003d0: 6643 7a40 a95f e840 3da3 a840 a3e3 dfbd
000003e0: f426 3740 a5c5 02c0 4179 5c3d f181 2140
000003f0: 8201 813e 75d5 a240 cfeb 6a40 f203 70c0

layer2.3.weight f4 [256, 256]
-0.018817518 -0.007670225 -0.018821308 0.043352723 -0.037100185 -0.010952449 -0.03138215 -0.029015772
-0.070591494 -0.070070036 -0.028290521 -0.07497957 -0.038435556 0.03050203 -0.027134078 0.05575286
-0.024789188 -0.013142335 0.026824346 0.03825602 -0.0488801 -0.03869799 0.0032841286 0.010092808
0.049508967 0.008266312 -0.07487258 -0.071175605 0.101186454 -0.0013104433 0.06648317 8.00052e-06
-0.00913554 -0.03125989 -0.04615883 -0.041112088 0.04946083 -0.022752406 0.058946144 -0.0535867
-0.0043445854 -0.039125018 -0.03577323 -0.02443144 -0.008577942 -0.027401196 -0.057707287 0.054047808
-0.004343653 0.015924264 -0.002173975 0.0469516 0.007866049 0.04040386 -0.024025302 -0.015315621
0.025909862 -0.054817542 -0.011052441 0.02008634 -0.072359025 -0.07779928 0.05474345 -0.0147835
-0.04261127 -0.038837705 -0.019013727 0.06054051 -0.017459916 0.010412321 0.02243172 0.016666604
0.054955833 0.10871749 -0.12445219 -0.023797302 -0.052961387 -0.02439493 -0.0022699025 -0.15448606
0.050955273 0.066945344 0.06532767 -0.054414608 -0.027551442 0.014530928 -0.039690387 -0.08055918
0.022739317 0.020173775 0.0072928453 -0.017797627 0.031939037 -0.052536078 0.0200994 0.022405198
-0.013016407 0.04057009 -0.035334006 -0.036438752 -0.0739484 0.022432836 -0.06180801 -0.062847964
0.0720441 0.034481727 0.031732287 -0.021271016 0.047611266 -0.06988751 0.04537525 -0.024194604
0.0035595438 -0.07235224 0.02618228 0.01584258 -0.07642627 0.026817588 -0.0032897764 0.023655646
0.069307365 -0.0049448693 -0.012766244 -0.0256541 -0.04727208 -0.06489383 -0.02569616 -0.040707454
0.04990505 0.029794661 0.04827378 0.02352897 -0.008869134 -0.005833775 0.060468562 0.059015155
-0.020578142 -0.058692615 0.06867346 0.04073755 -0.049916156 0.061347894 0.012961157 -0.07618041
-0.025454767 0.051250592 -0.07717381 0.024899134 0.04230136 -0.07313664 -0.036254272 0.06920959
0.032339904 -0.045496047 -0.03387052 0.048913572 0.037097037 0.018639889 -0.0675409 -0.0577935
0.016085383 0.01617355 -0.005565569 -0.025496414 0.06409824 -0.025490701 -0.018084615 0.06567178
-0.027883055 -0.059933085 0.020567998 -0.0124229 -0.08821313 0.0038922757 -0.030256283 0.0077679637
0.03748132 0.059183367 0.050292086 0.035746202 0.047358643 0.06762194 -0.07577091 -0.07438197
-0.03401394 0.029898986 0.0038407526 0.005844184 -0.0019234169 -0.027076432 -0.013341383 0.015580249
0.02272799 -0.02388136 0.026639972 -0.02676343 -0.04288652 -0.024995109 -0.025049318 -0.013750191
0.0025196865 0.027730964 -0.030975275 -0.028282324 -0.006889937 -0.0536526 0.045968264 -0.05762585
-0.04053492 0.06584143 -0.0011487632 0.018217579 0.023236468 -0.09019917 -0.029943945 0.1367488
-0.049493857 -0.054389007 0.015913785 -0.039630692 -0.04007506 -0.021675263 -0.07428088 -0.05217053
-0.01870221 0.05899566 0.016042918 -0.0074290684 -0.031834804 -0.05367813 -0.07458027 0.04540835
0.04345945 0.0025611965 0.042804305 -0.017505024 0.018250456 0.021423688 0.0057982625 0.03329322
0.013272376 0.060335238 -0.0083826585 -0.055446684 -0.021455463 0.08637832 0.026768679 0.059304595
0.013059852 0.01819813 0.018251427 -0.03581621 0.015586852 -0.032646064 -0.046517074 -0.04492393
00000000: 3227 9abc 8356 fbbb 252f 9abc a092 313d
00000010: 5df6 17bd e771 33bc 928a 00bd 7cb2 edbc
00000020: 4692 90bd e180 8fbd 86c1 e7bc e48e 99bd
00000030: 9a6e 1dbd 65df f93c 4948 debc 1c5d 643d
00000040: b212 cbbc f352 57bc bbbe db3c 58b2 1c3d
00000050: 8036 48bd c981 1ebd 893a 573b 4e5c 253c
00000060: eac9 4a3d 6d6f 073c cc56 99bd 84c4 91bd
00000070: d83a cf3d 2ec3 abba 5428 883d f939 0637
00000080: 3bad 15bc 5f0a 00bd 0b11 3dbd 2665 28bd
00000090: 7097 4a3d 4163 babc 8371 713d ba7d 5bbd
000000a0: 065d 8ebb 8e41 20bd f386 12bd 7124 c8bc
000000b0: 7f8a 0cbc 7978 e0bc 7a5e 6cbd 3c61 5d3d
000000c0: 3455 8ebb 9a73 823c 4079 0ebb 5250 403d
000000d0: 9ae0 003c 857e 253d b6d0 c4bc 5fee 7abc
000000e0: eb40 d43c 5c88 60bd 4c15 35bc 1c8c a43c
000000f0: f830 94bd 3b55 9fbd ab3a 603d 7e36 72bc
00000100: 2889 2ebd 4914 1fbd adc2 9bbc 53f9 773d
00000110: 1908 8fbc 7198 2a3c bac2 b73c 6788 883c
00000120: 5e19 613d 47a7 de3d cae0 febd 8ff2 c2bc
00000130: 0aee 58bd e0d7 c7bc a5c2 14bb 9831 1ebe
00000140: 7ab6 503d a41a 893d 83ca 853d dae1 5ebd
00000150: 90b3 e1bc 2113 6e3c 6392 22bd 36fc a4bd
00000160: ce47 ba3c 7943 a53c d2f8 ee3b 54cc 91bc
00000170: 82d2 023d 1230 57bd 7fa7 a43c 1b8b b73c
00000180: c542 55bc d32c 263d 64ba 10bd cd40 15bd
00000190: 4272 97bd 11c5 b73c 652a 7dbd 6fb6 80bd
000001a0: db8b 933d b63c 0d3d b7f9 013d 8e40 aebc
000001b0: 0804 433d 2f21 8fbd 66db 393d c333 c6bc
000001c0: 3c47 693b 692d 94bd 397c d63c 4cc8 813c
000001d0: 6085 9cbd 8fb0 db3c 4a99 57bb 7cc9 c13c
000001e0: 05f1 8d3d 9208 a2bb 8229 51bc 8c28 d2bc
000001f0: 5ea0 41bd 0ee7 84bd c180 d2bc dcbc 26bd
00000200: 3d69 4c3d ef13 f43c baba 453d d4bf c03c
00000210: d84f 11bc 4029 bfbb e2ad 773d e0b9 713d
00000220: 7e93 a8bc ab67 70bd aca4 8c3d 6bdc 263d
00000230: e274 4cbd ee47 7b3d 085b 543c 7a04 9cbd
00000240: 8486 d0bc 24ec 513d 4d0d 9ebd 45f9 cb3c
00000250: 3144 2d3d aac8 95bd 5c7f 14bd c2bd 8d3d
00000260: d976 043d 105a 3abd d0bb 0abd 9959 483d
00000270: 10f3 173d aeb2 983c e252 8abd e1b8 6cbd
00000280: 7ec5 833c 657e 843c 605f b6bb dbdd d0bc
00000290: f045 833d e0d1 d0bc 3026 94bc ed7e 863d
000002a0: 016b e4bc 657c 75bd 387e a83c 6b89 4bbc
000002b0: 16a9 b4bd 8d15 7f3b 06dc f7bc 678a fe3b
000002c0: 0386 193d 426a 723d 13ff 4d3d 9c6a 123d
000002d0: 23fb 413d 5f7d 8a3d c72d 9bbd 9355 98bd
000002e0: 3352 0bbd b8ee f43c 23b5 7b3b 9280 bf3b
000002f0: 291b fcba 65cf ddbc d195 5abc 4d44 7f3c
00000300: 0d30 ba3c d8a2 c3bc 123c da3c fb3e dbbc
00000310: c7a9 2fbd 8bc2 ccbc 3a34 cdbc 7b48 61bc
00000320: 5321 253b 0c2c e33c dcbf fdbc 55b0 e7bc
00000330: fbc4 e1bb d4c2 5bbd 3849 3c3d 1509 6cbd
00000340: f207 26bd dfd7 863d 1992 96ba 083d 953c
00000350: 685a be3c 58ba b8bd 014d f5bc e107 0c3e
00000360: 12ba 4abd 02c7 5ebd a05d 823c cb53 22bd
00000370: bf25 24bd 5290 b1bc 9320 98bd c4b0 55bd
00000380: 6135 99bc 6fa5 713d 706c 833c 8b6f f3bb
00000390: 3665 02bd 99dd 5bbd 8abd 98bd 1bfe 393d
000003a0: 8902 323d bfd9 273b 9153 2f3d b266 8fbc
000003b0: fb81 953c bb80 af3c 5aff bd3b 795e 083d
000003c0: 6174 593c 1522 773d 6b57 09bc 101c 63bd
000003d0: 5ec3 afbc 1ee7 b03d fd49 db3c 60e9 723d
000003e0: fdf8 553c 3f14 953c 0484 953c 05b4 12bd
000003f0: ff5f 7f3c e1b7 05bd b088 3ebd 2802 38bd

layer2.3.bias f4 [256]
5.0957394 5.7006803 -0.18845703 -0.23996095 -0.07362431 5.1541367 5.2451167 -0.6564325
4.551364 -0.008468782 -0.19367667 4.5444098 5.2244153 -0.06661702 -0.11766633 5.4412513
-1.5004474 5.91324 5.5349383 4.89581 5.4035444 -0.26266858 -0.30935383 -0.08018815
4.794399 4.4059544 4.642802 4.768692 5.3291225 4.928392 -0.06457873 -0.085275054
4.8341103 5.802056 -0.10989813 5.4471803 5.6417103 5.656182 5.0824504 4.741167
5.2446346 -0.0518679 5.697639 6.192328 4.6008053 5.132106 6.5501966 6.174218
-0.72394454 6.005731 0.017431203 5.2672653 5.184608 6.1101847 -0.019202067 5.4017444
-0.10863575 -0.1990697 0.010852124 -0.17047445 -0.0795076 4.8882866 -0.056186393 5.2825403
5.0076675 -0.14826782 5.2444906 6.0760303 5.475137 -0.027645942 -0.58746797 -0.36419204
-0.109679185 5.265777 -0.049347688 4.4189324 -0.12218834 5.701979 -0.2790595 -0.09778404
-0.32398558 5.826797 5.6475334 -0.22373503 4.773084 -0.12532543 -0.22086231 4.453905
4.96024 6.235129 5.074361 6.490923 -0.09644009 -0.12575583 4.9858327 -0.121701784
-0.7747746 -0.42593297 -0.01932214 -0.18199085 -0.21870174 -0.26159027 5.1838126 5.7030044
5.543703 5.3011036 -0.022951614 5.2131357 -0.1908407 5.3197055 5.914683 4.5603633
-0.019477593 -0.16106519 -0.038311787 5.1618614 5.911903 4.7636495 -0.12114176 -0.1113275
5.769733 -0.06728507 5.13627 5.5087633 -0.09045999 5.602919 5.0264087 4.826575
-0.16384993 -0.09470301 6.281822 5.0084634 -1.3832164 -0.05171831 -0.19669095 -0.10592587
5.117601 -0.072112404 -0.05447449 4.591275 -0.07556297 6.196455 5.541147 4.933934
-0.22409354 -0.46317178 5.9057918 -0.11150245 4.8905935 4.8202024 5.5945244 5.91457
4.7891555 -0.12071943 -0.20260005 5.380977 -0.048629515 5.256622 5.575862 5.2646384
5.13131 4.7048097 -0.13945799 -1.4431195 5.5055795 4.870579 6.102747 -0.41431057
0.5056601 5.3842854 -0.25951964 0.00011313638 4.845898 4.7173133 5.1727796 -0.07903076
5.3434687 -0.14395525 5.953846 -0.091171965 1.840735 5.0656195 5.131807 -0.06102359
-0.45773625 -0.43481565 6.3152347 -0.010540183 4.618828 5.635974 0.017213117 -0.41387334
-0.24098222 5.4911866 -0.7222586 -0.10636838 -1.5713975 5.6252723 5.7300596 -0.09796267
6.2356906 -0.38972405 -0.1153159 -0.100085974 6.540665 -0.17199919 -0.08194678 4.7932267
-0.12896521 -0.107905634 5.22592 -0.053531796 4.4460154 -0.14535071 -0.09871025 -0.82027406
-0.099307604 -0.2127909 5.8222566 -0.059971035 -0.051207524 6.161849 -0.15510762 5.1478477
-1.0941817 5.489775 5.552762 5.5612 5.4512086 3.7025323 -0.059000276 4.9886107
6.0153537 -0.063542224 4.481161 6.1067724 -0.295627 4.836721 -0.21570195 5.8469515
5.2017756 0.016050262 -0.017516904 -0.011433307 -0.3583594 4.7738123 5.0232615 5.5439787
-0.24810417 5.3860006 2.9816816 -0.5447353 5.1357665 -0.15626143 -0.0166763 -0.70222336
00000000: 4c10 a340 f96b b640 e1fa 40be 53b8 75be
00000010: 58c8 96bd b0ee a440 ffd7 a740 f60b 28bf
00000020: c6a4 9140 a5c0 0abc 2d53 46be ce6b 9140
00000030: 692e a740 816e 88bd 0bfb f0bd bb1e ae40
00000040: a90e c0bf 4339 bd40 371e b140 7aaa 9c40
00000050: d6e9 ac40 7f7c 86be a063 9ebe af39 a4bd
00000060: b76b 9940 94fd 8c40 d591 9440 2099 9840
00000070: 2c88 aa40 63b5 9d40 da41 84bd b0a4 aebd
00000080: 08b1 9a40 71aa b940 4512 e1bd 4d4f ae40
00000090: e488 b440 71ff b440 6fa3 a240 a4b7 9740
000000a0: 0cd4 a740 6f73 54bd 0f53 b640 8d27 c640
000000b0: cc39 9340 363a a440 369b d140 3293 c540
000000c0: 6e54 39bf f32e c040 e2cb 8e3c 708d a840
000000d0: 4fe8 a540 a286 c340 a74d 9dbc 17db ac40
000000e0: 6c7c debd edd8 4bbe 1bcd 313c db90 2ebe
000000f0: e1d4 a2bd d86c 9c40 b423 66bd 920a a940
00000100: d03e a040 85d3 17be ded2 a740 d76e c240
00000110: 5334 af40 be79 e2bc 4d64 16bf 6177 babe
00000120: 7b9f e0bd 3f81 a840 cd20 4abd e567 8d40
00000130: e13d fabd 9d76 b640 e3e0 8ebe 0043 c8bd
00000140: 70e1 a5be 1f75 ba40 98b8 b440 cc1a 65be
00000150: 1bbd 9840 4f55 00be bb29 62be 6486 8e40
00000160: 49ba 9e40 2d86 c740 2a61 a240 a4b5 cf40
00000170: 6282 c5bd 23c6 00be f18b 9f40 c93e f9bd
00000180: a157 46bf e313 dabe 7749 9ebc cf5b 3abe
00000190: 59f3 5fbe 29ef 85be cbe1 a540 037f b640
000001a0: 0466 b140 a4a2 a940 0605 bcbc 02d2 a640
000001b0: bf6b 43be 073b aa40 1545 bd40 7fee 9140
000001c0: 798f 9fbc 46ee 24be d2ec 1cbd f82d a540
000001d0: 4f2e bd40 d16f 9840 2c19 f8bd acff e3bd
000001e0: a7a1 b840 c1cc 89bd 535c a440 ca47 b040
000001f0: 1643 b9bd 1d4b b340 57d8 a040 4d73 9a40
00000200: 47c8 27be a7f3 c1bd b004 c940 5545 a040
00000210: 3c0d b1bf 94d6 53bd 5a69 49be aaef d8bd
00000220: 63c3 a340 abaf 93bd a520 5fbd baeb 9240
00000230: c2c0 9abd 5c49 c640 1451 b140 cae2 9d40
00000240: c778 65be da24 edbe 3ffc bc40 665b e4bd
00000250: be7f 9c40 193f 9a40 5806 b340 2844 bd40
00000260: c340 9940 c03b f7bd 6376 4fbe f730 ac40
00000270: be2f 47bd 3f36 a840 766d b240 eb77 a840
00000280: b133 a440 cd8d 9640 13ce 0ebe 24b8 b8bf
00000290: b52d b040 c8db 9b40 b449 c340 8420 d4be
000002a0: f172 013f 114c ac40 c2df 84be a243 ed38
000002b0: 9911 9b40 3bf4 9640 6987 a540 e1da a1bd
000002c0: b2fd aa40 0169 13be e885 be40 5eb8 babd
000002d0: 349d eb3f 8e19 a240 c337 a440 dff3 79bd
000002e0: 685c eabe 28a0 debe 6716 ca40 bbb0 2cbc
000002f0: 70cd 9340 e659 b440 8602 8d3c 35e7 d3be
00000300: 0bc4 76be cdb7 af40 f1e5 38bf aad7 d9bd
00000310: 8e23 c9bf 3b02 b440 a65c b740 a7a0 c8bd
00000320: c78a c740 e989 c7be be2a ecbd e0f9 ccbd
00000330: 214d d140 8e20 30be b7d3 a7bd 1d62 9940
00000340: 750f 04be a1fd dcbd bd3a a740 2844 5bbd
00000350: c245 8e40 d1d6 14be 9928 cabd 7bfd 51bf
00000360: c961 cbbd dce5 59be ed4f ba40 30a4 75bd
00000370: fbbe 51bd de2d c540 88d4 1ebe 2bbb a440
00000380: 250e 8cbf 3dac af40 3ab0 b140 5af5 b140
00000390: 4d70 ae40 4af6 6c40 46aa 71bd b3a2 9f40
000003a0: c77d c040 6d22 82bd ac65 8f40 ae6a c340
000003b0: 6c5c 97be 6bc6 9a40 f9e0 5cbe 3a1a bb40
000003c0: f274 a640 d77b 833c 9c7f 8fbc c452 3bbc
000003d0: e27a b7be 12c3 9840 8fbe a040 4668 b140
000003e0: 050f 7ebe 1e5a ac40 dfd3 3e40 c673 0bbf
000003f0: 3358 a440 ff02 20be bc9c 88bc e9c4 33bf

layer2.6.weight f4 [1, 256]
0.08405739 0.011808762 -0.04040946 -0.019871924 -0.015108348 0.08790166 0.083420694 -0.06738846
0.07524273 -0.043398675 -0.023819432 0.033645563 0.034356635 -0.03067686 -0.016904242 0.03215366
-0.0016984451 0.015830966 0.12486619 0.042843387 0.02377481 -0.037355486 -0.013665376 -0.039306432
0.06864353 0.08482137 0.032494523 0.08602294 0.074432164 0.03285695 -0.052562706 -0.025027728
0.044491176 0.041299377 -0.03685125 0.05885206 0.025604915 0.020868255 0.048897896 0.029385624
0.0332414 -0.0141967805 0.03245517 0.013451012 0.10818074 0.14162633 0.020240307 0.024901511
-0.028604506 0.020827666 0.0465147 0.037561167 0.06255329 0.011619084 -0.0029830236 0.023637442
-0.026281856 -0.030719416 -0.009803788 -0.048988607 -0.042722445 0.030688303 -0.036253788 0.028223094
0.08937443 -0.044003442 0.11706298 0.022326302 0.020490186 -0.01519227 -0.05714334 -0.06287453
-0.03230156 0.08015591 -0.015746687 0.028883226 -0.01618229 0.03741501 -0.020921692 -0.02732493
-0.062215045 0.019184487 0.015561856 -0.012879147 0.08375025 -0.0017511963 -0.024949642 0.09198853
0.06377686 0.012293687 0.054227326 0.012768531 -0.044684753 -0.038638476 0.075093865 -0.038627446
-0.0032002034 -0.016298048 -0.027332593 -0.055498417 -0.0066304323 -0.0091362335 0.037566785 0.016548907
0.018222399 0.03731766 -0.045350168 0.076066166 -0.04136763 0.0863427 0.019580446 0.081521116
-0.0002601698 -0.027902473 -0.0111704515 0.024406696 0.017216433 0.060901366 -0.027223058 -0.036754966
0.045891583 -0.027706422 0.03288462 0.030616581 -0.010014767 0.05287612 0.052588575 0.09248075
-0.035379503 -0.005914387 0.026079213 0.0129712485 -0.06724296 -0.02609591 -0.009152854 -0.036034282
0.048494168 -0.019418893 -0.013766218 0.11391961 -0.01834562 0.01674955 0.031007083 0.07374784
-0.02442793 -0.0028385108 0.051660605 -0.028542938 0.06667249 0.050247088 0.06587409 0.020889651
0.124855794 -0.018856943 -0.0077975825 0.074291974 -0.026684232 0.032055754 0.036535878 0.10737073
0.07907965 0.15911655 -0.012865938 -0.02973421 0.019547796 0.114917845 0.021138908 -0.0030599644
-0.0071474575 0.041147593 -0.027954733 -0.008302282 0.10789672 0.062290303 0.13098815 -0.0056399913
0.03655766 -0.047163673 0.020243593 -0.033926345 0.032951463 0.07323836 0.010100973 0.00025372175
-0.05689489 0.000107566324 0.013135614 -0.022330325 0.09003041 0.077849135 -0.025774375 -0.0063734883
-0.03731883 0.009100181 -0.054626357 -0.047280572 -0.06867828 0.045477007 0.028926075 9.2855735e-05
0.033887215 0.0002643315 -0.027528722 -0.04637206 0.017141895 -0.028647833 -0.044741623 0.048337933
-0.036193244 -0.037871607 0.088876754 -0.008673337 0.015231968 -0.015649365 -0.048725083 -0.05839223
-0.00018943245 -0.01699806 0.0288654 -0.05145168 -0.04208592 0.01101474 -0.0058571366 0.029668137
-0.024040684 0.031661715 0.052428883 0.019028328 0.079738855 0.014017171 -0.05298403 0.07680749
0.018216219 -0.022917746 0.08685327 0.031157956 -0.04157987 0.09444716 -0.06791286 0.010686575
0.034876145 -0.037016846 -0.03433523 -0.044163354 -0.014966952 0.07126483 0.10853522 0.018980224
-0.058635395 0.061659627 0.03166792 -0.0071452036 0.05820271 -0.013008887 -0.037748728 -0.0029457365
00000000: 4826 ac3d 8a79 413c 6484 25bd 72ca a2bc
00000010: 0189 77bc c905 b43d 78d8 aa3d f602 8abd
00000020: dc18 9a3d cfc2 31bd f820 c3bc eecf 093d
00000030: 8bb9 0c3d 0a4e fbbc c47a 8abc 8eb3 033d
00000040: 5c9e deba f1af 813c d8b9 ff3d 8c7c 2f3d
00000050: 64c3 c23c 1102 19bd bee4 5fbc c8ff 20bd
00000060: fb94 8c3d d4b6 ad3d fa18 053d cc2c b03d
00000070: e46f 983d 0295 063d fe4b 57bd f306 cdbc
00000080: 613c 363d 8929 293d 56f1 16bd dc0e 713d
00000090: 66c1 d13c e7f3 aa3c 2949 483d 1fba f03c
000000a0: 2228 083d 9d99 68bc b6ef 043d a261 5c3c
000000b0: dd8d dd3d 7e06 113e 00cf a53c 41fe cb3c
000000c0: ff53 eabc c89e aa3c 3386 3e3d bdd9 193d
000000d0: f01b 803d f85d 3e3c d57e 43bb 4fa3 c13c
000000e0: 0c4d d7bc 49a7 fbbc 11a0 20bc 47a8 48bd
000000f0: bbfd 2ebd 0966 fb3c da7e 14bd 1e34 e73c
00000100: f109 b73d f43c 34bd b7be ef3d a6e5 b63c
00000110: 09db a73c 00e9 78bc 230f 6abd 5dc4 80bd
00000120: a44e 04bd c828 a43d 32ff 80bc 849c ec3c
00000130: b990 84bc 7b40 193d f863 abbc 88d8 dfbc
00000140: 34d5 7ebd c928 9d3c 28f7 7e3c 0f03 53bc
00000150: 4085 ab3d 6688 e5ba 3163 ccbc 7b64 bc3d
00000160: 719d 823d 766b 493c 791d 5e3d 1a33 513c
00000170: 5c07 37bd 6143 1ebd d0ca 993d d037 1ebd
00000180: 81ba 51bb 7c83 85bc 9ae8 dfbc 4f52 63bd
00000190: 1944 d9bb 24b0 15bc a1df 193d 9391 873c
000001a0: 2447 953c 67da 183d 19c1 39bd 94c8 9b3d
000001b0: 1b71 29bd 71d4 b03d 2c67 a03c 8bf4 a63d
000001c0: 6667 88b9 ba93 e4bc 4504 37bc 8df0 c73c
000001d0: 7a09 8d3c b673 793d e402 dfbc 608c 16bd
000001e0: d0f8 3b3d 94f8 e2bc 06b2 063d a0cf fa3c
000001f0: fa14 24bc a194 583d 1e67 573d 8c66 bd3d
00000200: 19ea 10bd 79cd c1bb 13a4 d53c 5c85 543c
00000210: adb6 89bd 17c7 d5bc daf5 15bc af98 13bd
00000220: d2a1 463d 5f14 9fbc b48b 61bc af4e e93d
00000230: 8e49 96bc 5a36 893c 9102 fe3c 1c09 973d
00000240: 151d c8bc 4f06 3abb 129a 533d e1d2 e9bc
00000250: 968b 883d e4cf 4d3d ffe8 863d c620 ab3c
00000260: 65b4 ff3d e079 9abc dd82 ffbb 6426 983d
00000270: e498 dabc e54c 033d a5a6 153d 2fe5 db3d
00000280: 83f4 a13d 73ef 223e a8cb 52bc 2895 f3bc
00000290: b322 a03c 0c5a eb3d 812b ad3c af89 48bb
000002a0: 3835 eabb 618a 283d 5301 e5bc 4b06 08bc
000002b0: f5f8 dc3d 1e24 7f3d c221 063e adcf b8bb
000002c0: 7cbd 153d b22e 41bd e4d5 a53c 5af6 0abd
000002d0: 1df8 063d fefd 953d 8d7e 253c f505 8539
000002e0: 9e0a 69bd 3b95 e138 c236 573c 16ee b6bc
000002f0: dd61 b83d 5e6f 9f3d c824 d3bc b2d8 d0bb
00000300: a1db 18bd ed18 153c e3bf 5fbd 46a9 41bd
00000310: 33a7 8cbd 1946 3a3d 60f6 ec3c 8bbb c238
00000320: 52cd 0a3d f995 8a39 ea83 e1bc a1f0 3dbd
00000330: 296d 8c3c dcae eabc fe42 37bd fffd 453d
00000340: 5e3f 14bd 421f 1bbd 0405 b63d 9d1a 0ebc
00000350: 818f 793c 1933 80bc f493 47bd b12c 6fbd
00000360: 63a2 46b9 843f 8bbc 2277 ec3c ffbe 52bd
00000370: 4962 2cbd 2b77 343c 39ed bfbb 980a f33c
00000380: f8f0 c4bc b7af 013d abbf 563d 4ce1 9b3c
00000390: 204e a33d 47a8 653c c805 59bd 3f4d 9d3d
000003a0: 2e3a 953c ffbd bbbc 21e0 b13d f83e ff3c
000003b0: a74f 2abd 836d c13d e615 8bbd bf16 2f3c
000003c0: 4ada 0e3d fa9e 17bd 19a3 0cbd a2e4 34bd
000003d0: f237 75bc 4cf3 913d b747 de3d 6a7c 9b3c
000003e0: ab2b 70bd ce8e 7c3d 39b6 013d 5022 eabb
000003f0: f765 6e3d 3a23 55bc 699e 1abd 420d 41bb
