Saved_data_files/helpdesk/lr_all_variants/binary/EventPredictor_parameters_binary_1e-05.pt (torch, 286599 bytes, 8 tensors)

layer1.weight f4 [4, 1]
0	0x3d481b4e	0.048854165
1	0x3ea1f96e	0.31635612
2	0x3f5df138	0.86696196
3	0x3db0aa95	0.08626286

layer1.bias f4 [9]
0	0xbe46d288	-0.19416249
1	0xbe05f17d	-0.13080402
2	0xbe392c20	-0.18083239
3	0xbdcec0a6	-0.100953385
4	0xbdc36338	-0.09540409
5	0xbd197f79	-0.037475083
6	0xbdd4d3d4	-0.103919655
7	0xbe46bb07	-0.19407283
8	0xbc8892d2	-0.016671572

layer2.1.weight f4 [256, 9]
0	0x3babc791	0.005242296
1	0x3e194b33	0.14970092
2	0xbe12470a	-0.14284912
3	0xbd48a523	-0.04898561
4	0x3e9c0833	0.30475006
5	0x3d00753c	0.031361803
6	0xbe2f9b98	-0.17149198
7	0x3e2bef47	0.16790496
8	0x3e19de5a	0.15026227
9	0x3e8843c5	0.26614204
10	0xbe85c741	-0.2612858
11	0x3ceeb170	0.029137343
12	0x3d896fb9	0.067107625
13	0x3ea608cf	0.32428595
14	0x3d43696e	0.047707967
15	0x3d335faf	0.043792423
16	0xbe75996e	-0.2398431
17	0xbeabb176	-0.3353383
18	0xbe3c5615	-0.18392213
19	0x3dfe0f2f	0.1240524
20	0x3d978c90	0.07399857
21	0xbd62faa4	-0.05541481
22	0x3e93e13f	0.28882787
23	0xbe4499c9	-0.1919929
24	0xbe97006c	-0.2949251
25	0x3e126e6b	0.14299934
26	0x3e08606e	0.13318035
27	0x3de369ea	0.11104186
28	0x3e891e2a	0.26780826
29	0x3d9490c7	0.072541766
30	0x3ea84920	0.3286829
31	0x3da708ff	0.08156013
32	0xbe749c45	-0.23887737
33	0xbe605f8a	-0.21911445
34	0xbe92d378	-0.28676963
35	0xbe835371	-0.25649598
36	0x3df5042a	0.11963685
37	0x3db9659f	0.09052586
38	0xbe312263	-0.17298274
39	0x3e28f04e	0.16497919
40	0xbe8b957f	-0.27262494
41	0xbe2cee2b	-0.16887729
42	0xbea4a5cc	-0.32157743
43	0x3e41e2df	0.189342
44	0x3e8ae9b5	0.2713143
45	0xbe914a2a	-0.28376895
46	0x3d82338d	0.06357489
47	0xbc8c7afe	-0.017148491
48	0x3d4a2271	0.049349252
49	0x3e9b8f82	0.30382925
50	0xbe2d1639	-0.16903009
51	0x3df26f39	0.1183762
52	0xbcd6c344	-0.026216157
53	0x3e9b8f0c	0.30382574
54	0x3da278ca	0.07933195
55	0x3e8ba0b8	0.27271056
56	0xbe3edcac	-0.18638867
57	0x3dc46887	0.095902495
58	0x3e955b21	0.29171088
59	0xbe57b7ec	-0.21066254
60	0x3dcf2ae8	0.101156056
61	0x3e6d3d38	0.23167884
62	0x3e7c84c0	0.24660015
63	0xbd945e59	-0.07244558
64	0x3c7b924a	0.015354702
65	0xbd9ad21f	-0.07559609
66	0xbb43d9f0	-0.002988454
67	0x3e93e956	0.2888896
68	0xbd714b36	-0.058909617
69	0x3dc9bcda	0.09850474
70	0x3d485a05	0.048913974
71	0x3e9bb23b	0.30409417
72	0x3e1bd5e7	0.15218316
73	0xbe3561a4	-0.17713028
74	0xbe16296f	-0.14664243
75	0x3e88284c	0.26593244
76	0x3e5b1f9d	0.21398778
77	0x3eab893e	0.33503145
78	0x3ee9b963	0.4564925
79	0xbd0ca9b1	-0.034341518
80	0x3e60c731	0.21950985
81	0xbe1dd435	-0.15412982
82	0x3e13cb52	0.1443303
83	0x3ed6b984	0.41938412
84	0xbe1ff8cc	-0.15622252
85	0x3d65625b	0.056002002
86	0xbd8458d1	-0.06462253
87	0x3d9d98e4	0.07695177
88	0x3d2fe0a9	0.042938862
89	0x3e9515a1	0.29118064
90	0x3e940cb4	0.28915942
91	0xbe545537	-0.20735632
92	0xbd926f74	-0.07150164
93	0xbe9fee66	-0.3123657
94	0xbec5a36d	-0.38601246
95	0x3d0ad618	0.033895582
96	0xbe84feac	-0.2597555
97	0xbe7a85aa	-0.24465051
98	0xbea20213	-0.31642208
99	0xbe707c97	-0.23485027
100	0x3e93a264	0.28834832
101	0x3d579254	0.052629784
102	0x3eb86ed7	0.36022064
103	0x3ea4cd2d	0.32187787
104	0xbda0d5b5	-0.078532614
105	0xbe25ad23	-0.16179328
106	0x3d9edc0a	0.07756813
107	0xbd9796f0	-0.07401836
108	0xbe25db3b	-0.16196911
109	0x3d8f5c51	0.0700003
110	0xbe28fbd1	-0.1650231
111	0x3e50ad5c	0.20378631
112	0x3e1c5392	0.15266255
113	0xbda81423	-0.08206966
114	0x3e0b4d32	0.13603666
115	0x3e156364	0.14588696
116	0xbd5162e0	-0.051119685
117	0x3e942a8a	0.28938705
118	0x3e7733a7	0.24140798
119	0x3d83e123	0.06439426
120	0x3eb21b74	0.3478657
121	0xbd69891e	-0.05701553
122	0x3e3f6600	0.18691254
123	0xbd91e2cb	-0.071233355
124	0xbe57f818	-0.21090734
125	0xbe7f173e	-0.2491121
126	0xbdf49764	-0.11942938
127	0x3e9bc38b	0.30422625
128	0x3e147e03	0.14501195
129	0xbe47b9f9	-0.19504537
130	0xbd3d058a	-0.04614786
131	0xbd1e27dd	-0.038612235
132	0xbdcc2b69	-0.09969217
133	0x3e0101c9	0.12598337
134	0xbd5b4d9f	-0.053540822
135	0xbdbd0202	-0.092288986
136	0xbe90aebe	-0.28258318
137	0xbe69960a	-0.22811142
138	0x3df80d9a	0.12111969
139	0x3e25eb33	0.16203003
140	0xbe77e2b6	-0.24207577
141	0x3e4b55ce	0.1985695
142	0xbecc0b41	-0.39852336
143	0x3e1fa8ca	0.15591732
144	0x3e6db992	0.2321532
145	0xbe59c1a4	-0.21265274
146	0x3e03b72b	0.12862842
147	0x3e7acd6c	0.24492425
148	0x3d91b5bc	0.07114741
149	0xbe6c3ef7	-0.23070894
150	0xbea01aef	-0.3127055
151	0x3df153f1	0.11783589
152	0xbd990580	-0.07471752
153	0x3e22202b	0.15832584
154	0x398bffda	0.0002670277
155	0x3e36158e	0.1778166
156	0xbe8ef64c	-0.27922285
157	0x3cf12de3	0.029440826
158	0x3e5e996b	0.21738212
159	0xbea6cd56	-0.32578534
160	0x3ed49640	0.41520882
161	0x3d98c8d8	0.07460183
162	0x3f0136cf	0.50474256
163	0x3db44a24	0.08803204
164	0x3ecfdbac	0.40597284
165	0xbe4e52e9	-0.20148815
166	0x3e1f8b9e	0.15580603
167	0x3e57d5bc	0.21077627
168	0x3c5ec4e1	0.013596744
169	0x3e80741b	0.2508858
170	0x3e2f07a6	0.17092761
171	0xbc276ac1	-0.010218323
172	0xbda2346c	-0.07920155
173	0x3e4a1c53	0.19737367
174	0x3e56dd6f	0.20982908
175	0xbe305a8f	-0.17222045
176	0x3e9731ee	0.2953028
177	0x3e863618	0.26213145
178	0x3e69a13e	0.22815415
179	0x3ebe7a31	0.372026
180	0xbe634550	-0.2219441
181	0xbdf9c5a8	-0.12195903
182	0x3ea9c7c3	0.3316022
183	0x3ea926ce	0.33037418
184	0xbd92e942	-0.07173397
185	0x3ec67327	0.3875973
186	0x3e876726	0.26445884
187	0x3e9a7053	0.30163822
188	0x3e835e55	0.25657907
189	0x3eadac28	0.33920407
190	0x3ee1dfa7	0.44115946
191	0xbcd0d737	-0.025493247
192	0xbc6479ea	-0.013945082
193	0x3ea83d0b	0.32859072
194	0x3e9389f1	0.28816178
195	0x3ea2f242	0.31825453
196	0xbd4c764d	-0.049917508
197	0xbe4c4df6	-0.19951615
198	0x3ebc428f	0.3676953
199	0xbe9e2693	-0.30888805
200	0x3ebb7d48	0.3661902
201	0x3e1151ef	0.14191411
202	0x3d263921	0.040581826
203	0xbe2d3f4b	-0.16918676
204	0xbe10ab6c	-0.14127892
205	0x3e73a40e	0.2379305
206	0x3e80f54f	0.25187156
207	0xbe797af7	-0.24363314
208	0x3e44dbc7	0.19224463
209	0xbd5df328	-0.05418697
210	0x3e49aaba	0.19694033
211	0xbe8f3419	-0.27969435
212	0xbca5b1e5	-0.020226428
213	0x3ea54ec3	0.32286653
214	0x3e463969	0.19357838
215	0xbea7f69c	-0.32805336
216	0x3efb5bf4	0.49093592
217	0x3bfac752	0.0076531554
218	0x3ebe85ec	0.3721155
219	0xbda46025	-0.080261506
220	0xbe570da2	-0.21001294
221	0x3e3d129e	0.18464133
222	0x3d70e357	0.05881056
223	0x3dd4a106	0.10382275
224	0x3e607955	0.21921284
225	0xbebb955f	-0.366374
226	0x3df576ed	0.11985574
227	0xbe3ba66a	-0.183252
228	0xbdf04d8a	-0.117335394
229	0x3d858219	0.06518955
230	0x3e0f51a5	0.13995989
231	0xbda305da	-0.079601005
232	0xbe806605	-0.25077835
233	0xbe82b645	-0.25529686
234	0xbef0fe81	-0.4706917
235	0xbe6f171b	-0.23348658
236	0xbebef4fa	-0.37296277
237	0x3ea98211	0.33107045
238	0x3c9f75ec	0.01946541
239	0xbdcfcb58	-0.101462066
240	0x3afcc8e8	0.0019285949
241	0xbed93edd	-0.42430773
242	0x3d6c4024	0.057678357
243	0xbe521618	-0.2051624
244	0x3ea9d513	0.33170375
245	0x3d27d474	0.040974095
246	0xbb8f070a	-0.004364853
247	0x3ead9b82	0.33907706
248	0x3e25f89b	0.16208117
249	0x3e0a897e	0.13529012
250	0xbdd4ad7a	-0.103846505
251	0x3d829f91	0.06378091
252	0xbe2f67d4	-0.17129451
253	0xbd834d91	-0.06411279
254	0x3e47a9af	0.19498323
255	0x3e6f29be	0.23355767

layer2.1.bias f4 [256]
0	0xbe999f65	-0.3000442
1	0xbea619c4	-0.32441533
2	0xbe0de2b0	-0.13856006
3	0xbc409030	-0.011753127
4	0xbe573491	-0.21016146
5	0x3e0bc19f	0.1364808
6	0x3e82d5b7	0.25553676
7	0xbeb0848a	-0.3447612
8	0xbec7f995	-0.39057603
9	0x3b8a78de	0.0042258343
10	0x3d624e61	0.05525053
11	0x3c8d3755	0.017238298
12	0x3bd93d83	0.006629647
13	0xbe6f9522	-0.23396733
14	0x3dc91589	0.09818561
15	0xbda211ad	-0.07913528
16	0xbeaa729f	-0.33290574
17	0x3e97fcbd	0.29685012
18	0xbd9cee47	-0.07662635
19	0xbeb54936	-0.35407418
20	0xbe296790	-0.16543412
21	0xbe52cd25	-0.20586069
22	0x3d91dd9d	0.071223475
23	0x3e5c52d0	0.21515965
24	0xbdffb3f0	-0.12485492
25	0x3e6f5218	0.2337116
26	0xbd88ed93	-0.06685939
27	0xbd3cee89	-0.046125922
28	0xbcd54be8	-0.026037171
29	0x3e22117e	0.15826985
30	0x3ea96b44	0.3308965
31	0xbe181c6b	-0.1485459
32	0x3e862a42	0.26204115
33	0x3eb3c03c	0.351076
34	0x3ef2428f	0.47316405
35	0x3d52d9c5	0.051477212
36	0x3dbf5a17	0.09343355
37	0x3daebb33	0.08531799
38	0x3d8c6d71	0.06856812
39	0x3e86f24f	0.26356742
40	0xbd966336	-0.07343142
41	0x3e2f859c	0.17140812
42	0x3e9fd033	0.3121353
43	0xbec1ec8e	-0.3787579
44	0xbe996521	-0.29959968
45	0x3d6ea1d0	0.058259785
46	0xbd6c2593	-0.05765302
47	0x3e2827b2	0.16421393
48	0xbed0fb34	-0.40816653
49	0xbed9ac25	-0.42514148
50	0xbe28ffab	-0.1650378
51	0xbe2ff9ea	-0.17185178
52	0x3e899679	0.26872614
53	0x3d8a5472	0.06754388
54	0x3ea0f269	0.31434944
55	0xbd2a6743	-0.041602384
56	0xbeed6cbb	-0.46372017
57	0xbcd0e59d	-0.025500113
58	0xbdc3c422	-0.09558894
59	0x3e870c0c	0.2637638
60	0xbe308e92	-0.17241886
61	0x3dd31732	0.103071585
62	0xbe5259a4	-0.20542008
63	0xbecec254	-0.40382636
64	0xbda5cacb	-0.0809532
65	0xbeb9f578	-0.3632009
66	0xbea385c9	-0.31938007
67	0x3e137412	0.14399746
68	0xbe6cc824	-0.23123223
69	0xbeeaa672	-0.45830113
70	0xbcf06346	-0.029344212
71	0xbe99949e	-0.29996198
72	0x3d850061	0.06494213
73	0x3eb58371	0.35451844
74	0xbeace7af	-0.3377051
75	0x3e1425a1	0.1446748
76	0x3dbf2bfd	0.09334562
77	0xbea41b62	-0.3205214
78	0xbe53cbad	-0.20683165
79	0xbec7f563	-0.39054403
80	0x3eb819a8	0.35957074
81	0x3e577ee1	0.21044494
82	0xbe6ed3ec	-0.2332303
83	0xbea7cf65	-0.32775417
84	0x3e29e3db	0.16590826
85	0xbec31743	-0.38103685
86	0x3e543947	0.20724975
87	0x3b51cdbb	0.0032013494
88	0x3c42f0d8	0.011898242
89	0xbd61ccb9	-0.05512688
90	0x3eab5639	0.3346422
91	0x3ea33847	0.31878874
92	0xbe92c55d	-0.286662
93	0xbe59eddd	-0.21282144
94	0xbe17792a	-0.14792314
95	0x3e32773f	0.17428301
96	0x3ddc8dce	0.107692346
97	0x3d58ec20	0.05295956
98	0xbe15afb6	-0.1461781
99	0x3dddb7d4	0.10826078
100	0x3e9ab6b4	0.30217516
101	0x3d06a6da	0.032873966
102	0xbe7b2f9d	-0.24529882
103	0x3c851ffa	0.0162506
104	0xbea58849	-0.3233054
105	0x3e82bb91	0.25533727
106	0xbec33708	-0.38127923
107	0xbcfd1e7b	-0.030898323
108	0x3e1508e6	0.14554176
109	0x3d8db250	0.06918776
110	0x3e77846a	0.24171606
111	0xbe62b64f	-0.22139858
112	0x3eb81d70	0.3595996
113	0xbde0e0a1	-0.109803446
114	0x3d0e3b4d	0.034724522
115	0x3e4cd121	0.20001651
116	0x3e8ec13f	0.2788181
117	0xbb6f459a	-0.0036509992
118	0x3d8e93a2	0.069617525
119	0x3eae989c	0.34100807
120	0x3d6ea46f	0.058262285
121	0xbe7b3dec	-0.2453534
122	0x3de8ac41	0.1136098
123	0x3ed5478f	0.41656157
124	0xbec324c8	-0.38114
125	0xbe0033f7	-0.12519823
126	0xbeba1851	-0.36346677
127	0x3e1847b6	0.14871106
128	0x3dfb4488	0.12268931
129	0xbe1a8cb1	-0.15092732
130	0x3e033966	0.12814865
131	0x3e9eb357	0.309962
132	0x3ea34684	0.31889737
133	0x3ebc7fbb	0.368162
134	0x3d110716	0.03540715
135	0xbee362ae	-0.44411224
136	0x3d8f29ce	0.069903955
137	0xbd78818b	-0.060670417
138	0x3ececb53	0.403895
139	0x3e4623bc	0.19349569
140	0xbe49415b	-0.19653837
141	0xbe9d5b91	-0.30733922
142	0xbebb9d81	-0.36643603
143	0x3ec31bb9	0.38107088
144	0x3e816333	0.25270995
145	0x3ce4f9b5	0.0279511
146	0x3e63b30a	0.22236267
147	0xbd330917	-0.04370984
148	0x3ef14b00	0.47127533
149	0xbec9576a	-0.39324504
150	0xbe10eb09	-0.14152159
151	0x3d8f7bc4	0.07006028
152	0xbbafa396	-0.005360077
153	0xbd32f67e	-0.043692105
154	0x3c00529d	0.007832197
155	0xbcda8f40	-0.026679635
156	0xbb8b09e1	-0.004243121
157	0x3e9abd0d	0.3022236
158	0xbd802baa	-0.06258328
159	0x3ce7849c	0.028261475
160	0x3e824403	0.25442514
161	0xbec80a86	-0.3907053
162	0x3e3bd099	0.18341292
163	0x3dff8219	0.12475986
164	0x3d2fb330	0.042895496
165	0x3ec4807b	0.38379273
166	0xbe962d95	-0.2933165
167	0x3da950dd	0.082673766
168	0xbe3a0f71	-0.18169953
169	0x3e48667c	0.19570345
170	0xbcc85fa9	-0.024459677
171	0xbea0acb5	-0.31381765
172	0xbe77ebd1	-0.2421105
173	0x3d0acfcb	0.033889573
174	0x3d837d4a	0.06420381
175	0xbe4e6f77	-0.20159708
176	0x3e727898	0.23678815
177	0xbe84d3ab	-0.2594274
178	0x3e0aa142	0.13538077
179	0xbec4b648	-0.3842032
180	0x3e2aaf4e	0.16668436
181	0x3e4f4c8f	0.20244049
182	0x3de0d1d9	0.10977525
183	0x3e19dffd	0.15026851
184	0xbe57beb0	-0.21068835
185	0x3eb1b63a	0.3470934
186	0x3e454f16	0.1926845
187	0xbed88d7e	-0.4229545
188	0xbd9e434c	-0.077276796
189	0xbd3554ff	-0.04427051
190	0x3db56e3c	0.08858916
191	0x3ee4f7a7	0.44720194
192	0xbe2ab9f9	-0.16672505
193	0x3ead109a	0.33801728
194	0x3e61a24a	0.22034565
195	0xbd4bc2b4	-0.04974623
196	0x3db8e890	0.09028733
197	0xbe4fee53	-0.20305757
198	0x3e349a69	0.17637028
199	0xbe423176	-0.1896418
200	0xbd4c4e01	-0.049879078
201	0x3e99b2d0	0.30019236
202	0xbdafc263	-0.08581998
203	0x3e5659bb	0.20932667
204	0xbb1d98d8	-0.00240474
205	0xbe7b776d	-0.24557276
206	0xbeaa7f2c	-0.3330015
207	0xbdb29e16	-0.08721559
208	0x3e137307	0.14399348
209	0xbe923263	-0.28554067
210	0x3ec25ddc	0.37962234
211	0xbd868560	-0.06568408
212	0x3d783692	0.060598917
213	0x3e0088b6	0.12552151
214	0x3e8686eb	0.2627481
215	0xbd307bc8	-0.043086797
216	0xbe855223	-0.26039228
217	0xbc1796f8	-0.009252302
218	0xbea29158	-0.31751513
219	0xbd67473f	-0.05646443
220	0xba47a29b	-0.00076154777
221	0x3e323b13	0.17405348
222	0xbde4b183	-0.1116667
223	0xbeb86347	-0.36013243
224	0xbe282001	-0.16418459
225	0x3d9c96f6	0.07645981
226	0x3e4f7774	0.20260412
227	0x3e0c12a1	0.13678981
228	0x3cb90896	0.022587102
229	0xbeba05b3	-0.36332473
230	0x3e27500f	0.16339134
231	0x3e8f8dce	0.28037876
232	0xbd85e06c	-0.06536946
233	0x3e802dd8	0.25034976
234	0x3ea7a660	0.32744122
235	0xbeab26dd	-0.33428088
236	0x3c57ae24	0.013164077
237	0x3e9faef5	0.3118817
238	0xbe62939b	-0.2212662
239	0x3e223ab9	0.15842713
240	0xbe9bed2b	-0.30454382
241	0x3e076fda	0.13226262
242	0xbdb43d87	-0.08800798
243	0xbec714a9	-0.3888295
244	0xbe6cafd7	-0.23113953
245	0xbe616671	-0.22011735
246	0xbed999fe	-0.425003
247	0xbeb46469	-0.35232857
248	0xbeba0f9e	-0.3634004
249	0xbe960dbd	-0.29307356
250	0xbdd1b921	-0.10240389
251	0xbe06ff47	-0.13183318
252	0x3d065a48	0.032800943
253	0xbea6fab8	-0.32613158
254	0xbae0a64f	-0.0017139408
255	0x3e9712bf	0.2950649

layer2.3.weight f4 [256, 256]
0	0x3bb9f530	0.0056749806
1	0x3d323f88	0.04351762
2	0x3d095572	0.033528753
3	0x3d58a1f8	0.05288884
4	0xbd448469	-0.04797784
5	0x3d32ed27	0.043683197
6	0xbc8d8e79	-0.01727985
7	0x3cfcc093	0.030853545
8	0xbd92a5aa	-0.07160504
9	0xbcc7c7a5	-0.02438719
10	0x3918d2b0	0.00014574337
11	0xbd21a1b2	-0.039460845
12	0x3cfc17b8	0.030773029
13	0xbd466aeb	-0.04844181
14	0x3d1cba50	0.03826362
15	0x3d3bb03f	0.04582238
16	0xbd8f8211	-0.0700723
17	0xbc72b499	-0.014813566
18	0x3d322cd9	0.0434998
19	0xbd7cda20	-0.061731458
20	0x3c559037	0.013034872
21	0xbdb33b9c	-0.08751604
22	0x3d69e768	0.05710545
23	0x3d030138	0.031983584
24	0x3d98cc20	0.07460809
25	0x3d3b85d1	0.045781914
26	0x3bf96589	0.007610981
27	0x3c2f8158	0.01071199
28	0x3d318036	0.043335162
29	0x3d3c9700	0.046042442
30	0x3d2477eb	0.040153425
31	0xbd190d7a	-0.037366368
32	0x3d62cda3	0.05537189
33	0x3c93947f	0.018015144
34	0x3d2261c2	0.03964401
35	0xbc87a9f1	-0.016560527
36	0x3d422be5	0.047405142
37	0xbcd86fe5	-0.026420543
38	0xbd2facbe	-0.04288935
39	0x3ba47eea	0.005020012
40	0xbd380572	-0.044927068
41	0x3d36aca1	0.044598226
42	0x3d9cd0c0	0.076570034
43	0xbd01a99a	-0.031655885
44	0x3cbf16ce	0.023326304
45	0x3d075599	0.033040617
46	0x3cd41184	0.025887258
47	0x3cae761d	0.021296555
48	0xbcabb9d0	-0.020962626
49	0xbd9e1d21	-0.077204
50	0xbcff081f	-0.031131802
51	0xbd901e2e	-0.07037006
52	0xbd149bd2	-0.036281414
53	0x3d09a726	0.03360667
54	0x3d3ac61f	0.0455991
55	0x3b442dae	0.0029934454
56	0xbc05ae88	-0.008159287
57	0x3d691796	0.05690726
58	0x3c79bfe4	0.015243504
59	0xbca04cdb	-0.019567898
60	0xbca17356	-0.019708317
61	0x3d543b43	0.05181433
62	0xbcadbdb2	-0.021208618
63	0xbcee8698	-0.029116914
64	0xbd124f4c	-0.035720155
65	0xbdb4fffb	-0.08837887
66	0x3bef160b	0.007296329
67	0x3d55a54d	0.052159596
68	0xbd29c97b	-0.041451912
69	0x3c1110f5	0.0088541405
70	0x3d8097be	0.062789425
71	0xbb8cd88e	-0.0042982763
72	0x3d32f28b	0.04368834
73	0x3bc1048a	0.0058904337
74	0xbc9d3154	-0.01918856
75	0xbcf9f421	-0.030511918
76	0x3c7c11f1	0.015385137
77	0x3d16491b	0.036690813
78	0x3cb6822a	0.022278864
79	0xbcb486f1	-0.022037001
80	0xbce37675	-0.027766446
81	0xbc10af9a	-0.008830929
82	0x3cae6201	0.021286966
83	0x3cf2e4b7	0.029650075
84	0x3c03449f	0.008011966
85	0x3d58e545	0.052953023
86	0x3d88ea17	0.06685274
87	0x3d9b2083	0.075745605
88	0xbcd4b3a9	-0.025964575
89	0x3c403ba5	0.01173297
90	0x3d9ae8c7	0.0756393
91	0x3d3abaf5	0.045588452
92	0x3bca8af7	0.0061811167
93	0xbcee2e8c	-0.02907493
94	0xbcaf264d	-0.021380568
95	0xbd4e6fad	-0.05039947
96	0xbd841fe5	-0.06451396
97	0xbd1c0da8	-0.03809896
98	0xbd93300e	-0.071869
99	0x3d0a3c02	0.033748634
100	0xbb99c5e6	-0.004692781
101	0x3cf6376a	0.03005572
102	0x3af748b2	0.0018866269
103	0x3d2452ee	0.04011815
104	0xbd3dffcb	-0.04638652
105	0x38a5e8eb	7.9111975e-05
106	0x3d49d4af	0.049275097
107	0x3d1c285c	0.038124427
108	0xbcb1de88	-0.021712556
109	0x3d53c174	0.051698163
110	0x3d524396	0.051333986
111	0xbc8a89aa	-0.016911346
112	0xbbca1494	-0.006167004
113	0xbd61e36e	-0.055148534
114	0xbd70d7bc	-0.05879949
115	0x3d08a712	0.033362456
116	0x3d8ba47e	0.06818484
117	0xbd06f761	-0.032950763
118	0x3d4a35bb	0.049367648
119	0x3c90733a	0.01763307
120	0xbd564536	-0.0523121
121	0x3db3d63c	0.08781096
122	0xbc206c73	-0.009791481
123	0xbc01e435	-0.007927944
124	0x3ce99505	0.02851344
125	0xbd5b63eb	-0.053562086
126	0xbd3799eb	-0.044824522
127	0x3d632812	0.055458136
128	0xbca06021	-0.019577088
129	0x3d5f4bf1	0.054515783
130	0x3d5e2533	0.054234695
131	0x3cb78d9c	0.022406392
132	0x3c894e7b	0.016761055
133	0x3da92293	0.08258548
134	0x3d22fb2a	0.03979031
135	0xbcd9e0e5	-0.026596496
136	0x3d951b53	0.07280602
137	0x3d8b9688	0.06815821
138	0x3ce13294	0.027489938
139	0x3cd14661	0.025546255
140	0x3d04bb7c	0.03240536
141	0x3c403144	0.011730496
142	0xbd8a3863	-0.06749036
143	0x3d54c232	0.05194301
144	0x3d781cbd	0.060574282
145	0x3d77be8a	0.060484447
146	0xbb804409	-0.0039143604
147	0x3d2e6dec	0.0425853
148	0xbbfdbe96	-0.007743667
149	0x3bd6018e	0.006530947
150	0xbcd0980b	-0.025463125
151	0x3cd73011	0.026268037
152	0xbd750bb3	-0.05982561
153	0xbc96b079	-0.018394696
154	0xbd243a32	-0.040094562
155	0x3cf3bd2c	0.02975329
156	0x3d225705	0.03963377
157	0xba6ada33	-0.0008958906
158	0xbbb8fc6a	-0.0056453245
159	0xbca14982	-0.019688372
160	0x3d731310	0.05934435
161	0xbd6dee9b	-0.05808888
162	0xbd3ddc04	-0.0463524
163	0xbd3c2d81	-0.045941833
164	0xbd33781d	-0.04381572
165	0xbd86852f	-0.065683715
166	0xbcf05bfe	-0.02934074
167	0x3d92844b	0.07154139
168	0x3cc70fd3	0.024299538
169	0xbc8f6d1b	-0.01750808
170	0xbcc44e1a	-0.023963023
171	0x3cd3f112	0.025871787
172	0xbcd56c25	-0.026052544
173	0x3cfed705	0.031108389
174	0xbc50e634	-0.012750197
175	0xbc1ff063	-0.0097619025
176	0x3d250198	0.040284723
177	0x3bf4fae5	0.007476198
178	0x3b1d962b	0.0024045806
179	0x3c9fa448	0.019487515
180	0x3d133fee	0.03594964
181	0xbc80a43e	-0.015703317
182	0x3d4c4569	0.049870882
183	0xbd8289bd	-0.06373928
184	0xbd9d42a4	-0.07678726
185	0x3cf1d379	0.029519783
186	0xbadef170	-0.001700921
187	0xbcbc1564	-0.022959419
188	0x3d1b948a	0.037983455
189	0x3d59807f	0.05310106
190	0xbd886879	-0.066605516
191	0x3ca56b2c	0.020192705
192	0xbc228447	-0.009919233
193	0xbd4a28c6	-0.04935529
194	0x3c81c1fb	0.015839567
195	0xbd05dfbd	-0.032684077
196	0x3cfd00fc	0.030884258
197	0x3ca26a3c	0.019826047
198	0xbbb3cd85	-0.0054871463
199	0x3d9118fa	0.07084842
200	0x3d0fdf62	0.035125144
201	0xbd4f5617	-0.05061921
202	0x3cc7b33c	0.024377458
203	0xbc2e3563	-0.010632846
204	0x3da2a3c0	0.07941389
205	0xbd3eddce	-0.04659825
206	0x3d562b88	0.05228761
207	0x3bb972f5	0.005659456
208	0x3d9fef0f	0.07809269
209	0x3d239c55	0.03994401
210	0x3ca3ceea	0.019996125
211	0x3af27b5d	0.00184999
212	0xbd622473	-0.055210542
213	0x3d8d00cb	0.06884917
214	0x3d481805	0.04885103
215	0x3ce6c406	0.028169643
216	0x3d665424	0.056232587
217	0xbd1afc6d	-0.03783839
218	0x3d1c4dfa	0.0381603
219	0x3d056be2	0.03257359
220	0x3c469407	0.012120253
221	0x3cc1ae3c	0.023642652
222	0xbd31fffc	-0.043457016
223	0x3d26f359	0.04075942
224	0xbd2f4b47	-0.0427964
225	0x3d8cade9	0.06869108
226	0xbb8bf79a	-0.0042714598
227	0x3d446fb5	0.047958095
228	0x3caed5a8	0.021342114
229	0x3d009587	0.0313926
230	0xbc4afba0	-0.012389094
231	0xbd4dea5a	-0.050272323
232	0xbd92fc55	-0.07177035
233	0x3d8b93cb	0.06815299
234	0x3b97a065	0.004627275
235	0x3d685947	0.056725767
236	0xbd34ee30	-0.044172466
237	0x3d45ca25	0.048288483
238	0x3d15fb4c	0.03661661
239	0x3d4c0568	0.049809843
240	0x3cf91536	0.030405622
241	0x3be44f08	0.006967429
242	0xbd4806a0	-0.048834443
243	0x3c0227bd	0.007944045
244	0x3c9fb394	0.01949481
245	0x3d0ebdbd	0.034848917
246	0x3d2dd938	0.042443484
247	0x3d6bdfc3	0.057586443
248	0x3cb7e108	0.02244617
249	0xbcf279fb	-0.02959918
250	0xbd06178e	-0.032737307
251	0x3c67964f	0.014134957
252	0xbc6de0eb	-0.014518957
253	0xbcdcbe58	-0.026946232
254	0x3cd74723	0.026279038
255	0x3cde8514	0.027163066

layer2.3.bias f4 [256]
0	0x3b812538	0.0039412044
1	0xbcda5372	-0.026651118
2	0xbc19daaf	-0.009390517
3	0x3cf41064	0.029792972
4	0xbd0db1c9	-0.034593377
5	0x3d9e3222	0.07724406
6	0xbb991176	-0.004671271
7	0xbd1830a3	-0.03715576
8	0xbd2a51dd	-0.041581977
9	0x3d9135f3	0.07090368
10	0x3d6a2ff6	0.057174645
11	0x3d234365	0.039859194
12	0xbb09cb9c	-0.0021025902
13	0x3d659513	0.05605037
14	0xbcc8e8dc	-0.024525099
15	0xbc07857d	-0.008271572
16	0x3b6bdb1a	0.003598875
17	0xbc1f97b4	-0.009740759
18	0x3dba47e9	0.09095747
19	0xbc8315d1	-0.016001614
20	0x3de1a37a	0.11017509
21	0xbd819c87	-0.06328683
22	0x3c41db27	0.011832035
23	0xbdead403	-0.11466219
24	0x3c8c578a	0.017131586
25	0xbc4924ef	-0.012276872
26	0x3d523357	0.051318493
27	0xbcd9e758	-0.026599571
28	0x3e068468	0.13136446
29	0x3e56f98c	0.20993632
30	0x3cabec62	0.02098674
31	0x3c760f97	0.015018365
32	0x3d6a72bd	0.05723833
33	0x3d31ce39	0.04340956
34	0xb92b6bc3	-0.00016347975
35	0xbd205325	-0.039141793
36	0x3d0b3884	0.033989444
37	0x3d4d6ff4	0.050155595
38	0x3d69669f	0.056982633
39	0xbdabc050	-0.0838629
40	0x3cebcc87	0.02878405
41	0xbc884688	-0.016635194
42	0x3d97f3b7	0.07419532
43	0x3d78e7c3	0.0607679
44	0xbcfe84c3	-0.031069165
45	0x3d706b62	0.05869616
46	0x3d1e6eba	0.038679816
47	0xbc8a47da	-0.016879965
48	0x3d4d8dc3	0.050184023
49	0xbdbd74c1	-0.09250785
50	0xbd6e8bfb	-0.058238965
51	0x3d635c03	0.05550767
52	0x3cc0bc0f	0.023527173
53	0x3d3a0c66	0.04542198
54	0xbdb58303	-0.08862879
55	0xbca6293a	-0.02028333
56	0xbd54cdfe	-0.051954262
57	0xbcd976d4	-0.02654592
58	0xbbd6b493	-0.006552288
59	0xbd052124	-0.03250231
60	0x3d333df2	0.043760248
61	0xbcb9076c	-0.022586547
62	0x3d61644e	0.0550273
63	0x3cb75793	0.022380626
64	0xbd41493a	-0.047188975
65	0xbd2a092f	-0.041512664
66	0x3d94ced7	0.07266014
67	0xbcb8066a	-0.022463996
68	0xbcd050f0	-0.025429219
69	0xbd3e5d73	-0.04647584
70	0xbdf641f6	-0.120243
71	0x3c9ca450	0.019121319
72	0xbcd4544f	-0.025919108
73	0x3cac7b04	0.021054752
74	0x3c39781b	0.011320139
75	0x3cffe738	0.031238183
76	0x3ca6f9ba	0.02038275
77	0x3be3d08c	0.006952351
78	0xbc968302	-0.018373016
79	0xbc31b129	-0.010845461
80	0x3d0254a4	0.031819
81	0x3d19650a	0.037449874
82	0xbd8d902d	-0.06912265
83	0x3d879a16	0.066211864
84	0xbc8aa18a	-0.016922731
85	0x3d2c947a	0.042133786
86	0xbd01d217	-0.031694498
87	0x3ceea49c	0.029131226
88	0xbd01e8b4	-0.031716064
89	0xbdaf4043	-0.08557179
90	0xbd91b175	-0.07113925
91	0xbc8c5452	-0.01713005
92	0xbdaa58d5	-0.083177246
93	0xbda961ae	-0.08270584
94	0xbd04a8ec	-0.03238766
95	0xbc026ad2	-0.007960038
96	0xbd0277e5	-0.03185262
97	0x3d453b07	0.048151996
98	0x3ce97fe7	0.028503371
99	0x3b9733fe	0.0046143522
100	0xbb7b813f	-0.0038376597
101	0xbd5338a5	-0.051567692
102	0xbd4ec0ab	-0.05047671
103	0xbd840a79	-0.0644731
104	0xbce33000	-0.02773285
105	0xbda8e643	-0.08247044
106	0xbcfc2a38	-0.03078185
107	0xbc98c27d	-0.018647427
108	0xbccc69ec	-0.024952851
109	0xbdc48531	-0.09595717
110	0xbda4191f	-0.08012604
111	0x3c8f98e5	0.01752896
112	0x3da1dad1	0.07903064
113	0x3c30276d	0.010751587
114	0x3d3f3cee	0.046688966
115	0xbdbfb1e1	-0.093600996
116	0x3d957cff	0.07299232
117	0xbced9c55	-0.029005209
118	0x3d9fccf1	0.07802761
119	0x3d01cf75	0.031691987
120	0xbd9349fe	-0.07191847
121	0x3d9a6d2b	0.075403534
122	0xbdc29a5f	-0.095021
123	0x3d1f4510	0.038884223
124	0xbd3dfb11	-0.046382014
125	0xbb0993d2	-0.0020992649
126	0x3e222bfe	0.15837094
127	0xbd3c91f5	-0.046037633
128	0xbca27140	-0.019829392
129	0xbc2606d3	-0.010133463
130	0xbd20166a	-0.039083876
131	0xbd01e710	-0.0317145
132	0x3d9c1a59	0.07622213
133	0x3bcb958c	0.0062128957
134	0x3d26d939	0.040734503
135	0xbd2974a0	-0.041370988
136	0x3db348c1	0.08754111
137	0xbccc8ec6	-0.024970423
138	0xbc2963a6	-0.010338699
139	0xbc4d7c0e	-0.012541784
140	0x3d0f5098	0.03498897
141	0xbd135b6e	-0.035975866
142	0xbd5b86a1	-0.05359519
143	0x3cacbda0	0.021086514
144	0xbcb99607	-0.022654546
145	0x3c2319f8	0.009954922
146	0xbd68aacf	-0.05680352
147	0xbda35a55	-0.07976214
148	0xbced33b8	-0.028955325
149	0xbd882fbc	-0.066497296
150	0xbd981546	-0.074259326
151	0xbd85713a	-0.06515737
152	0x3cce72f0	0.02520129
153	0x3e18e48a	0.1493093
154	0xbd6b1e11	-0.05740172
155	0xbc7c4cb9	-0.0153991515
156	0x3b4bc3d5	0.0031092067
157	0xbd298104	-0.041382805
158	0x3b809e7c	0.003925143
159	0xbcac5d56	-0.0210406
160	0x3cd4b9c8	0.025967494
161	0x3d8f6564	0.070017606
162	0x3d812c39	0.06307263
163	0xbdb9f892	-0.09080614
164	0xbbaa49d2	-0.0051967883
165	0x3d301cb7	0.042996135
166	0xbd6cd3c3	-0.05781914
167	0x3e05c9e5	0.13065298
168	0x3b4aaf6c	0.0030927313
169	0x3c50262d	0.012704414
170	0xbd4aeba3	-0.049541127
171	0xbd1d1a17	-0.03835496
172	0xbcb0feab	-0.02160581
173	0x3a15b88f	0.00057114003
174	0x3d2b2e3f	0.04179215
175	0xbdbf581f	-0.0934298
176	0x3add7db8	0.0016898429
177	0xbd68efd5	-0.056869347
178	0xbd2bf361	-0.04198015
179	0x3d6fbe8d	0.058531333
180	0xbdf5d896	-0.12004201
181	0xbdd30697	-0.10303991
182	0x3d92221d	0.07135413
183	0xbc8c3daf	-0.017119257
184	0xbd393afc	-0.045222268
185	0xbdb429cc	-0.087970346
186	0xbd35152a	-0.044209637
187	0xbd27d4ee	-0.04097455
188	0x3ca1146e	0.019663062
189	0xbd2c8ee7	-0.04212847
190	0x3c0672fd	0.008206126
191	0x3ced6b50	0.028981835
192	0xbd2a3fd5	-0.04156478
193	0x3cb6c654	0.022311367
194	0xbd0da6b8	-0.034582824
195	0xbd65862f	-0.05603617
196	0xbd327663	-0.043569934
197	0xbd1d6033	-0.03842182
198	0xbdf1d7b9	-0.11808724
199	0xbc828d6e	-0.01593658
200	0x3d140505	0.0361376
201	0x3be0619a	0.0068475725
202	0xbdc60018	-0.09667987
203	0x3d024441	0.031803373
204	0xbd0b88e2	-0.03406609
205	0xbdac7d4d	-0.08422337
206	0x3d3d5a64	0.04622878
207	0x3cdb3d10	0.026762515
208	0x3d339c16	0.043850027
209	0xbdc2d357	-0.09512966
210	0xbd8f9a57	-0.0701186
211	0x3d503452	0.050831147
212	0xbd81ff8e	-0.06347571
213	0x3d0ddc36	0.034633838
214	0xbba57d3e	-0.0050503304
215	0x3cd30141	0.025757434
216	0xbdfea5c9	-0.12433965
217	0xbd3e7cfe	-0.04650592
218	0x3cb5db4e	0.0221993
219	0xbd8ef60a	-0.06980522
220	0x3d6bb086	0.057541393
221	0xbc66273e	-0.014047442
222	0x3d52844c	0.0513957
223	0xbc49cb36	-0.012316516
224	0x3a89aa9e	0.0010503118
225	0x3dfff574	0.12497988
226	0xbddb92d0	-0.10721362
227	0x3d082eed	0.033247877
228	0xbd517968	-0.051141173
229	0x3da80abe	0.08205174
230	0xbd24f1ae	-0.040269546
231	0x3e30bfa4	0.17260605
232	0x3d322269	0.043489847
233	0x3d656d77	0.056012597
234	0xbcce0033	-0.02514658
235	0x3c899fd6	0.016799849
236	0xbde2e729	-0.110792466
237	0x3cc858ea	0.02445646
238	0xbc9ccea0	-0.019141495
239	0xbbb23228	-0.005438108
240	0xbcc595ba	-0.024119247
241	0x3d2adbde	0.041713588
242	0x3d2cdf84	0.04220535
243	0xbd9a6286	-0.07538323
244	0x3d822d5e	0.06356309
245	0xbd87bdbe	-0.06627987
246	0xbcd82343	-0.026384002
247	0x3d7ec537	0.062199797
248	0xbd2a62b3	-0.041598033
249	0xbdd13054	-0.10214296
250	0x3d5f4c2f	0.054516014
251	0xbd166a82	-0.036722668
252	0xbdbcad7d	-0.09212778
253	0xbdda6c85	-0.1066523
254	0x3c2dcf6c	0.010608535
255	0x3d9a03c1	0.07520247

layer2.6.weight f4 [10, 256]
0	0x3c3bcb28	0.01146201
1	0xbdb7f2c7	-0.08981853
2	0xbd6ce1e1	-0.057832602
3	0x3c2f643b	0.010705049
4	0xbe071728	-0.13192427
5	0x3cfe46ca	0.031039614
6	0x3c0ddbf9	0.008658403
7	0xbbe1290a	-0.0068713473
8	0x3c44e422	0.012017282
9	0x3d32c11a	0.043641187
10	0x3c706d33	0.014674473
11	0xbc311d41	-0.010810197
12	0xbd15e0cc	-0.036591336
13	0xbd35a93b	-0.044350844
14	0x3b250f80	0.002518624
15	0xbdddde76	-0.10833447
16	0xbc1bffbf	-0.009521424
17	0xbcfbe8ee	-0.030750718
18	0xbd26460a	-0.04059414
19	0xbcd637a9	-0.026149588
20	0xbc8b564b	-0.017008921
21	0xbb8f228b	-0.0043681315
22	0xba391f8f	-0.00070618925
23	0xbd725044	-0.05915858
24	0xbc319a34	-0.010839988
25	0xbd88b8b7	-0.066758566
26	0xbb287416	-0.0025703958
27	0x3d3bd27c	0.04585503
28	0x3ced3459	0.028955625
29	0x3d12b171	0.035813753
30	0x3d43ea38	0.04783079
31	0xbcc456d2	-0.02396718
32	0x3ba2ba46	0.004966053
33	0x3d177094	0.036972597
34	0x3da2bd2f	0.0794624
35	0x3d541b8c	0.051784083
36	0xbc8fef55	-0.017570177
37	0x3cd33934	0.025784113
38	0x3df6043c	0.120125264
39	0xbb19db58	-0.0023476686
40	0x3b199e55	0.002344032
41	0x3d79f361	0.06102312
42	0x3d9c5875	0.07634059
43	0x3d20972a	0.03920666
44	0x3d8c4b50	0.06850302
45	0x3dcc7055	0.09982363
46	0x3d3cb1b3	0.046067905
47	0xbd99faa8	-0.07518512
48	0xbcf3636c	-0.029710494
49	0x3c23d4a0	0.009999424
50	0xbdb7015b	-0.089358054
51	0x3da0d75e	0.07853578
52	0x3cef3070	0.029197901
53	0xbd69c79c	-0.057075128
54	0xbd34df31	-0.044158164
55	0xbc115c6f	-0.008872136
56	0x3dcbc10c	0.0994893
57	0x3dcb50e3	0.09927537
58	0x3ce4e066	0.027939033
59	0xbd115465	-0.035480876
60	0xbd997246	-0.07492499
61	0x3cb6adbe	0.022299644
62	0x3d4342fe	0.04767131
63	0x3d8f2a45	0.06990484
64	0xbd040408	-0.032230407
65	0x3daf0b7c	0.08547112
66	0x3c447ee7	0.0119931465
67	0x3c37ee58	0.011226259
68	0x3bb1c256	0.005424778
69	0x3cf3004b	0.029663226
70	0xbc5c6ca2	-0.013453634
71	0xbc95f5c5	-0.018305669
72	0xbd7020b3	-0.058624934
73	0x3c8e95bb	0.017405381
74	0x3c543520	0.012952119
75	0x3dcd1152	0.10013069
76	0x3d82d262	0.063877836
77	0x3dd9cd63	0.106348775
78	0xbd17e518	-0.037083715
79	0x3c7dfe9e	0.0155026
80	0xbd298816	-0.041389547
81	0xbd18a464	-0.03726615
82	0x3d759695	0.05995806
83	0xbcbdcd48	-0.023169175
84	0xbc45a36c	-0.012062889
85	0x3d2fd35c	0.042926177
86	0xbdf25872	-0.11833276
87	0x3c73f2b2	0.014889406
88	0x3df75e68	0.120785534
89	0x3d2890ee	0.04115384
90	0xbc9ecc7c	-0.019384615
91	0x3cccb4cd	0.024988556
92	0x3c4c3397	0.012463472
93	0xbccc6335	-0.02494965
94	0x3d450cd4	0.048107937
95	0xbd94e07f	-0.07269382
96	0x3da00319	0.07813091
97	0x3d846550	0.06464636
98	0xbbfaa35b	-0.007648868
99	0xbdcd721e	-0.10031532
100	0xbd1553d4	-0.036456898
101	0x3dd0f8a7	0.10203677
102	0xbd369652	-0.04457695
103	0xbdb95e66	-0.09051208
104	0x3cac2dd3	0.021017944
105	0xbc8a1f69	-0.01686068
106	0x3d208518	0.039189428
107	0xbd1925a4	-0.037389413
108	0xbd04b7c5	-0.03240182
109	0x3d3c05c8	0.04590395
110	0x3d4fb8a1	0.050713185
111	0xbc1cb41e	-0.009564428
112	0x3d4446c9	0.04791907
113	0xb8abd8e1	-8.194312e-05
114	0x3c354416	0.011063596
115	0xbd031b5e	-0.03200852
116	0xbcb27682	-0.021785025
117	0x3cb03c83	0.02151323
118	0x3d1503f4	0.036380723
119	0x3bb1b3ef	0.005423061
120	0x3c1e8895	0.009676118
121	0xbd68a377	-0.056796517
122	0x3c08141d	0.008305577
123	0xbcc8161f	-0.02442461
124	0xb9a9bead	-0.00032376256
125	0x3db60ca8	0.08889133
126	0xbc849fa6	-0.016189408
127	0x3d041285	0.032244224
128	0xbd22083b	-0.03955863
129	0x3d94c91e	0.072649226
130	0xbcf59151	-0.029976519
131	0x3c9a4aa5	0.018834421
132	0x3d52f8fe	0.05150699
133	0xbd4f6664	-0.050634757
134	0x3d487818	0.048942655
135	0xbcc5f6df	-0.024165569
136	0xbd4b227b	-0.04959343
137	0xbd160319	-0.036624048
138	0x3c3907fb	0.011293407
139	0xbc41e5c7	-0.011834568
140	0x3d4125f5	0.04715534
141	0x3df86e77	0.121304445
142	0xbce69349	-0.028146403
143	0x3cdd8bc0	0.027044177
144	0x3dbe4332	0.0929016
145	0xbd4ed31e	-0.050494306
146	0xbcb56e1c	-0.02214723
147	0xbd48c3df	-0.049014922
148	0x3d434980	0.047677517
149	0x3d08c287	0.03338864
150	0x3d054dbf	0.032544848
151	0xbd5bb0da	-0.053635456
152	0xbd3b29a0	-0.045693994
153	0x3c809d21	0.015699925
154	0xbd25d1a2	-0.040483125
155	0xbcef0a21	-0.029179635
156	0xbdb3f1e9	-0.08786375
157	0xba7cbc65	-0.000964111
158	0x3ca72661	0.020404043
159	0x3cbff420	0.023431838
160	0xbcf06df8	-0.029349312
161	0xbd0204d0	-0.03174287
162	0x3d0e8319	0.034792993
163	0x3d8b8e5a	0.06814261
164	0xbdf0bba2	-0.11754538
165	0x3d0beef0	0.034163415
166	0xbcdc044f	-0.026857523
167	0x3d47a878	0.04874465
168	0xbcc417e5	-0.023937175
169	0xbdd85e78	-0.105648935
170	0x3c807b4d	0.015683794
171	0x3d7e215c	0.062043533
172	0x3d3bc501	0.045842174
173	0x3d518550	0.051152527
174	0xbd7ea5ce	-0.062169842
175	0x3bb81098	0.0056172125
176	0xbdaf6ffa	-0.0856628
177	0xbc26d0ff	-0.0101816645
178	0x3ce59aff	0.02802801
179	0x3ce7fb62	0.02831811
180	0xbbec09a5	-0.007203298
181	0xbccc5542	-0.024942998
182	0x3c0614ff	0.008183717
183	0xbc7b7d65	-0.015349721
184	0x3d2a9970	0.041650236
185	0xbb3c37a4	-0.0028719688
186	0x3cc4752e	0.023981657
187	0xbbcf0797	-0.0063180435
188	0xbda6c7f4	-0.08143607
189	0x3cdc08ef	0.026859729
190	0x3d8133ee	0.06308733
191	0xbd4b5d97	-0.0496498
192	0x3c82bbd4	0.015958704
193	0x3d49ecb8	0.04929802
194	0x3d37575a	0.04476104
195	0x3d747841	0.059684996
196	0xbc1817df	-0.009283035
197	0xbce64a51	-0.028111609
198	0xbcd7de37	-0.026351077
199	0xbd71de54	-0.05904992
200	0x3cb4d18e	0.02207258
201	0x3d53d437	0.051716056
202	0x3b83201f	0.004001632
203	0x3cffdc6f	0.03123304
204	0x3d50c92a	0.050973095
205	0xbda881bc	-0.0822787
206	0xbd78a17e	-0.060700886
207	0x3cfd409b	0.030914595
208	0x3c25ef97	0.010127923
209	0x3d630558	0.055425018
210	0xbd953382	-0.07285215
211	0x3d118905	0.035531063
212	0xbd8aa503	-0.06769755
213	0x3da0ee19	0.078579135
214	0x3cf92bca	0.030416388
215	0x3d6cf0df	0.0578469
216	0x3c225209	0.009907254
217	0xbd7dc2a3	-0.0619532
218	0xbd6b6964	-0.057473555
219	0x3c56ed97	0.013118169
220	0x3d1c315d	0.038133014
221	0x3d48d2e0	0.04902923
222	0xbd83ea13	-0.064411305
223	0xbab75738	-0.0013987785
224	0xbc89a96d	-0.016804421
225	0x3c2d1a4e	0.010565354
226	0xbd92a007	-0.07159429
227	0xbc9ff009	-0.019523637
228	0x3b0a24c4	0.0021079043
229	0x3cf231cc	0.02956476
230	0xbdd4e595	-0.10395352
231	0x3d07be35	0.03314038
232	0xbd37342f	-0.0447275
233	0x3cf28fdf	0.029609619
234	0x3d30baf7	0.043147054
235	0x3d06d8fd	0.03292178
236	0xba9ff4fd	-0.001220375
237	0x3c66fe1e	0.014098672
238	0x3dbd2aed	0.09236703
239	0x3cf17b0c	0.029477619
240	0xba5514c8	-0.0008128402
241	0x3db2701e	0.08712791
242	0x3d21cf44	0.039504305
243	0xbc2da922	-0.010599406
244	0x3c0b00a9	0.008484044
245	0x3cf682ec	0.030091725
246	0x3c985d42	0.018599156
247	0xbc62960e	-0.013829721
248	0x3d36f626	0.04466834
249	0x3bd9e81c	0.006649984
250	0xbbcec1c5	-0.00630972
251	0x3d2361d8	0.039888233
252	0x3cbd44e6	0.023104142
253	0xbb0fabf0	-0.002192255
254	0xbd84b672	-0.06480111
255	0x3dc8611c	0.09784147

layer2.6.bias f4 [10]
0	0xbc8bdfc6	-0.017074477
1	0xbd8cae47	-0.06869178
2	0xbf0b774c	-0.5447891
3	0xbda863a3	-0.08222129
4	0xbe46d66a	-0.1941773
5	0xbc87f300	-0.016595364
6	0xbe3886a9	-0.18020119
7	0x3d57d584	0.05269386
8	0xbd5f1ec2	-0.054472692
9	0xbd037ab2	-0.032099433
