Saved_data_files/bpi/lr_all_variants/binary/EventPredictor_parameters_binary_0.001.pt (torch, 280583 bytes, 8 tensors)

layer1.weight f4 [4, 1]
00000000: 2dfe b63f 41be 023f 68b9 c03f 900e 1940
1.4296318 0.51071554 1.5056581 2.3915138

layer1.bias f4 [6]
00000000: 3a72 c93e a06c 2a3f 0255 ecbf d1bd d6be
00000010: 4225 e4bf ffad 88bf
0.3934496 0.66572 -1.8463442 -0.41941693 -1.782387 -1.0678099

layer2.1.weight f4 [256, 6]
00000000: 42f8 233f 8fc6 11bd f707 013f e2b6 2c3f
00000010: bee3 523f 6ee8 9a3f 50b6 78be f249 1d3f
00000020: d55c 8abf 8a87 51be 62aa ea3d ee22 0fbd
00000030: 58b4 9fbe 59b5 273f ecb4 30bf f29f d53e
00000040: ca98 71bf cafc 83be 88bf 7dbe 880f 213f
00000050: c676 53bf 14b5 0dbf f72f c0bf 58d7 b8bf
00000060: d94c cebe 62c1 fdbe 3af7 b83f 1180 d6bf
00000070: 6f4c 413f 2f69 5abf af43 d83d 70d5 babe
00000080: 6070 28bd f47b 6d3f a68b 3f3f 317b 773f
00000090: bafe 92be 1ddf e73e 848d fdbf d1d8 a73f
000000a0: 6ec1 e43e c341 863f a9f7 d1bd 525e 15bf
000000b0: e61f 973f 90fd b73f f95f 653f 1d74 9a3e
000000c0: 8a2b fdbe ab0f 8f3e c4f9 64bf 21ec 6f3f
000000d0: f2f2 363f 7daf 28be bc91 9dbe 0523 82be
000000e0: 5fb9 c73e c113 b93e b6d8 7a3f c420 093f
000000f0: 7897 353f 8daa 413e e658 58bf 6b36 c4bf
00000100: 9dc8 88bf c9f9 bfbf 0d69 213f b942 4b3f
00000110: 4e4e 77bf 610d 2bbf a784 90bf aa1b d7bf
00000120: 6e13 35bf ae1e ebbe c750 c63f 0cc7 d03e
00000130: ccfe bc3f b1c9 cb3f be32 a9be ccd8 ce3e
00000140: 394f 4cbf 54d3 c13e 102c fbbe 2aa6 c7be
00000150: 240f 613e 1345 273e 57e2 06be 9b2a cdbe
00000160: ecd1 0bbf 810f 5bbf 1bd1 d7be 021f 3e3f
00000170: aed2 d9bf 5078 20bf cc1f 8e3c 99b6 0abe
00000180: 0a34 123f 262b dbbe a8c7 883e caf6 babf
00000190: 69aa 0bc0 07d4 98bf a7a5 91be 6175 3c3c
000001a0: e359 5d3e 64d5 893f 0599 b23e 3031 523f
000001b0: b87e c5be 5758 ba3e 9f16 e23d f686 6a3f
000001c0: fdba 6bbf a067 d93e 9f00 003f af63 75be
000001d0: caf4 c3bf 8b70 53bf 5c72 7dbf 2c52 b9bf
000001e0: a974 b2be 141b d6be 335f b53f 0a28 1a40
000001f0: 7589 e93f b361 3240 5dbc d7bd d267 b73e
00000200: d9e0 cdbf ca46 16bf 02f6 38bf ebbe 8fbf
00000210: a07d dc3e 0b2e a93e bad4 cbbf 8738 9fbf
00000220: 8ad9 f8bf 8cf9 1ac0 58c2 3bbd 4754 163f
00000230: c099 84bf f619 2abf 4d0e 2dbf 33a6 8bbf
00000240: a1fa db3e 7f50 153e a25a 0fbf f829 33bf
00000250: aed7 8fbf 43f6 a0be 5d96 d3bd b2c9 99bf
00000260: a0f7 6c3f a23b 733e a80c e13f 245b 963f
00000270: 80ec 6a3e 2eae fb3e 268d e43e e8a4 9fbf
00000280: 7904 fdbf 66e0 d2bf 45e1 adbe dd49 44bf
00000290: bff7 043f 46e2 ba3f 05e9 f33f 54d6 d43f
000002a0: ba96 ddbe 8fb3 113f 86fb 303f 621a ae3f
000002b0: 30ab e23f 710f 5b3f b974 85be c23c 7c3f
000002c0: 06ca 4bbf 7630 4abf ec77 c6bf fc59 1ac0
000002d0: 4894 10bf 2247 78be 80f3 ff3f 8e20 c43f
000002e0: 4065 ef3f 5e6d c33f b5cc 263f 4c46 5ebe
000002f0: edd0 79bf 465f cbbf e281 c3bf 11e8 dcbf
00000300: 172b 3fbf e74d 823c af6e d8be 6066 d33e
00000310: f58e 5ebe 4dae ddbe 2ce7 22bf 57e6 08bf
00000320: c77d 293f d8ec 8a3f 27e7 8d3f 45b0 a93f
00000330: a749 52bd f41e 0c3e 477c aabe 6487 873e
00000340: b60c 973f d68d b6bf 66de a53e 4598 43bf
00000350: e900 94be c54e a83d c95a 56bf 273b 0ac0
00000360: 4058 8f3e 7e4c c23e 5720 b9bf 4b49 33bf
00000370: 9918 eabf 8911 82bf aaa2 d4be d792 283f
00000380: 246e 463f 8b15 8e3f a61d 923f 1360 a63f
00000390: 04ae c2be 3df2 07be 5755 57c0 4c61 73bd
000003a0: 2cc4 d0bf e8a7 6ebe f4a7 c9be dbb2 7f3e
000003b0: f725 a23f 3aa7 de3f 89ae 333f 35e8 0f3f
000003c0: d71c a83e 41ff 8f3e 2dc3 823f 3fd2 5cbb
000003d0: ffb1 b6bf 3360 e73e 1fe0 45be 2959 e13e
000003e0: 8e3c 3cbf d41a 0040 3440 2fc0 10a8 8d3f
000003f0: b3d5 493e 0205 13bf 89af 84be ba9e 903f
0.64050686 -0.03558975 0.5040278 0.6746656 0.82378757 1.2102182 -0.24288297 0.61440957
-1.080958 -0.2046186 0.11458279 -0.03494542 -0.3119228 0.6551109 -0.69026065 0.4172359
-0.9437376 -0.257788 -0.24780095 0.62914324 -0.8260311 -0.5535443 -1.5014638 -1.4440718
-0.40293005 -0.49561602 1.4450448 -1.6757833 0.75507253 -0.8531675 0.105597846 -0.36490965
-0.041122794 0.9276726 0.7482246 0.9667235 -0.28709966 0.4528741 -1.9808812 1.3113042
0.44678825 1.0488819 -0.102523156 -0.58347046 1.180661 1.4374256 0.8959957 0.30166712
-0.4944728 0.2794164 -0.8944361 0.9371968 0.71464455 -0.16473193 -0.3077525 -0.25417343
0.39008614 0.36147884 0.97986925 0.5356562 0.7093425 0.18912716 -0.8451065 -1.5329107
-1.0686222 -1.4998103 0.6305092 0.79398686 -0.9660386 -0.6681729 -1.1290482 -1.6805317
-0.7073277 -0.45921844 1.5493401 0.4077686 1.4765258 1.5920926 -0.33046526 0.40399778
-0.79808384 0.37856543 -0.49057055 -0.3899396 0.21978432 0.16334943 -0.1317228 -0.40071568
-0.5461719 -0.8557053 -0.42151722 0.74266064 -1.7017419 -0.6268358 0.017349146 -0.13546218
0.57110655 -0.42806357 0.26714826 -1.4606564 -2.182276 -1.1939706 -0.28446695 0.011502595
0.2161632 1.0768247 0.3488237 0.82106304 -0.3857324 0.36395523 0.11039471 0.91612184
-0.92082196 0.42461872 0.5000095 -0.23963808 -1.5309079 -0.825936 -0.99002624 -1.4478202
-0.3485463 -0.41817534 1.4169677 2.4086938 1.8245074 2.787213 -0.10533974 0.35821396
-1.6084243 -0.58701766 -0.7225038 -1.1230139 0.43064594 0.3304294 -1.5924294 -1.2439126
-1.9441388 -2.4214811 -0.045839638 0.5872235 -1.0359421 -0.66445863 -0.67599946 -1.0910095
0.42964652 0.14581488 -0.5599767 -0.69985914 -1.1237695 -0.31437883 -0.10331414 -1.2014678
0.92565346 0.23753217 1.7581987 1.1746564 0.2294178 0.49156326 0.44638938 -1.24722
-1.976699 -1.6474731 -0.3396093 -0.76675206 0.5194053 1.4600303 1.9055487 1.6627908
-0.43279058 0.5691461 0.69133794 1.3601801 1.7708492 0.85570437 -0.26065615 0.9853021
-0.7960514 -0.78980196 -1.5505347 -2.4117422 -0.5647626 -0.24245885 1.9996185 1.5322435
1.8702774 1.5267751 0.6515611 -0.21706504 -0.9758442 -1.588845 -1.5274012 -1.7258321
-0.74675125 0.015906287 -0.42271945 0.41289043 -0.21734221 -0.43297043 -0.6363399 -0.5347647
0.66207546 1.0853529 1.1086167 1.3256918 -0.05133977 0.13683683 -0.3329794 0.26470482
1.1800754 -1.4262035 0.3239624 -0.7640422 -0.28906944 0.08218149 -0.8373228 -2.1598604
0.27997017 0.37948984 -1.4462994 -0.7003371 -1.8288757 -1.0161601 -0.41530353 0.6584906
0.7751181 1.1100324 1.1415298 1.299807 -0.38023388 -0.13276 -3.3645837 -0.05941896
-1.6309867 -0.23306239 -0.3938595 0.24970572 1.2667836 1.7394783 0.70188195 0.56213695
0.32834503 0.2812443 1.0215813 -0.0033694652 -1.427307 0.45190582 -0.19323777 0.44013336
-0.735299 2.0016375 -2.7382936 1.1066914 0.19710426 -0.57429516 -0.25915173 1.129844

layer2.1.bias f4 [256]
00000000: ee02 7c3e b062 a4be 9119 d4be f889 87bf
00000010: b50c 53c0 db02 dcbf c28c b93f 36bf 41bf
00000020: 14e3 86be 41c2 05bf 14eb 833f 7119 d33e
00000030: b3e1 06bf af33 383e 4d8b 99be e037 cf3f
00000040: 338d 77be 9911 42c0 5319 033d fe40 b63e
00000050: fc03 e0be 6ba7 723e c93a 3cbe 8df0 6abf
00000060: 0f4e 013f 6d77 0abf 4b86 06bc 11d7 c9be
00000070: 235e 95be 1e42 af3d cef3 76be b5dc 913d
00000080: 2972 8e3f 3b85 f5bf ac94 5dbf 1f6a edbe
00000090: 1abf 2640 c8b0 4bbf 09c1 913f dd2f b73e
000000a0: c231 cb3f 30b3 123f 8bda 703f 3a73 91bf
000000b0: 1767 fd3f e764 a9be cd46 923e cf2b c0bf
000000c0: cd23 283e 1b66 29c0 132c 01bf ddae 85bf
000000d0: 37d4 b2bd b5ca 14be c4a5 ad3e 434e 863e
000000e0: d9a1 cdbd 01e6 bebf 4193 cd3e a9d0 c93f
000000f0: 3c79 d4bf c21f 9dbf 0536 0fbe 1085 cfbf
00000100: aa78 41bf f551 12c0 cbbf 503f 7a2b fdbe
00000110: 0cec af3f 9a0b 65bf c7b4 fc3d e566 b3be
00000120: 11ab 0b40 0ddd d5bf 37fe d3bf 4fe4 85be
00000130: e324 06c0 4480 ad3e a6e7 c6bf a4ca 423c
00000140: 71aa 203f b244 e03e 6227 1dbf 08e0 ad3f
00000150: b589 f53f 90e9 883f fb27 50bf 7cb4 98bf
00000160: 9b6e cc3f 363d 0a40 7a6b e6be 955b e33e
00000170: cbc9 dcbe fdf5 7ebd cb21 d7bd d8ea b6bf
00000180: 5733 b23e 3bbb 943f cc9e 073f b214 1d40
00000190: ebe2 41bf 3b5e af3e e8af cc3e a1d4 adbf
000001a0: 0391 6f3f d43f 36bf ee6e 41bf b67e a0be
000001b0: 3e13 493f 1c1e d23f c70e dcbf 0ca4 d7bf
000001c0: 141a c7be eee7 02bf 539c 88be f2dc 8f3f
000001d0: 7541 023f cefc babe 8c49 b3be 98e0 f5be
000001e0: d916 243e fe58 703e 9c18 8ebe f612 89bf
000001f0: 960f 08c0 dd5f 123f fd9b 90bf 40e9 14be
00000200: 30a6 273f 645f d13f 483a 593e d58c e53f
00000210: 89d0 7040 2819 d63f 861e c7bf 7a7f 093f
00000220: 97f2 b1bd a684 8e3f 3c36 923e 9125 0cbf
00000230: 279c 723f 3b3c d33f ab00 2c3f 76e3 0a3f
00000240: 8a5e 9c3e 85b6 b13e 770b 3abf 9438 fbbf
00000250: d2c0 6bbf 3837 0c40 4d18 f4bf fd56 f2be
00000260: 47b8 983f f15b 8cbf 1cc3 1d40 453f c4bf
00000270: f458 8bbe 3b99 bf3e ce72 bc3f 6d8f 823f
00000280: 2807 90bf 0e1f f03f 34c8 a0bf aa2e cb3f
00000290: b47a 70bf 491d f2be c2da 583f e778 d53f
000002a0: cb44 1ebf 829b f33e ceae b93f 9d1c 08be
000002b0: aa5e a43f e03b 24bc 7abd b43f 9d1c c4bf
000002c0: edcd 8dbf 911c 79be 830c 4dbf e2aa e63d
000002d0: 48e3 193f 4887 533f e8d4 a7be 3006 86bd
000002e0: bc60 20bf 6fe9 593f 2c28 cabf 3813 563f
000002f0: 2c6b 103f f281 edbf 6956 8fbf 2398 d6bc
00000300: 44c7 0040 c56c 81bd c841 8c3e 7da4 27c0
00000310: d376 04bf 1364 863f cef1 dc3f 6069 3b3f
00000320: fae1 0a40 231a 773f 19f7 993f 64da dbbf
00000330: 34e7 4c40 2400 7fbe ab51 0bc0 a7d8 4fbf
00000340: d7c4 93be bf9d 8d3e cbb9 99bf e142 70bf
00000350: f2bd 9a3f 000e 06bf 1864 38bf 2c6b ac3f
00000360: b6bd 75bf 096e a8be ebd6 1dbf a01e 893f
00000370: 3006 613e 471f c0bf a309 54bf 9029 973f
00000380: 7f40 323e 7357 5e3f 2bb4 a73f 9fa0 7ebf
00000390: 8328 5a3e bde3 c2be 3e56 f6bf 0cd4 f2be
000003a0: b17d 073f aa23 6b3f f3af 8bbf d14b 223e
000003b0: 0aa8 dd3d b828 5e3f 2b3f 05c0 7666 023f
000003c0: e42f 2d3f c6a8 0cc0 7103 7b3e 9c50 97be
000003d0: 6285 80bf 78da 4f3f e405 cb3f a187 033f
000003e0: 2fec 433e 493e 913d 8ef7 4640 c65e 76bf
000003f0: 25a9 aa3f c1dc c03f 7976 ac3d d03e 703f
0.24610493 -0.32106543 -0.41425756 -1.058898 -3.2976506 -1.7188371 1.4496081 -0.7568239
-0.26345122 -0.5224953 1.0306115 0.41230348 -0.5268814 0.17988466 -0.2998909 1.6188927
-0.24174957 -3.032324 0.032006573 0.3559646 -0.4375304 0.23696677 -0.183818 -0.917733
0.5050973 -0.5408848 -0.008210729 -0.39421895 -0.29173383 0.08557533 -0.24116442 0.07122175
1.1128589 -1.9181284 -0.8655498 -0.46370026 2.605414 -0.7956662 1.1387035 0.35778704
1.587456 0.5730467 0.9408347 -1.1363289 1.9797086 -0.33084795 0.28569642 -1.5013369
0.16419907 -2.646857 -0.50457877 -1.0443989 -0.08731883 -0.14530452 0.33915532 0.26231584
-0.100406356 -1.4913942 0.40151408 1.5766803 -1.6599498 -1.2275317 -0.1398545 -1.6212482
-0.75574744 -2.2862523 0.8154265 -0.49447232 1.3743911 -0.8947083 0.12339168 -0.3503944
2.182316 -1.6708084 -1.6561955 -0.26150748 -2.0960014 0.3388692 -1.5539443 0.011889134
0.6276007 0.4380241 -0.6138822 1.3583994 1.918265 1.0696278 -0.81311005 -1.193008
1.5971254 2.159986 -0.45003873 0.4440581 -0.43122706 -0.06224631 -0.10504492 -1.4290419
0.34804794 1.1619638 0.5297668 2.4543881 -0.75736874 0.3425158 0.39977956 -1.3580514
0.93580645 -0.71191144 -0.7555989 -0.31346673 0.78544986 1.6415439 -1.719201 -1.6846938
-0.38887084 -0.51135147 -0.26681766 1.1239302 0.5088113 -0.36521 -0.3501705 -0.48022914
0.1602434 0.23471448 -0.2775315 -1.0708911 -2.1259513 0.57177526 -1.1297604 -0.14542103
0.65487957 1.6357236 0.21213639 1.7933604 3.762728 1.6726427 -1.555619 0.5371014
-0.086888485 1.1134231 0.28557003 -0.5474482 0.9476952 1.6502756 0.6718852 0.5425333
0.30540878 0.34709564 -0.72673744 -1.9626641 -0.92091095 2.1908703 -1.9069916 -0.47331992
1.1931237 -1.0965558 2.4650335 -1.5331808 -0.27216303 0.37421593 1.4722536 1.020002
-1.1252184 1.8759477 -1.2561097 1.5873616 -0.9393723 -0.47287968 0.847088 1.6677521
-0.6182372 0.4757958 1.4506471 -0.13292165 1.2841389 -0.010024041 1.4120324 -1.5321232
-1.1078469 -0.24327303 -0.80097216 0.11263062 0.6011243 0.826283 -0.32779622 -0.06544149
-0.62647605 0.85121816 -1.579351 0.83623075 0.5641353 -1.8555281 -1.1198245 -0.026195591
2.0121622 -0.06319574 0.27393937 -2.6194146 -0.5174381 1.049929 1.7261293 0.73207664
2.1700425 0.96524256 1.2028533 -1.7176023 3.2016115 -0.24902397 -2.1768596 -0.8118996
-0.28861114 0.27659413 -1.2009825 -0.9385205 1.2089217 -0.5236511 -0.7202773 1.3470206
-0.959926 -0.3289645 -0.61656064 1.0712471 0.21975017 -1.5009545 -0.82827204 1.1809559
0.17407416 0.86852187 1.3101858 -0.9946384 0.21304516 -0.38064376 -1.9245069 -0.47427404
0.52926165 0.91851294 -1.091307 0.15849234 0.108230665 0.8678088 -2.0819805 0.50937593
0.676512 -2.197801 0.24513032 -0.29553688 -1.0040705 0.8119273 1.5861173 0.5137883
0.19133066 0.07091958 3.1088595 -0.9623836 1.3332869 1.5067369 0.08421034 0.93845844

layer2.3.weight f4 [256, 256]
00000000: b82c fd3d a6eb 20bf d600 c83d 12f5 953f
00000010: 235f 363e e302 96bf f31b d23f 9832 12bf
00000020: 70a1 5dbf 965f 513f 68e2 02bf 9198 acbf
00000030: d8d6 283f 011e c3be abc6 86bf 846e c13f
00000040: dbfb cb3e 381a 583f 4e4a 993f 3e21 f43f
00000050: 70cf 7abf 24df a2be 20db 833e c625 9dbf
00000060: c2d2 18bf 2dc9 aebf 4d76 cc3f 4792 11bf
00000070: 7477 a9bf ab9f 4e3e bd6c 26bf c763 4f3f
00000080: 6927 b6be ad2e a13f 823f 1140 8810 a4bf
00000090: eb8c c43e c829 abbf 14b0 823f c662 bdbe
000000a0: 87ee 03bf f046 efbe 4e9b 433f 5816 91bd
000000b0: e919 733d e1f2 bdbe f69a 8fbf 628d 88be
000000c0: 00d7 fb3f 089c 88bd b697 cfbf e9b1 bb3f
000000d0: b8a4 953f a5a0 85bf f007 c0bf 23be 9bbf
000000e0: 728e 2abe 80d1 66bf f226 3a40 0f63 5b3e
000000f0: 1889 abbe d2e8 87bf 5cab 963f a5bd 1e3e
00000100: 9d90 a43b 0ddf 263f 758a cabe 0045 c8bf
00000110: 542d 0c40 c699 473f 41d1 2c3f 67f7 1d3f
00000120: 3ad2 9fbf 03a7 843f 4c83 823f 8ef2 e7be
00000130: 447a d03e 7886 e33e 8fc4 183f f7e9 e63f
00000140: 16ef 1140 2e3e 8d3e 219e b1bf 364e 753d
00000150: 8c43 9d3f f4ba 16bf 3b22 b6be 16e2 3a3f
00000160: 7662 ea3d 4fb8 32bf 5759 c73e 5dc0 f0be
00000170: 6296 eabe c806 9b3f f159 20be 77e9 bc3e
00000180: a6bf 563f 22a8 75bd 61f0 f9bf b346 9e3f
00000190: 8b35 2f3f 79c6 d03e 1ebe d73f 7347 b3be
000001a0: c455 303e ca90 7d3f 85cb 20bf d361 1fbf
000001b0: 5d22 0b3f 11b4 08bf 71ea 653d b160 a2be
000001c0: f9ab cc3e 8da1 ddbf 6b0e bfbf 35b5 bfbe
000001d0: 961b cc3e 2481 41bf 7894 0640 35ad 1b3f
000001e0: 674a 323f 8588 623d e1c6 553e 70ca 353f
000001f0: 30c2 e53e 7c52 933f f708 f7bf c70a bebf
00000200: 4f4a 82bf 6a97 9ebe 73fe c53e 30c4 d93e
00000210: 2541 42bf 2954 b33f 3cc5 26bf 9c03 823f
00000220: e8c6 03c0 264a c83e e2c9 6ebf 2326 0f3e
00000230: ec67 ebbd 9a38 933f 6289 173d 9a69 dbbe
00000240: 8838 cabf 69bc d23e 5cec 243e 5960 8b3f
00000250: b9b1 0b3f e896 ec3e 8bc3 cabe 28e0 7dbf
00000260: 78fc f4bc f254 f73d f90d a63e 4238 3cbf
00000270: ee6b 20bf c644 a13e 7023 c33d fc7e 6b3e
00000280: cbb1 3cbf dc72 523f 97e6 1abf d2e6 63be
00000290: 08e0 b03e 4ebe d23e 3cba 67bf 36c6 aa3e
000002a0: b8cd 58bf 6c57 1d3f 731c 7cbe 596b 1fbf
000002b0: c66d 0040 f583 3a3e 6020 bc3f 9b34 5bbf
000002c0: 559e 093f 9da3 d63e 99ae 90bf 510d adbe
000002d0: e41f e23f 2328 85be 5edd 283f 060b 3c3f
000002e0: de27 663f e6d3 d63a 79e1 8fbd 1689 6fbf
000002f0: a091 b0bf fec2 ed3e 07a7 9a3e 4d49 493e
00000300: f56c 213e b1a9 d4be 1647 7a3f 1f5a b43e
00000310: b8c6 a7bf 3be8 0cbe f48f aa3e f1a9 47bf
00000320: e75d 9a3e 040e 61bf 4fac 78bf e43a ab3f
00000330: 7b49 88be 979e 143f fd7f 163f be35 37bf
00000340: e367 fcbe 5139 44bd db97 d7bf 63ac 153e
00000350: a3b1 e9be c46c a43d a905 1abf 90d5 3abf
00000360: b610 a7bf 3138 88bf 0bda 7bbf a153 7d3e
00000370: 9c74 98bf f1fc df3d 27c6 193e 5a52 aabf
00000380: 8ed6 8a3f e967 683e 027d a2be 7191 883e
00000390: 19c9 203e 233a 03bd 951c 8fbd e9f6 ea3e
000003a0: 0808 863e bdca 463e ea3d a3bf 1176 333f
000003b0: f23b 9dbf 3116 993f e1ab b53d ec53 303e
000003c0: 21d5 f6bc f141 f8bf f331 a8be e51f 47bf
000003d0: d70c f23e 0545 ca3e f8fb 5e3f 0dac cdbe
000003e0: b053 c5bf fb0e 413f 72fa 8cbe 466c f4bf
000003f0: d8e8 7e3e 8c1b 6dbf 716b 7abf dce4 9e3e
0.12362045 -0.6285957 0.097657844 1.1715415 0.1780973 -1.1719631 1.641478 -0.5710845
-0.8657446 0.8178648 -0.5112672 -1.348406 0.65952826 -0.3810883 -1.0529379 1.5111852
0.39840588 0.84415007 1.1975801 1.9072645 -0.97972775 -0.31810868 0.25753117 -1.2277153
-0.5969659 -1.3655144 1.5973603 -0.56863827 -1.3239579 0.20178096 -0.6500967 0.81011623
-0.35576943 1.2592369 2.2695012 -1.2817545 0.38388762 -1.3372126 1.0209985 -0.3698942
-0.5153584 -0.4673381 0.7640885 -0.0708434 0.05935088 -0.37099364 -1.1219165 -0.26670367
1.9674988 -0.066703856 -1.6218174 1.4663669 1.1690893 -1.043965 -1.5002422 -1.21674
-0.16655901 -0.9016342 2.908627 0.21424507 -0.33503032 -1.0617926 1.1771045 0.15502031
0.005022122 0.651841 -0.3955876 -1.5646057 2.1902666 0.77969015 0.67506796 0.6170563
-1.2486031 1.0363468 1.0196319 -0.45302242 0.4071828 0.4443853 0.59674925 1.804015
2.2802176 0.27586502 -1.3876382 0.05988904 1.2286239 -0.5887902 -0.3557299 0.7300123
0.11444561 -0.6981248 0.38935348 -0.47021762 -0.45817858 1.2111444 -0.1565931 0.3689687
0.8388618 -0.059974797 -1.9526483 1.2365326 0.68441075 0.40776423 1.6854894 -0.3501545
0.17220217 0.99049056 -0.62810546 -0.6225864 0.5434931 -0.5339976 0.056131784 -0.31714395
0.39974955 -1.7314926 -1.4926275 -0.37442937 0.39864796 -0.7558768 2.1028118 0.6081117
0.6964478 0.055305976 0.20876648 0.7101202 0.44874716 1.1509547 -1.9299611 -1.4847039
-1.0178927 -0.30974895 0.38670692 0.42532492 -0.7588065 1.4010059 -0.65144706 1.0157351
-2.0590153 0.3911907 -0.932768 0.13979392 -0.11494431 1.1501648 0.036996253 -0.42854005
-1.5798502 0.4115937 0.16105789 1.0888778 0.5456806 0.46208882 -0.39602312 -0.9917016
-0.029905543 0.12076749 0.32432535 -0.7352334 -0.6266469 0.31497782 0.095282435 0.2299766
-0.7370879 0.8220651 -0.605081 -0.2225602 0.34545922 0.41160816 -0.90518546 0.33354348
-0.846889 0.6146152 -0.24620228 -0.62273175 2.0067 0.182144 1.469738 -0.85627145
0.5375722 0.41921702 -1.1303283 -0.33799222 1.7665982 -0.26007184 0.6596278 0.7345432
0.8990458 0.0016390055 -0.07025427 -0.9356855 -1.3794441 0.4643783 0.30205557 0.19656868
0.1576422 -0.41535714 0.9776472 0.35225007 -1.3107519 -0.13760464 0.33312953 -0.77993685
0.30149767 -0.8791201 -0.9713792 1.3377347 -0.2661856 0.5805449 0.58789045 -0.7156638
-0.4929801 -0.047906224 -1.6843218 0.14616542 -0.4564334 0.08028558 -0.60164887 -0.7298212
-1.3051975 -1.0642148 -0.9837958 0.24738933 -1.1910586 0.109369166 0.15016995 -1.3306382
1.0846727 0.22695889 -0.31735998 0.26673463 0.15701713 -0.032037865 -0.069878735 0.45891502
0.26178002 0.19413276 -1.275327 0.7010203 -1.2283919 1.1959897 0.08870674 0.17219514
-0.030130925 -1.9395124 -0.32850608 -0.7778304 0.4727542 0.39505783 0.87103224 -0.40170327
-1.5416164 0.75413483 -0.27534825 -1.9095542 0.2489351 -0.9262016 -0.9782019 0.3103398

layer2.3.bias f4 [256]
00000000: e5ce f2bf 4c01 bac0 4b5e bdbf 632c 9440
00000010: 993f 443f 7533 4540 c2b4 07bf afb8 ad3f
00000020: ebd0 cf3e e98f 7ec0 48e1 c33d c713 c83f
00000030: 2604 36c0 21cd 1cbf d3b3 c23f c6d4 183d
00000040: 47dc c5c0 3fe6 0ec0 6994 8a3f ba9d c1c0
00000050: 245b a8c0 b059 3840 8441 c9bf 0ac3 f040
00000060: cd4c d2bf 7dc8 22bf 9070 b940 04bb 8ec0
00000070: d875 4ebf 0744 9bc0 f41c 84be 2164 1040
00000080: f625 4cbf 5cc2 dfbf fc57 0a40 58c7 37bf
00000090: e082 b940 faea 4fbf 1de8 3940 07cc 5140
000000a0: d72f 9f3f 69db 8b3d 7154 383f 4133 10bf
000000b0: 072e f9be c0fe 16c0 2742 36bf 742b 58bf
000000c0: 95ac bebe 2352 acbf 8f16 14bf 351a 473f
000000d0: abbb 10c0 5b3b 8fc0 b421 6b3f 49bb d2be
000000e0: a1fc 1240 07e4 21c1 6398 04bf 3685 b5bf
000000f0: be26 1540 52c7 b1bf 3dac 993e 82b1 93c0
00000100: 9a55 303f f2e1 d73f 9e12 68c0 204c 6e40
00000110: 091a 0dbe b433 c43f 1a8a 87bf 61c7 8b3f
00000120: f90e c63f da92 5ac0 9398 f93d a9b6 a83f
00000130: 8249 4d3f 3434 1d40 aa5d c7bf ffde 7ec0
00000140: 281b 1741 7d07 7ec0 3ebc 6bbf 94d4 17c1
00000150: 1854 d3bf 8654 1041 00a4 1d3f 629f 96bd
00000160: 2d7c 1c3f 637f 26c0 d169 1d40 cda7 2340
00000170: 9c81 dd3e b27e 44c0 1fa6 1ebf 27cc b93e
00000180: 8b55 503f 9db9 20bf fb98 b7c0 bf6f ec3e
00000190: ebeb 97c0 c5ab 6740 89db 92c0 0885 29bf
000001a0: 1d33 803d 80f2 ffc0 b534 4fbe fc56 a1bf
000001b0: 841d 8540 f5e2 3f40 dd78 c740 4c7e dabf
000001c0: bb16 3f40 8a81 3940 2afd 95c0 f10f dbbf
000001d0: d00b e03f 1538 b63d 284e 14c0 cb13 25c1
000001e0: 2573 72bf d691 743f 3656 5e40 c508 6440
000001f0: 45f5 393f 8e89 f8bf ec33 55be cbbe 2fc0
00000200: de07 6bbf 53de 543f b903 203f c7c4 ca40
00000210: 6b2c d2bf 7b9a a33f 1b2c 88be 9a66 cf3f
00000220: d4c7 1f3f a854 4f3e d2a8 1640 4f32 2f40
00000230: 9cf3 953f 4503 8340 4574 2641 fa97 85c0
00000240: f896 e1be 35f0 c13f 113b 03c0 c6e4 14bf
00000250: 62cd 6340 23a3 67c0 2bcf 45c0 8864 483e
00000260: 7018 ebc0 9f22 b5bf bf9f dcbf b0c8 8940
00000270: b783 1a40 5a96 b6c0 a231 833f 2e0a 44c0
00000280: 9335 2440 f408 83c0 8916 4fc0 b80d eabe
00000290: a4e8 6e40 428c 9b3f 59f1 77c0 fbb1 9ac0
000002a0: fd3b 9440 c1ba 1c40 2b14 30bf abdc 6c3e
000002b0: 30b9 8240 3044 fabe 5730 773e acaf d740
000002c0: 8160 7ac0 2985 14c0 72f1 c9bf c890 123f
000002d0: c37b 38bf d37a 62c0 1548 e13e b086 acbf
000002e0: 9b57 d2bf bb60 c7c0 cfb1 f3c0 27d8 5abf
000002f0: fb8b f640 564a 8c40 addd 0dc0 3a3e 873e
00000300: 1bc6 0641 499f 30c1 b98a 75c0 ee4c 1d3f
00000310: 0e72 d640 b885 f23f 67b3 14c0 a8d3 72c0
00000320: 51f7 1540 c3b3 3440 3512 67bf 443f e73f
00000330: c8f9 8f3f 2d62 9dbe e183 e73e 5f7d 643f
00000340: cd3d 4740 1693 543f 738d c53d a990 12c0
00000350: 61d9 afbf 8eb9 1f3e 0217 0c3f 11ed e3be
00000360: 8252 8ac0 4ab4 65be 4784 3abe 9ee2 363f
00000370: c757 37c0 cf8b e8c0 729e 3dc0 ceda fdbf
00000380: 70a2 f93f 6124 a73f febe 8d3f 4b08 c03f
00000390: 61bf a63e 3548 4a3f 0879 e7bf 751d 0040
000003a0: ab46 8ebe 6367 5840 ab39 a83f b27f c0bf
000003b0: 9e92 6040 4ff1 1bbf 1617 5dc0 4a10 8740
000003c0: 5b9f 3ebf 2d34 c240 a980 143f 0249 fd3f
000003d0: 8b50 39bd ceac e1c0 910c f040 8bd1 883f
000003e0: 7fde 3540 a2fc 6140 9479 0dc0 a3bd 85c0
000003f0: 5b65 67bd c2ad f2bf 91a7 0d41 2181 a23f
-1.8969389 -5.8126583 -1.4794401 4.6304183 0.7665954 3.0812657 -0.5301019 1.3571986
0.4058908 -3.9775336 0.09564453 1.5631036 -2.8440032 -0.612505 1.5211128 0.03731229
-6.1831393 -2.232803 1.0826541 -6.0505037 -5.2611256 2.880474 -1.5723119 7.5238085
-1.6429688 -0.6358717 5.7949905 -4.460329 -0.80648565 -4.852054 -0.2580334 2.2561114
-0.79745424 -1.7481189 2.1616201 -0.7178855 5.797226 -0.8121792 2.904792 3.2780778
1.2436475 0.068289585 0.7200385 -0.5632821 -0.4866793 -2.3592987 -0.7119469 -0.84441304
-0.37241045 -1.3462566 -0.5784692 0.77774364 -2.2614543 -4.4759955 0.918483 -0.41158512
2.2966692 -10.118171 -0.51795024 -1.4181278 2.3304896 -1.3888953 0.3001422 -4.6154184
0.6888062 1.6865828 -3.6261363 3.7233963 -0.13779463 1.5328279 -1.058902 1.0920221
1.5473319 -3.415213 0.12187304 1.3180743 0.8019029 2.4563112 -1.5575459 -3.9823606
9.44413 -3.969207 -0.9208411 -9.489399 -1.6510038 9.020636 0.6157837 -0.073546186
0.6112698 -2.601525 2.4595835 2.5571167 0.43262947 -3.0702329 -0.6197223 0.36288568
0.8138053 -0.62783223 -5.7374244 0.46179006 -4.7475486 3.619859 -4.5892987 -0.66218615
0.06259749 -7.998352 -0.2023495 -1.260467 4.159853 2.9982274 6.233504 -1.7069793
2.9857624 2.8985314 -4.687154 -1.711424 1.7503605 0.088974155 -2.3172703 -10.317332
-0.94706947 0.9553503 3.474012 3.5630352 0.72639877 -1.9416978 -0.20820588 -2.74602
-0.9180888 0.8315174 0.6250568 6.3365207 -1.6419805 1.2781519 -0.2659615 1.6203187
0.6241429 0.20247138 2.354054 2.7374456 1.1714969 4.094149 10.403386 -4.174802
-0.44060493 1.515143 -2.0504801 -0.5816158 3.5594106 -3.619332 -3.0907695 0.195696
-7.346733 -1.415119 -1.7236251 4.305748 2.4142892 -5.7058535 1.0249522 -3.0631213
2.56577 -4.094843 -3.2357504 -0.45713592 3.7329493 1.2152178 -3.8741057 -4.834226
4.632323 2.4488986 -0.68780774 0.23131053 4.085106 -0.48880148 0.24139534 6.7401943
-3.9121401 -2.3206275 -1.5776808 0.5725217 -0.72063845 -3.5387466 0.44000307 -1.3478603
-1.6432985 -6.230558 -7.615455 -0.8548607 7.7045875 4.384074 -2.216655 0.26414663
8.423366 -11.038888 -3.836592 0.6144551 6.7014227 1.8947058 -2.3234499 -3.7941685
2.34322 2.8234718 -0.90262157 1.8066182 1.1248102 -0.30738965 0.45217803 0.892538
3.113147 0.83036935 0.0964612 -2.2900794 -1.3738214 0.15598127 0.5472261 -0.44516805
-4.3225718 -0.22432056 -0.18214522 0.7143954 -2.8647325 -7.2670665 -2.9627957 -1.9832399
1.9502697 1.3057977 1.1073911 1.5002531 0.32567886 0.7901643 -1.8083811 2.001798
-0.2778829 3.3813102 1.3142599 -1.503897 3.5089488 -0.6091508 -3.454534 4.2207384
-0.7446191 6.068869 0.5800882 1.9787905 -0.045242827 -7.0523443 7.501534 1.0688947
2.841705 3.5310445 -2.2105455 -4.179399 -0.056493144 -1.8959277 8.85341 1.2695657

layer2.6.weight f4 [7, 256]
00000000: 124b 9f3e 72ab fdba baab a2bd 260e 093e
00000010: 6708 28bb 23d0 76bc d2d3 ecbd 8f58 46be
00000020: 07d3 1d3e dd58 e0bc 0b0d 06bf 79c0 0a3e
00000030: 373d 213c e249 d13e 73a8 e8bd 4019 c43e
00000040: 7a97 a63e 4bf1 b53d c2c0 503e 0e0f c53e
00000050: db9f 52be a5c4 51be 3eb0 91be 56fe d7bd
00000060: ebf7 363e 35b7 323e 2d25 1dbe 9d18 00be
00000070: 4005 86be 05f8 c73d 4e47 233c 6b6b 1ebe
00000080: 9e9e 4e3d b375 91bc bbfa d53d 75b7 353d
00000090: 3031 4fbe 50f0 a2bb 6932 05bd 9d6d 9f3d
000000a0: e2c4 063d 6a52 ef3e 90b4 75be 2bbd 473e
000000b0: 8f64 64bd cb61 0fbe a352 133f 1c5e d23e
000000c0: 4b34 c9bd 1760 6e3e aeca 203e ddf6 563e
000000d0: 1606 8dbd 6903 763e 6eb8 493e 4c1d c63e
000000e0: da3c 403d 4c20 1b3f ab90 223c f8a0 83be
000000f0: bfed e3be 12fc b6bd f217 c23d f2b1 2bbe
00000100: 7464 86bd ac8b 213e be4d 013d 07fa 9ebe
00000110: 4c4c 3e3d 183f a43e c3e2 24be 1be2 833e
00000120: ad75 67bc 21bc 893d 8d61 143e 617b 9d3e
00000130: 5f6f d3be 84ca 4ebe 4387 703c 418d e43e
00000140: 7b71 aebe 06d4 31be c405 12bf e7f2 a93e
00000150: 1fb3 2c3e dc2a 25be 332c 873e 9621 ccbd
00000160: 9f11 0b3e 71ef b53d d65b c03d 942e 31be
00000170: 9692 84bd f61a 503e b8bf dabd 8229 cfbe
00000180: 35fc 513d 140d 7a3e 0a0e ee3d 054f cdbd
00000190: e01a f53e 5035 293e 6e68 e73d af00 94bd
000001a0: 47a2 61be 28ed 753e 2cb0 723e 1142 eb3c
000001b0: 023d adbe c07b 233d 3e48 923d 200d 77bc
000001c0: 5ded a3be 08f1 d53e d6d8 36be 2af4 ffbd
000001d0: 31d1 843d beb8 743d bb23 9dbe ba16 853e
000001e0: 582f 74bd bcd2 d2bd 0a32 99be 5e91 ab3d
000001f0: 2d50 0d3e 1620 c23c 01af ab3e c0cb 993e
00000200: 46aa 11be 4978 353e 3d25 81bd 5aae c0bd
00000210: 9a32 86bd 0f46 85be 2569 573a fbe8 363e
00000220: 7046 b7bd df73 7fbe 2d3e 9ebe 412f 8c3e
00000230: 24c2 153b 52da a2bd 1e44 2bbf e317 dbbe
00000240: a9bd 173e 3ba0 31bd 3458 51be a46a c63d
00000250: 27cd cb3c ed0d e4be 9a93 9fbd b7ca 94bd
00000260: b857 763e 2902 cbbe d221 9d3e cbf4 fdbe
00000270: 9d24 b93e f8fe e63e 2c0e 7b3d 75fd fa3e
00000280: ec06 f8bd 6e90 8ebe 6945 d43d fea2 a2be
00000290: 0bbe fdbc 7726 36be c278 bb3d f9f9 1cbe
000002a0: 6dc6 eebe aeb5 4bbe ff69 11be 9bed 97bd
000002b0: afe1 74be ab79 9a3d 961b 2cbe 1683 843e
000002c0: ec28 413e 65da 443e 775c 1ebd 7bbd 8cbd
000002d0: 0630 0a3e fea5 183e cce7 48be 359e 3bbe
000002e0: 1493 ddbc d59b eabd a541 a23c 1775 b6be
000002f0: 5c58 65be acbe 29bf cfc5 76bd 925b cbbe
00000300: 690a 92be f3e8 b33e 0a28 bd3e 6d50 d83e
00000310: 50e3 2cbe 6e58 80bd 8db2 10be cdd1 84bc
00000320: d944 903e f421 8abe f158 45bb 01ff 703d
00000330: 35ec 263e 4c07 2ebe b2e4 92bd 26bb 383e
00000340: fd63 f33d ab42 863e f1d6 073e 579b 0dbe
00000350: fb86 ab3e 4588 1d3d d981 c6be 9c3b 1abc
00000360: fdb4 143f fd97 23bc 517d 8fbd a2e6 c83e
00000370: e294 0cbe 45e7 f23d d8ec bfbd 8ab5 933e
00000380: bc0e 98be 58bd 893e 3894 373e c3ba e3bd
00000390: 17b2 983e 2f06 9fbd 09b3 54bd 687b 643d
000003a0: f97d 0b3e 0e7d fdbd 8144 85be 1f62 80be
000003b0: 46d8 86be 4550 d43e 1eda b73e 8cd2 d4be
000003c0: c829 fa3d 2246 d2be a024 aabd 1427 923d
000003d0: f820 ae3d 905f 933e 09ed 24be 2f65 fe3d
000003e0: 1381 c7be 7fc6 c2be 9f62 353e 5e33 3fbe
000003f0: dc84 723e 7c97 86bd bd0e d2be 2fb3 6d3d
0.31111962 -0.0019353463 -0.079429105 0.13384303 -0.0025639774 -0.015064272 -0.11563839 -0.1936972
0.15412532 -0.027386123 -0.5236365 0.13549985 0.009841255 0.4087668 -0.11360254 0.38300514
0.32537442 0.088839136 0.20386031 0.38488048 -0.20568793 -0.2048517 -0.28454775 -0.105465576
0.1786801 0.174527 -0.15346213 -0.12509389 -0.2617588 0.09764103 0.009965731 -0.15470664
0.050444238 -0.017756319 0.10448214 0.04436441 -0.20233607 -0.004972495 -0.032518778 0.07784579
0.032902606 0.46742564 -0.2399466 0.19505756 -0.055759963 -0.14002149 0.5754797 0.41087425
-0.09824427 0.23278843 0.15702316 0.20992608 -0.068859264 0.24024738 0.1969926 0.38694227
0.046933033 0.60596156 0.009922187 -0.25708747 -0.44517323 -0.08934797 0.094772235 -0.167671
-0.06562129 0.15775937 0.03156828 -0.3105013 0.04645948 0.32079387 -0.16102128 0.25758442
-0.014127177 0.06725336 0.14490338 0.30758193 -0.41295907 -0.20194441 0.014680686 0.44639018
-0.34070954 -0.17366037 -0.5704005 0.33193132 0.16865204 -0.16129631 0.2640091 -0.099673435
0.1358094 0.088835604 0.09392516 -0.17302924 -0.064732715 0.20322785 -0.10681099 -0.40461355
0.051265914 0.24419051 0.116237715 -0.100248374 0.47872066 0.16524243 0.11299215 -0.07226693
-0.2203456 0.24016249 0.23700017 0.028718026 -0.33835608 0.03991294 0.07142685 -0.015078813
-0.3201703 0.41785455 -0.17856154 -0.124977425 0.064852126 0.059746496 -0.30691323 0.25993901
-0.059615463 -0.10294101 -0.2992099 0.08377336 0.13800116 0.02369694 0.33531955 0.3003826
-0.1422511 0.17721666 -0.06305931 -0.09408255 -0.0655262 -0.26030013 0.0008217267 0.17862312
-0.08948982 -0.24946545 -0.3090681 0.27379802 0.0022851313 -0.079517975 -0.66900814 -0.42791662
0.14818443 -0.0433657 -0.20443803 0.09688309 0.024878098 -0.44541875 -0.07791825 -0.07265227
0.240569 -0.39650086 0.30689865 -0.49600825 0.36160746 0.451164 0.061292812 0.49021497
-0.12110695 -0.27844566 0.103648014 -0.31764978 -0.030974409 -0.1778811 0.09153892 -0.15329732
-0.46635762 -0.19893524 -0.1420059 -0.074183665 -0.23914216 0.075427376 -0.16807398 0.2588126
0.18863267 0.19223936 -0.0386624 -0.06872078 0.13494882 0.14907071 -0.19619673 -0.1832207
-0.027047671 -0.11455504 0.019806692 -0.35636207 -0.22396988 -0.6630657 -0.06024724 -0.397183
-0.28523567 0.35138664 0.3694461 0.4224886 -0.16883588 -0.062668666 -0.14130612 -0.016213322
0.28177527 -0.2697903 -0.0030112828 0.05883694 0.16301043 -0.16994971 -0.071725264 0.18040141
0.118843056 0.2622274 0.13265587 -0.13828789 0.3350142 0.038460035 -0.3877094 -0.009413626
0.58088666 -0.009984967 -0.07006324 0.3923846 -0.1372867 0.118605174 -0.09371346 0.2884944
-0.2969874 0.2690227 0.17927635 -0.11119606 0.29823372 -0.07764851 -0.051928554 0.055781752
0.13622274 -0.12377368 -0.26028827 -0.2507486 -0.2633688 0.4146749 0.35908598 -0.41566885
0.122150004 -0.41069132 -0.08307767 0.0713636 0.08502382 0.28783846 -0.16106047 0.12421643
-0.38965663 -0.38042066 0.17713402 -0.18671939 0.23683494 -0.06571862 -0.4102687 0.05803221

layer2.6.bias f4 [7]
00000000: 5110 3bc0 72f7 8fc0 e50b ab3e 7776 81bf
00000010: d632 e53e 1248 4ebf 77b5 203f
-2.9228709 -4.4989557 0.33407512 -1.0114278 0.44765347 -0.8057872 0.62776893
