Saved_data_files/bpi/lr_all_variants/binary/TimestampPredictor_parameters_binary_0.001.pt (torch, 274439 bytes, 7 tensors)

layer1.weight f4 [4, 1]
00000000: 5d63 7d3b c63b 73bb 3f1c 843e c6a0 0543
0.0038663961 -0.0037114485 0.258028 133.62802

layer1.bias f4 [6]
00000000: 4f0b c742 2e8c 9a42 8532 1743 1480 49c0
00000010: e249 e842 2043 adc0
99.52209 77.27379 151.19734 -3.1484423 116.1443 -5.414444

layer2.1.weight f4 [256, 6]
00000000: e833 143c 2da7 89be 7231 493d 28a1 8ebc
00000010: 6118 3a3c 0863 2d3e 4763 29be e11e 43be
00000020: 654f 8ebd dc93 383e 2719 c03c d35c 433d
00000030: 975d 14be da86 b63c da86 d73d 266f 5c3d
00000040: 55b7 b53d dd74 f6bd 6f30 56be 9c37 99bd
00000050: 2be8 f13c 464b 0bbc 6b1d a7bc 576a 9e3d
00000060: 8638 373d 708a 373c b885 2f3d 082a 923c
00000070: c38d a73c 4fd3 043e 5fae 79bf 9fb8 61bf
00000080: 4079 89bc 6de0 15be 4eda 123c 030e 63bd
00000090: fd03 013e 1d75 1cbe 3141 633e 5837 fd3d
000000a0: 1b26 51bd d220 75be 6b40 99be e9cf 603d
000000b0: 04c6 13be 7e40 72bd bfe0 b93c 8860 11ba
000000c0: 6c18 7dbe 0d1e 84be 86ea a0bd 7bb9 bd3d
000000d0: 4ef0 47be 88ae 8c3d 2d8a 4b3d 7451 43be
000000e0: 9ece 3fbe 27a9 a33c a201 f7bd 0b21 44bd
000000f0: 1db8 cbbe b615 21bd af8c 33bd 0feb 40be
00000100: b8b2 43be c6ae b73d 1130 9c3c 8950 493d
00000110: b184 d93d 6f33 4f3e 31ab 09bd 504b 783d
00000120: 52bf dc3d 1426 db3d ea59 ebbd 9118 4d3f
00000130: 07c5 b83d 4087 8bbd 02aa 6e3d 86db 913d
00000140: 5ecc 0e3e 6a37 ae3c a604 1d3d 0025 263d
00000150: 227d 4c3d b4fb 40be 60f8 963d 38b6 813d
00000160: a5fd d33d eeb4 88bd 784b 8ebe 4e3f 61be
00000170: 6ef0 1bbe 404f 89bc 76c1 27bd db9e 433d
00000180: 9419 c9bd 45e3 b3bc 4bd1 30bc 7b7c d93d
00000190: 42c1 6b3d 8385 973d 6912 89c0 06bf d4c0
000001a0: c806 ffbf 5b7b bbc0 5059 97bf b663 fbbf
000001b0: 9c0f cbbd 11b3 52be 546f e9bc 2bbb 9e3d
000001c0: 72d6 353d 4163 8a3d 5959 8abe 4fee 2f3c
000001d0: 7bb0 25be 62f5 31bd 55af efbd f614 8bbc
000001e0: c705 89bc bc29 dcbc dbd4 2c3e 4035 153e
000001f0: 899d c9bb 95b9 ccbd 6012 86bf 2f20 0bbf
00000200: 208f c1be 91e2 32bc 88df 1bbd 691c b33d
00000210: bf90 40be f2bb cbbe 6410 b8bc 3395 31bb
00000220: ba2f c0bd cadf e8bd b633 1dbe b7fd 35be
00000230: 09c3 50be a621 b23d 4943 b0bd 1444 d2bb
00000240: c112 f9bc 8976 8cbd 12bb 7dbe 8301 2b3f
00000250: b870 1cbd 867c 4e3e bdb9 3abd d90a 203e
00000260: f6a4 ef3c d411 4bbd 191e 26bd 3fc9 bebc
00000270: e3cc d63d 7efc e0bc 6820 483d 99bb 0cbd
00000280: 6701 39be 6d27 1a3d 0096 e0be 65d9 dabd
00000290: b85f ddbd 9c1a aebc fd77 abbd 5d7b 3fbb
000002a0: 6e15 783d 7539 063d bf64 6e3e a47f d73c
000002b0: a520 acbc 511b d4bd d6e9 d2bd c46d a4bd
000002c0: eadb abbd 1dfc 87bd d4b6 b73d ab79 2f3d
000002d0: 952d 60be 1023 6a3c c61a 94bc 1e16 cb3c
000002e0: 653b 9abd 99be ef3d 3280 2fbf cadd 78be
000002f0: 52ce 09be 95de 0dbe dd49 a63d bb63 443d
00000300: b0d6 b6be cf32 f8be c86a 11be 5f9d cfbd
00000310: 2039 9cbe 4c9d 113e 8a8f 16be 7669 893d
00000320: cc94 2d3e 7580 74bd 71f9 c9bd 2453 ccbc
00000330: e294 4a3c 5de8 a43b 155d 853d f367 1a3d
00000340: 0be3 d83c 1b56 c9bb e490 1bbf c777 ddbe
00000350: 6658 adbe 9727 2b3e e7ca b33e a35b b73d
00000360: 78a9 ffbe 0547 c4be 4946 9fbe 5c12 8c3e
00000370: ebd8 81be 9598 87be e4c1 1fbc 5802 a8bd
00000380: 8dd2 1b3e 20cc 833d b34c c6bd 34ea 923c
00000390: 3fb1 13bf d033 84bf 546d 8dc0 a397 14c1
000003a0: 8d9c 87c0 db48 abc0 7e48 3abe 16d9 113e
000003b0: db79 c8ba 26ce a4bb e1e8 9e3c eb46 acbd
000003c0: 6b59 9a3d 7168 1f3d deb1 b1bc 1e44 d13e
000003d0: f89d 613e a556 4e3d 7899 5abe f0c9 b0bd
000003e0: 10b0 063c abe6 ddbd 60b5 733d 097a 283e
000003f0: 8a22 dbbe b5bd 9cbd a3ab fbbd f5a0 64bd
0.009045579 -0.26885357 0.04911942 -0.01741083 0.011358351 0.16932309 -0.16541778 -0.19054748
-0.06948737 0.18025154 0.023449494 0.047695946 -0.14488827 0.0222811 0.10523768 0.053816937
0.088728584 -0.12034009 -0.20916913 -0.0748131 0.029529652 -0.008501833 -0.02039977 0.077351265
0.04473164 0.01120244 0.042852134 0.017842308 0.02045334 0.12971233 -0.97531694 -0.88172334
-0.01678145 -0.14636393 0.008963181 -0.055433284 0.12599178 -0.1527905 0.22192837 0.123640716
-0.05106173 -0.23938301 -0.2993196 0.05488578 -0.14431006 -0.059143536 0.022690175 -0.00055456953
-0.24716347 -0.25804177 -0.07857232 0.09263893 -0.19525263 0.06869227 0.04969232 -0.1907404
-0.18731162 0.019978119 -0.12060858 -0.047883075 -0.39788905 -0.039327346 -0.04383534 -0.18839668
-0.19111145 0.08968882 0.019065889 0.04914907 0.10621012 0.20234464 -0.033610526 0.0606187
0.10778679 0.10700622 -0.11491759 0.8011561 0.09021955 -0.06812906 0.0582676 0.07121949
0.13945147 0.021266658 0.03833451 0.04056263 0.049924023 -0.18846017 0.073715925 0.063335836
0.10351113 -0.066751346 -0.27791953 -0.21996805 -0.15228435 -0.016761422 -0.040955983 0.04775892
-0.09819332 -0.021958956 -0.010792087 0.10619446 0.057557352 0.07398512 -4.2834973 -6.6483183
-1.9923944 -5.858808 -1.1824131 -1.9639804 -0.099150866 -0.20576121 -0.028495468 0.07750543
0.044393964 0.067572124 -0.27021292 0.01073797 -0.16180603 -0.043446906 -0.11703364 -0.016977768
-0.016726388 -0.02687537 0.16878073 0.14571095 -0.006152813 -0.099963345 -1.0474358 -0.54345983
-0.37804508 -0.010918275 -0.038054973 0.08745653 -0.18805216 -0.39791828 -0.022468753 -0.0027096986
-0.09384103 -0.113708094 -0.15351757 -0.17772566 -0.203869 0.08697824 -0.086065836 -0.006416807
-0.03040445 -0.06858546 -0.24778393 0.6679918 -0.038193434 0.2016469 -0.04558729 0.15629138
0.029253464 -0.04957755 -0.040556047 -0.023289321 0.10488298 -0.027464148 0.04885903 -0.034358595
-0.18066941 0.037635256 -0.4386444 -0.10685996 -0.108092725 -0.021252923 -0.08372495 -0.0029217817
0.060567312 0.03276964 0.23280619 0.026305981 -0.02101166 -0.10356773 -0.10298507 -0.08028749
-0.08391555 -0.06639884 0.089704186 0.04284064 -0.21892388 0.014290586 -0.018079173 0.02479082
-0.0753086 0.117062755 -0.68554986 -0.24303356 -0.13457611 -0.1385444 0.08119557 0.047946673
-0.3571067 -0.48476264 -0.1420089 -0.10137438 -0.30512333 0.1422016 -0.14703193 0.06709568
0.16951293 -0.05969282 -0.0986203 -0.024941988 0.012364598 0.0050325827 0.065118946 0.03769679
0.02647545 -0.006144298 -0.6076796 -0.43255445 -0.33856505 0.16714321 0.3511574 0.08953025
-0.49933982 -0.38335434 -0.3110831 0.27357757 -0.25360808 -0.26483598 -0.009750817 -0.08203572
0.15217037 0.06435418 -0.09682598 0.017933942 -0.5769233 -1.0328312 -4.4195957 -9.287021
-4.23786 -5.3526435 -0.18191716 0.14242968 -0.0015295105 -0.0050294576 0.019398155 -0.08411964
0.075365864 0.038917962 -0.021691259 0.40872282 0.22032917 0.0503756 -0.21347606 -0.086322665
0.0082206875 -0.10835012 0.059499145 0.16452803 -0.4279979 -0.07653371 -0.122885965 -0.055817563

layer2.1.bias f4 [256]
00000000: 2a01 aa42 a7d5 ae42 972d 1b43 741a 9442
00000010: 4ba6 4843 13f3 a0c2 36ae 1443 3e3b 4c43
00000020: e3b7 fbc1 4f81 f042 68ff ec41 24a1 1d43
00000030: 3625 e9c1 e0b3 5a43 07d8 ac42 5755 dbc1
00000040: f6ce 3043 924a cac2 3eba d042 e995 2342
00000050: eee3 4b43 2bfe c5c1 ff36 fb42 2846 3d42
00000060: 2042 8541 57df 4f43 aa2b 0243 cddf 3842
00000070: ef6d 2a43 bc2c 1e43 e9da 1843 348c 5241
00000080: 0d0f 0a40 2d92 7342 a7cc 6a43 0a05 08c2
00000090: 916c f2c0 2c55 3043 c265 ffc2 d037 f642
000000a0: 9412 e241 805c e442 2701 9542 186f 0a43
000000b0: 0948 dc42 3214 ccc1 4538 ba42 e2f7 e442
000000c0: 1879 1243 78e5 0c43 5d30 ee42 ab9b 0943
000000d0: a2e2 5143 96ca 8542 87d6 c7c1 436b a240
000000e0: 5d45 d042 de0b 0ac2 3bfd 6d42 0bb2 8442
000000f0: ff3f 0443 9530 1cc1 dd34 6e42 c368 d941
00000100: 34d3 eb42 ba4e 46c2 1324 0143 f43f 4743
00000110: 4744 1343 bf54 3643 4e3b a542 07e0 e542
00000120: cd30 0bc2 639f 1b43 d480 8042 44d2 62c1
00000130: 3737 1243 85d1 48c1 8339 04c2 e119 2043
00000140: 3cb7 1842 eba9 82c0 c05d c942 4533 3443
00000150: 157e 1d43 5757 b6c1 1761 6ec2 7672 9642
00000160: ab72 56c1 ed18 7fc2 df0b 0643 306d 1a42
00000170: 3619 593f 6530 a240 6915 bfc1 c119 8fc0
00000180: 89e6 0fc2 1364 4442 c8ea 92c1 5ec1 4143
00000190: 88e6 b842 44ab d9c1 71ac 9341 deef fd42
000001a0: f438 32c2 705e 23c0 5cb4 6142 a0df 1f43
000001b0: 1c7b cd42 1e14 1c43 d09f 9843 572f 1f43
000001c0: a976 3d42 94e4 4f43 eabd 3b43 c0fb 56c1
000001d0: b604 d6c0 ad2e 0043 5673 43bf fd11 9642
000001e0: a367 41c2 f957 11c2 53e9 97c0 c74d 9043
000001f0: 9403 0d43 ca0d f942 ab25 26c1 5e64 1e43
00000200: 898e ed41 e29f c9c1 c63e 2ac2 ce69 da42
00000210: 71f1 fd41 53a8 5643 d2d9 6ec1 e4b2 5943
00000220: 0730 0e43 b68f fb42 fba7 9642 5265 46c2
00000230: c7ce 09c0 c446 0543 9117 3643 e418 5343
00000240: 3617 6ec1 dd0a 91c0 5302 fb42 6bbe 2343
00000250: f41f 98c1 1daf a3c1 8680 0043 ec21 b7c0
00000260: 45dc 9542 0f4e d840 811a e142 3ad2 80bf
00000270: c391 6043 e51c 5f42 fd00 9f42 6215 1443
00000280: ffeb a541 8c91 2ac1 63b1 ae42 ad5e 4a43
00000290: cea6 9b42 1e89 3443 9bdc 0642 a4dd f942
000002a0: eb73 bcc1 6039 3d43 4398 d0c0 290b a240
000002b0: 1519 29c1 c183 e8c1 b42e dac0 cc8d 5043
000002c0: d51a 9742 a5e4 3c43 1dcd e3c0 957b 6d43
000002d0: 563d 9842 6302 8743 588a 6243 408d a842
000002e0: 2472 1f43 0369 bc41 43cc 8dc1 e8bc df42
000002f0: e701 f742 987c 83c1 d534 d3c0 e8aa 4d43
00000300: 19df 1f43 7a05 2943 7f1d 3c42 ed4c 2941
00000310: 32b2 96c0 5d1b e1c1 12b4 1a42 2908 c642
00000320: 97e3 6bc1 b8f1 0ac2 2aed d0bf 4f8e 2543
00000330: b77b 4043 45a4 1043 250e 7243 005f 5143
00000340: af6d 0f43 2e87 7042 c7b3 89c1 c0b9 b9c1
00000350: aa3f 1cc2 1582 c142 5502 8e42 5735 05c2
00000360: 1462 0943 3dcd dc42 fd14 db41 d6c2 e4c1
00000370: 3464 c4c1 bc87 0e43 abe7 2ac1 c6c5 0d43
00000380: e8d7 a9c0 ec7a 8d42 de28 5243 1789 1a43
00000390: fbe1 c7c1 a1d7 42c2 f171 4141 c9fb ca42
000003a0: 20bd 2742 c7d9 8ec1 d3fa c642 a762 0e43
000003b0: b461 14c2 d9e8 e63f eb6b dac1 1017 1e43
000003c0: db55 e4c1 18d2 b3c1 f908 b642 1d88 2942
000003d0: 2759 0443 0cc9 40c1 97de bf42 0181 ee42
000003e0: d5d7 ff42 4c07 3443 4f5e f1c0 f142 17c0
000003f0: 88e7 1ec1 d7fd d842 8c28 0541 76dc 2b43
85.00227 87.41729 155.17809 74.05167 200.64958 -80.474754 148.68051 204.23141
-31.464788 120.252556 29.62471 157.62946 -29.14317 218.70264 86.42193 -27.41667
176.80844 -101.145645 104.363754 40.896397 203.89035 -24.749105 125.607414 47.318512
16.657288 207.87242 130.17056 46.218555 170.42943 158.17474 152.85512 13.159229
2.1571686 60.89275 234.79942 -34.00492 -7.5757527 176.3327 -127.698746 123.10901
28.259071 114.180664 74.50225 138.43396 110.14069 -25.509861 93.1099 114.484146
146.47302 140.89636 119.09446 137.60808 209.88528 66.895676 -24.97975 5.0755935
104.135475 -34.51159 59.497295 66.34774 132.24998 -9.761861 59.551624 27.176153
117.912506 -49.57688 129.14091 199.24982 147.26671 182.33104 82.61583 114.93755
-34.797657 155.6226 64.25162 -14.176334 146.21568 -12.551152 -33.056164 160.10109
38.17894 -4.083242 100.683105 180.20027 157.49251 -22.792646 -59.594814 75.22356
-13.402995 -63.77434 134.04637 38.60663 0.84804094 5.0684075 -23.885454 -4.471894
-35.975132 49.09773 -18.36464 193.75534 92.45026 -27.208626 18.4592 126.96849
-44.55562 -2.552639 56.426132 159.87354 102.74045 156.07858 305.24854 159.18492
47.36588 207.89288 187.74185 -13.436462 -6.688075 128.18233 -0.76347864 75.03513
-48.351208 -36.33591 -4.747232 288.60764 141.01398 124.52693 -10.384196 158.39206
29.694597 -25.203068 -42.561302 109.20665 31.742891 214.65752 -14.928179 217.69879
142.1876 125.780685 75.32809 -49.598946 -2.1532457 133.27643 182.09206 211.09723
-14.880667 -4.532576 125.50454 163.74382 -19.015602 -20.460505 128.50204 -5.722891
74.930214 6.7595286 112.551765 -1.0064156 224.56938 55.778217 79.50193 148.08353
20.740232 -10.660534 87.34646 202.36983 77.82579 180.53561 33.715435 124.93289
-23.5566 189.22412 -6.5185866 5.0638623 -10.568624 -29.064333 -6.818201 208.5539
75.55241 188.89314 -7.1187882 237.48274 76.1198 270.01865 226.5404 84.27588
159.44586 23.551275 -17.724737 111.86896 123.503716 -16.435837 -6.600199 205.6676
159.87148 169.0214 47.028805 10.581281 -4.7092524 -28.138361 38.67585 99.01594
-14.743064 -34.736053 -1.6322377 165.5559 192.48326 144.64168 242.05525 209.3711
143.42845 60.13201 -17.212782 -23.215698 -39.062172 96.75407 71.004555 -33.30209
137.38312 110.400856 27.385248 -28.595135 -24.548927 142.53021 -10.68156 141.77255
-5.3076057 70.74008 210.15964 154.5355 -24.985342 -48.710575 12.090318 101.49177
41.934692 -17.856337 99.48989 142.38536 -37.095413 1.803981 -27.302694 158.09009
-28.541922 -22.477585 91.017525 42.382923 132.34825 -12.049084 95.934746 119.25196
127.92155 180.0285 -7.5427623 -2.3634608 -9.931526 108.49578 8.322399 171.86118

layer2.3.weight f4 [256, 256]
00000000: 9f9d d53c e229 f0bd 9f10 eabc 657a aebd
00000010: 5508 b7bc 6750 e9bb 3aac 9fbd 5c54 21bd
00000020: e1b4 cabc 9390 ecbb 5f8c 72bd ccb6 543d
00000030: ab08 06bd 4891 fcbd 1f6a d13c 636f 89bd
00000040: 50b2 2a3c 9cd9 51bc 2b5f 4ebc b0f8 2fbc
00000050: c10b a8bc b0ce eab9 a6f5 8fbc 532f ccbd
00000060: 1361 bebd 42c0 acbd a7cc a0bd f5e7 bdbc
00000070: 6984 da3c 610a f13c 7d8c 57bc 68a0 74bc
00000080: d39d 17bd 9391 5abd 88cb 83bc ff86 ec3c
00000090: 633d 1bbd 589a babd 1457 5fbd 4fef 003d
000000a0: 0ab4 9c3c fb87 0d3c ba16 bfbd 9b25 3dbd
000000b0: 84f5 81bd 50d7 923c ce8a 90bc 9b5a edbc
000000c0: 620a 2f3c 4f0b 4fbd 28a8 c8bd 0a09 c2bd
000000d0: 4454 20bd 12d1 2f3c 8a44 3bbd 1551 2dbc
000000e0: 7120 2fbd 95ae 01bc 7660 f8bc ffaa 7abd
000000f0: 0a19 46bc d7eb 81bd 5a77 803c cc9f 70bd
00000100: 5f4f acbc d349 1abd 86e1 5dba dbd7 50bd
00000110: aded 84bb ae8e 61bd 6663 c83a fb32 d9bc
00000120: eb95 8dbd 2e93 dc3b 0d02 883b 969e a0bd
00000130: e529 21bd 426f 66bc a04e 96bd 61a1 d8bd
00000140: 217f e3bc 7bba adbd 7bab 3bbd df51 dc3b
00000150: 0437 a93d 3dd5 bcbc b508 283d 7b56 003c
00000160: 047c 7cbd a605 9d3b 6f81 9ebc 5469 06bd
00000170: 8d30 b6bc 6dc6 88bd c20a 95bb b478 4cbb
00000180: 702f d2bd ca38 2cbd 67bd c0bc 0628 8fbc
00000190: 0d6b 85bd 0318 b63c 4779 3fbd 32b7 823b
000001a0: 488b acbd b4b9 5e3c 80f9 89bd 6e73 2a3c
000001b0: d525 14bd d827 efbc 54cb e8bd 8de7 23bd
000001c0: 4b7a 96bc e820 2fbd a2b4 ce3c 44c3 74bd
000001d0: e71d 543d cc36 8dbd 2138 15bd 8292 a5bc
000001e0: dde2 8cbd 3c27 a5bc 0302 6b3b 0782 53bd
000001f0: 05d5 06be 524a 9abd fc9f c5bd edd9 c5ba
00000200: dc93 80bd 05cb 4fbd 0fb2 35bd 4587 f9bc
00000210: eb02 45bd aaed 42bd 3cb4 96bd 67ff 82bd
00000220: 87e5 62bc dff3 7c3c b50f babd 92b8 afbc
00000230: f6f0 22bd 7d03 4ebd 068f 5cbd fdb5 373b
00000240: faff edbc ad30 863c f05f 78bd eee8 7ebc
00000250: dcdd 403c 9aff cabc 54a0 3e3d f130 223c
00000260: 1082 3b3d d273 28bd 0863 343c 155f a73c
00000270: f7fa 84bc 4b98 2fbd 8dd7 12be 0d36 c4bd
00000280: dd00 8fbd 4116 22bd 8b6d b1bd ed8c 023c
00000290: 3e46 933c 58b3 e1bc 5d29 c4bd 9d61 21bd
000002a0: a024 e9bb b3d0 dbbd d9f8 233b 67f7 773d
000002b0: e72c 4ebd 23ea b1bc 7d32 ffbc 4e1c 9c3c
000002c0: 7d79 3e3d 8226 acbd 6c55 82bd 9787 023d
000002d0: 9a17 2fbd 8fbc 8dbd 7ea5 953c 0ee4 c8bd
000002e0: 9de1 0dbd 5f54 ea3c 3802 5dbc 58c2 63bd
000002f0: 3176 90bc 1bbc 17bd 1d09 2a3c 0aa1 8abd
00000300: 6b90 2ebd 91aa 19bc b1f0 503d 91f9 82bd
00000310: 8cce a93c 785f 79bd 8d3b a0bd 6377 1cbc
00000320: 0719 8bbc 60aa 90bd 0baf 513c e054 b7bd
00000330: 9710 083c f577 92bd 4fa2 a7bd 97e4 023c
00000340: 584c dc3c e427 4ebd 4099 a8bd f568 943a
00000350: 6bed cb3c 91c1 a0bd c4f4 34bc 2bbf 1dbd
00000360: 6d5a a4bd 342f 79bd 37ff 56bd ed45 97bc
00000370: c7e8 32bd 3b92 9ebd 48db adbb bf01 6bbd
00000380: cb46 f7bc 8ce9 1cbd 56b2 d53c b9e5 1cbc
00000390: 6438 a7bc e859 323c b9fd 73bd a883 10bd
000003a0: 03db 18bd dae9 02bc 8bb4 6f3b 7ec5 b5bd
000003b0: 225f 89bb b902 f03b 5633 25bd fb9e 0a3d
000003c0: f6f3 aabc 3f9f 6dbd b15b 1bbd 0d08 81bc
000003d0: 8687 f5bb 5d7a d03c 0c25 91bc 0564 95bc
000003e0: bff7 2dbd 76d6 79bb 3f45 8fbd c8fd 953c
000003f0: a059 d8bb b4f5 8bbd 614b e43a 00b8 babd
0.026076136 -0.117267385 -0.028572379 -0.08519439 -0.02234284 -0.0071201804 -0.077965215 -0.039387092
-0.024744453 -0.007219383 -0.0592159 0.05193214 -0.03272311 -0.12332398 0.025563298 -0.067106985
0.01041849 -0.01280823 -0.012595932 -0.010740444 -0.020513417 -0.00044785952 -0.017573189 -0.09969964
-0.09295859 -0.08435108 -0.07851534 -0.023181895 0.026674466 0.029423894 -0.013156054 -0.014930822
-0.037015747 -0.053361487 -0.016088262 0.028872965 -0.03790034 -0.0911147 -0.054526404 0.031478222
0.019128818 0.008638377 -0.093305066 -0.04617844 -0.063456565 0.017924935 -0.017644312 -0.028973868
0.010683628 -0.050547894 -0.09797698 -0.0947438 -0.039142862 0.010730999 -0.04571966 -0.0105784135
-0.042755548 -0.007915159 -0.030319434 -0.06119823 -0.012090931 -0.06343811 0.015681911 -0.058746144
-0.02103394 -0.03766806 -0.00084640866 -0.050987106 -0.0040566535 -0.05506771 0.0015288412 -0.026513567
-0.0691336 0.0067314124 0.004150635 -0.07842748 -0.039346594 -0.014064612 -0.07339215 -0.105776556
-0.02777058 -0.08482834 -0.045817833 0.006723627 0.082624465 -0.023050899 0.04102393 0.007833119
-0.061641708 0.004791933 -0.019348828 -0.032815292 -0.022239948 -0.06678472 -0.0045484016 -0.0031199874
-0.10262954 -0.042046346 -0.023527814 -0.01747514 -0.06514559 0.022228247 -0.04674652 0.0039891237
-0.08425003 0.01359408 -0.067370415 0.010403497 -0.036168892 -0.029193804 -0.11366907 -0.040015746
-0.01836886 -0.04275599 0.025232617 -0.059756532 0.05178633 -0.06895217 -0.03643048 -0.020211462
-0.06879208 -0.02016031 0.0035859353 -0.051637676 -0.13167198 -0.07533707 -0.09649655 -0.0015094854
-0.06278202 -0.050730724 -0.044359263 -0.03046001 -0.048098486 -0.047589935 -0.07358596 -0.063963704
-0.013848669 0.015439003 -0.09085027 -0.021450315 -0.03978058 -0.050296295 -0.053847335 0.0028032057
-0.029052723 0.016380632 -0.060638368 -0.015558464 0.011771645 -0.024780083 0.04653962 0.009899364
0.045778334 -0.04112608 0.011009939 0.02043108 -0.01623295 -0.042869847 -0.14340039 -0.09580622
-0.069825865 -0.039572004 -0.08663472 0.00796817 0.01797783 -0.027551338 -0.09578202 -0.039399732
-0.0071149617 -0.107331656 0.002502015 0.060538676 -0.05033579 -0.02171809 -0.031152004 0.019056465
0.04650258 -0.08405782 -0.06363949 0.03186759 -0.042747118 -0.0692073 0.01826739 -0.09809123
-0.03463899 0.028604684 -0.0134892985 -0.055605263 -0.017634483 -0.037044626 0.010378149 -0.06768997
-0.042618196 -0.009379045 0.05101079 -0.06395257 0.020728372 -0.06088206 -0.078238584 -0.009549948
-0.016979707 -0.070637465 0.012798081 -0.089517355 0.008304737 -0.07151786 -0.08185255 0.00798907
0.026891872 -0.05033101 -0.08232355 0.0011322784 0.024893483 -0.0784942 -0.011044685 -0.03851239
-0.0802506 -0.060836032 -0.052489486 -0.01846596 -0.043679025 -0.07742735 -0.0053056814 -0.057374712
-0.030185124 -0.038308665 0.026086014 -0.0095762545 -0.020412631 0.010885693 -0.05956814 -0.035281807
-0.03731824 -0.007990325 0.0036576118 -0.08875559 -0.004192249 0.0073245433 -0.04033216 0.03384302
-0.020868283 -0.058013197 -0.03792924 -0.01575091 -0.0074929623 0.025448972 -0.01771786 -0.01823617
-0.042472597 -0.0038122213 -0.069956295 0.018309489 -0.006602481 -0.068339735 0.0017417484 -0.091171265

layer2.3.bias f4 [256]
00000000: 6e99 97be e7a8 d142 3b02 f541 0aba 4943
00000010: 2fde 0d42 10ec 8dbe 2d5e ef42 c54e c93f
00000020: 2ff1 9b3f 9377 1d3f 6014 68be 66d1 e441
00000030: 2649 ac42 2439 a03f dca6 29be c028 7c3f
00000040: eb8b c1be 4e1f 1f42 daf0 5ebe aac3 293e
00000050: 20be 193d 2d4f 113f 7697 0d3e 9916 bd42
00000060: 5f23 a3be 234d 073e 4f90 7c3f 022a 7141
00000070: 5cab debd 4781 e93f 9596 01be 240f 8fba
00000080: 5483 b341 aee4 fc3d 912f 303e f7c8 89be
00000090: 2f05 38bf 0deb e141 56d7 41be e225 9442
000000a0: 183a b542 c410 9a42 2221 3a3e 1411 f83e
000000b0: 5aa9 47be 23b8 a042 5c72 e742 7893 b03e
000000c0: 86da da42 1c2b 11bf 5abc 0242 63af e441
000000d0: b26c 2942 f930 243f 8991 1943 1bd1 dfba
000000e0: 3183 3abf c270 0343 dd2b bc40 73d0 ab42
000000f0: a95c 1dbd b939 0f43 a909 d742 a8da c1be
00000100: ad50 e042 bdb9 833f 3328 2a43 3dcc 763f
00000110: 45c1 9a3d b078 20be bdc8 4fbe 5e1b 1b43
00000120: cf60 2a40 4780 a242 e9c0 81bd 82ca 403e
00000130: ddc8 003d 2d4f 68be 8c27 b0bd b1f1 9342
00000140: 1bcf 51be 60b6 4243 b611 9640 0d3e 333f
00000150: c8fd b13f e201 1343 bfb7 84be 48ea 97be
00000160: fac3 3fbd 1357 1543 c1a0 2dbc bbaa b542
00000170: 9605 4143 7fc7 a341 affd 1cbe 620b be3f
00000180: 1c10 0e40 1088 9941 9057 2442 cd60 333e
00000190: f07f ed42 824f a340 ac14 2fbd fe64 a13f
000001a0: 6827 0c3c 5cb2 37be 6a80 ef3f 9e26 b13e
000001b0: 426a 3043 8025 4842 745e 8c41 b023 053e
000001c0: 084c ee3f 2fd2 0643 51ae d43f d250 c840
000001d0: 535e ad3d cfdc 2c40 e557 493f 677c 083f
000001e0: a445 1543 4ee1 df40 eb7a 1c41 87f0 3741
000001f0: ae74 803f 9b75 db41 0fd6 3640 56e0 5942
00000200: 1a50 a63e 1945 65bd a26d ba40 3a5f c13e
00000210: 4527 613f 4472 9c3f a738 8dbc fbdc bc3f
00000220: 1974 183f 91d8 3441 9758 0cbf 6961 7d42
00000230: 2ac6 1040 5131 61be f299 0340 df1c cebe
00000240: a9f2 95be 38b9 a641 2f95 4abe c527 0abe
00000250: f076 e742 abe4 9840 14e6 2e3f 6466 3ebe
00000260: 901c 6ebe 4ed2 2cbe 8df0 4943 97a6 143e
00000270: 8c9b 2c3f f47d 2fbe 3eef 0e42 3f45 1f40
00000280: 6d8d 1c43 5932 513c 1d96 1943 bc86 9ebe
00000290: 7609 9dbe 76ee 223c 05c9 e041 275a 4d43
000002a0: 4cdb a43d 87eb 01bf dd09 fe40 a518 2643
000002b0: eb61 a4be 0112 4540 5105 7c3f 1a36 6a42
000002c0: 5346 1dbe 3269 9f41 e969 0440 2667 7540
000002d0: 3732 12bf a896 1443 ac13 0043 98cf 10be
000002e0: 5dfb db41 7a52 4fbe bc60 6c41 2c7c 44be
000002f0: 8a7e 6740 1c9d 84be 5557 2d3f 62b7 3642
00000300: 58c2 19be 9123 10be 661b e0be c7a3 32be
00000310: f304 9cbe da6b eb3f b73a b93f b0cc 6540
00000320: fb4b 96be 9555 3540 c706 aa41 0b72 763e
00000330: 0ec7 1abe d386 6943 9b45 2cbe 134b 98bf
00000340: 8cd5 e1bd f429 63be 67c1 2bbe ebd4 4043
00000350: e535 0243 1a53 4a3f c522 36be 91c5 4243
00000360: 1e46 09be e881 973c ad73 1b3f 6f5c cf42
00000370: 72df 05be e94b 1a3f b6d8 2443 87d7 4043
00000380: 4b08 d53e 2c3e 31be bf26 7c40 10e2 a33f
00000390: 8f6a f742 d3d3 b342 d3c9 41be 7829 a542
000003a0: 53a4 b642 e89c fd40 40ef 9841 668c f241
000003b0: 414c 1b43 9055 123b af6d f3be a973 783f
000003c0: b0cc 283e a7e1 9c3e 7dd2 ed40 5841 78be
000003d0: 8e4f 0943 c066 5a42 4f40 af41 4fea b13d
000003e0: b64d 07be 64a2 423f c89e 13be da6b 8a40
000003f0: c80c 4740 29e4 e841 dd8e a8be 131c c540
-0.29609245 104.82989 30.62609 201.72672 35.466976 -0.27719164 119.68394 1.5727164
1.2182978 0.6151058 -0.22664022 28.602245 86.14287 1.2517438 -0.16567558 0.9849968
-0.3780206 39.78057 -0.21771565 0.16578546 0.037534833 0.5676144 0.13827309 94.544136
-0.31862924 0.13213019 0.986577 15.072756 -0.10872528 1.8242577 -0.12655099 -0.0010914546
22.439125 0.12348305 0.17205645 -0.26911137 -0.7188291 28.23977 -0.189298 74.07399
90.613464 77.032745 0.18176702 0.4845053 -0.19498196 80.35964 115.72336 0.3448751
109.4268 -0.56706405 32.683937 28.585638 42.356148 0.64137226 153.5685 -0.0017075868
-0.7285643 131.44046 5.8803544 85.90713 -0.038418446 143.22548 107.51887 -0.37862134
112.15757 1.0291058 170.15703 0.9640539 0.075563945 -0.15671039 -0.2029142 155.1069
2.6621587 81.25054 -0.06335623 0.1882725 0.03144156 -0.22686453 -0.08601293 73.97205
-0.2048916 194.7124 4.689662 0.70016557 1.3905573 147.00735 -0.25921437 -0.2967093
-0.046817757 149.34013 -0.010597409 90.83346 193.02182 20.47241 -0.15331148 1.4847224
2.2197332 19.191437 41.08551 0.17517395 118.74988 5.1034555 -0.042744324 1.2608945
0.008554317 -0.17939132 1.8711064 0.34599775 176.41507 50.03662 17.54612 0.13001895
1.8616953 134.82103 1.6615697 6.2598658 0.084652565 2.700977 0.7864974 0.5331482
149.27203 6.996253 9.780009 11.4962225 1.0035608 27.432425 2.856815 54.469078
0.32482988 -0.0559741 5.825883 0.37767965 0.87950546 1.2222371 -0.017238928 1.4754938
0.5955215 11.302873 -0.5482268 63.345127 2.262095 -0.21991469 2.056271 -0.40256402
-0.29286698 20.840439 -0.19783472 -0.13491733 115.7323 4.7779136 0.6831982 -0.18593746
-0.23253083 -0.168771 201.93965 0.14516674 0.67424846 -0.17137891 35.733635 2.4886014
156.55244 0.0127683515 153.58638 -0.3096217 -0.3067128 0.009944549 28.098154 205.35216
0.0804964 -0.5075001 7.938704 166.09627 -0.32105955 3.0792239 0.9844561 58.552834
-0.15358858 19.926365 2.0689642 3.8344207 -0.5710787 148.5885 128.07684 -0.1414169
27.497736 -0.20246306 14.773617 -0.19187993 3.6170983 -0.25901115 0.67711383 45.679085
-0.15015543 -0.14076068 -0.43770903 -0.17445289 -0.30472526 1.8392289 1.4471043 3.5906181
-0.29354843 2.8333485 21.25331 0.24066941 -0.15114996 233.52666 -0.16823427 -1.1897911
-0.11027059 -0.22183973 -0.16772996 192.83171 130.21053 0.7903305 -0.17786701 194.77174
-0.13405654 0.018494561 0.6072338 103.680534 -0.13073519 0.6027208 164.84653 192.8419
0.4160789 -0.17308873 3.9398649 1.2803364 123.70812 89.91372 -0.18924646 82.58099
91.320946 7.9254036 19.116821 30.318554 155.29787 0.0022328831 -0.4754462 0.97051483
0.16484332 0.3064091 7.4319444 -0.24243677 137.31076 54.60034 21.9064 0.08687269
-0.13213238 0.7602904 -0.14416039 4.3256655 3.110155 29.111406 -0.32921496 6.159677

layer2.6.weight f4 [1, 256]
00000000: cfc8 f2bc 85d6 aa3c becf 4ebc 8564 b23c
00000010: 4cb3 f2bd 5bf7 8c3c 394f 213e e596 00bd
00000020: c9da 9fbc d775 65bd 3792 d3bc 3b59 fbbc
00000030: ac8b e43c 1f73 90bc 57b9 2dbc 1819 8ebc
00000040: dbf6 fa3c 3312 b43d 3e43 ce3b cf01 e13c
00000050: a8e9 c3ba 1b5a 01bd 2d73 36bd 4cb4 2d3c
00000060: 19a4 0b3b 5dcf 3abc e382 edbb 07c4 e23c
00000070: 137f e3bb 8e92 08bb 7dbb 833c a719 25bc
00000080: 6d21 7fbc c061 fe3b 49a3 dfbc 0933 b53c
00000090: 144e 48bc 606a c8bc a8e7 01bd e9e1 093e
000000a0: e331 663b 2503 60bd ff9e 013d 8d25 39bc
000000b0: 7205 adbb 0914 903d ae6b 003d c660 aa3c
000000c0: 7b7b 6f3c 8690 afbb 3f06 ecbc f9c4 823e
000000d0: 0014 ecbc e6e8 c5bc 39c8 533d 2431 08bc
000000e0: b568 c13b 7dd9 933c dd63 483d 73b3 f43c
000000f0: 5762 893c f9d6 e53c bcb7 10ba e7b0 bebc
00000100: 4cf3 00bc 8548 023c b10e 823d 2003 873c
00000110: 2cf5 91bc ff60 89bc 1988 da3c 3150 793d
00000120: 23bb cabc a193 30bd c2a5 a4bb d812 8c3b
00000130: dd33 88bb 58e9 1d3b 95ac f93c 14fc a7b9
00000140: 1c1e 2cbc 96c1 e63d bbd5 eebc c247 6e3c
00000150: 6a24 e6bb 8ae6 ab3b a644 2eba 921e d6bc
00000160: 5a54 1b3b 02b4 9e3d 0c17 6dbb fb15 c33c
00000170: cc69 9b3d 865d f23c dcf2 f43b a876 81bc
00000180: fb85 b7bc bf8f bf3c b73a b5bd d9c2 57ba
00000190: a1a6 303d 09c0 5ebc 90db de3c 685d 833b
000001a0: c240 edbc 0acd bfbb 663d c4bc f4c8 e439
000001b0: 6889 513d 86db d8bc 92f9 a93d 6508 aabc
000001c0: e435 6a3c 1214 a13d 8c48 f73c 59c4 223c
000001d0: 8d22 dfbc 6a61 b23c 2d85 acbc 898c c3bb
000001e0: f431 f1bb 096f c2ba 865d 123c 9bd5 e63c
000001f0: 662f 8e3c 6c9b bdbc 0c2b c53c 553d c9bc
00000200: 052c 08bc 65d1 d23c edb9 00bc 4654 25bd
00000210: fbe5 c83c 0e5c 933c 1b10 823c b2da 0d3c
00000220: d22b c73b 696b babc 06bc dd3b d82b d3bb
00000230: 00d8 4ebc 7a34 c3bc b493 fcbc 2c04 81bb
00000240: dc09 32bc d713 b0bc 6e9b 3c3c 1423 29bd
00000250: bb5e 93bc 340d 0dbd 5fde 733c 833b 50bd
00000260: f4f2 9ab8 abc7 693b e48d 263d 1089 67bc
00000270: 5537 e2bc fb5a 3f3c 2df7 5b3c 3119 b0bb
00000280: 56c3 7e3d c3c5 8e3c e0a3 d73c 2346 8cbc
00000290: 65e9 203a aaa0 33bb 9cbb 7d3b 2fda 2c3d
000002a0: a1b5 643b cb33 66bd 18bf 553c f11f 323d
000002b0: 506d bcbc 2ed5 e23b 4302 a43c 955c 46bc
000002c0: 4069 33bb 1256 b63b 9c77 5d3c fd64 2bbd
000002d0: 6f95 d7bc aa59 223d 2b1f 74bd a090 f83c
000002e0: ab99 fcbc 135e 88bb d821 6cbd 1543 bb3c
000002f0: 5d93 f73b 90be b53c bb1b 003c 8092 e0bc
00000300: 363b bbbc 34ba 01bd 0ed6 c0bb ea6b f6bc
00000310: a905 003d 1b53 5b3c f540 ee3b 073d b63b
00000320: ba75 ba3c 6d88 54bc ff52 9dbc 48ce 92bc
00000330: ce45 f43c 2c26 7a3d 103a ffba 1e47 f43c
00000340: abff 5d3b e487 ebbc 9093 3c3c 8e60 9f3c
00000350: c4c7 c03d a7aa 54ba 2ee7 cf3c 47a5 f3bb
00000360: 4e2b 83bb 921c 85bc 0ecf e43c 16d6 533d
00000370: d7ed 7cbc 0957 fb3c bb26 7d3d a111 3f3d
00000380: 2ac1 79bb ec09 033c bc50 cb3c 3c11 d7bc
00000390: a030 8d3d 9649 633b f327 47bd 90a0 00bd
000003a0: ac39 81bc 12dd d0bc dac1 d038 9449 733d
000003b0: fecc ba3d e0a2 b03c 8fc0 373c a632 c53b
000003c0: fcb4 f53c 6e0e cf3b b6c6 22bc c672 62bc
000003d0: 083f 2e3d 4a98 813c 711d a5ba 1df5 63bc
000003e0: ea84 ca3c 9f92 94bb 05c0 d73c 8fe2 e03c
000003f0: 8170 97bb 702d 2bbd a1ac a13c 37f5 ed3c
-0.029636769 0.020854244 -0.012622772 0.021776447 -0.118506044 0.017207792 0.15752877 -0.031393904
-0.019513505 -0.056020584 -0.025826557 -0.030682197 0.027898632 -0.017633019 -0.0106032705 -0.01734595
0.030635288 0.08792534 0.006294637 0.027466683 -0.0014946954 -0.031580072 -0.044543434 0.010602068
0.0021307527 -0.011401978 -0.007248269 0.027681364 -0.0069426387 -0.0020839307 0.016080612 -0.010076917
-0.015571934 0.0077631176 -0.02729954 0.022119062 -0.0122256465 -0.024464786 -0.031715065 0.13465084
0.003512495 -0.0546905 0.03164577 -0.011300457 -0.00528019 0.070350714 0.03135269 0.020798098
0.014616842 -0.0053578047 -0.028811572 0.25540903 -0.02881813 -0.024158906 0.05170462 -0.008312497
0.0059023746 0.018048042 0.048923362 0.029870724 0.016770525 0.028056609 -0.00055205426 -0.023277713
-0.0078705065 0.00795186 0.063504584 0.016480982 -0.017817102 -0.016769884 0.026676225 0.060867492
-0.024747437 -0.04310954 -0.0050246427 0.0042747073 -0.004156573 0.0024095383 0.030477801 -0.00032040535
-0.0105052255 0.11267392 -0.029154649 0.014543476 -0.007023384 0.0052459883 -0.00066478027 -0.026137624
0.00237014 0.077491775 -0.0036177067 0.023814192 0.075885385 0.029585611 0.00747524 -0.01580365
-0.022402754 0.023383973 -0.088490896 -0.00082306337 0.04312766 -0.013595589 0.027204305 0.0040089376
-0.028961543 -0.0058533 -0.023955058 0.0004363727 0.05115643 -0.026471864 0.08299555 -0.020755956
0.014295075 0.07865156 0.03018596 0.009934508 -0.027238155 0.021774966 -0.021059597 -0.005967681
-0.007360691 -0.0014834116 0.008933431 0.028178027 0.017356586 -0.0231454 0.024068378 -0.024565378
-0.008311276 0.025734613 -0.007856828 -0.040363573 0.024523726 0.017988231 0.01587682 0.008658098
0.006078222 -0.022756295 0.006766799 -0.0064444356 -0.012624741 -0.023828734 -0.03083215 -0.003937265
-0.0108666085 -0.021493835 0.011511667 -0.04129322 -0.017989507 -0.03443642 0.01488456 -0.050838005
-7.388546e-05 0.003567199 0.04066266 -0.014131799 -0.027614275 0.011679406 0.0134256305 -0.005374097
0.062198006 0.017428285 0.026323259 -0.017123288 0.0006138294 -0.0027408996 0.003871656 0.042200264
0.0034898298 -0.056201737 0.013046049 0.043487493 -0.023001343 0.0069223857 0.02002061 -0.012107034
-0.0027375966 0.0055644596 0.013517287 -0.041844357 -0.026316373 0.03963629 -0.059600037 0.0303424
-0.030834993 -0.004161605 -0.057649463 0.022859136 0.007555409 0.022185594 0.007819111 -0.027413607
-0.022855382 -0.031671718 -0.0058848923 -0.030080754 0.031255398 0.013386513 0.007270927 0.0055614742
0.022761215 -0.01297198 -0.019204615 -0.017920628 0.029818442 0.06107156 -0.001947226 0.029819068
0.0033874314 -0.028751321 0.011509791 0.01945522 0.09413102 -0.00081125874 0.02537879 -0.007435474
-0.004002965 -0.016248975 0.027930763 0.05171784 -0.015437565 0.03068115 0.061804514 0.04664767
-0.003810952 0.007997971 0.02481877 -0.026253335 0.0689404 0.0034681312 -0.048622083 -0.031403124
-0.01577457 -0.02549604 9.9543206e-05 0.05939634 0.091211304 0.02156204 0.011215343 0.0060180007
0.029993527 0.006318859 -0.009935072 -0.013821309 0.04254058 0.015819687 -0.0012597275 -0.01391342
0.024721581 -0.00453408 0.02633668 0.027451782 -0.004621566 -0.04179138 0.019735636 0.029047592
