Saved_data_files/helpdesk/lr_all_variants/MLP/EventPredictor_parameters_feedforward_0.001.pt (torch, 313671 bytes, 6 tensors)

layer2.0.weight f4 [256, 36]
0	0xbcad9262	-0.021187965
1	0x3c56665f	0.013085931
2	0xbe5f57cc	-0.21810836
3	0xbdf554ee	-0.1197909
4	0xbd7e7460	-0.062122703
5	0x3dcc014e	0.09961186
6	0xbe163482	-0.14668468
7	0x3d3fb94b	0.04680757
8	0x3de68d0b	0.112573706
9	0xbdb118bb	-0.08647295
10	0xbd6bc702	-0.057562836
11	0xbd536155	-0.051606495
12	0x3dc1e473	0.09467401
13	0xbdb24ce3	-0.08706071
14	0xbe1a4f5e	-0.15069339
15	0x3cd6e1a0	0.026230633
16	0x3da1f733	0.07908478
17	0xbe07ffd4	-0.13281184
18	0x3e23325e	0.15937182
19	0x3df50be8	0.119651616
20	0xbd16ffeb	-0.036865156
21	0xbde6d446	-0.11270957
22	0xbe273d66	-0.16332015
23	0x3e1c948f	0.15291046
24	0x3e2374f2	0.1596258
25	0xbe1ab652	-0.15108612
26	0xbd90812e	-0.07055889
27	0x3e1feba7	0.15617238
28	0xbc6f851b	-0.014619137
29	0x3e19a251	0.15003325
30	0x3d3dc0f1	0.04632658
31	0x3c6d7737	0.014493755
32	0x3ddb38fe	0.1070423
33	0xbe282484	-0.1642018
34	0xbde85b2e	-0.11345516
35	0x3d94cf90	0.07266152
36	0x3d8df300	0.06931114
37	0x3e25309a	0.16131821
38	0x3e2b7a5a	0.16745892
39	0x3e8ee4d7	0.27908966
40	0xbd6aec6b	-0.057354372
41	0x3d940066	0.072266385
42	0x3d5b2a16	0.053506933
43	0x3e0f60e8	0.1400181
44	0x3e0ed454	0.13948184
45	0x3dc0a413	0.09406295
46	0x3cea44fc	0.028597347
47	0xbe00e0bf	-0.12585734
48	0xbdff5c7e	-0.12468813
49	0xbdeb1b4e	-0.11479817
50	0xbdae02f8	-0.0849666
51	0x3d1e3d60	0.03863275
52	0xbe12f95b	-0.14352934
53	0x3da19c3b	0.07891127
54	0x3d411f16	0.047148786
55	0x3dcff28b	0.10153683
56	0x3e063e1f	0.13109635
57	0xbdf0c317	-0.117559604
58	0xbd407d6b	-0.046994608
59	0xbe3f0e6f	-0.1865785
60	0x3de90cab	0.11379369
61	0xbe09fd4c	-0.13475531
62	0x3dcf25b8	0.10114616
63	0x3e004bca	0.12528911
64	0x3e244230	0.16040874
65	0x3d8cd473	0.06876459
66	0x3db24beb	0.087058865
67	0x3e122e0f	0.14275382
68	0x3cd170ab	0.02556642
69	0x3d7cfd90	0.061765254
70	0x3e1b4b90	0.15165544
71	0x3e22d23e	0.15900514
72	0xbde3f391	-0.11130441
73	0xbdbe8c85	-0.09304146
74	0x3e139f9d	0.14416356
75	0xbdc556f7	-0.09635728
76	0x3db5d358	0.08878201
77	0xbdf3fc65	-0.11913375
78	0xbda65cbc	-0.081231564
79	0x3d8c9642	0.06864597
80	0x3cd56280	0.026047945
81	0xbdf0a8eb	-0.117509685
82	0xbd0f3a4a	-0.0349677
83	0x3d2eedd0	0.042707264
84	0x3e049108	0.1294595
85	0xbb993fd6	-0.0046767993
86	0xbdba2416	-0.09088914
87	0xbdc2f2ae	-0.09518944
88	0x3df8a5d8	0.12141007
89	0x3e20be9e	0.15697715
90	0x3d4fa946	0.05069854
91	0xbdc70933	-0.097185515
92	0x3d24f480	0.040272236
93	0x3d77fe7b	0.060545426
94	0x3d74d7db	0.05977617
95	0xbe0906a7	-0.13381444
96	0x3d6ed216	0.058305822
97	0x3e05d59c	0.13069767
98	0x3d9e3b6e	0.07726179
99	0xbd395780	-0.045249462
100	0x3da4baeb	0.08043464
101	0xbdb9e0ac	-0.09076056
102	0x3d314ef3	0.043288182
103	0x3dd83e3f	0.105587475
104	0x3d7525a0	0.059850335
105	0x3e0aab18	0.1354183
106	0x3d237b9b	0.0399128
107	0x3e1af356	0.15131888
108	0xbdd0f9ce	-0.102038965
109	0xbce506a4	-0.027957268
110	0x3d56eb62	0.052470572
111	0xbc93d16f	-0.018044202
112	0x3da67e50	0.08129561
113	0xbd303f00	-0.04302883
114	0x3cb2cf4b	0.02182736
115	0xbafa7d56	-0.0019110839
116	0x3e1e131e	0.1543698
117	0x3dee32a0	0.1163075
118	0xbe2aa5bb	-0.16664784
119	0xbe399f16	-0.18127093
120	0x3caa58e0	0.020794332
121	0x3d4d3eab	0.050108593
122	0x3d8238be	0.06358479
123	0xbc387700	-0.011258841
124	0xbdf80ef6	-0.121122286
125	0xbe008e28	-0.12554228
126	0xbdb8bbb8	-0.090201795
127	0xbba936d6	-0.0051640077
128	0x3d15e17b	0.036591988
129	0x3dc4b813	0.09605422
130	0xbbcad42b	-0.006189843
131	0x3dceece6	0.101037785
132	0xbdb12e33	-0.0865139
133	0x3d613f10	0.05499178
134	0xbd025b3b	-0.031825285
135	0x3dc33a28	0.09532577
136	0xbdc80cf5	-0.09768096
137	0x3e0fc8f9	0.14041509
138	0x3e490cba	0.19633761
139	0x3d9d07f3	0.07667532
140	0x3d829f40	0.06378031
141	0xbdc8a840	-0.09797716
142	0x3bfd94d6	0.00773869
143	0xbdca9abb	-0.09892794
144	0xbe29b83f	-0.1657419
145	0x3d51ebdb	0.05125032
146	0x3e5c2dd3	0.21501856
147	0xbdd21869	-0.10258562
148	0x3d93d280	0.07217884
149	0x3e1ecfb8	0.15508926
150	0xbd16179b	-0.036643606
151	0xbe1449f4	-0.14481336
152	0x3daf2f8e	0.08553992
153	0x3da9ce0e	0.08291255
154	0x3e61767a	0.22017851
155	0x3da100db	0.07861491
156	0x3e10e9a7	0.14151631
157	0x3e1fc3c4	0.15602022
158	0xbe0f9d0e	-0.14024755
159	0x3bed6cab	0.0072456202
160	0x3e22b34f	0.15888713
161	0x3c839eb6	0.01606689
162	0x3e112930	0.14175868
163	0xbe13d7c6	-0.1443778
164	0x3e62d297	0.22150646
165	0x3d871285	0.06595329
166	0x3c848c0c	0.01618006
167	0xbc13cbc4	-0.0090207495
168	0xbd094900	-0.033516884
169	0x3ab2f956	0.001365463
170	0x3e275a2f	0.16342996
171	0x3e1d7672	0.15377215
172	0xbd36522c	-0.04451196
173	0x3e3de7f1	0.1854551
174	0xbcd02650	-0.025408894
175	0x3db34492	0.08753313
176	0xbe055d8b	-0.13023965
177	0x3e083717	0.13302265
178	0xbd7d864f	-0.061895665
179	0x3d94986f	0.07255637
180	0xbcb60b1f	-0.0222221
181	0xbd15f711	-0.036612574
182	0xbe4305b1	-0.1904514
183	0xbe8622cc	-0.26198423
184	0xbde73d28	-0.112909615
185	0xbdb960e6	-0.09051685
186	0x3da9b34e	0.08286153
187	0x3d5405a6	0.0517632
188	0x3e07cefe	0.13262555
189	0x3d9fecf0	0.07808864
190	0x3e2eb768	0.17062151
191	0xbd648989	-0.055795226
192	0x3de729f3	0.11287298
193	0xbd1413f0	-0.036151826
194	0x3c904520	0.017611086
195	0x3b399456	0.0028317175
196	0xbd441606	-0.047872566
197	0xbde94b5e	-0.11391328
198	0x3dc55400	0.09635162
199	0x3e25208e	0.161257
200	0x3d704efd	0.05866908
201	0xbdf16dad	-0.11788497
202	0x3dcae34a	0.09906633
203	0xbe6421f8	-0.22278583
204	0x3dcf97de	0.10136388
205	0x3e1cc297	0.15308605
206	0xbe1277bf	-0.14303492
207	0xbdfe40ae	-0.124146804
208	0xbdff0252	-0.124516144
209	0xbd45082a	-0.04810349
210	0x3d816f55	0.06320063
211	0xbc8bd112	-0.017067466
212	0xbe4076bc	-0.18795294
213	0xbd989e3c	-0.07452056
214	0x3d66f4f4	0.05638595
215	0x3df81151	0.12112678
216	0xbdf5e750	-0.1200701
217	0x3dab0afe	0.08351706
218	0xbe3e6624	-0.18593651
219	0xbe0239e4	-0.12717396
220	0x3d8e89b3	0.06959858
221	0xbde2e7f3	-0.11079397
222	0xbe16624b	-0.14685933
223	0x3d6c7d30	0.057736576
224	0x3c944b60	0.018102348
225	0x3cc3ceb6	0.023902278
226	0x3e28dcc1	0.16490461
227	0x3da5972f	0.080854766
228	0xbd92ca46	-0.07167487
229	0x3dd43c88	0.10363108
230	0x3de11f76	0.10992329
231	0xbdee8303	-0.11646082
232	0x3d395cc0	0.04525447
233	0xbcfc9aab	-0.03083547
234	0xbdbdc81e	-0.09266685
235	0xbbdca600	-0.006733656
236	0x3c5ae4fd	0.013360259
237	0xbba827b3	-0.0051316856
238	0xbe029bb6	-0.12754712
239	0x3d933ece	0.071897134
240	0x3deb45d6	0.114879295
241	0x3d81e7e6	0.06343059
242	0x3d457796	0.04820975
243	0xbd13cac0	-0.03608203
244	0x3e366732	0.17812803
245	0x3dc0f75f	0.09422182
246	0x3e4f5f6a	0.20251241
247	0x3ddee3a0	0.1088326
248	0x3d1921ec	0.037385866
249	0xbcbececf	-0.023291973
250	0x3d94780c	0.072494596
251	0x3e03c5a2	0.1286836
252	0xbd2b61f0	-0.041841447
253	0x3dbbff9b	0.09179612
254	0xbe3681b9	-0.17822923
255	0x3df9cb58	0.12196988

layer2.0.bias f4 [256]
0	0xbc3487a5	-0.011018668
1	0x3dbb0e2e	0.09133564
2	0xbc5ed624	-0.01360086
3	0xbe95d15d	-0.29261294
4	0x3e28d2e1	0.16486694
5	0xbdc9b86f	-0.09849631
6	0xbd8f570a	-0.06999023
7	0xbd5b0c27	-0.053478386
8	0xbdd8b6a5	-0.10581712
9	0x3e271e1b	0.16320078
10	0xbe5d8bd3	-0.2163537
11	0x3ddc344f	0.107521646
12	0x3eb464f3	0.35233268
13	0xbe388ebd	-0.180232
14	0x3d2c659f	0.0420891
15	0x3e0da3e9	0.13832058
16	0xbd995e0b	-0.074886404
17	0xbb9426bd	-0.0045212195
18	0x3dd1f357	0.102514915
19	0xbc5370b8	-0.012905292
20	0xbe61eb5e	-0.22062442
21	0xbd0cbcce	-0.034359746
22	0x3e8cdf2d	0.2751402
23	0x3e7f8ed2	0.24956825
24	0x3e861c4a	0.26193458
25	0x3e490110	0.19629312
26	0x3d25ff35	0.040526588
27	0xbcbb1cd7	-0.0228409
28	0x3cbe0f18	0.023200557
29	0xbe0ce52e	-0.137593
30	0x3e894767	0.26812288
31	0xbd1d9f42	-0.03848196
32	0xbe1a7e4f	-0.15087245
33	0xbdb61d6b	-0.0889233
34	0x3e23f75d	0.1601233
35	0x3dda1096	0.10647695
36	0xbcbdf400	-0.023187637
37	0xbe2976a4	-0.16549164
38	0x3df307fe	0.11866759
39	0x3e25dae8	0.16196787
40	0xbe2d443f	-0.16920565
41	0xbd13b690	-0.036062777
42	0xbcfdd41c	-0.03098493
43	0xbd71d352	-0.05903942
44	0x3db71e53	0.08941331
45	0xbb267e9c	-0.0025405055
46	0x3c1c8523	0.009553227
47	0xbd73ed7e	-0.059552662
48	0xbcd58008	-0.026062027
49	0xbdd081c2	-0.10180999
50	0x3d3ce5b7	0.04611751
51	0xbe151830	-0.14560008
52	0xbcc8b428	-0.024499968
53	0x3d17bf19	0.03704748
54	0xbdd9d45a	-0.10636206
55	0xbd142bcb	-0.036174577
56	0x3e588447	0.2114421
57	0x3e3fcb76	0.18729958
58	0xbe5316e4	-0.20614201
59	0xbd8df550	-0.06931555
60	0xbdc5916f	-0.0964688
61	0x3dcdd183	0.10049727
62	0x3d706e3d	0.05869888
63	0xbbfa3395	-0.0076355436
64	0x3e3c52f3	0.18391018
65	0x3da910d6	0.08255164
66	0xbd8839b0	-0.06651628
67	0x3ea7d045	0.32776085
68	0xbeaabaf2	-0.33345753
69	0x3db267fa	0.08711238
70	0xbda7a241	-0.08185244
71	0x3da95220	0.08267617
72	0x3db87230	0.090061545
73	0xbe25a516	-0.16176257
74	0x3da91702	0.082563415
75	0xbd3517df	-0.04421222
76	0x3db701e7	0.0893591
77	0x3e04a055	0.12951787
78	0xbe145a15	-0.14487489
79	0xbcee1dc5	-0.02906693
80	0x3de75ae9	0.112966366
81	0xbd4585f1	-0.04822344
82	0x3c8a3ff1	0.016876193
83	0xbd06f703	-0.032950412
84	0x3d80fe9a	0.062985614
85	0xbde21c07	-0.11040502
86	0x3d8c01d3	0.068362854
87	0xbe076b90	-0.13224626
88	0xbe12fd23	-0.14354376
89	0xbd1402eb	-0.036135595
90	0x3e7a68d9	0.24454059
91	0xbe67ee31	-0.22649457
92	0xbdd88bff	-0.10573577
93	0x3e64f530	0.22359157
94	0x3da79497	0.08182638
95	0x3daf2bb5	0.08553258
96	0x3dc086f5	0.09400741
97	0x3d24c51e	0.040227048
98	0x3e38609e	0.18005607
99	0xbdd1d8f9	-0.102464624
100	0xbdab6621	-0.08369089
101	0xbd2c4d0b	-0.04206566
102	0x3e595068	0.21222079
103	0x3d04b93c	0.032403216
104	0x3e808399	0.251004
105	0x3e845bf2	0.258514
106	0x3d855ae0	0.06511474
107	0xbda75204	-0.0816994
108	0xbd22bc89	-0.039730582
109	0x3e348305	0.17628105
110	0xbc23f827	-0.010007895
111	0x3e3349d9	0.1750864
112	0xbcb04f3e	-0.02152216
113	0x3d2d7a9b	0.042353254
114	0xbca667b5	-0.020313123
115	0xbe0b9cd9	-0.13634051
116	0x3e9c8cd3	0.3057619
117	0x3dd8fe1b	0.10595342
118	0x3d01625a	0.031587936
119	0x3e841ffd	0.25805655
120	0x3d3fe120	0.046845555
121	0xbe728451	-0.23683287
122	0x3e3ab9be	0.18234918
123	0x3d898939	0.06715626
124	0x3d8bb5d3	0.068217896
125	0x3e2c5e92	0.1683295
126	0x3e4dd9e5	0.20102651
127	0xbe9258c1	-0.2858334
128	0xbe91b9f5	-0.28462186
129	0xbe4581f0	-0.19287848
130	0xbe3fa067	-0.18713532
131	0x3d8c5dcc	0.06853828
132	0xbe248c81	-0.16069223
133	0xbe477d56	-0.19481406
134	0x3d978a5c	0.07399437
135	0xbe036530	-0.12831569
136	0x3e04a4df	0.12953518
137	0x3e0cf819	0.13766517
138	0xbe9897b8	-0.29803252
139	0x3d78547a	0.060627438
140	0xbd5a774c	-0.053336427
141	0xbc4c2d02	-0.012461903
142	0x3e23ae53	0.15984468
143	0xbca9f0a2	-0.020744625
144	0x3d847e34	0.06469384
145	0x3e1c793f	0.15280627
146	0x3e907731	0.28215936
147	0x3c20c8e8	0.009813525
148	0x3e316369	0.17323078
149	0xbe661df1	-0.22472359
150	0xbe2fd8fa	-0.17172614
151	0x3e322c37	0.17399679
152	0x3d8244a2	0.06360747
153	0xbcf136ff	-0.02944517
154	0xbdec3765	-0.11534003
155	0x3d6814ce	0.056660466
156	0x3e3c106f	0.18365644
157	0x3e5ca1d5	0.21546109
158	0x3df8a08e	0.121399984
159	0x3e560cce	0.20903322
160	0xbe1840c2	-0.14868453
161	0x3e297b37	0.16550909
162	0x3d301643	0.04298998
163	0x3dbb1e8c	0.09136686
164	0x3e014437	0.12623678
165	0xbc41ed74	-0.011836398
166	0x3ddf0923	0.108904146
167	0xbe1a71a7	-0.15082417
168	0x3cdf8578	0.027285323
169	0x3d8fe430	0.07025945
170	0xbdb28358	-0.08716458
171	0xbdd06c39	-0.10176892
172	0x3ddf3b88	0.109000266
173	0x3d3ac6ea	0.045599855
174	0x3d79a7d4	0.06095107
175	0x3e8a266a	0.26982433
176	0x3e916b47	0.2840216
177	0xbd7b04e8	-0.061283976
178	0x3e736bea	0.23771635
179	0x3e1fb855	0.15597661
180	0x3d0886a8	0.033331543
181	0xbcef8af5	-0.029241065
182	0xbc1329ef	-0.008982166
183	0xbd629b66	-0.05532398
184	0x3e1fe939	0.15616311
185	0x3d957c79	0.07299132
186	0x3dd3eb12	0.103475705
187	0x3dc0e3c1	0.094184406
188	0x3b216b7c	0.0024630716
189	0x3ce39fd1	0.027786167
190	0xbe070c4a	-0.13188282
191	0xbe26320f	-0.16230033
192	0xbd2403dd	-0.040042747
193	0x3d892d5f	0.06698107
194	0x3da5f868	0.0810402
195	0xbdd032f8	-0.101659715
196	0xbdd102e8	-0.102056324
197	0x3de7dc20	0.113212824
198	0xbceeb764	-0.029140182
199	0x3e07c1da	0.13257542
200	0xbe722392	-0.23646381
201	0xbe7266a7	-0.23671971
202	0xbd39df00	-0.045378685
203	0x3daedd2a	0.085382774
204	0xbda3da1c	-0.080005854
205	0xbded3baa	-0.11583646
206	0x3e509b4c	0.20371741
207	0xbd6d5ce3	-0.05794991
208	0xbd4c0cde	-0.04981696
209	0xbe6e9999	-0.2330078
210	0x3d74f454	0.059803322
211	0xbd12da75	-0.035852868
212	0x3d443058	0.047897667
213	0xbddfe08a	-0.10931499
214	0x3dddd1cc	0.10831031
215	0xbd04d4a9	-0.03242937
216	0xbd48d5a1	-0.049031857
217	0xbc84649c	-0.016161256
218	0x3e1e101e	0.15435836
219	0x3e502d30	0.20329738
220	0xbdbae91c	-0.09126493
221	0x3e6baced	0.23015185
222	0x3e67d66d	0.2264039
223	0x3c0aa1e4	0.008461449
224	0xbd90844e	-0.07056485
225	0xbd822f87	-0.06356721
226	0xbe3623a2	-0.1778703
227	0xbe1f803a	-0.15576258
228	0xbcf46fe1	-0.029838504
229	0x3d7df4dc	0.062001094
230	0xbe65aeab	-0.22429912
231	0x3e37cdd6	0.17949614
232	0x3dd5cbdd	0.104392745
233	0xbdfb5983	-0.122729324
234	0x3e32b822	0.17453054
235	0xbc64be3a	-0.013961369
236	0xbca91ae5	-0.020642707
237	0xbd81f34c	-0.06345233
238	0x3d9190d8	0.07107705
239	0x3b2db540	0.0026505738
240	0x3df87750	0.12132132
241	0xbd9990ba	-0.074983075
242	0xbe0b2cdd	-0.13591333
243	0x3e8abe30	0.27098227
244	0x3dc007e6	0.093765065
245	0xbdc52036	-0.096252844
246	0xbd875ddc	-0.06609699
247	0x3e22c5ae	0.15895721
248	0x3aa834d5	0.0012833128
249	0x3cd132e8	0.02553697
250	0x3ddcf13e	0.10788201
251	0x3d80b191	0.06283868
252	0x3e324d03	0.1741219
253	0xbd53d517	-0.05171689
254	0xbd825cd4	-0.06365362
255	0xbdb745b4	-0.08948842

layer2.2.weight f4 [256, 256]
0	0x3e63ed97	0.22258602
1	0xbddaa9e4	-0.10676935
2	0x3d8ff2c2	0.07028724
3	0x3ce765e6	0.028246831
4	0xbde95445	-0.11393026
5	0xbd10211e	-0.035187833
6	0x3e7808c3	0.24222092
7	0x3d75b21e	0.05998432
8	0x3e8d56da	0.27605325
9	0x3e0d1a9d	0.13779683
10	0x3d0b8923	0.03406633
11	0x3e7aadc6	0.24480352
12	0x3b49358c	0.0030702082
13	0xbe98c7ca	-0.29839927
14	0x3da179ee	0.07884584
15	0x3d9ad279	0.07559676
16	0x3d8c56bb	0.0685248
17	0xbeb1707c	-0.3465613
18	0xbdfb8cb0	-0.122826934
19	0x3d2106b7	0.039313044
20	0x3e8c3b81	0.27389148
21	0x3e93e992	0.28889138
22	0x3e06a304	0.13148123
23	0x3da6064e	0.08106671
24	0xbe60ef85	-0.2196637
25	0xbee50df3	-0.44737205
26	0x3d16c7c6	0.036811613
27	0xbd3f712c	-0.04673879
28	0x3e0e0bc5	0.13871677
29	0x3ebfef50	0.37487268
30	0xbe7bcee6	-0.24590644
31	0x3dd8ec92	0.10591997
32	0x3e249252	0.16071442
33	0xbe15447e	-0.14576909
34	0x3a958557	0.0011407536
35	0xbe3a0066	-0.18164214
36	0xbc9abc25	-0.018888542
37	0x3ea13164	0.31482995
38	0xbe7c8f41	-0.24664022
39	0x3a3604cf	0.00069434656
40	0xbe7e1bc1	-0.24815275
41	0x3e2c10ab	0.16803233
42	0x3a9f51aa	0.0012155075
43	0xbebef530	-0.37296438
44	0xbe657e5a	-0.2241148
45	0x3e6277de	0.22116038
46	0x3d873e5f	0.06603693
47	0xbcf3be99	-0.02975397
48	0x3eaca498	0.33719325
49	0x3e3f67c1	0.18691923
50	0xbe4958aa	-0.19662729
51	0xbe2616d6	-0.16219649
52	0x3b8fa260	0.0043833703
53	0x3db59518	0.08866328
54	0x3e5e772a	0.21725145
55	0xbe17d3b2	-0.14826849
56	0x3ddf8de0	0.109157324
57	0xbd144047	-0.036194112
58	0x3d8caf16	0.068693325
59	0x3c5ea63d	0.013589439
60	0xbe0e03d9	-0.13868655
61	0xbe72f5a2	-0.23726514
62	0xbe10584c	-0.14096183
63	0x3c2430d3	0.010021406
64	0x3d1f2cb1	0.03886098
65	0xbee3b1e2	-0.4447165
66	0x3d99963e	0.074993595
67	0xbe4e4c51	-0.201463
68	0xbca3f366	-0.020013522
69	0xbbad526c	-0.0052893665
70	0xbe99f659	-0.3007076
71	0x3d1370eb	0.03599636
72	0x3ddcf08b	0.107880674
73	0xbc2c7e0b	-0.010528098
74	0xbe7121a3	-0.23547988
75	0x3d577ff4	0.05261226
76	0x3e28deea	0.16491285
77	0x3e7411a4	0.23834854
78	0x3e9e33cc	0.30898893
79	0xbe64d807	-0.22348033
80	0xbdab1778	-0.08354086
81	0xbd80834c	-0.06275043
82	0x3d13e055	0.03610261
83	0xbe3fb399	-0.18720855
84	0xbdf82a6e	-0.12117468
85	0x3dd88b1f	0.1057341
86	0x3e3525c3	0.17690186
87	0xbd2aca2c	-0.041696712
88	0x3e01a794	0.12661582
89	0x3d7b0627	0.061285164
90	0xbe2f4a57	-0.17118202
91	0x3d670d2d	0.05640905
92	0x3e92ac1d	0.28646937
93	0xbe0f4823	-0.13992362
94	0xbee6a921	-0.4505091
95	0x3bf7bc69	0.007560302
96	0x3d31cf5e	0.04341065
97	0x3e8e2d89	0.27769116
98	0x3d9231b3	0.071383856
99	0x3a2f7abf	0.0006694011
100	0xbe6e0130	-0.2324264
101	0xbd785d29	-0.06063572
102	0x3c8dec24	0.017324515
103	0x3e979ac1	0.29610255
104	0x3c8584ed	0.016298736
105	0x3c9bc929	0.01901682
106	0xbe1f2ac9	-0.15543665
107	0x3b96f45f	0.004606768
108	0xbd656c4b	-0.05601148
109	0xbdcce8b8	-0.10005325
110	0xbea34c2c	-0.31894052
111	0xbd554ff7	-0.052078214
112	0xbdbcf46d	-0.09226308
113	0xbe02931e	-0.12751433
114	0xbdfb8445	-0.12281088
115	0x3cec919a	0.028878022
116	0xbd933dd5	-0.07189528
117	0xbe757c75	-0.23973258
118	0xbce46229	-0.027878838
119	0x3e24e869	0.16104282
120	0xbde2c051	-0.11071838
121	0x3dfa3c50	0.12218535
122	0x3e4c3ba6	0.19944629
123	0x3d8403cb	0.06446036
124	0xbe313286	-0.1730443
125	0x3e1c6170	0.15271544
126	0xbf16c194	-0.58889127
127	0xbd89c574	-0.06727114
128	0x3e1d1358	0.1533941
129	0xbe29de56	-0.1658872
130	0x3dbcb506	0.09214215
131	0x3cfffab2	0.03124747
132	0x3d0b7670	0.034048498
133	0x3d1d9160	0.03846872
134	0xbd4ff929	-0.050774727
135	0xbce2bf26	-0.027679037
136	0x3da9ac0c	0.082847685
137	0x3e440817	0.19143711
138	0xbd85b7e5	-0.06529216
139	0xbea432eb	-0.32070097
140	0x3e5d7747	0.21627532
141	0x3d7a64db	0.06113134
142	0xbd928bd5	-0.07155577
143	0xbe198106	-0.14990625
144	0x3cf2bbf8	0.029630646
145	0x3d3752a0	0.04475653
146	0x3cf0a4b5	0.029375413
147	0x3e5d0f37	0.21587835
148	0xbcddc5ce	-0.02707186
149	0x3e2d6202	0.16931918
150	0x3d29bc90	0.041439593
151	0x3cf5a78a	0.029987115
152	0x3d8680d4	0.06567541
153	0xbd128209	-0.035768542
154	0x3d9d9bbf	0.07695722
155	0xbe8f7b1d	-0.28023615
156	0xbec3734c	-0.38173902
157	0xbd4ec82f	-0.05048388
158	0xbe037c6e	-0.12840435
159	0xbe93c35d	-0.28859988
160	0x3e4d590b	0.20053498
161	0xbe5bdda1	-0.21471263
162	0xbbe8f73b	-0.0071095503
163	0x3e546910	0.20743203
164	0xbdc12b16	-0.09432046
165	0xbd80606b	-0.0626839
166	0x3e23d42d	0.15998907
167	0x3ea99753	0.33123264
168	0x3dde6b0c	0.10860261
169	0xbcd7bcba	-0.026335109
170	0x3e0692f4	0.13141996
171	0xbd3abde2	-0.045591243
172	0x3dd76eb4	0.10519162
173	0xbdbed30f	-0.093176
174	0x3dae5aa0	0.08513379
175	0x3d182340	0.037142992
176	0xbd50691b	-0.050881486
177	0xbdd3a296	-0.10333745
178	0xbecd64c4	-0.4011594
179	0x3e255cfa	0.16148749
180	0x3de8e30d	0.113714315
181	0xbdd7650f	-0.10517322
182	0xbd3f89f5	-0.046762425
183	0xbda66332	-0.08124389
184	0xbdf0176d	-0.11723218
185	0x3d3ee56d	0.046605516
186	0x3ce359e6	0.027752828
187	0xbe198ad1	-0.1499436
188	0xbe120fa4	-0.14263779
189	0xbd6492be	-0.055804007
190	0xbdb133ba	-0.08652444
191	0x3e16ebc3	0.14738373
192	0xbd72d535	-0.05928536
193	0xbbb90593	-0.0056464165
194	0xbdc658f1	-0.09684933
195	0xbe8e8414	-0.27835143
196	0x3d801c5a	0.06255408
197	0xbe00b932	-0.12570646
198	0xbccd10a4	-0.025032349
199	0x3e16b289	0.14716543
200	0x3e45c5bf	0.19313715
201	0x3bb66838	0.005566623
202	0x3d882b81	0.06648923
203	0xbe8021bb	-0.25025734
204	0x3dae20ab	0.08502325
205	0x3e70016d	0.23438044
206	0x3dbc61db	0.09198352
207	0xbe135f8e	-0.1439192
208	0xbc5d2a61	-0.013498873
209	0x3e16e6c7	0.14736472
210	0xbbcedfe9	-0.0063133133
211	0x3d02ab6c	0.031901762
212	0xbd02c985	-0.031930465
213	0xbdc082b1	-0.093999274
214	0xbdcc6bae	-0.09981476
215	0x3d06aa70	0.032877386
216	0xbe22a7a0	-0.15884256
217	0xbea74fb9	-0.3267801
218	0xbcd14ce8	-0.025549367
219	0x3e38e7a9	0.18057121
220	0xbdd0ccd0	-0.10195315
221	0xbd68458e	-0.056706958
222	0xbca49243	-0.020089274
223	0xbe681261	-0.22663261
224	0xbdeb71f1	-0.11496342
225	0xbe17321e	-0.14765212
226	0xbe727cfe	-0.23680493
227	0xbdfb6289	-0.122746535
228	0xbe0bcad6	-0.13651595
229	0x3d89e0c8	0.06732327
230	0x3d7a9510	0.061177313
231	0x3defaf48	0.11703354
232	0xbea72e04	-0.32652295
233	0xbe709613	-0.23494749
234	0xbe1a150e	-0.15047094
235	0xbe575af3	-0.21030788
236	0xbc4de628	-0.012567081
237	0x3b8b5652	0.0042522335
238	0xbc759ae9	-0.014990547
239	0xbbfcb8d1	-0.0077124615
240	0x3f18789c	0.59559035
241	0x3de3dd45	0.11126188
242	0x3e0aea95	0.13566048
243	0xbce2281b	-0.027607014
244	0x3e314e87	0.17315112
245	0x3cb4b3eb	0.022058448
246	0x3e60f7d0	0.21969533
247	0x3e8b164f	0.27165458
248	0xbd3fc5fb	-0.04681967
249	0x3d721fe8	0.05911246
250	0xbe367258	-0.17817056
251	0xbe590d55	-0.21196492
252	0xbe370979	-0.17874707
253	0x3cf1fb41	0.029538753
254	0xbc943684	-0.018092401
255	0xbe6703eb	-0.22560088

layer2.2.bias f4 [256]
0	0xbd3752bc	-0.044756636
1	0xbcdad819	-0.026714372
2	0x3e201ba0	0.15635538
3	0x3d8a9c4a	0.06768091
4	0xbe0010e1	-0.12506439
5	0xbe4b6e42	-0.19866279
6	0xbd9a6a8e	-0.07539855
7	0xbe1d1d7d	-0.1534328
8	0x3c8fc68e	0.017550733
9	0xbd8dac5b	-0.0691764
10	0x3dc1f561	0.094706304
11	0xbc021a63	-0.007940861
12	0x3e82f95b	0.25580868
13	0xbcff199d	-0.031140143
14	0x3e83d265	0.25746456
15	0x3d2546f6	0.040350877
16	0x3dac5ad3	0.08415761
17	0x3e501a19	0.20322455
18	0xbe0f5669	-0.13997807
19	0xbd5f21d2	-0.054475613
20	0x3e99b2c9	0.30019215
21	0xbc25a44c	-0.010109972
22	0x3af64f48	0.0018791938
23	0xbcc3a3c7	-0.023881806
24	0xbe700f9e	-0.23443457
25	0x3e373f98	0.17895353
26	0x3d19585f	0.037437793
27	0x3d7b1a02	0.0613041
28	0xbc1b696c	-0.009485584
29	0x3c2e5934	0.010641385
30	0x3e2f0980	0.17093468
31	0x3d66a577	0.056310143
32	0xbd0b422d	-0.033998657
33	0x3d3d444f	0.046207722
34	0xbdcd5b24	-0.10027149
35	0x3de62078	0.11236662
36	0xbe8e63aa	-0.27810413
37	0xbd07e35e	-0.03317582
38	0x3e31f55b	0.17378752
39	0x3e9a768b	0.30168566
40	0xbdd049d9	-0.10170335
41	0x3e44733f	0.19184588
42	0xbdf32f1d	-0.118742205
43	0xbd16fd7d	-0.03686284
44	0xbeac271c	-0.33623588
45	0xbd9f2701	-0.07771111
46	0x3b40a549	0.0029395393
47	0xbd6a9841	-0.057274107
48	0x3cccfe95	0.025023738
49	0xbd8f2e8a	-0.069912985
50	0xbe715af3	-0.2356985
51	0xbcf37e6e	-0.029723372
52	0xbd3fc08b	-0.046814483
53	0xbd53aa92	-0.05167634
54	0xbd6a0aca	-0.057139196
55	0x3dc88f66	0.09792976
56	0x3d755927	0.059899475
57	0xbd539cf9	-0.051663373
58	0x3d4fcb08	0.050730735
59	0x3dfdb0e4	0.12387255
60	0xbd39034d	-0.045169163
61	0xbdd3f33a	-0.10349126
62	0xbd10ff3b	-0.035399657
63	0xbd10b2e7	-0.035326865
64	0xbd67a288	-0.056551486
65	0x3e78fefc	0.24316019
66	0x3e2cbfc3	0.16870026
67	0xbe1b060e	-0.15139028
68	0xbe8f83b0	-0.28030157
69	0x3dec4551	0.115366586
70	0x3e264b9b	0.16239779
71	0x3cf8eec0	0.030387282
72	0xbe1fc8fb	-0.15604012
73	0xbdedba22	-0.11607768
74	0xbdb443ca	-0.08801992
75	0xbe5b2962	-0.21402505
76	0x3cdd9d8a	0.02705266
77	0xbda04db3	-0.0782732
78	0x3d845cfb	0.06463047
79	0x3c73ab55	0.014872392
80	0x3cb33534	0.021875955
81	0x3d00f7a4	0.03148617
82	0xbe10e6cd	-0.14150544
83	0x3d82448e	0.06360732
84	0xbe1a274f	-0.15054058
85	0xbe8ed5ed	-0.27897587
86	0x3e3630c7	0.17792045
87	0xbd81a0a1	-0.06329466
88	0xbe79e1d2	-0.2440255
89	0xbea55a39	-0.32295397
90	0xbd6e106e	-0.058121137
91	0x3e4ee4e0	0.20204496
92	0x3d6a9fdf	0.05728137
93	0x3df59c6e	0.11992727
94	0x3e5f4a28	0.21805632
95	0xbc311fec	-0.010810833
96	0x3bc69522	0.0060602585
97	0xbd3ec1ca	-0.04657153
98	0xbd9e4457	-0.077278785
99	0xbe0b4980	-0.13602257
100	0x3e229bfb	0.15879814
101	0xbce96101	-0.028488638
102	0xbdc54ce8	-0.09633809
103	0x3d90cc35	0.070701994
104	0xbcb60e35	-0.022223571
105	0xbddb2f3e	-0.1070237
106	0x3e5cf9df	0.21579693
107	0xbe4c0e21	-0.19927265
108	0xbd3bbec2	-0.045836218
109	0xbcfc62ba	-0.030808795
110	0x3d0b4868	0.0340046
111	0x3dbc4b2e	0.09194027
112	0xbb6c6c4f	-0.00360753
113	0x3b907ab5	0.004409159
114	0x3de4e030	0.11175573
115	0xbe5ee298	-0.21766126
116	0x3d9253a1	0.07144857
117	0x3e09776b	0.1342446
118	0x3dd224f5	0.10260955
119	0xbe8f630c	-0.28005254
120	0xbe8bcf2e	-0.27306503
121	0x3de0f177	0.10983556
122	0xbdfcfbe5	-0.123527326
123	0xbe01e320	-0.12684298
124	0x3e63bde6	0.2224041
125	0x3e4645b0	0.19362521
126	0xbe0e2e68	-0.1388489
127	0x3def2376	0.116766855
128	0x3dda16f5	0.1064891
129	0x3e154fe9	0.14581265
130	0x3df553ae	0.11978851
131	0x3e0b9386	0.13630494
132	0x3e2d220e	0.16907522
133	0x3c8c029e	0.017091092
134	0xbc83542a	-0.016031343
135	0x3e23c829	0.15994324
136	0xbddf27dd	-0.10896275
137	0xbdd16495	-0.102242626
138	0xbe94707c	-0.2899207
139	0xbe831ad4	-0.25606406
140	0x3e0e6295	0.13904794
141	0x3cf847f0	0.03030774
142	0xbe3331ab	-0.17499416
143	0x3c973efa	0.018462647
144	0xbe2e7248	-0.17035782
145	0xbd999674	-0.074994
146	0xbe110c8a	-0.1416494
147	0xbb8cdc94	-0.004298756
148	0x3e524847	0.20535384
149	0x3d7a0e32	0.061048694
150	0x3e1d8380	0.15382195
151	0x3dc61681	0.09672261
152	0xbe60125d	-0.21882005
153	0x3dd7a46d	0.105294086
154	0xbce41c09	-0.0278454
155	0xbe326f49	-0.17425264
156	0xbe6574db	-0.22407858
157	0x3e1e7a64	0.15476376
158	0xbe3a4bbd	-0.18192954
159	0x3e95628a	0.29176742
160	0xbdb9edd6	-0.09078567
161	0xbe417362	-0.18891671
162	0x3e843531	0.25821832
163	0x3d213e55	0.039366085
164	0x3e4b4610	0.19850945
165	0x3e43e823	0.19131522
166	0x3e2f0b6b	0.170942
167	0xbe3619de	-0.17783305
168	0xbd7c7366	-0.06163349
169	0xbd4314db	-0.04762731
170	0x3ba7d7cc	0.0051221605
171	0x3e454156	0.19263205
172	0x3d5cd71f	0.053916093
173	0xbe7142e0	-0.23560667
174	0xbea375dd	-0.3192586
175	0xbc848b75	-0.01617978
176	0x3e5cd3d9	0.21565188
177	0xbcedf61e	-0.029048022
178	0x3d358696	0.044317804
179	0xbd113760	-0.0354532
180	0xbe0bdcb9	-0.13658418
181	0x3e5444eb	0.20729415
182	0xbc0efd06	-0.008727318
183	0xbe150923	-0.14554267
184	0x3e970951	0.29499295
185	0x3d5a9054	0.0533603
186	0x3e3c2a39	0.18375482
187	0xbd08aacb	-0.033366006
188	0xbe5b6db1	-0.21428563
189	0xbddcf41c	-0.10788748
190	0x3c273ba5	0.010207091
191	0x3c8a1ba5	0.016858885
192	0x3ca197fd	0.019725794
193	0x3e475abd	0.19468208
194	0xbe522ae3	-0.20524172
195	0xbdba9f99	-0.09112472
196	0xbe174df2	-0.14775828
197	0xbe4a6e96	-0.19768748
198	0xbd6a7b86	-0.057246707
199	0x3ba541a1	0.005043224
200	0x3ddde0c0	0.10833883
201	0x3dc7a9c1	0.09749175
202	0x3e57242e	0.21009895
203	0xbd8dabab	-0.06917509
204	0x3dbe63a9	0.092963524
205	0xbe0171c6	-0.12641057
206	0xbdf37ab6	-0.1188864
207	0x3c6a4e20	0.014300853
208	0x3e7b7407	0.2455598
209	0xbe351b77	-0.17686258
210	0x3d21879c	0.039435968
211	0x3e24e57c	0.16103166
212	0x3d9e613f	0.07733392
213	0xbd9f4343	-0.07776501
214	0x3dc901ff	0.09814834
215	0x3e21c3ad	0.157973
216	0x3e8e70b2	0.27820355
217	0xbe64ea0d	-0.22354908
218	0xbdfe95a8	-0.124308884
219	0x3d872438	0.06598705
220	0x3e6215ab	0.22078578
221	0xbd759be9	-0.05996314
222	0xbb6e50fa	-0.0036364184
223	0x3eafbcff	0.3432388
224	0xbe2c3ed3	-0.1682084
225	0xbe7a6b50	-0.24454999
226	0xbd837d6c	-0.06420407
227	0xbd1dc28f	-0.038515624
228	0xbe890afe	-0.267662
229	0x3e336110	0.17517495
230	0xbe36bb7a	-0.17844954
231	0x3d45259e	0.048131578
232	0xbd74c5e8	-0.05975905
233	0xbde13355	-0.10996119
234	0x3e1589f3	0.14603405
235	0x3e0d2723	0.1378446
236	0x3e23f5bc	0.16011709
237	0x3e8d6471	0.27615693
238	0xbe207a8d	-0.1567175
239	0x3e4beb89	0.19914068
240	0xbdbf49fb	-0.093402825
241	0x3e88586c	0.2662996
242	0x3db77581	0.08957959
243	0xbe072f39	-0.13201608
244	0x3e88f2a4	0.2674762
245	0xbd6a921d	-0.05726825
246	0xbde03d38	-0.109491765
247	0xbe077616	-0.1322864
248	0x3cee0477	0.029054863
249	0x3e07571f	0.13216828
250	0x3e1501e4	0.14551502
251	0xbc7c1a9d	-0.0153872045
252	0xbe6cae34	-0.23113328
253	0x3bd14c0d	0.00638724
254	0x3e22b128	0.15887892
255	0xbc7c76c9	-0.01540918

layer2.5.weight f4 [10, 256]
0	0x3baffcf4	0.0053707305
1	0xbc35ca73	-0.011095631
2	0xbd8298db	-0.06376811
3	0xbdbe054d	-0.09278355
4	0x3de313ce	0.11087762
5	0x3d94af90	0.072600484
6	0x3de2a21d	0.11066077
7	0xbd3c8b66	-0.04603138
8	0x3d4a73ef	0.04942697
9	0x3db538a4	0.08848694
10	0xbcd84125	-0.02639825
11	0x3d62a18f	0.055329856
12	0xbb88d50b	-0.0041757873
13	0x3e0fa69f	0.14028405
14	0x3d97a4b5	0.07404462
15	0xbe499188	-0.19684422
16	0xbdae491b	-0.085100375
17	0xbda82482	-0.08210088
18	0x3d7effcb	0.062255662
19	0xbce355dd	-0.027750904
20	0xbd90c3ac	-0.070685714
21	0xbc167b59	-0.009184682
22	0x3e02aeb4	0.12761956
23	0x3d10da4b	0.03536443
24	0x3d671744	0.056418672
25	0xbb45d673	-0.0030187636
26	0xbd07b84e	-0.03313475
27	0xbd038ec9	-0.032118592
28	0x3de15bbc	0.11003825
29	0x3d1d9962	0.038476355
30	0x3bcf523f	0.006326943
31	0xbd6b457c	-0.057439312
32	0x3c937146	0.017998349
33	0xbc5bfa89	-0.013426431
34	0x3ce54f56	0.027991932
35	0xbce78e7d	-0.028266186
36	0xbd3fb9ec	-0.04680817
37	0xbcbc065b	-0.02295225
38	0xbd97fb51	-0.07420982
39	0xbd892ea9	-0.06698353
40	0x3d32171e	0.043479078
41	0x3ba06505	0.004894855
42	0xbd925303	-0.071447395
43	0x3c6b556a	0.014363626
44	0x3d1bd0e9	0.03804103
45	0x3c9e3fd1	0.01931754
46	0xbde20a53	-0.110371254
47	0x3d851e48	0.06499916
48	0x3c03e660	0.008050531
49	0xbd1f2e1a	-0.038862325
50	0x3d791d5c	0.060819015
51	0x3df386ff	0.11890983
52	0x3d5dd711	0.05416018
53	0xbc0be422	-0.008538278
54	0x3ce786ac	0.028262459
55	0x3d3c6d44	0.04600264
56	0x3dab1255	0.08353106
57	0xbcfd735a	-0.030938793
58	0x3cd409d8	0.0258836
59	0xbd4499e7	-0.047998335
60	0x3ddf7648	0.10911232
61	0x3beda2dd	0.007252081
62	0x3d5580eb	0.0521249
63	0xbb49650f	-0.0030730402
64	0x3c200a04	0.009768013
65	0x3c836baf	0.016042558
66	0xbdec2230	-0.11529958
67	0x3e046cbe	0.12932107
68	0x3d43ede3	0.04783429
69	0x3cb5ee25	0.022208283
70	0x3ba89624	0.0051448513
71	0xbcb67428	-0.022272184
72	0x3d2c9242	0.04213167
73	0x3c72a145	0.014808957
74	0x3d524382	0.05133391
75	0xbb837dd0	-0.0040128008
76	0x3dcdf618	0.10056704
77	0xbd67411a	-0.05645857
78	0x3d14475b	0.036200862
79	0x3d42200b	0.04739384
80	0x3d0590d1	0.03260881
81	0x3dcf299c	0.10115358
82	0x3d0640f3	0.032776784
83	0xbd03e47b	-0.032200318
84	0x3de04fb3	0.109527014
85	0xbac6d366	-0.0015169203
86	0xbc625ea5	-0.01381651
87	0xbe063c96	-0.13109049
88	0xbd92d1d3	-0.07168927
89	0xbd712246	-0.058870576
90	0x3df0f032	0.117645636
91	0xbe01d7dc	-0.1268
92	0xbe00975e	-0.12557742
93	0xbe4b16ed	-0.19832964
94	0xbe18686c	-0.14883584
95	0x3db90f54	0.09036127
96	0xbdcc982b	-0.09989961
97	0x3c44dc6d	0.012015444
98	0x3d2e09ca	0.042489804
99	0xbcfd5111	-0.030922445
100	0xbc6cbe63	-0.014449689
101	0xbd128a79	-0.03577659
102	0x3d8ccdbd	0.06875179
103	0x3d1317cb	0.035911363
104	0xbd59aceb	-0.053143423
105	0xbd8d114c	-0.06888065
106	0xbe031f63	-0.12804942
107	0xbd3e1df2	-0.046415277
108	0xbd91a02c	-0.071106285
109	0x3c374474	0.011185754
110	0xbd2a9e40	-0.041654825
111	0xbb3e27b4	-0.0029015364
112	0x3c4f40ed	0.012649757
113	0x3e0b273b	0.13589184
114	0x3c18f73b	0.009336288
115	0xbd0a2067	-0.033722308
116	0xbd2aa8ec	-0.041665003
117	0xbe1c11e8	-0.15241206
118	0xbc87d88e	-0.016582754
119	0xbd9bcd5f	-0.07607531
120	0x3dd50f1d	0.10403273
121	0xbcb10f9c	-0.021613888
122	0x3d44c5e8	0.0480403
123	0x3d57eae7	0.052714255
124	0x3c71bb87	0.014754183
125	0xbde0feef	-0.10986125
126	0x3d64568a	0.055746593
127	0xbd3b379e	-0.045707338
128	0x3d22d40c	0.039753005
129	0xbd1013a9	-0.035175
130	0x3cc12cd6	0.02358095
131	0x3d760691	0.060064856
132	0xbd6bf12d	-0.05760305
133	0xbda03381	-0.078223236
134	0xbdb10589	-0.08643634
135	0xbd3ebf17	-0.046568956
136	0x3d6f06b1	0.05835599
137	0x3d29416a	0.04132215
138	0x3dbf2b08	0.093343794
139	0xbbb49fc5	-0.00551221
140	0xbd7e7f79	-0.062133286
141	0x3a2b17c4	0.00065266737
142	0x3c92f61c	0.01793962
143	0x3d7c104a	0.061538972
144	0x3d931b92	0.07182993
145	0x3e02639f	0.12733315
146	0x3e035311	0.12824656
147	0x3db55bea	0.08855422
148	0xbdf7eec5	-0.121060885
149	0xbbed5332	-0.0072425837
150	0xbc0c244a	-0.008553574
151	0xbd9a98af	-0.07548653
152	0xbd493cb2	-0.04913015
153	0xbd5f61b4	-0.054536536
154	0x3d82ae76	0.06380932
155	0x3c891c30	0.016737074
156	0x3de64e46	0.11245398
157	0x3cde47c2	0.027133826
158	0x3da34d10	0.07973683
159	0xbdc5028f	-0.09619629
160	0x3dee618c	0.11639699
161	0x3addfdef	0.001693664
162	0x3dee5ba8	0.11638576
163	0xbd17acb6	-0.037029944
164	0x3d2ebe34	0.04266186
165	0xbcac5b5d	-0.02103966
166	0xbd4fc134	-0.050721362
167	0x3b5acaad	0.0033384964
168	0xbbc81258	-0.0061057024
169	0xbd160936	-0.036629878
170	0x3d25495d	0.040353168
171	0x3d633a7e	0.055475704
172	0x3c9b10f9	0.018928992
173	0xbd8ef1bb	-0.069797
174	0x3ce6cbba	0.028173316
175	0xbd9c2164	-0.07623556
176	0xbd54f302	-0.051989563
177	0xbd0c1773	-0.03420205
178	0x3a5a1517	0.00083191827
179	0x3df14630	0.11780965
180	0x3da87cfb	0.08226963
181	0xbdc88081	-0.09790135
182	0x3d14d0d6	0.036331974
183	0x3cecac5a	0.028890777
184	0x3d00633d	0.03134464
185	0xbd7f98d1	-0.062401596
186	0xbd589daa	-0.052884735
187	0x3d53f8b2	0.051750846
188	0x3d9cc845	0.07655386
189	0x3c5b55cf	0.013387158
190	0x3cdfcd64	0.027319618
191	0x3ce3b54c	0.02779641
192	0x3e1d401b	0.15356486
193	0xbdce232b	-0.100653015
194	0x3b007352	0.0019599986
195	0xbad8acc2	-0.0016530978
196	0x3ddc497d	0.10756204
197	0x3e20ad64	0.15691143
198	0x3c82ac6b	0.015951356
199	0xbaa49944	-0.0012557884
200	0xbd826e90	-0.063687444
201	0xbcdd4a0c	-0.027012847
202	0x3c0da77f	0.008645891
203	0x3d50d0ad	0.05098026
204	0x3d95e0a5	0.07318238
205	0xbde1ef94	-0.11032024
206	0x3d7550e4	0.059891596
207	0xbd4bf65d	-0.049795497
208	0x3d8b79ab	0.06810316
209	0xbbc5d95a	-0.006037873
210	0x3d545b99	0.051845167
211	0xba4fc82e	-0.00079262524
212	0x3d2b53f5	0.041828115
213	0x3d97b3ee	0.07407366
214	0x3c24d6f9	0.010061019
215	0xbe155313	-0.14582472
216	0xbd08959b	-0.0333458
217	0x3d01a4e5	0.031651396
218	0xbc8e031f	-0.017335473
219	0x3b2f6faa	0.0026769438
220	0xbd75474c	-0.059882447
221	0x3d40e009	0.047088657
222	0x3c9d7964	0.019222923
223	0x3c492ee2	0.012279244
224	0x3c196ded	0.009364587
225	0xbd043b7d	-0.032283295
226	0x3ba8b22f	0.0051481943
227	0x3d81af0e	0.06332217
228	0xbc331243	-0.010929647
229	0xbdadd415	-0.08487717
230	0x3d92cc1e	0.071678385
231	0x3d57042a	0.052494206
232	0x3c68cabb	0.014208491
233	0x3cfe8b2b	0.03107222
234	0xbc4cd3da	-0.012501681
235	0xbd2ef053	-0.04270966
236	0x3c499b17	0.012305043
237	0x3c847c44	0.016172536
238	0x3e26610f	0.16247962
239	0xbd4d4521	-0.050114755
240	0xbd09df08	-0.033659965
241	0xbdee476c	-0.116347164
242	0xbddfaa33	-0.10921135
243	0x3d389316	0.045062147
244	0xbd6a515a	-0.05720649
245	0x3de5f6d1	0.11228717
246	0x3e478952	0.19485977
247	0x3cd2e648	0.025744572
248	0x3ca16391	0.019700797
249	0xbd59e85d	-0.053200115
250	0xbdbb62f4	-0.09149733
251	0xbd6aa005	-0.057281513
252	0xbd392f75	-0.045211274
253	0xbe037a0c	-0.12839526
254	0xbda2603b	-0.07928511
255	0x39d303fe	0.0004024803

layer2.5.bias f4 [10]
0	0xbd40214a	-0.046906747
1	0xbd3f57ea	-0.0467147
2	0xbf09ca23	-0.5382406
3	0x3d8bb557	0.06821697
4	0x3ce07a77	0.027402146
5	0x3e3225d9	0.1739725
6	0xbd58a933	-0.052895736
7	0x3dba8a32	0.0910839
8	0xbd377cd0	-0.044796765
9	0xbe742624	-0.23842674
