Saved_data_files/bpi/lr_all_variants/laplacianOnWeighted/TimestampPredictor_parameters_laplacianOnWeighted_0.001.pt (torch, 274442 bytes, 7 tensors)

layer1.weight f4 [4, 1]
0	0xbb42fadb	-0.0029751572
1	0xbc191d85	-0.009345417
2	0xbe75bc4c	-0.23997611
3	0xc2e2a5c6	-113.32378

layer1.bias f4 [6]
0	0x42676c39	57.855686
1	0x42c22c51	97.086555
2	0xc28b18e0	-69.548584
3	0x41a0154b	20.010397
4	0xc255e636	-53.474815
5	0xc18f4fda	-17.91399

layer2.1.weight f4 [256, 6]
0	0x3bb9f03c	0.00567439
1	0x3d35c240	0.044374704
2	0x3d6d8ec8	0.057997495
3	0xbdbec0bf	-0.09314107
4	0x3b131bdd	0.0022447028
5	0xbdeace70	-0.11465156
6	0x3e038f5b	0.12847655
7	0xbf2ae6c7	-0.6675839
8	0xbd476143	-0.04867674
9	0xbe779aea	-0.24180189
10	0xbdc6a86d	-0.097000934
11	0xbe92726f	-0.2860293
12	0x3d7b1d9e	0.061307542
13	0x3d14e542	0.03635145
14	0x3c7f8acf	0.015597059
15	0x3c9f334b	0.019433638
16	0x3cda0c13	0.026617086
17	0xbcc5c049	-0.02413954
18	0xbe3af410	-0.18257165
19	0xbfc32d88	-1.524827
20	0xbdbc5a5d	-0.09196923
21	0xbe5a5dd0	-0.21324849
22	0x3dbf37e6	0.09336834
23	0x3e068cb3	0.1313961
24	0xbd769554	-0.060201004
25	0xbf81a95e	-1.0129812
26	0xbcb92531	-0.022600742
27	0x3e09a987	0.13443576
28	0x3e081c1e	0.13291976
29	0x3dd48b64	0.10378149
30	0xbd021fe5	-0.0317687
31	0xbff478d7	-1.9099377
32	0xbdc79a46	-0.09746222
33	0xbe3d62f3	-0.18494777
34	0xbcb33e0f	-0.021880178
35	0x3b460bd0	0.0030219443
36	0xbcf16830	-0.029468626
37	0xbfa038f6	-1.2517383
38	0x3de437d0	0.11143458
39	0x3ed62b3a	0.41829854
40	0xbaf25011	-0.0018486996
41	0xbc217db3	-0.009856629
42	0xbd34fbde	-0.04418551
43	0xbfd42f9b	-1.6577028
44	0x3e2b301e	0.16717574
45	0x3c31928c	0.010838162
46	0xbdde6860	-0.10859752
47	0x3e867ad5	0.26265588
48	0xbddb5d0d	-0.107111074
49	0xc16c8a8f	-14.783828
50	0xbedf8f63	-0.43664083
51	0xbfd1f246	-1.6402061
52	0xbf14a47e	-0.58063495
53	0x3f6432f4	0.8914025
54	0x3d4e3b0a	0.050349273
55	0xbff68ead	-1.9262291
56	0x3dc2fcca	0.09520872
57	0xbe741698	-0.23836744
58	0x3c6b838d	0.014374626
59	0xbe8a2d7c	-0.26987827
60	0xbe1cc637	-0.15309988
61	0xbf3fcfca	-0.74926436
62	0xbe0a5bb5	-0.13511546
63	0xbe5c1eb1	-0.21496083
64	0x3d6adb4e	0.05733805
65	0xbe5ad280	-0.21369362
66	0x3c362db5	0.011119296
67	0xc0162671	-2.3460963
68	0xbd22fc61	-0.03979147
69	0xbdb1b3a8	-0.08676845
70	0x3dc412f6	0.09573929
71	0x3dcbbe15	0.09948365
72	0x3e34e19c	0.17664188
73	0xbfc06aae	-1.5032556
74	0xbca88831	-0.020572754
75	0x3ef5237f	0.47878644
76	0x3eb6c391	0.3569608
77	0xbec09cc0	-0.3761959
78	0xbcb0d63d	-0.021586532
79	0x3eabf91b	0.3358849
80	0x3c886588	0.016649976
81	0x3c0f0fea	0.008731822
82	0xbcaff8b9	-0.021480905
83	0xbca89ce4	-0.020582624
84	0x3b5f9fed	0.0034122423
85	0xbf16f3c5	-0.5896571
86	0x3c871a0b	0.01649191
87	0xbdfb9f40	-0.12286234
88	0x3d0af47a	0.033924557
89	0x3d8d408d	0.06897078
90	0xbd15e344	-0.03659369
91	0xbfcd74c1	-1.6051255
92	0x3e810389	0.2519801
93	0xbe619085	-0.22027786
94	0x3dad244b	0.08454188
95	0xbdf7495c	-0.12074539
96	0x3e17d482	0.14827159
97	0xbfab3f90	-1.3378773
98	0x3dd6dff9	0.10491938
99	0x3f3a32c3	0.72733706
100	0x3e821639	0.2540758
101	0x3dd761cd	0.10516701
102	0xbd25ffa9	-0.04052702
103	0xbd12d1e4	-0.0358447
104	0x3e472d27	0.19450818
105	0xbda093a2	-0.07840659
106	0xbe149d8a	-0.14513221
107	0xbdeb0c8a	-0.11477001
108	0x3c60b131	0.013714121
109	0xbe2b8a26	-0.16751918
110	0x3e6cd597	0.23128353
111	0xbc65372d	-0.013990206
112	0x3e40fe11	0.18846919
113	0xbd97fd39	-0.07421345
114	0xbd97004f	-0.07373106
115	0xbf92ebd0	-1.1478214
116	0x3bedf9a4	0.0072624255
117	0x3e925199	0.2857788
118	0x3df2bddc	0.11852619
119	0xbe9aa044	-0.30200398
120	0xbe7377eb	-0.23776214
121	0xbffebd21	-1.9901468
122	0xbc62461e	-0.013810663
123	0x3e46e179	0.19421948
124	0x3dc3e532	0.095652
125	0x3e9eeecc	0.31041563
126	0xbd3812f9	-0.04493997
127	0xbfc10834	-1.5080628
128	0xbdb6bf6d	-0.0892323
129	0xbec0a583	-0.37626275
130	0xbe686a46	-0.2269679
131	0xbea88b93	-0.32918987
132	0x3dbafb02	0.09129907
133	0xc004f0dd	-2.0772011
134	0xbccae333	-0.02476654
135	0xbf028061	-0.5097714
136	0x3d6568ec	0.056008264
137	0xbe652b6c	-0.22379845
138	0x3e925358	0.2857921
139	0xc0833853	-4.1006255
140	0xbc9c5e4f	-0.019087939
141	0xbeb5159e	-0.35368055
142	0x3e5c19aa	0.21494165
143	0x3e603eaa	0.21898904
144	0x3db3fe60	0.087887526
145	0xbfb12aa0	-1.3841133
146	0x3e4a5c81	0.1976185
147	0xbd9013b2	-0.070350066
148	0x3df38f63	0.11892583
149	0xbe712516	-0.23549303
150	0x3cd3900f	0.025825528
151	0xbfbf90de	-1.4966085
152	0xbc87fcfa	-0.01660012
153	0x3c4904ce	0.012269212
154	0xbe93626e	-0.28786033
155	0xbe213624	-0.1574331
156	0x3d220451	0.039554898
157	0xbe89299a	-0.26789552
158	0x3e4ea9ea	0.20182005
159	0x3dc85b73	0.097830676
160	0xbd011de0	-0.03152263
161	0xbdb97343	-0.090551876
162	0x3d99e6b4	0.07514706
163	0xc02718a8	-2.61088
164	0xbddef8cf	-0.108873
165	0xbe93427b	-0.28761658
166	0x3f62a4cf	0.8853273
167	0xbe50ab07	-0.20377742
168	0xbd7b2f07	-0.061324146
169	0xbfd2255c	-1.6417651
170	0x3ded3c09	0.115837164
171	0xbdb426cb	-0.08796462
172	0xbcb49f01	-0.022048475
173	0x3db918ad	0.0903791
174	0x3da35a2c	0.07976183
175	0xbf3eaf21	-0.74485976
176	0xbdab834e	-0.08374654
177	0xbdbbc627	-0.09168654
178	0xbd9b5258	-0.07584065
179	0x3db6d6bc	0.08927676
180	0xbe29d76a	-0.1658608
181	0xc010d3b3	-2.262921
182	0x3e7ce371	0.24696137
183	0xbd6d6e49	-0.057966504
184	0xbe2bcea3	-0.16778044
185	0xbdc87004	-0.0978699
186	0x3dc5180a	0.09623726
187	0xbfd95bf3	-1.6981186
188	0x3e049b78	0.12949932
189	0x3d2d68d5	0.042336304
190	0x3ebf4a0a	0.37361175
191	0xbe022f4f	-0.1271336
192	0x3cb48464	0.022035785
193	0xbd4aafa9	-0.04948393
194	0xbd6c4a21	-0.057687882
195	0x3d95305a	0.07284613
196	0xbcbf949f	-0.023386298
197	0x3d7d4019	0.061828706
198	0xbe025c5c	-0.12730545
199	0xbfe4e097	-1.7881039
200	0x3e9c3a23	0.30513105
201	0x3e1656f1	0.14681603
202	0xbd72c979	-0.05927417
203	0x3d877d86	0.066157386
204	0xbde79f24	-0.113096505
205	0xc025adb1	-2.5887263
206	0x3d65568f	0.05599075
207	0x3ecd3f65	0.4008743
208	0xbe0d5a91	-0.1380408
209	0x3e1b1748	0.151456
210	0xbe5c85f6	-0.21535477
211	0xbf75204c	-0.95752406
212	0x3d911d74	0.07085696
213	0xbe5632e1	-0.20917846
214	0x3dea0c2b	0.11428102
215	0xbd9b142a	-0.07572205
216	0x3e193962	0.14963296
217	0xbe2515d8	-0.16121614
218	0xbded72ae	-0.11594139
219	0xbe184678	-0.14870632
220	0x3d8e9302	0.06961633
221	0x3d3f5d72	0.046719976
222	0x3d23ed62	0.040021308
223	0xbee32969	-0.4436753
224	0x3d9a45ba	0.075328305
225	0xbf011494	-0.50422025
226	0x3e2422c6	0.1602889
227	0x3e4a0470	0.19728255
228	0x3ab7df3c	0.0014028321
229	0xbff8ef4e	-1.944803
230	0xbe0ebb92	-0.1393874
231	0xbe61df75	-0.22057898
232	0xbe2daa6e	-0.16959545
233	0xbd74b481	-0.059742454
234	0xbdc4bdaa	-0.09606488
235	0xbf9a4418	-1.205203
236	0x3df4a3f4	0.11945334
237	0xbf757438	-0.9588046
238	0x3ed13376	0.40859574
239	0xbb09892d	-0.0020986304
240	0xbc296ef9	-0.010341399
241	0xc023b92f	-2.5581777
242	0xbd937215	-0.07199494
243	0xbd993576	-0.074809
244	0x3bfe9500	0.007769227
245	0xbe822abe	-0.25423235
246	0xbcfe5fa0	-0.031051457
247	0xbfe7612d	-1.8076531
248	0xbd8d7225	-0.06906537
249	0xbef6e41e	-0.48220915
250	0x3e0e40b6	0.13891873
251	0xbdfe229d	-0.12408946
252	0x3d279866	0.040916823
253	0xbe7ba6aa	-0.24575296
254	0x3e4fe354	0.20301563
255	0xbe1efaf0	-0.15525413

layer2.1.bias f4 [256]
0	0x4325d989	165.84975
1	0x42c34f94	97.655426
2	0x432ce26d	172.88448
3	0xc203f7fb	-32.99217
4	0x42ac61f1	86.19129
5	0xc1f64dfe	-30.788082
6	0xc111205a	-9.070398
7	0xc252d948	-52.71219
8	0xc2ecac30	-118.3363
9	0xbe9fc87c	-0.31207645
10	0x42c5aa29	98.832344
11	0xc248be84	-50.18605
12	0xc2361f9d	-45.530872
13	0x43440708	196.02747
14	0x42e33139	113.59614
15	0xc240968a	-48.14701
16	0xc20596f8	-33.39743
17	0x42fb5e11	125.68372
18	0x43117de5	145.49178
19	0xc24a74d9	-50.61411
20	0xc204443d	-33.06664
21	0x429c9471	78.289925
22	0xc2a43f00	-82.12305
23	0xc29e4cff	-79.15038
24	0x40571cde	3.361137
25	0xbf88f0fc	-1.0698543
26	0x430fe4a9	143.8932
27	0xc2a27674	-81.23135
28	0xc208a0f1	-34.15717
29	0x42fc6e82	126.215836
30	0xc1bfe5be	-23.987179
31	0xc28feb8e	-71.96007
32	0x43344b58	180.29431
33	0xc1553b09	-13.326913
34	0xc2401d4f	-48.02862
35	0x42c0578c	96.17099
36	0x43024836	130.28207
37	0x42c42810	98.07825
38	0x420aab8b	34.667522
39	0xc11c8993	-9.783587
40	0xc2643e40	-57.06079
41	0xc221d4da	-40.457863
42	0x43041404	132.07819
43	0xc255f9bc	-53.49388
44	0xc1c2934f	-24.321928
45	0x4336c834	182.78204
46	0xc2484ecc	-50.07695
47	0xc23badb5	-46.919636
48	0xc216f46c	-37.738693
49	0x42ef74e3	119.728294
50	0xc1850eff	-16.632322
51	0xc0802e33	-4.0056396
52	0x42e583ec	114.75766
53	0xc21c1aa0	-39.026
54	0x418ec14b	17.844381
55	0xc08d4c96	-4.415599
56	0x430b97a9	139.59242
57	0xc2160871	-37.508244
58	0xc22e0231	-43.50214
59	0xc2732625	-60.78725
60	0xc278abdc	-62.16783
61	0x41f2b037	30.336042
62	0x3fee829b	1.8633608
63	0x4249e587	50.474148
64	0xc28f528f	-71.66125
65	0xc215c78a	-37.444862
66	0x42863e37	67.12151
67	0x4318402c	152.25067
68	0x431a38c9	154.22182
69	0x42ac5784	86.17093
70	0xc1a01ef0	-20.015106
71	0xc19ccbac	-19.59945
72	0x42750333	61.253124
73	0xc23f8071	-47.87543
74	0xc218301b	-38.046978
75	0xc1c4862b	-24.565512
76	0x4280f8e9	64.48615
77	0xc19c8c29	-19.568438
78	0x4319c6af	153.77611
79	0xc28ea91b	-71.330284
80	0xc29ba019	-77.81269
81	0x421d5945	39.337177
82	0x42f463c9	122.19489
83	0xc23129af	-44.290707
84	0xc23fa8ca	-47.914833
85	0xc0787638	-3.8822155
86	0xc20d9e8f	-35.404842
87	0x42b0a9c2	88.33156
88	0xc1da9d10	-27.32669
89	0x42db7401	109.72657
90	0x43239d00	163.61328
91	0xc23608aa	-45.50846
92	0x4317d9a0	151.8501
93	0xc256ead7	-53.729336
94	0xc238ffb0	-46.249695
95	0xc22871f8	-42.111298
96	0x429168cb	72.70467
97	0xc1f1385b	-30.152517
98	0xc287ac9d	-67.837135
99	0x3f78c69e	0.97178066
100	0xc2b637b9	-91.10883
101	0x419dcc9c	19.724907
102	0xc25cecc6	-55.231224
103	0x4302f064	130.93903
104	0xc2153ece	-37.311333
105	0x4279d38d	62.456593
106	0xc29d438e	-78.63194
107	0xc20cb923	-35.180798
108	0x43041f6e	132.12277
109	0x432fb6e6	175.71445
110	0x423bad67	46.91934
111	0x4215d2a7	37.455715
112	0x42eef232	119.47304
113	0xc20fc69b	-35.94395
114	0x433a0027	186.0006
115	0xc260afc0	-56.17163
116	0xc2b0bc35	-88.36759
117	0x426b6cbf	58.856197
118	0xc249232c	-50.284348
119	0xc2491bc3	-50.27711
120	0xc20013b4	-32.01924
121	0x4328af1d	168.68404
122	0x42977b97	75.74139
123	0xc1d32d29	-26.39705
124	0x422e5ccb	43.59062
125	0x433a6cc2	186.42484
126	0xc198365e	-19.026546
127	0x42434dbe	48.82592
128	0xc24b2447	-50.785427
129	0x42b7e507	91.94732
130	0xc251b22e	-52.424004
131	0xc2576c8c	-53.856003
132	0xc2314fbe	-44.327873
133	0x42bc7ebc	94.24753
134	0xbcddc0e8	-0.027069524
135	0x43232200	163.13281
136	0x42772640	61.787354
137	0xc26ccdee	-59.201103
138	0xc1864f39	-16.788683
139	0x41d7e145	26.984995
140	0xc2b24019	-89.12519
141	0xc1a7db14	-20.981972
142	0x42814805	64.64066
143	0x42cee19e	103.44066
144	0x424af67b	50.740704
145	0x4308c913	136.78545
146	0xc22dce3b	-43.451397
147	0x42c823c2	100.06984
148	0xc0a426c2	-5.129731
149	0x42f5c23f	122.87939
150	0xc202896e	-32.63421
151	0x42e7a625	115.8245
152	0x43396011	185.37526
153	0xc14af6b3	-12.685229
154	0x423ea43a	47.660378
155	0x42317815	44.367268
156	0xc2651da3	-57.278942
157	0x42996dbf	76.71435
158	0xc1ec4410	-29.533234
159	0xc24cf4c8	-51.239044
160	0xc2e6ccce	-115.40001
161	0x41a34493	20.408484
162	0xc24eb4b7	-51.67648
163	0xc11c720a	-9.777842
164	0xc2289e47	-42.154568
165	0xc1e3ec4b	-28.490377
166	0xc23ff1ad	-47.98601
167	0x42eaa876	117.329025
168	0xc1908cc2	-18.06873
169	0xc147899c	-12.471096
170	0xc25d2936	-55.290245
171	0x426f9e19	59.904392
172	0x40802f6f	4.00579
173	0xc290589c	-72.173065
174	0xc299c834	-76.89102
175	0x43028a0f	130.53929
176	0x4243c072	48.937935
177	0xc26ddd8e	-59.466362
178	0x421b66c3	38.850353
179	0x4232a871	44.664494
180	0x4297cdea	75.902176
181	0x430158cd	129.34688
182	0x42bd6aa9	94.70832
183	0xc22f4e0d	-43.82622
184	0x42c003cf	96.00744
185	0xc28c33df	-70.10131
186	0xc27e05a3	-63.505505
187	0xc12fa9f4	-10.978992
188	0x432aa110	170.62915
189	0x4277eceb	61.981365
190	0xc1baa1dd	-23.329035
191	0xc1f2b29c	-30.337212
192	0xc275d1ba	-61.45481
193	0x43120df6	146.05453
194	0x433f122a	191.07095
195	0xc1f01c96	-30.013958
196	0x433e6b12	190.41824
197	0xbedbfc1b	-0.4296578
198	0x428c925e	70.28587
199	0xc2664737	-57.569546
200	0x429c96f0	78.2948
201	0x424079b4	48.11885
202	0x43403651	192.21217
203	0x42e30ce1	113.525154
204	0xc1aca0df	-21.57855
205	0x40d69017	6.705089
206	0x421d50e5	39.329
207	0x40053519	2.0813658
208	0x432646a1	166.2759
209	0x41e394fe	28.44775
210	0xc232d19c	-44.704697
211	0xc2890c8c	-68.524506
212	0xc136c540	-11.423157
213	0xc21fb088	-39.922394
214	0x423d3a9d	47.30724
215	0xc1dbef4e	-27.491848
216	0x430a1549	138.08315
217	0xc213b8f2	-36.93061
218	0x4329eeed	169.9333
219	0xc22b1c39	-42.77756
220	0x4303e9a0	131.9126
221	0xc28795ec	-67.792816
222	0xc1efc1c5	-29.969614
223	0x431c9422	156.57864
224	0xc23fb17b	-47.92332
225	0x43316e0f	177.42992
226	0xc23989cf	-46.38458
227	0xc1b2b464	-22.338081
228	0x42791bf2	62.27729
229	0xc284dab5	-66.42716
230	0xc20ed699	-35.709568
231	0xc23c6849	-47.10184
232	0xc29a415a	-77.12764
233	0x42450f33	49.264843
234	0x43370135	183.00471
235	0xc2accb17	-86.39666
236	0x42a76154	83.690094
237	0xc26bd29c	-58.955673
238	0xc1899099	-17.195604
239	0xc29dde5f	-78.93432
240	0x4316c2bc	150.76068
241	0x417d2bec	15.823223
242	0x423230a4	44.5475
243	0xc2056b4c	-33.354782
244	0x4304850b	132.5197
245	0xc237ea80	-45.979004
246	0x4243442b	48.81657
247	0x43174f3e	151.30954
248	0xc24d9240	-51.392822
249	0xc1b56598	-22.674606
250	0xc20ac23d	-34.689686
251	0x432d6c0a	173.42203
252	0x40a63cd2	5.1949244
253	0xc10e8cf5	-8.909413
254	0x431922af	153.13548
255	0x432bb0d4	171.69073

layer2.3.weight f4 [256, 256]
0	0x3d0114f3	0.03151412
1	0xbc0d29f6	-0.008615961
2	0xbcbf46c2	-0.02334917
3	0xbd87241a	-0.06598683
4	0xbd87c30a	-0.066289976
5	0xbdb85600	-0.09000778
6	0x3d09707c	0.03355454
7	0x3c05919f	0.008152395
8	0x3c8f27fd	0.017475123
9	0xbd993161	-0.074801214
10	0x3d0ce9e6	0.03440275
11	0xbd0700b0	-0.03295964
12	0xbd903c38	-0.07042736
13	0xbe08edea	-0.13372007
14	0xbb296f91	-0.0025853852
15	0xbdb99f23	-0.09063556
16	0xbb64c93d	-0.0034909986
17	0xbd92f9db	-0.071765624
18	0xbca9492d	-0.020664776
19	0xbd2fa654	-0.042883232
20	0xbd07d2c3	-0.033159982
21	0x3caaa0b3	0.02082858
22	0xbc94f8cb	-0.01818504
23	0xbde12bec	-0.109947056
24	0xbca78b28	-0.020452097
25	0xbd020d2b	-0.03175084
26	0xbdac45ee	-0.084117755
27	0xbca8b986	-0.020596277
28	0x3d320d4f	0.043469723
29	0xbdf5af5d	-0.119963385
30	0xbd86fd42	-0.06591274
31	0x3c1fa879	0.009744757
32	0xbb60301c	-0.0034208363
33	0x3cfbbf92	0.030730996
34	0xbdacbaab	-0.084340416
35	0x3b81609d	0.003948285
36	0xbe0ee0ea	-0.13952985
37	0xbd9521dc	-0.07281849
38	0x3d0a2ca1	0.033733968
39	0xbd489d07	-0.048977878
40	0xbd80fdc7	-0.06298404
41	0x3a05e212	0.00051072345
42	0xbda0359d	-0.07822726
43	0xbda51340	-0.08060312
44	0xbcc817c1	-0.02442539
45	0xbd2c1334	-0.0420105
46	0xbd2bc1b1	-0.041932765
47	0x3d1fc987	0.03901055
48	0xbd91cb7d	-0.071188904
49	0xbd0c010d	-0.03418069
50	0xbd5f988d	-0.054588843
51	0xbd4091db	-0.0470141
52	0xbd527585	-0.051381607
53	0xbd467e3b	-0.048460227
54	0xbd9b905d	-0.075958945
55	0x3d0278df	0.031853553
56	0xbc3b644f	-0.01143749
57	0x3d117fed	0.03552239
58	0xbcbfbb07	-0.023404611
59	0xbd7b9ef3	-0.061430883
60	0xbdc22de6	-0.09481411
61	0xbcc53891	-0.024074825
62	0x3cfa8ba3	0.030584162
63	0xbd857693	-0.06516757
64	0x3cf1e7e4	0.02952952
65	0xbd95c859	-0.07313604
66	0xbdd5c34a	-0.10437639
67	0xbd482f73	-0.048873376
68	0xbd05937a	-0.032611348
69	0xbc0afadc	-0.008482661
70	0xbd6238b3	-0.055229854
71	0x3c7e7d80	0.015532851
72	0xbc4d659e	-0.012536434
73	0x3b11ced2	0.0022248519
74	0x3bac751d	0.0052629844
75	0xbd3f7708	-0.046744376
76	0x3d1544b3	0.03644247
77	0xbcc4db52	-0.024030361
78	0xbd7f8cc4	-0.062390104
79	0xbce9b565	-0.028528878
80	0xbdb0c375	-0.086310305
81	0x3cbd1375	0.023080567
82	0xbc176ece	-0.0092427265
83	0xbb8ef5e2	-0.0043628076
84	0xbcb221bb	-0.0217446
85	0xbcaa9f6c	-0.020827971
86	0x3c592a4c	0.013254713
87	0xbdd96198	-0.10614318
88	0xbd48d6d2	-0.049032994
89	0xbdae269b	-0.08503457
90	0xbc114bd4	-0.0088681765
91	0xbc609191	-0.013706581
92	0xbd495bf9	-0.049159978
93	0xbd8ca9cf	-0.06868326
94	0xbd82ca4e	-0.06386243
95	0xbd8f4b35	-0.069967665
96	0xbd79297b	-0.060830574
97	0xbd8366ec	-0.06416115
98	0xbde7c5e9	-0.11317045
99	0xbca3b6ed	-0.019984687
100	0xbc522751	-0.012826757
101	0xbc5e6cf6	-0.013575783
102	0xbd9f4c51	-0.07778228
103	0xbc377010	-0.011196151
104	0xbda252d9	-0.07925958
105	0xbd5a3abb	-0.053278666
106	0xbd0cad87	-0.034345176
107	0x3d579cdc	0.052639827
108	0x3c86672f	0.016406624
109	0xbd857ce6	-0.06517963
110	0xbd8c266b	-0.06843265
111	0xbd9901fc	-0.074710816
112	0xbdea37c8	-0.11436421
113	0xbd879865	-0.06620864
114	0xbda080a3	-0.078370355
115	0xbcbbff5f	-0.022948919
116	0x3d353e5f	0.044248935
117	0xbd5adcd9	-0.053433273
118	0x3be32f29	0.006933112
119	0x3b920faa	0.0044574337
120	0xbd86bc76	-0.06578915
121	0xbca516e2	-0.020152513
122	0xbda7de64	-0.081967145
123	0xbcf789f7	-0.030217154
124	0xbcf2476f	-0.029575078
125	0xbdc88b80	-0.097922325
126	0xbd81e653	-0.06342759
127	0xbd98962a	-0.074505165
128	0xbc9b249f	-0.01893836
129	0xbca276ab	-0.019831976
130	0x3cd84322	0.026399199
131	0x3c823aa9	0.015897112
132	0xbbc1fbca	-0.005919908
133	0xbce47135	-0.027886013
134	0xbca6e725	-0.02037389
135	0xbcfed3a3	-0.031106776
136	0xbd2ba9d8	-0.041910022
137	0x3cd558df	0.026043354
138	0xbba06450	-0.0048947707
139	0xbcfab218	-0.0306025
140	0xbd4ef22d	-0.050523926
141	0xbcfe1782	-0.031017069
142	0xbda1e06c	-0.07904133
143	0xbd71a300	-0.05899334
144	0xbd55f278	-0.05223319
145	0xbce2300c	-0.027610801
146	0xbc3cfcba	-0.011534864
147	0xbd152273	-0.036409806
148	0xbd8f1777	-0.069868974
149	0xbdd8f8ae	-0.10594307
150	0xbd9cc0e4	-0.076539785
151	0x396d239d	0.00022615348
152	0xbe12f53a	-0.14351359
153	0xbc51b271	-0.012798891
154	0x3ba1141e	0.0049157282
155	0xbd8bc086	-0.0682383
156	0xbc532fb0	-0.012889788
157	0xbaafb47c	-0.0013405229
158	0x3be0d7c7	0.00686166
159	0xbd29e88c	-0.04148154
160	0x3c7f9ce2	0.015601369
161	0xbce8f6be	-0.028437968
162	0xbd866ee8	-0.065641224
163	0xbdad9b5d	-0.08476899
164	0xbd9e5878	-0.07731718
165	0x3c9c08dc	0.019047193
166	0x3c6bb879	0.014387243
167	0xbdeaae2f	-0.11459004
168	0xbc9a5731	-0.018840404
169	0x3c39cb3d	0.01133996
170	0x3b9948fd	0.0046778903
171	0xbc99c25f	-0.018769441
172	0xbd003054	-0.03129609
173	0xbd53fd9c	-0.051755533
174	0xbc9d828e	-0.019227292
175	0xbcb32c22	-0.02187163
176	0x3d47c8aa	0.048775353
177	0x3cc5901d	0.02411657
178	0xbd8af8df	-0.0678575
179	0xbda0cf05	-0.07851986
180	0x3cb6d748	0.022319451
181	0xbcd7fe06	-0.026366245
182	0xbc9a1fdd	-0.018814022
183	0xbd908edf	-0.070585005
184	0xbdbf7e6b	-0.09350284
185	0xbc15e48a	-0.009148726
186	0xbcd02a01	-0.025410654
187	0xbd00124a	-0.03126744
188	0xbdf032b7	-0.11728423
189	0xbdefbb28	-0.11705619
190	0xbda02d24	-0.0782111
191	0xbb0a7fa9	-0.002113322
192	0xbdcd997f	-0.10039043
193	0xbc05d935	-0.008169462
194	0xbc9da979	-0.01924585
195	0xbdbac985	-0.09120468
196	0xbd9e993b	-0.0774407
197	0xbc794693	-0.01521458
198	0xbd8c9116	-0.068636104
199	0xbcdd43c4	-0.027009852
200	0xbd0cd22b	-0.03438012
201	0xbd55d52c	-0.05220525
202	0xbdde09e4	-0.1084173
203	0xbdb2fa6e	-0.08739172
204	0xbcafda8e	-0.02146652
205	0x3c7792a3	0.0151106445
206	0x3d1a5da8	0.037686974
207	0xbd269a1c	-0.040674314
208	0xbd393883	-0.04521991
209	0x3d0b3290	0.033983767
210	0xbc9a4ae3	-0.018834537
211	0xbc6f99e0	-0.014624089
212	0xbd2765eb	-0.04086868
213	0xbc9fb302	-0.019494537
214	0xbddba01a	-0.10723896
215	0xbbe6a0c9	-0.00703821
216	0xbdb6cb9b	-0.089255534
217	0xbd6f5904	-0.0584345
218	0xbdc8ba18	-0.098011196
219	0xbcf49b4d	-0.02985921
220	0xbd4f8d59	-0.05067191
221	0xbced63ef	-0.028978316
222	0x3d42955c	0.04750572
223	0xbc78371f	-0.015149861
224	0x3cfb43be	0.03067195
225	0x3d378bbb	0.04481099
226	0xbcff6506	-0.031176101
227	0xbd412a8d	-0.04715972
228	0xbc8f3315	-0.017480412
229	0xbcf9473c	-0.030429475
230	0xbd7f0e8e	-0.06226974
231	0xbd8b1c1f	-0.06792473
232	0x3d39bd26	0.0453464
233	0x3c09d705	0.008413081
234	0xbd9d7947	-0.076891474
235	0xbcb92846	-0.022602212
236	0xbdcc28c1	-0.09968711
237	0x3c9b9e32	0.018996332
238	0x3d226d91	0.039655272
239	0x3c22d661	0.009938807
240	0xbd3f891f	-0.04676163
241	0xbdf9a60e	-0.121898755
242	0x3c6f517f	0.0146068325
243	0xbca9b08c	-0.020714067
244	0xbdb57ad6	-0.0886132
245	0xbd4c52c1	-0.049883608
246	0xbc309730	-0.010778233
247	0xbdd9fb19	-0.10643596
248	0x3a8e9e19	0.0010880857
249	0x3cdebb45	0.027188906
250	0xbd48e4fc	-0.0490465
251	0x3d7719f9	0.060327504
252	0xbdad3d4a	-0.084589556
253	0xbd0b6f49	-0.034041677
254	0xbda0113b	-0.078157865
255	0xbd45c69f	-0.048285123

layer2.3.bias f4 [256]
0	0xbe4443fa	-0.19166556
1	0xbe01343e	-0.12617585
2	0x43106a77	144.41588
3	0xbe12dfa8	-0.1434313
4	0x3f66cd8b	0.90157384
5	0xbe312c81	-0.17302133
6	0xbe12f1a6	-0.14349994
7	0xbe4be327	-0.1991087
8	0xbe4d711b	-0.20062678
9	0x3e67dd0a	0.22642913
10	0xbdc146c8	-0.094373286
11	0x42544939	53.071507
12	0x3feb90c0	1.8403549
13	0xbd084b9a	-0.033275224
14	0x3f06d89f	0.5267429
15	0x42f9e502	124.94728
16	0x41cb0ba8	25.380692
17	0x4019932c	2.3996077
18	0x4130da2a	11.053263
19	0x42995aad	76.6771
20	0x3def4407	0.11682897
21	0xbd0fef58	-0.035140365
22	0xbd2839ca	-0.041070737
23	0xbdc68d45	-0.09694914
24	0x42ff098e	127.51866
25	0x3dbea8d0	0.09309542
26	0xbea5cc50	-0.3238244
27	0x42edc8d7	118.892265
28	0xbe0f29d6	-0.13980803
29	0xbe05905f	-0.13043354
30	0xbd9903d7	-0.074714355
31	0x42748fc1	61.140385
32	0xbe1abe73	-0.15111713
33	0x4307040c	135.01581
34	0x3fe5d6fd	1.7956234
35	0xbe9bde0e	-0.30442852
36	0x40894eee	4.290885
37	0x42fc2c28	126.08624
38	0x42b1c98a	88.89363
39	0x3e9dae99	0.3079727
40	0xbd2f19f6	-0.042749368
41	0x4138889d	11.533353
42	0xbe7cef80	-0.24700737
43	0xbdb4780d	-0.0881196
44	0x3ef37ff0	0.47558546
45	0x42fa4711	125.1388
46	0x41e684fe	28.814938
47	0x4241402d	48.31267
48	0x430fbeb5	143.74495
49	0x4219cc2d	38.44939
50	0x41c82335	25.01719
51	0xbe9ad804	-0.30242932
52	0xbeb821b2	-0.35963207
53	0xbdab1ffb	-0.08355709
54	0x409cd6d8	4.901226
55	0x3d45e92d	0.048318077
56	0xbdf02dee	-0.117275104
57	0x3c996100	0.018723011
58	0xbd622aeb	-0.05521671
59	0x417cc41e	15.79788
60	0xbcd7ea33	-0.026356792
61	0x3fb037da	1.3767045
62	0xbe6cbf9d	-0.2311997
63	0xbe31df20	-0.17370272
64	0xbce0f904	-0.02746249
65	0xbd02d167	-0.031937983
66	0xbe30715f	-0.17230748
67	0xbe1681c1	-0.14697935
68	0xbe6178d0	-0.22018743
69	0x42c7c0e9	99.87678
70	0xbef63f43	-0.4809514
71	0xbe30d3ca	-0.17268291
72	0x42a60de3	83.02712
73	0x3d777a7f	0.060419556
74	0x4007cd3d	2.1219018
75	0xbe0e9d32	-0.13927153
76	0x4243cb9a	48.94883
77	0x3e5c53c9	0.21516337
78	0xbdc73df3	-0.09728613
79	0xbe5244ed	-0.20534106
80	0x404cd5b8	3.2005444
81	0x40be6b14	5.950571
82	0x42e61af5	115.05265
83	0xbce2800f	-0.027648954
84	0x3f3e8af0	0.7443075
85	0x42ef22a6	119.56767
86	0x41281515	10.505147
87	0xbe1bd18b	-0.15216653
88	0xbe5b3dc0	-0.21410275
89	0xbe5a4254	-0.21314365
90	0xbdbb372e	-0.09141384
91	0x3ee4b2b6	0.44667596
92	0x3dfbcd7a	0.12295051
93	0xbe891b06	-0.2677843
94	0x42ad22df	86.56811
95	0xbe0d1120	-0.13776064
96	0xbd26e0a0	-0.040741563
97	0x3c4cbeee	0.012496693
98	0x3e484f4a	0.19561496
99	0xbe40f0e1	-0.18841888
100	0x3e930486	0.2871439
101	0xbea4dd60	-0.32200146
102	0xbce3762a	-0.027766306
103	0x4277d27f	61.955563
104	0x42c4966e	98.29381
105	0x430a4297	138.26012
106	0xbe4fb958	-0.20285547
107	0xbe43cdae	-0.1912143
108	0x3eb332c4	0.3499967
109	0xbe4a27ea	-0.19741789
110	0xbf84ec65	-1.0384642
111	0x3e8b47b6	0.2720315
112	0x421a6cd9	38.606297
113	0xbe03c7f7	-0.1286925
114	0x42ef3757	119.608086
115	0xbd59321b	-0.0530263
116	0x42ed373f	118.6079
117	0xbdd47673	-0.10374155
118	0xbd48a52e	-0.048985653
119	0xbd1c30e9	-0.03813258
120	0xbda5cfdd	-0.080962874
121	0x41bad259	23.352709
122	0xbcdbae6e	-0.026816573
123	0xbde218c3	-0.11039879
124	0x4224c88f	41.195858
125	0x41d87b5e	27.060238
126	0x41cd0f33	25.632421
127	0x3f22758d	0.6346062
128	0x3ff5eeda	1.9213517
129	0x3ec40bd7	0.38290283
130	0x3d95a4b6	0.07306807
131	0x3fc170e4	1.5112576
132	0xbdf4a928	-0.119463265
133	0xbe093ec1	-0.13402845
134	0xbf20c63b	-0.62802476
135	0x42f4aaeb	122.333824
136	0x3d0d256b	0.034459513
137	0xbd9b9c3e	-0.0759816
138	0x3f138685	0.57627136
139	0x42e20266	113.004684
140	0xbedb64ea	-0.4285043
141	0x41900b33	18.005468
142	0x3f309723	0.68980616
143	0xbe207c37	-0.15672384
144	0xbd8cd8fb	-0.06877323
145	0xbe19b480	-0.15010262
146	0xbd9efedf	-0.077634566
147	0x3d52e075	0.05148359
148	0x41048195	8.281636
149	0x400239e7	2.034784
150	0x3cd26bc7	0.025686158
151	0x42f14534	120.63516
152	0xbcb82780	-0.022479773
153	0x40d3ff84	6.624941
154	0x4097a1d5	4.738505
155	0xbe6d2045	-0.23156841
156	0x42de7623	111.230736
157	0xbce7db87	-0.028302921
158	0x3d911e55	0.070858635
159	0x3f04a976	0.51821077
160	0xbda631ad	-0.08114944
161	0xbe359a48	-0.17734635
162	0xbde3cd56	-0.11123149
163	0x3d6f436d	0.05841391
164	0xbdef421b	-0.116825305
165	0x40be2b32	5.942773
166	0xbe2a4c85	-0.16630752
167	0xbbabed00	-0.0052467585
168	0x3cc3169d	0.023814494
169	0xbd8bce17	-0.06826418
170	0xbe20cc99	-0.15703048
171	0x427fa000	63.90625
172	0xbefeb736	-0.49749154
173	0x3f54a239	0.8306003
174	0x3f38179d	0.7191103
175	0xbdbc3a73	-0.09190836
176	0xbec9be54	-0.3940302
177	0x43092ea8	137.18225
178	0x4245dc59	49.465183
179	0xbfb0c07d	-1.3808743
180	0xbdc85dbf	-0.09783506
181	0xbda2e6a0	-0.079541445
182	0x40b6e6e8	5.715687
183	0xbddcb077	-0.107758455
184	0x4300ebc1	128.92091
185	0xbda86097	-0.08221548
186	0x3da7288e	0.08162032
187	0xbde48b8f	-0.11159431
188	0x3ea71a77	0.3263738
189	0x3b32e1a9	0.0027295148
190	0xbd4efe7b	-0.05053566
191	0x42e96986	116.7061
192	0xbe5804c0	-0.21095562
193	0x42814cbe	64.64989
194	0x4282866f	65.262566
195	0xbde40335	-0.11133424
196	0xbd05749e	-0.032581918
197	0xbd329943	-0.043603193
198	0xbc583f14	-0.013198633
199	0x40bb15d4	5.8464146
200	0x3f98a18d	1.1924301
201	0xbdd5ca43	-0.10438969
202	0xbe401bec	-0.18760651
203	0x3d076f8a	0.033065356
204	0xbfab740a	-1.3394787
205	0x42a3d739	81.92036
206	0x4151843d	13.094785
207	0xbd9d2a18	-0.07674044
208	0xbdab6abc	-0.08369967
209	0x4022669f	2.5375135
210	0x42a9dd69	84.93244
211	0xbd8c2619	-0.06843204
212	0xbdbba875	-0.0916299
213	0xbe2ede1d	-0.17076917
214	0x42e6403c	115.12546
215	0x42ed8356	118.756516
216	0xbde6a886	-0.11262612
217	0xbe3919e2	-0.1807628
218	0x3d9b15d8	0.07572526
219	0xbdcbc8b2	-0.09950389
220	0xbd1e3759	-0.038627002
221	0xbe8ea4ef	-0.2786021
222	0x3ebf55dd	0.37370196
223	0xbe129bc3	-0.14317231
224	0x3df9cc0f	0.12197124
225	0xbd821c7a	-0.06353088
226	0xbd78ef65	-0.06077518
227	0x3e25e859	0.16201915
228	0x42662401	57.53516
229	0xbf64677b	-0.892204
230	0x424645e3	49.56825
231	0x3ef7c7e1	0.48394683
232	0x3fb0c5fb	1.3810419
233	0x4123088f	10.1895895
234	0x3f5937cf	0.8485078
235	0xbe13d668	-0.14437258
236	0xbd766199	-0.06015167
237	0xbd87ce03	-0.066310905
238	0xbe2bad19	-0.1676525
239	0x3f58abc2	0.8463708
240	0xbda167a7	-0.07881098
241	0xbd868c69	-0.0656975
242	0x40e69aac	7.206381
243	0x40445ef9	3.0682967
244	0x3de75c7b	0.11296936
245	0xbea6cfa7	-0.325803
246	0x3df230df	0.11825728
247	0xbe4660e0	-0.19372892
248	0xbe0fb0e9	-0.1403233
249	0x3f2b29ac	0.6686046
250	0xbea74cc6	-0.3267576
251	0xbe36d1a1	-0.17853405
252	0x3c3d8129	0.011566439
253	0xbd75e784	-0.060035244
254	0xbd808aed	-0.06276498
255	0xbe0d4984	-0.13797575

layer2.6.weight f4 [1, 256]
0	0xbc96afa4	-0.018394299
1	0xba92006d	-0.0011139043
2	0x3d4639a0	0.0483948
3	0x3c934e87	0.01798178
4	0xbd00f8f1	-0.03148741
5	0x3ce7f77c	0.028316252
6	0xbcffa2fb	-0.031205645
7	0xbcd1841b	-0.025575688
8	0x3cd608eb	0.0261273
9	0xbc4695b4	-0.012120653
10	0x3c624ffb	0.013813014
11	0x3d1ef3d3	0.038806748
12	0x3b4d0d91	0.0031288604
13	0x3cdb8dab	0.026800951
14	0x3c343583	0.010999086
15	0x3bca617e	0.0061761728
16	0x3dc46ba9	0.09590847
17	0x3ccd9165	0.025093744
18	0xbc9aa6c6	-0.018878352
19	0x3d60f2ad	0.054918934
20	0x3ceec6d2	0.02914754
21	0xbccaf3fc	-0.024774544
22	0xbc64989d	-0.0139524015
23	0x3cf69605	0.030100832
24	0x3db0e59a	0.08637543
25	0x3ce2a3d7	0.027666016
26	0xbcaae6b0	-0.020861953
27	0x3d27adfa	0.0409374
28	0x3cfdd2cb	0.030984303
29	0x3cb29edc	0.021804266
30	0xb95322ef	-0.00020135542
31	0x3d39fbb2	0.04540605
32	0xbc6b654c	-0.014367413
33	0x3d8b5d8e	0.068049535
34	0x3cb7424c	0.02237048
35	0x3cf4c374	0.029878356
36	0x3d0dc8bb	0.03461526
37	0x3d7851f0	0.060625017
38	0x3d92c9f3	0.07167425
39	0x3c815e9e	0.015792187
40	0x3c9cc8ae	0.01913866
41	0x3d6e7120	0.058213353
42	0x3a6f5e52	0.0009131181
43	0x3c408a5c	0.011751737
44	0xbb5262f7	-0.0032102445
45	0x3d89be43	0.06725743
46	0x3d19dcff	0.037564274
47	0x3d9213ae	0.0713266
48	0x3d76e260	0.06027448
49	0x3da1e84d	0.07905636
50	0xbcf7babc	-0.03024041
51	0x3bdc58d6	0.0067244573
52	0xbacc0feb	-0.0015568709
53	0xbc9125e5	-0.017718265
54	0xba979012	-0.0011563322
55	0xbc9c67c3	-0.019092446
56	0x3b121820	0.0022292212
57	0x3c5e32a9	0.013561883
58	0x3caf62a8	0.021409348
59	0x3cccc061	0.024994077
60	0xbc925808	-0.017864242
61	0x3c279fa2	0.0102309305
62	0x3c54bf46	0.012985056
63	0xbcb59199	-0.022164153
64	0x3b5a118f	0.0033274626
65	0xbacdd48f	-0.0015703606
66	0x3cf1fc74	0.029539324
67	0x3ce7b657	0.028285189
68	0x3cfdf241	0.030999305
69	0x3dab5636	0.08366053
70	0xbc5f4198	-0.013626479
71	0xbcf3f277	-0.029778702
72	0xbc333e4f	-0.0109401485
73	0xbb0272d8	-0.0019904878
74	0xbc14693c	-0.009058293
75	0x3cc9ed96	0.024649423
76	0x3e05e19b	0.13074343
77	0x3ac89b64	0.0015305099
78	0xbd015f38	-0.03158495
79	0x39985250	0.00029053027
80	0xbcb02bf1	-0.021505328
81	0x3c3defa4	0.011592779
82	0x3de38b2a	0.11110528
83	0x3ce9137e	0.028451677
84	0xbc10b8bd	-0.008833108
85	0x3da9de1f	0.08294319
86	0x3d7a1c37	0.061062064
87	0xbd21d764	-0.039512053
88	0xbd069c67	-0.032864
89	0xbb9d7155	-0.00480477
90	0xbcd41f62	-0.02589387
91	0xbb7ef332	-0.003890228
92	0xbc8575ab	-0.01629146
93	0x3c12dcb8	0.008963756
94	0xbabb7cbd	-0.0014304143
95	0xba03dcab	-0.00050301355
96	0xbca35afb	-0.019940844
97	0xbcd455a6	-0.025919747
98	0xbc3cd0f8	-0.011524431
99	0xbc1799af	-0.00925295
100	0x3cbf3038	0.023338422
101	0xbd676690	-0.056494296
102	0xbbf7b64a	-0.0075595723
103	0x3db80451	0.08985198
104	0x3ded34a8	0.11582309
105	0x3e048300	0.12940598
106	0xba459dad	-0.0007538449
107	0xbb27ce8d	-0.0025605292
108	0x3bc198ba	0.005908099
109	0x3ab2efd3	0.0013651795
110	0xbc8e94ff	-0.017405031
111	0xbc0e7ac9	-0.008696266
112	0x3e1aa414	0.15101653
113	0xbcf141c1	-0.0294503
114	0xbe941e84	-0.28929532
115	0xbcd9eace	-0.026601221
116	0x3cc0689a	0.023487378
117	0x3c73639b	0.014855291
118	0x3c8a9f58	0.016921684
119	0x3c4b7ed8	0.012420379
120	0xbc4b1359	-0.01239475
121	0x3cb55961	0.022137346
122	0x3b4ec765	0.0031551954
123	0xbc871316	-0.016488593
124	0x3dac2ca4	0.08406952
125	0x3d89b387	0.06723695
126	0xbd88a2c8	-0.06671673
127	0xbce01038	-0.027351484
128	0xbb9c311b	-0.004766596
129	0xba566618	-0.00081786653
130	0x3cea62ed	0.028611625
131	0x3ce97c45	0.02850164
132	0x3cf61e82	0.030043844
133	0xba971097	-0.001152533
134	0x3c8c2f92	0.017112527
135	0x3e0f54a8	0.13997138
136	0xbcc30e08	-0.023810402
137	0xbd001597	-0.03127059
138	0x3cc910f0	0.02454421
139	0x3d57c278	0.052675694
140	0xbc13fd11	-0.009032504
141	0x3e0836b4	0.13302118
142	0xbc390fca	-0.011295268
143	0xbbce7d4d	-0.006301558
144	0x3cc96f53	0.024589216
145	0xbc68eb02	-0.0142161865
146	0xbc22e71a	-0.009942794
147	0xbccf64f8	-0.0253167
148	0x3cdfc9b5	0.027317861
149	0xbca0fcbc	-0.019651763
150	0x3c60bd08	0.013716944
151	0x3dfc6c70	0.1232537
152	0x3ce1a3a1	0.027543845
153	0xbb8f0bc9	-0.0043654186
154	0xbc8e56da	-0.017375398
155	0xbcf6d90c	-0.030132793
156	0xbca7a28f	-0.020463256
157	0xbcc660c6	-0.024216067
158	0xbbca0d0f	-0.0061661075
159	0x3ce283ef	0.027650801
160	0x3cddec96	0.027090352
161	0xbce40743	-0.027835494
162	0xbcd04484	-0.025423296
163	0x3c85fc73	0.016355729
164	0x3bc6707c	0.0060558897
165	0x3c2dc474	0.01060592
166	0x3c8f00db	0.017456463
167	0x3cf07311	0.029351743
168	0xbc28b41e	-0.0102968495
169	0x3b89ce02	0.0042054662
170	0xbca7ba31	-0.020474525
171	0x3e22acbe	0.15886208
172	0xbcc6e8bc	-0.024280898
173	0xbc4ff02c	-0.012691539
174	0x3bc1f28b	0.005918806
175	0xbb094d51	-0.0020950625
176	0xbc1b40c0	-0.009475887
177	0xbca74186	-0.020416986
178	0x3db16c59	0.08663244
179	0x3cac7edd	0.021056587
180	0x3c888d44	0.016668923
181	0x3cb3a2f6	0.021928292
182	0x3cb73645	0.022364745
183	0xbc4853b4	-0.012226988
184	0x3dadf80e	0.08494578
185	0xbcc52992	-0.024067674
186	0xbbd98133	-0.006637716
187	0x3c85ebed	0.01634785
188	0xbc4b520d	-0.012409699
189	0x3a0c680d	0.0005356081
190	0xbc291e5b	-0.010322179
191	0x3dd67049	0.104706354
192	0x3cb868ff	0.022511004
193	0x3d99b35d	0.07504914
194	0x3e013ea1	0.12621547
195	0x3c154f7f	0.009113192
196	0x3a4df897	0.0007857172
197	0x3cf565e5	0.029955814
198	0xba9273ce	-0.0011173429
199	0xbbccd9a6	-0.0062515317
200	0xbca3e4d9	-0.020006584
201	0x3c9d27fe	0.019184109
202	0xbcc9009a	-0.02453642
203	0xbccae93f	-0.024769424
204	0x3cde3a99	0.02712755
205	0x3dac8545	0.08423857
206	0xbb840f5a	-0.0040301504
207	0xbcfc238b	-0.030778667
208	0x3cc54f6a	0.02408572
209	0x3ca26225	0.01982219
210	0x3db09559	0.08622236
211	0xbcf1d19e	-0.029518899
212	0xbc9d4ff7	-0.01920317
213	0x3b874df4	0.004129166
214	0x3c85c862	0.016330902
215	0x3b9a935c	0.0047172736
216	0x3c7d2b21	0.015452177
217	0x39bce406	0.00036028045
218	0x3be9c4f7	0.0071340757
219	0x3be2d92f	0.006922863
220	0x3d01c01a	0.031677343
221	0xbbf996ea	-0.0076168673
222	0xbb1aa461	-0.0023596513
223	0x3cfd3bc0	0.03091228
224	0x3cf9adb5	0.030478338
225	0x3c085d35	0.008323004
226	0x3c122859	0.008920752
227	0x3b8eabde	0.0043539843
228	0x3cbfc4a4	0.023409195
229	0x3cbc1f2f	0.022964088
230	0x3df4b284	0.11948112
231	0x3cf655b6	0.030070167
232	0xbcd6402a	-0.026153643
233	0x3ea84608	0.3286593
234	0x3d003474	0.031300023
235	0x3ce641d0	0.028107554
236	0xbc0c6f06	-0.008571392
237	0xbc952896	-0.01820783
238	0xbc81e102	-0.015854362
239	0x3b3a86ac	0.0028461618
240	0x3c5aef03	0.013362649
241	0x3c704275	0.014664282
242	0xbcf82d3b	-0.030295005
243	0xbcc026e0	-0.023456037
244	0x3ccca276	0.024979811
245	0xbb704c79	-0.0036666675
246	0x3c188afa	0.009310478
247	0x3cf6095f	0.030033765
248	0xbb04e447	-0.0020277665
249	0x3cd8421b	0.026398709
250	0xbcb4d571	-0.022074433
251	0xbac0fd9c	-0.0014724019
252	0xbc90661c	-0.017626815
253	0x3cffb0e8	0.031212285
254	0x3c0c6007	0.008567817
255	0x3b96a3ad	0.0045971484
