Saved_data_files/bpi_no_repeat/lr_all_variants/laplacianOnBinary/EventPredictor_parameters_laplacianOnBinary_1e-05.pt (torch, 280583 bytes, 8 tensors)

layer1.weight f4 [4, 1]
0	0xbf62ea9c	-0.88639235
1	0xbf85bcf8	-1.0448294
2	0xbf6b194b	-0.9183547
3	0xbf8b038c	-1.0860457

layer1.bias f4 [6]
0	0x3d4e56cd	0.05037575
1	0x3d06076d	0.032721926
2	0xbed96d4b	-0.42466196
3	0xbe310b3d	-0.17289443
4	0x3f6b24f4	0.9185326
5	0x3e613561	0.21993019

layer2.1.weight f4 [256, 6]
0	0xbeac9840	-0.33709908
1	0x3eb88a05	0.360428
2	0xbeee8fb8	-0.46594024
3	0x3ba1ebb3	0.0049414276
4	0xbbf82857	-0.0075731683
5	0x3cefff01	0.0292964
6	0x3e6ab417	0.22920261
7	0x3e3da24a	0.1851894
8	0xbd9a6c6d	-0.07540212
9	0xbe05be19	-0.13060798
10	0xbe201b0f	-0.15635322
11	0x3e6cb697	0.23116527
12	0x3e98a134	0.29810488
13	0xbdd9e56d	-0.106394626
14	0xbe65c432	-0.22438124
15	0x3f197e9b	0.5995881
16	0xbec279af	-0.37983462
17	0xbecd118f	-0.4005246
18	0x3e525105	0.20538719
19	0x3e64529f	0.22297142
20	0xbe0f9a2e	-0.14023659
21	0xbee51fc9	-0.44750813
22	0xbe15a242	-0.14612678
23	0xbe4885bc	-0.19582266
24	0xbeb16243	-0.3464528
25	0xbdc2a2e1	-0.09503723
26	0x3ec9fffc	0.39453113
27	0xbd0f692d	-0.035012413
28	0x3e4077e2	0.18795732
29	0xbf323fdf	-0.6962871
30	0xbe7fd76f	-0.24984525
31	0x3db9bbec	0.090690464
32	0x3db22108	0.086977065
33	0x3e792864	0.24331814
34	0x3e08ea49	0.13370623
35	0xbded898b	-0.115985
36	0x3e6a87ba	0.22903338
37	0xbcfd6897	-0.030933661
38	0xbd9cdb54	-0.07659021
39	0xbd9d0652	-0.07667221
40	0x3db547f1	0.08851612
41	0xbe242978	-0.16031444
42	0x3e371ed0	0.17882848
43	0xbe64bc13	-0.2233737
44	0xbeb5c631	-0.3550277
45	0x3ea7c19a	0.32764894
46	0xbcac8cdb	-0.021063259
47	0xbead1152	-0.33802277
48	0xbd8864f9	-0.06659884
49	0x3eb40a98	0.35164332
50	0xbf5e40dc	-0.8681772
51	0x3e923014	0.28552306
52	0x3f56b462	0.8386899
53	0xbd83928d	-0.06424437
54	0xbc71b628	-0.014752902
55	0x3e531748	0.2061435
56	0x3df16b79	0.11788077
57	0x3ea509a6	0.32233924
58	0x3e82af82	0.25524527
59	0x3e99e950	0.30060816
60	0x3da20516	0.07911126
61	0x3e895608	0.2682345
62	0x3de9fcd6	0.11425178
63	0xbe869bb5	-0.2629067
64	0xbe6baf17	-0.2301601
65	0x3d17d9dd	0.037073005
66	0x3eae6d9d	0.34068003
67	0x3e5ea8a2	0.21744016
68	0xbd9f754b	-0.07786044
69	0x3ef342de	0.47511953
70	0xbf15aef3	-0.58470076
71	0xbef03e3c	-0.4692248
72	0xbe619a53	-0.22031526
73	0x3eb318ce	0.34979862
74	0xbf409806	-0.7523197
75	0xbe44a4d7	-0.19203506
76	0x3f2e4f48	0.68089724
77	0xbe2a5ad2	-0.16636208
78	0x3eb057e2	0.3444205
79	0xbd52d900	-0.05147648
80	0xbea32724	-0.318658
81	0xbecf098f	-0.4043698
82	0x3ea9cf6b	0.3316606
83	0xbea3a888	-0.31964517
84	0xbe22d6a9	-0.15902199
85	0xbecedc38	-0.4040239
86	0xbf3f7f4e	-0.74803627
87	0xbe813a7d	-0.25239936
88	0x3e9292df	0.2862768
89	0x3eaa3221	0.3324137
90	0xbe49c346	-0.19703397
91	0xbea0453b	-0.3130282
92	0xbdc53358	-0.09628934
93	0x3d2be995	0.041970808
94	0x3eebb43b	0.46035942
95	0x3de33bec	0.110954136
96	0x3d4efad8	0.050532192
97	0x3e47e380	0.19520378
98	0x3e2aa864	0.16665798
99	0xbec7f230	-0.39051962
100	0x3e60a532	0.21938017
101	0x3a91754b	0.0011097578
102	0x3d7c5a3c	0.06160949
103	0xbdad71f7	-0.08469003
104	0xbd83c427	-0.064338975
105	0xbe217e43	-0.15770821
106	0x3c2fcf05	0.01073051
107	0x3c038f86	0.008029824
108	0xbd8f5f22	-0.07000567
109	0x3c36df16	0.011161586
110	0xbf3756f1	-0.7161704
111	0xbea32c8f	-0.31869933
112	0xbc2a509a	-0.0103951935
113	0xbe349ec6	-0.17638692
114	0xbe3a198f	-0.18173812
115	0x3d9d356d	0.07676206
116	0xbf0c90b0	-0.54908276
117	0xbec6c161	-0.3881941
118	0x3f0740cf	0.52833265
119	0x3d88931f	0.06668686
120	0x3e88868d	0.26665154
121	0x3e287956	0.16452536
122	0xbe2c1db2	-0.16808203
123	0x3e6ce6d8	0.23134935
124	0x3e85a678	0.26103568
125	0xbe45bd95	-0.19310601
126	0x3eabf26c	0.3358339
127	0xbddf3fed	-0.10900865
128	0x3f811ec2	1.0087512
129	0x3e823125	0.2542812
130	0x3dc9c043	0.09851124
131	0x3e3df075	0.18548758
132	0x3e362089	0.17785849
133	0xbeba5ba7	-0.3639805
134	0xbed04460	-0.40677166
135	0xbe5d5d8d	-0.21617718
136	0xbc84b151	-0.016197832
137	0xbded8bf8	-0.115989625
138	0x3ebd1e99	0.36937407
139	0xbdc98c1d	-0.098411776
140	0xbe386c3c	-0.18010038
141	0x3e5ab528	0.21358168
142	0x3e31fdd7	0.17381988
143	0xbe7ca6e4	-0.24673039
144	0x3d97568d	0.07389555
145	0xbe8416d3	-0.25798663
146	0x3e38ba6f	0.18039869
147	0xbca7f965	-0.020504663
148	0x3d7b0a24	0.061288968
149	0x3e224e2e	0.15850136
150	0xbda3587f	-0.07975864
151	0xbd3641dc	-0.044496402
152	0x3bbc7424	0.0057511497
153	0x3ead5018	0.3385017
154	0xbce01b86	-0.027356874
155	0x3e0a147b	0.13484375
156	0x3e3d3037	0.18475424
157	0x3e8f0089	0.27930096
158	0xba29adf7	-0.0006472761
159	0xbc384961	-0.011247964
160	0xbca4e7e9	-0.020130115
161	0xb9e30f03	-0.00043308
162	0xbeef057e	-0.46683878
163	0x3b99c8ea	0.0046931403
164	0xbe6c37d7	-0.23068176
165	0xbe88637e	-0.26638407
166	0x3ee967a5	0.45586887
167	0x3f3ffca0	0.7499485
168	0xbed6771c	-0.41887748
169	0x3c8c1f95	0.017104903
170	0xbdd0a974	-0.101885706
171	0xbb04eb15	-0.0020281721
172	0x3e59fa09	0.21286787
173	0xbdf88c53	-0.1213614
174	0x3e29ada2	0.16570142
175	0x3e816ff1	0.25280717
176	0x3f08a96f	0.53383535
177	0xbd119df0	-0.03555101
178	0x3c9ed519	0.019388722
179	0x3ce29eb3	0.027663564
180	0xbdb27beb	-0.08715042
181	0xbd932de8	-0.0718649
182	0xbb62bf06	-0.0034598722
183	0xbaf4ea27	-0.0018685505
184	0x3a584757	0.00082503766
185	0x3dcee82f	0.10102879
186	0xbe1faa7a	-0.15592375
187	0x3ea0b1f7	0.31385776
188	0xbdfd104a	-0.123566225
189	0xbefca5de	-0.49345297
190	0x3e3f9b02	0.18711475
191	0x3f10f6c6	0.56626546
192	0xbebbfe7f	-0.36717603
193	0x3ec8a5fc	0.39189136
194	0x3e8d1f67	0.2756302
195	0xbe7aa275	-0.24476035
196	0xbe2bec51	-0.16789366
197	0xbe634221	-0.22193195
198	0xbed04104	-0.40674603
199	0xbe4621f9	-0.19348897
200	0xbf21243b	-0.6294591
201	0x3e485fa8	0.1956774
202	0xbbc32cfe	-0.005956291
203	0x3d4ba948	0.049721986
204	0x3de3ab77	0.11116689
205	0x3e9183c6	0.28420848
206	0x3e03dceb	0.12877242
207	0xbf0cca7b	-0.5499646
208	0xbdb639cc	-0.08897743
209	0xbe5438c3	-0.20724778
210	0xbcc9238f	-0.024553088
211	0xbe7e5a5b	-0.24839155
212	0xbefde2c3	-0.49587068
213	0xbe627612	-0.22115353
214	0x3f078ff1	0.5295401
215	0xba6cab51	-0.00090282137
216	0xbe71ce18	-0.23613775
217	0xbe958840	-0.29205513
218	0x3e70c67b	0.23513214
219	0xbe44a7a1	-0.1920457
220	0x3e210460	0.15724325
221	0x3dd3cdbd	0.10341976
222	0xbe405991	-0.18784167
223	0x3d229b12	0.039698668
224	0xbe3c4d46	-0.18388852
225	0x3e4beaa1	0.19913723
226	0x3e93a2cf	0.2883515
227	0xbd69b5e5	-0.057058234
228	0xbd03664a	-0.032079972
229	0xbd4a7e9a	-0.049437143
230	0x3deff061	0.117157705
231	0xbe59367f	-0.21212195
232	0x3e6b6a2f	0.22989725
233	0xbe1a666f	-0.15078138
234	0xbeaca509	-0.33719662
235	0x3dba6ea9	0.09103138
236	0x3d6181b4	0.055055335
237	0xbe543ea6	-0.20727023
238	0xbcfa09d2	-0.03052226
239	0xbad69515	-0.0016371334
240	0xbe81c558	-0.25345874
241	0xbdbc723d	-0.09201477
242	0x3ef7d80e	0.48407024
243	0x3e50340a	0.20332351
244	0x3de0427f	0.10950183
245	0x3ec1ba32	0.37837368
246	0x3da9d776	0.08293049
247	0xbd0113f7	-0.03151318
248	0xbe7d6e7b	-0.24749176
249	0xbe464b85	-0.19364746
250	0xbddf8ff9	-0.109161325
251	0xbeb28e6d	-0.34874287
252	0xbc3106f4	-0.01080488
253	0x3ea92f51	0.33043912
254	0xbb36fac0	-0.0027920455
255	0xbb1d2ea5	-0.00239841

layer2.1.bias f4 [256]
0	0xbeb4ebf0	-0.35336256
1	0xbe1f995c	-0.15585846
2	0x3d801654	0.06254259
3	0x3e1dc092	0.15405491
4	0xbe0bde5b	-0.1365904
5	0x3e17c58e	0.14821455
6	0x3ee6c00d	0.45068398
7	0xbde158b4	-0.11003247
8	0xbdfb3041	-0.12265063
9	0xbe5e9ffa	-0.21740714
10	0xbe16b267	-0.14716493
11	0xbe521cb3	-0.2051876
12	0x3d812736	0.06306307
13	0xbe25dc90	-0.16197419
14	0x3eb5c48e	0.35501522
15	0x3da3e3d7	0.080024414
16	0xbe3e1549	-0.18562807
17	0xbe7fadf2	-0.24968699
18	0x3d888595	0.06666104
19	0x3e2e2ac7	0.17008506
20	0x3d6681db	0.056276184
21	0xbec6f2a3	-0.38856992
22	0x3e523372	0.20527437
23	0xbe199f9e	-0.15002295
24	0x3de7253c	0.11286399
25	0x3e38f53b	0.18062298
26	0xbed643b5	-0.4184853
27	0x3e53585d	0.20639177
28	0x3e49d3e0	0.1970973
29	0xbeb4fa83	-0.35347375
30	0x3e61570c	0.22005862
31	0x3e78e6f1	0.24306847
32	0x3e6d71dc	0.23187965
33	0xbdea0e8b	-0.11428555
34	0x3cf53f7f	0.029937504
35	0xbddf32c6	-0.10898356
36	0xbe15acb9	-0.1461667
37	0xbe975d02	-0.29563147
38	0x3e2b4b03	0.16727833
39	0x3ecc55d1	0.39909223
40	0xbe2b1aa0	-0.16709375
41	0x3c20d14a	0.009815523
42	0x3d7a7d23	0.061154496
43	0x3e9e36ce	0.30901188
44	0xbe9e606e	-0.30932945
45	0x3f08e0db	0.534681
46	0x3e844be8	0.25839162
47	0xbe551c3b	-0.2081155
48	0xbf0324aa	-0.5122782
49	0xbe2f7067	-0.17132722
50	0xbe6850ca	-0.22687069
51	0xbe335bf1	-0.17515542
52	0xbe600fa9	-0.21880974
53	0xbebc62d5	-0.36794153
54	0x3f01d542	0.5071603
55	0xbe90119c	-0.28138435
56	0xbead85e2	-0.33891207
57	0x3ee288cd	0.44244996
58	0x3dcf53f7	0.10123437
59	0x3e4b6aeb	0.19865005
60	0x3d93b46b	0.07212146
61	0xbeccc039	-0.39990404
62	0xbe9e9572	-0.30973393
63	0xbd709c07	-0.05874255
64	0xbea792b3	-0.3272911
65	0x3ed9e415	0.42556825
66	0xbeb81296	-0.3595168
67	0xbe8ec035	-0.27881017
68	0x3ec312ea	0.38100368
69	0x3e87defc	0.2653731
70	0x3e968aed	0.29402867
71	0xbe2d3ccb	-0.16917722
72	0xbe579709	-0.21053709
73	0x3ea32a01	0.31867984
74	0xbec8237e	-0.39089578
75	0xbe7f0142	-0.24902824
76	0xbd30bad4	-0.043146923
77	0x3dcfad4a	0.10140474
78	0x3e79fb2a	0.24412218
79	0x3eb1618e	0.3464474
80	0xbdbdede4	-0.0927389
81	0x3e448266	0.19190368
82	0x3ed52928	0.41632962
83	0x3ecaa7c3	0.39581117
84	0xbeab5864	-0.33465874
85	0xbd2f2db2	-0.042768188
86	0x3e3ddcbc	0.18541235
87	0x3cb56839	0.022144424
88	0x3eac498e	0.33649868
89	0x3edd3804	0.432068
90	0xbdc985ee	-0.09839998
91	0xbea73ee3	-0.32665166
92	0xbe5dfd1a	-0.21678582
93	0xbdcf0d56	-0.101099655
94	0xbe637d57	-0.22215782
95	0x3eaf67d3	0.342589
96	0xbe19e7cd	-0.15029831
97	0xbd328275	-0.043581445
98	0x3ee47164	0.4461776
99	0xbe1f0da8	-0.15532553
100	0x3ecdc2b6	0.40187615
101	0x3e4f991d	0.20273252
102	0x3d466eca	0.0484455
103	0xbd026270	-0.03183216
104	0xbe7c8037	-0.24658285
105	0x3e20fe5f	0.15722035
106	0xbe83d941	-0.2575169
107	0x3ce2be70	0.027678698
108	0x3cf51d02	0.029921059
109	0x3ecc2dc1	0.39878657
110	0xbd993a8c	-0.0748187
111	0xbf03cb61	-0.51482207
112	0xbbffb706	-0.0078038005
113	0x3d867aab	0.06566366
114	0xbdd57c51	-0.10424102
115	0xbd5737d6	-0.052543484
116	0x3e5092f4	0.20368558
117	0xbe4e6c24	-0.2015844
118	0x3eb0c0ac	0.34521997
119	0x3e53ebf6	0.2069548
120	0x3dcef139	0.10104603
121	0x3e083cb2	0.13304403
122	0xbdfb533e	-0.122717366
123	0xbd9517bd	-0.07279918
124	0xbe987bb5	-0.2978188
125	0x3e42db95	0.19029076
126	0x3eae7747	0.34075376
127	0x3ea64b7a	0.3247946
128	0xbedead0b	-0.43491396
129	0x3e5281d7	0.20557342
130	0x3dc0d7ed	0.094161846
131	0xbdb1f89e	-0.08689998
132	0xbe8c5798	-0.2741058
133	0x3e23e428	0.16005003
134	0xbef154ef	-0.47135112
135	0x3e1863c1	0.14881803
136	0x3b4695a5	0.0030301597
137	0xbe85fb95	-0.26168504
138	0xbe0c4723	-0.13699012
139	0x3e1d59bc	0.15366262
140	0x3e93a727	0.28838465
141	0x3ccdd8f9	0.025127875
142	0xbdfcb282	-0.12338735
143	0x3ed94b26	0.42440146
144	0xbe4116e2	-0.18856385
145	0x3e5703bc	0.20997518
146	0xbde91fe7	-0.11383038
147	0x3ef441be	0.47706407
148	0xbe96cb14	-0.2945181
149	0x3d5a1417	0.053241815
150	0x3e7fa0fd	0.24963756
151	0x3ed6fde0	0.41990566
152	0xbd6dfecd	-0.058104325
153	0xbd6f67ad	-0.058448482
154	0xbe255310	-0.16144967
155	0x3e2a44a6	0.1662775
156	0xbd401148	-0.04689148
157	0xbe26d5cb	-0.16292493
158	0xbe8b1576	-0.2716481
159	0xbe47fd92	-0.19530323
160	0xbeb210f4	-0.3477856
161	0x3eb847f3	0.35992393
162	0x3e1db465	0.15400846
163	0xbeca7b3a	-0.3954714
164	0x3d0fa2ba	0.035067298
165	0xbf0f44db	-0.5596444
166	0xbde63122	-0.1123984
167	0x3e33b439	0.17549218
168	0x3e8a86b3	0.27055892
169	0xbe4961f3	-0.19666271
170	0xbecf8ba1	-0.40536216
171	0xbe3835b5	-0.17989238
172	0xbee368df	-0.44415948
173	0xbbf23832	-0.007391953
174	0xbeab148e	-0.3341412
175	0x3ccbc620	0.024874747
176	0x3ee46774	0.44610178
177	0x3eec35c7	0.4613478
178	0x3eb83452	0.35977417
179	0x3e88454e	0.26615375
180	0xbed8bd9f	-0.4233217
181	0x3da304b0	0.079598784
182	0x3d171eb5	0.03689452
183	0xbecf3ec7	-0.40477583
184	0x3ef2db6e	0.47433037
185	0x3e874919	0.26422957
186	0x3e37efb8	0.17962539
187	0xbdc59c08	-0.09648901
188	0x3e8dd51a	0.27701646
189	0xbec48c73	-0.38388404
190	0xbe6ec330	-0.23316646
191	0xbe4aebe5	-0.19816549
192	0xbe816a95	-0.25276628
193	0x3e5b1a92	0.21396855
194	0xbcfe0c57	-0.031011743
195	0xbe802597	-0.2502868
196	0x3e72f3a9	0.23725761
197	0x3e654624	0.22390038
198	0x3ce0346e	0.02736875
199	0xbdb2982a	-0.08720429
200	0x3e8d72ed	0.27626744
201	0xbde32293	-0.11090579
202	0xbe377f7c	-0.17919725
203	0xbdb6891d	-0.08912871
204	0x3e9b3814	0.30316222
205	0xbc9d3f40	-0.019195199
206	0xbe0a70e8	-0.13519633
207	0x3e97496a	0.29548198
208	0x3e94356e	0.28947014
209	0x3e52cc66	0.20585784
210	0x3d2eafc5	0.042648096
211	0x3ecaa110	0.39576006
212	0x3e70b82c	0.23507756
213	0xbe012398	-0.12611234
214	0xbe6d631d	-0.2318234
215	0x3e14a5a8	0.14516318
216	0x3e2141bd	0.15747733
217	0x3e73bcaa	0.23802438
218	0xbdfea702	-0.12434198
219	0xbe001030	-0.12506175
220	0x3cf66ea9	0.030082064
221	0xbd9f659f	-0.077830546
222	0x3d49a1b5	0.04922648
223	0xbe81a469	-0.25320747
224	0xbe9cebeb	-0.3064874
225	0x3ea6f9c5	0.32612434
226	0xbec7d819	-0.39032057
227	0xbbaf9779	-0.005358633
228	0xbd957805	-0.072982825
229	0xbec9b4cc	-0.3939575
230	0x3ed28b88	0.4112208
231	0x3e51d7d0	0.20492482
232	0xbe09028c	-0.13379878
233	0xbec8df72	-0.39232975
234	0x3e954e38	0.2916124
235	0x3ea1e4e4	0.31619942
236	0x3e5a444f	0.2131512
237	0xbec5c7d3	-0.38629016
238	0xbea4868e	-0.32133907
239	0xbe32929a	-0.17438737
240	0xbed2f4c0	-0.41202354
241	0xbe9bf065	-0.30456844
242	0xbda62828	-0.08113128
243	0xbe816ce2	-0.25278383
244	0x3d155f70	0.03646797
245	0x3e127dd0	0.14305806
246	0xbe2080cd	-0.15674134
247	0xbd23ec93	-0.040020537
248	0x3e8c1113	0.27356777
249	0x3e92f6f5	0.28704038
250	0x3ecda86b	0.40167555
251	0xbd090b4e	-0.033458047
252	0x3e32bb45	0.1745425
253	0x3d6de334	0.058078006
254	0xbe4d34d9	-0.20039691
255	0xbdcb51e1	-0.099277265

layer2.3.weight f4 [256, 256]
0	0x3cf5c406	0.030000698
1	0xbb27400d	-0.0025520355
2	0x3cbba29d	0.022904688
3	0x3cdafb3b	0.026731124
4	0xbcfa4db9	-0.03055464
5	0xbd5cee57	-0.053938236
6	0xbc3a9bcc	-0.011389684
7	0xbd300858	-0.042976707
8	0xbd380a4c	-0.044931695
9	0x3d901bbf	0.07036542
10	0x3d47be7e	0.048765652
11	0x3d2dd985	0.04244377
12	0x3d410106	0.047120117
13	0x3c7580ae	0.014984293
14	0x3db8ff62	0.090330854
15	0xbc9f2fc6	-0.01943196
16	0x3daa3e9d	0.08312724
17	0x3d2262a5	0.039644856
18	0x3d210662	0.039312728
19	0x3d54e3bb	0.051974993
20	0xbcd0be91	-0.025481494
21	0xbd80f725	-0.06297139
22	0xbc05bd98	-0.008162878
23	0x3c67a7cc	0.014139127
24	0x3cae020c	0.02124121
25	0xbb1b0f24	-0.0023660148
26	0x3d250146	0.040284418
27	0xbdb401d2	-0.0878941
28	0xbdb256fb	-0.087079965
29	0x3c57356f	0.013135298
30	0xbcf0b42c	-0.029382788
31	0xbd14d4c3	-0.036335718
32	0x3c33ef48	0.010982342
33	0x3ba158a8	0.0049238987
34	0xbd3dc4f2	-0.0463304
35	0xbd3ace64	-0.045606986
36	0x3bd671ef	0.0065443437
37	0x3d435d0b	0.047696155
38	0x3d6329b5	0.055459697
39	0x3d4b98ce	0.049706273
40	0xbd9b11ae	-0.075717315
41	0x3d8b2333	0.06793823
42	0xbcda8b81	-0.026677849
43	0xbcc852ff	-0.024453638
44	0x3ccace85	0.02475668
45	0xbd086561	-0.033299807
46	0xbcf19db2	-0.02949414
47	0xbd0ccfb6	-0.034377776
48	0x3ceac5da	0.028658796
49	0x3bc1c61f	0.0059135105
50	0xbd809037	-0.06277507
51	0xbd84af52	-0.06478752
52	0xbcac3d4f	-0.021025328
53	0x3d062dc6	0.032758497
54	0xbd5498ca	-0.051903524
55	0x3cf3b706	0.029750358
56	0xbd98773a	-0.07444616
57	0x3d7cca95	0.061716635
58	0x3daa9b3c	0.0833039
59	0xbd944ae4	-0.07240847
60	0x3d3c1c16	0.045925222
61	0x3c3b3c6e	0.011427982
62	0x3c76578a	0.015035519
63	0x3ba606bf	0.005066722
64	0xbc57b089	-0.013164648
65	0xbd3ceacf	-0.04612237
66	0x3d03e377	0.03219935
67	0x39a119bf	0.00030727495
68	0xbb7140ff	-0.0036812422
69	0xbd8a6c40	-0.06758928
70	0xbd617077	-0.055038895
71	0xbd747979	-0.059686158
72	0xbd1ef0d4	-0.03880389
73	0xbd471cb7	-0.04861137
74	0xbd481df6	-0.048856698
75	0x3d3bcfed	0.04585259
76	0xbcd6eca1	-0.02623588
77	0xbccd303f	-0.02504742
78	0xbc0ec60e	-0.008714212
79	0xbd7019ae	-0.05861824
80	0x3ca3375f	0.019923864
81	0x3d96b643	0.073589824
82	0xbc769096	-0.01504912
83	0xbd1bfc72	-0.038082547
84	0x3d94f9e9	0.07274229
85	0xbd04f7e3	-0.032462966
86	0x3c194578	0.009354942
87	0x3d68c212	0.056825705
88	0xbc6f7145	-0.014614408
89	0x3c801c6a	0.015638549
90	0xbda2dc54	-0.079521805
91	0x3cbab358	0.022790596
92	0xbd247d3c	-0.040158495
93	0xbe137112	-0.14398602
94	0xbd67978c	-0.05654101
95	0x3cbd4cc7	0.0231079
96	0xbd0940b6	-0.03350898
97	0x3d114125	0.035462517
98	0xbc848ad4	-0.01617948
99	0xbd0f41ca	-0.03497485
100	0xbd617c18	-0.055049986
101	0xbcc93acc	-0.02456417
102	0xbd3c4e28	-0.045972973
103	0x3d8b963d	0.06815765
104	0xbd3f84c9	-0.046757493
105	0xbd9fafc1	-0.07797194
106	0xbd12d108	-0.03584388
107	0x3cd280b8	0.025696144
108	0xbd6f76ac	-0.058462784
109	0x3db692a5	0.08914689
110	0x3c91b468	0.01778622
111	0x3c71c695	0.014756818
112	0x3cb9904d	0.022651816
113	0xbd11fdaa	-0.035642304
114	0x3b5893fa	0.0033047185
115	0x3d456848	0.048195153
116	0x3c1359a9	0.008993545
117	0xbd1b44bd	-0.03790735
118	0x3d082cac	0.033245727
119	0xbccd77be	-0.025081512
120	0xbd17e08f	-0.03707939
121	0xbd5f83ce	-0.054569058
122	0xbd342318	-0.04397878
123	0xbd8124a3	-0.06305816
124	0xbd80736d	-0.06272016
125	0xbb41ebb2	-0.0029589948
126	0xba02b507	-0.00049860816
127	0x3cd8f5c7	0.026484383
128	0xbd5aaa14	-0.053384855
129	0x3d869e30	0.065731406
130	0xbc135f00	-0.008994818
131	0xbd2fb4e1	-0.04289711
132	0xbdb3b4ea	-0.08774741
133	0xbd3e2527	-0.04642215
134	0x3cfa358e	0.030543115
135	0xbbbe9532	-0.0058161253
136	0xbd4e0f8e	-0.050307803
137	0xbd68fe59	-0.05688319
138	0xbcba3d35	-0.022734264
139	0x3bab67eb	0.005230894
140	0xbd4111f2	-0.047136255
141	0x3d5ebd25	0.0543796
142	0xbc9df6e1	-0.01928276
143	0x3d63640b	0.05551533
144	0x3d6fd810	0.058555663
145	0x3bca160f	0.0061671804
146	0xbcb0610b	-0.021530649
147	0xbe1ff5b0	-0.15621066
148	0x3d01c0d0	0.03167802
149	0xbdae7eb9	-0.08520264
150	0xbc65ac6d	-0.01401816
151	0xbc91bc09	-0.017789857
152	0xbd952bff	-0.07283782
153	0xbc4dec59	-0.012568557
154	0xbdb763ed	-0.08954606
155	0xbd17c6d5	-0.037054855
156	0xbd47de87	-0.048796203
157	0x3d4a9c37	0.049465384
158	0xbd91ad95	-0.07113186
159	0x3d38399a	0.044976808
160	0x3cc92014	0.024551429
161	0x3d233f5b	0.039855342
162	0xbcf87526	-0.030329298
163	0x3bff85a5	0.007797914
164	0x3ccad048	0.02475752
165	0x3d954447	0.072884135
166	0xbc86e741	-0.016467692
167	0x3ca1c5f1	0.019747706
168	0xbb13cd15	-0.0022552658
169	0x3c82d01e	0.015968379
170	0xbd2a8312	-0.041628905
171	0xbc879957	-0.01655261
172	0x3cb22d22	0.021750037
173	0x3d5c6014	0.053802565
174	0xbc2a9a7a	-0.010412807
175	0xbd1a60cf	-0.03768998
176	0x3ab9671b	0.0014145108
177	0xbc2c8ec7	-0.010532088
178	0x3c873206	0.016503345
179	0xbc20d60b	-0.009816657
180	0xbbc14650	-0.0058982745
181	0x3d28b3a9	0.041186962
182	0xbd2c94c6	-0.04213407
183	0x3d2f4ec6	0.042799734
184	0xbc334b39	-0.010943227
185	0x3d0a72ab	0.033800762
186	0xbd3677b1	-0.04454774
187	0xbbd4f58b	-0.0064989976
188	0x3ba5e17e	0.005062281
189	0x3d4bba7e	0.0497384
190	0x3d26eb86	0.040751956
191	0x3d96fb32	0.073721305
192	0x3d97671b	0.07392713
193	0x3d1abee2	0.037779696
194	0x3d42ebde	0.04758822
195	0xbd230051	-0.039795224
196	0x3c8fda87	0.017560257
197	0x3dbb3695	0.0914127
198	0x3c2c1835	0.010503818
199	0x3d8d556e	0.0690106
200	0xbda340f6	-0.07971375
201	0xbd1526b3	-0.03641386
202	0x3c9e287f	0.01930642
203	0xbd651d25	-0.055935998
204	0xbcfa0c3a	-0.030523408
205	0xbd7ba04a	-0.06143216
206	0xbc7851b2	-0.015156196
207	0xbad56347	-0.0016280197
208	0x3d5d37fc	0.05400847
209	0x3bff9ade	0.007800444
210	0x3cd1eef0	0.02562663
211	0xbcd10b11	-0.025517972
212	0x3ce3758d	0.027766014
213	0x3c99beca	0.018767733
214	0x3d6de653	0.058080982
215	0x3cc53afb	0.024075976
216	0x3cfdfa54	0.031003155
217	0xbcb46996	-0.022023004
218	0x3d0aa1a4	0.03384556
219	0xbc40a6c3	-0.011758509
220	0x3d6af2cc	0.057360455
221	0xbd4fd3a3	-0.050738942
222	0xbc092b77	-0.008372179
223	0xbc6c94ea	-0.014439801
224	0x3d6744b2	0.056461997
225	0xbc5e073b	-0.013551529
226	0x3d511bd2	0.051051922
227	0x3d3da938	0.046303958
228	0x3b3c2b90	0.0028712489
229	0xbd866015	-0.06561295
230	0x3d3fdb66	0.046840094
231	0x3d4ec3c6	0.050479673
232	0xbdaad719	-0.08341808
233	0x3d8a8e38	0.06765407
234	0xbd053ed7	-0.032530632
235	0xbd9f765e	-0.077862486
236	0xbd10df0b	-0.03536896
237	0xbd3424c5	-0.04398038
238	0xbbe9d6ac	-0.0071361866
239	0xbba4dd28	-0.0050312467
240	0xbd063893	-0.032768797
241	0xbd3cafc4	-0.04606606
242	0xbb0f2273	-0.0021840602
243	0xbdc416ec	-0.095746845
244	0xbd68cb8f	-0.056834754
245	0xbb763f10	-0.003757421
246	0xbbda9c41	-0.006671459
247	0x3c130ac8	0.008974738
248	0x3d639e08	0.055570632
249	0x3d4b091b	0.04956923
250	0x3cfb7fdf	0.030700622
251	0x3bdc3b6a	0.00672095
252	0xb9cf4800	-0.0003953576
253	0x3d56e369	0.05246297
254	0xbcfd9d0b	-0.030958673
255	0x3ce9d792	0.028545175

layer2.3.bias f4 [256]
0	0xbdf666ae	-0.12031303
1	0x3ed376b0	0.4130149
2	0xbe81f8de	-0.25385183
3	0x3da1769d	0.07883952
4	0x3e03bc95	0.12864907
5	0x3e69341a	0.22773781
6	0x3e2da2af	0.1695659
7	0xbe2de6e6	-0.16982612
8	0xbe4cea6f	-0.20011304
9	0x3e966e98	0.2938125
10	0x3f00f290	0.5037012
11	0xbe206483	-0.15663342
12	0x3da12628	0.07868606
13	0x3e7917a3	0.24325423
14	0x3e4a506c	0.19757241
15	0x3e3b4de1	0.18291427
16	0x3e90af4f	0.2825875
17	0xbd98ddd0	-0.074641824
18	0x3d80850e	0.06275378
19	0xbe9ef524	-0.31046402
20	0x3df5495f	0.11976885
21	0xbe13fde0	-0.14452314
22	0xbe0ccb6c	-0.13749474
23	0xbda7f3da	-0.08200808
24	0x3e173b0a	0.14768615
25	0x3e22d477	0.15901361
26	0x3e82355f	0.25431344
27	0xbdffbddc	-0.12487385
28	0xbe08ab0e	-0.13346502
29	0x3ea35f65	0.31908718
30	0xbe18bf46	-0.14916715
31	0x3db60c5a	0.088890746
32	0xbecf7eab	-0.40526327
33	0x3ea5df40	0.3239689
34	0xbee3b477	-0.4447362
35	0xbec52ea5	-0.3851215
36	0x3d1afc9d	0.037838567
37	0x3e06c934	0.1316269
38	0x3e350818	0.17678869
39	0xbe9c29e7	-0.3050072
40	0x3e1c03a5	0.15235765
41	0xbd932364	-0.071844846
42	0xbcf56449	-0.029955046
43	0xbdc2da51	-0.09514297
44	0x3df04c14	0.11733261
45	0x3dbb9b22	0.091604486
46	0x3d73b4ab	0.05949847
47	0xbe5d037c	-0.2158336
48	0x3e66263e	0.22475526
49	0xbe87088f	-0.26373717
50	0xbe648833	-0.22317581
51	0x3e8baf72	0.27282292
52	0x3e12cde9	0.14336361
53	0x3e3b5571	0.18294312
54	0x3d1dd2ad	0.038530994
55	0x3db9c857	0.09071415
56	0xbe6a5a89	-0.22886099
57	0xbe3948e9	-0.1809422
58	0xbd9c6ceb	-0.07637962
59	0x3e0cd4d6	0.13753065
60	0xbe72e06a	-0.2371842
61	0x3e2838aa	0.16427866
62	0x3ea57ddd	0.3232259
63	0x3e81be2f	0.2534041
64	0x3d124807	0.035713222
65	0xbe590bc5	-0.21195896
66	0x3e118e90	0.1421454
67	0xbb919d45	-0.004443797
68	0x3e0b3e25	0.13597925
69	0xbdc47cd3	-0.09594121
70	0x3e543367	0.20722733
71	0x3eba6b80	0.3641014
72	0xbe76af15	-0.24090226
73	0xbd3849f2	-0.044992395
74	0xbbc4cbbc	-0.0060057323
75	0x3d6515dc	0.05592905
76	0x3ea31462	0.31851488
77	0xbe11d7f4	-0.14242536
78	0x3e80b76b	0.25139937
79	0xbe47c05b	-0.19506972
80	0x3e94b558	0.29044604
81	0xbe596356	-0.212293
82	0x3e2a7f23	0.16650061
83	0xbe57acf3	-0.21062069
84	0x3b7d0dc5	0.0038612944
85	0xbe5bc345	-0.21461208
86	0xbecd4352	-0.40090424
87	0xbdfb4b19	-0.12270183
88	0xbdb48358	-0.08814114
89	0xbe223ec6	-0.15844259
90	0xbe71ea5f	-0.23624562
91	0x3e61df9e	0.2205796
92	0xbe8647c5	-0.2622663
93	0xbe52bb39	-0.20579232
94	0xbecb0a68	-0.39656377
95	0xbe3076df	-0.17232846
96	0x3d8a301d	0.06747458
97	0xbe5eaf16	-0.21746477
98	0xbe34750a	-0.17622772
99	0x3e07b0c4	0.13251024
100	0xbe875866	-0.2643463
101	0xbe56d934	-0.20981294
102	0x3e2fc47b	0.17164795
103	0x3d91edb0	0.071254134
104	0x3e90c27b	0.28273377
105	0x3eb62cc7	0.35581037
106	0x3dd9bb86	0.106314704
107	0x3e9c9df5	0.30589262
108	0x3e989a94	0.29805434
109	0xbe9e5b83	-0.30929193
110	0xbe800457	-0.2500331
111	0xbe029acf	-0.12754367
112	0x3e867be7	0.26266405
113	0x3e818679	0.25297907
114	0x3e29ca8f	0.16581176
115	0x3d85a87f	0.06526279
116	0xbdc6423a	-0.096806005
117	0xbd6cea4f	-0.05784064
118	0xbe19f2e4	-0.15034062
119	0x3e21f3f0	0.15815711
120	0xbedafd9b	-0.4277161
121	0x3d73aa73	0.059488725
122	0xbeb25f4e	-0.34838337
123	0xbdd155f2	-0.10221471
124	0xbe1d3a51	-0.15354277
125	0x3eb13be1	0.34615996
126	0xbe039b02	-0.128521
127	0xbe702f5d	-0.23455568
128	0x3ea17183	0.31531915
129	0xbe51a4c2	-0.20473006
130	0x3e9c3289	0.30507305
131	0x3ccf6d56	0.02532069
132	0xbde3d123	-0.11123874
133	0xbdbd4d22	-0.092432275
134	0x3e68d30a	0.22736755
135	0xbde30bd6	-0.11086242
136	0x3b2e9142	0.0026636873
137	0x3e3807b4	0.17971689
138	0x3e4d28ea	0.20035139
139	0xbe9597f6	-0.292175
140	0xbeacc8bf	-0.33746907
141	0xbe02b198	-0.12763059
142	0xbccf949a	-0.025339413
143	0xbe5e566e	-0.21712658
144	0x3e51793a	0.204564
145	0xbe062ae6	-0.13102302
146	0x3e894ba9	0.26815537
147	0x3db02dc7	0.08602481
148	0xbe17aa96	-0.14811167
149	0x3e9a6a07	0.30159017
150	0x3e1c3058	0.15252817
151	0x3e8460ae	0.2585501
152	0xbe34bf43	-0.17651086
153	0xbeaab7b0	-0.33343267
154	0xbe852d91	-0.26011327
155	0x3e1c9a31	0.15293194
156	0xbde89707	-0.11356931
157	0x3ce397f8	0.027782425
158	0xbe80f725	-0.25188556
159	0xbdf44a48	-0.119282305
160	0xbdf4ec81	-0.11959172
161	0x3e017623	0.12642722
162	0xbea8d9bd	-0.3297862
163	0xbe25d5d0	-0.16194844
164	0xbd29a54d	-0.04141741
165	0x3cdd75b1	0.027033659
166	0xbdf77c29	-0.120842285
167	0x3dbc43ea	0.09192641
168	0x3e45e056	0.19323859
169	0x3e1bfdfa	0.15233603
170	0xbe48e198	-0.19617307
171	0xbeaffe60	-0.3437376
172	0xbd9e8d44	-0.07741788
173	0xbe1a4910	-0.15066934
174	0x3e5997e4	0.21249348
175	0xbdfebf99	-0.12438888
176	0x3e2476ce	0.16060945
177	0xbeba95f7	-0.3644254
178	0x3e38ac72	0.18034533
179	0x3e7bf9ea	0.24607053
180	0x3e4e6c5f	0.20158528
181	0x3de106db	0.10987636
182	0x3eb3f60f	0.35148665
183	0x3e1f4254	0.15552646
184	0xbe6c8508	-0.23097622
185	0x3e40bdbc	0.18822378
186	0xbe30137b	-0.17194931
187	0x3e887d5e	0.26658148
188	0xbe47e09b	-0.19519274
189	0x3eb018cd	0.34393921
190	0x3d279934	0.04091759
191	0xbda2ed45	-0.07955412
192	0xbe5566b1	-0.20839955
193	0xbdf717dc	-0.12065098
194	0x3e978a5c	0.29597747
195	0x3d153c04	0.03643419
196	0xbdddfa6b	-0.10838779
197	0xbd81d281	-0.063389786
198	0xbe2f4da4	-0.17119461
199	0xbe40a657	-0.18813454
200	0xbdc32ab2	-0.09529628
201	0xbd19516d	-0.03743117
202	0x3e50c696	0.20388255
203	0xbe220e19	-0.1582569
204	0xbe8c2113	-0.27368984
205	0xbe40f825	-0.1884466
206	0x3d158da0	0.036512017
207	0x3dfbfeb6	0.12304442
208	0x3e263df3	0.16234569
209	0xbd87af6e	-0.066252574
210	0xbe0a0ce0	-0.13481474
211	0x3e527759	0.2055334
212	0x3e6b73cd	0.22993393
213	0x3e6bd11f	0.23028992
214	0xbe4fa8bc	-0.20279211
215	0x3e5f93f6	0.21833786
216	0x3d79d7ca	0.060996808
217	0x3e924123	0.2856532
218	0xbe30f36e	-0.17280361
219	0x3e4613ac	0.19343442
220	0x3e0177c3	0.12643342
221	0x3e512bef	0.20426916
222	0xbe0595eb	-0.1304547
223	0x3e1a9f5f	0.15099858
224	0xbca1ad76	-0.019736033
225	0xbe36e2c5	-0.17859943
226	0x3e8cf4b0	0.27530432
227	0x3e8fcf81	0.28088
228	0x3e8fa1ac	0.28053033
229	0xbeb1eddd	-0.34751788
230	0xbe666691	-0.22500063
231	0x3e7faff9	0.24969472
232	0x3e3fe5bb	0.18739979
233	0x3e467c78	0.19383419
234	0xbe8094aa	-0.25113422
235	0x3d928839	0.07154889
236	0xbd72807a	-0.059204556
237	0xbe1b9123	-0.15192084
238	0x3e92506f	0.2857699
239	0xbe483913	-0.19553022
240	0xbe7e4281	-0.24830057
241	0xbe2dfe27	-0.16991483
242	0xbe31a439	-0.17347802
243	0xbe45f1b3	-0.19330482
244	0xbe9cbd33	-0.30613098
245	0xbe9b7be5	-0.30367962
246	0x3e91fe66	0.28514403
247	0xbe8acd59	-0.27109793
248	0xbdb1006e	-0.0864266
249	0xbe9785df	-0.29594323
250	0x3e78af3e	0.242856
251	0xbd1d1edd	-0.03835951
252	0x3e68fc25	0.22752436
253	0xbea04364	-0.31301415
254	0x3e14ebe2	0.14543107
255	0x3d272227	0.040804055

layer2.6.weight f4 [7, 256]
0	0x3d1218cf	0.03566819
1	0xbd94ec2f	-0.07271611
2	0x3e3ac25f	0.18238209
3	0x3d2793ac	0.040912315
4	0x3d2dd5c7	0.042440202
5	0xbe0de859	-0.13858165
6	0xbd6113d7	-0.05495056
7	0x3c50da7b	0.012747402
8	0x3e1f7e12	0.15575436
9	0xbd2eab65	-0.042643923
10	0xbd869c66	-0.065727994
11	0x3c498272	0.012299167
12	0xbdcb6009	-0.099304266
13	0xbdc5822d	-0.0964397
14	0xbd5bd2ef	-0.05366796
15	0xbd13e7b0	-0.036109626
16	0xbe915692	-0.2838636
17	0x3daf9624	0.08573559
18	0x3cae117d	0.021248573
19	0x3db3ee43	0.08785679
20	0xbd980f1f	-0.07424759
21	0x3d979cf7	0.074029855
22	0xbb786c5b	-0.0037906382
23	0xbd94f9b7	-0.07274192
24	0xbe06aadb	-0.13151114
25	0xbd5b4651	-0.053533856
26	0xbc33e8ff	-0.010980844
27	0x3d5746d1	0.05255777
28	0x3d754395	0.059878904
29	0xbd855080	-0.06509495
30	0x3d2d6f39	0.0423424
31	0x3c1acb55	0.009447892
32	0x3d384a03	0.044992458
33	0xbe065897	-0.13119732
34	0x3e2ed7b9	0.17074479
35	0x3d18e727	0.03732982
36	0xbcdc7b9e	-0.026914414
37	0x3c8ccfb5	0.017188886
38	0xbdaf669d	-0.08564494
39	0x3e51658e	0.20448896
40	0xbda75d98	-0.081721485
41	0xbcef5da3	-0.029219454
42	0x3d3d3b77	0.04619929
43	0x3dd25f5c	0.102720946
44	0xbd9743a6	-0.0738595
45	0x3c82948e	0.015939977
46	0x3d77b7a7	0.06047788
47	0x3dbb407e	0.0914316
48	0xbd3c0f62	-0.045913108
49	0xbc8a49a1	-0.016880812
50	0x3d0e1ee9	0.034697447
51	0xbd4a9ddf	-0.049466964
52	0x3cedcf8f	0.029029636
53	0xbe438a66	-0.19095764
54	0x3d247732	0.040152736
55	0xbd500f37	-0.05079576
56	0x3d58a029	0.052887116
57	0x3d713188	0.058885127
58	0x3d785ecc	0.06063728
59	0xbdc9a4e3	-0.09845903
60	0xbc5e340f	-0.013562216
61	0xbcae088d	-0.021244312
62	0xbe374f01	-0.17901231
63	0xbe222027	-0.15832578
64	0xbd05183b	-0.03249381
65	0x3d05a160	0.032624602
66	0xbd5aef67	-0.053450968
67	0x3d2a3fc3	0.041564714
68	0xbd0208fc	-0.03174685
69	0x3d0aa99a	0.03385315
70	0xbe2ddf85	-0.16979797
71	0xbdbf23da	-0.0933301
72	0x3df29046	0.11843924
73	0x3d16c73d	0.036811102
74	0x3dd6f306	0.10495572
75	0xbcd288ab	-0.025699934
76	0xbe1e6a47	-0.15470229
77	0x3d852787	0.0650168
78	0xbe4bf8e4	-0.19919163
79	0x3d4521fa	0.048128106
80	0xbe70cad9	-0.2351488
81	0x3cba77a3	0.022762125
82	0xbb5857db	-0.003301135
83	0x3de016cc	0.10941848
84	0x3d32edac	0.043683693
85	0x3df5b12e	0.11996685
86	0xbc9c2535	-0.01906071
87	0x3d925bb7	0.071463995
88	0x3ddf2463	0.10895612
89	0x3df5876c	0.1198872
90	0x3db7395a	0.08946486
91	0xbd7830e5	-0.060593504
92	0x3dec4c01	0.11537934
93	0x3e1fa40c	0.15589923
94	0x3d6f0d5b	0.058362346
95	0x3dff9125	0.12478856
96	0x3c22e769	0.009942868
97	0xbcb1b1bf	-0.021691201
98	0x3d444da5	0.04792561
99	0xbbc9c8bb	-0.006157962
100	0x3d9682f9	0.073492
101	0x3de05928	0.10954505
102	0xbd845e86	-0.064633414
103	0xbd1228c3	-0.035683405
104	0xbe161cd8	-0.1465944
105	0xbd8b636b	-0.06806072
106	0xbc50a7b6	-0.012735298
107	0xbe1b57ff	-0.15170287
108	0xbd2475e7	-0.040151503
109	0x3d8ff3b0	0.070289016
110	0x3bd95735	0.0066327103
111	0x3d31b54b	0.043385785
112	0xbde0597c	-0.10954568
113	0xbd96c857	-0.073624305
114	0xbe2c2ecb	-0.16814725
115	0xbcfe3025	-0.031028816
116	0x3c35aa40	0.011087954
117	0x3cd7bcf0	0.02633521
118	0x3d164ce2	0.036694415
119	0x3c3b4370	0.011429653
120	0x3d0b0c8a	0.033947505
121	0x3d041dc8	0.032254964
122	0x3e4dd610	0.2010119
123	0x3cb4f56d	0.022089684
124	0x3d30d688	0.043173343
125	0xba6ae809	-0.00089609675
126	0x3c1ca349	0.009560415
127	0x3d2099d8	0.039209217
128	0xbdff7ec1	-0.12475348
129	0x3ddf2f3b	0.1089768
130	0xbea5923e	-0.32338136
131	0x3c8540e7	0.0162663
132	0x3dc65ac8	0.09685284
133	0x3b84cba6	0.004052597
134	0x3d464c50	0.04841262
135	0x3d77a569	0.06046048
136	0xbdabcaa8	-0.08388263
137	0xbe009898	-0.1255821
138	0xbe36bbe7	-0.17845117
139	0x3cd4ab7b	0.025960675
140	0x3ddce6e9	0.1078623
141	0x3a855220	0.001017157
142	0xbd35d7c2	-0.044395216
143	0x3de1f93e	0.11033867
144	0xbe1bb291	-0.15204836
145	0x3dbf057e	0.093272194
146	0xbe2fe283	-0.17176251
147	0xbd2d2446	-0.04227092
148	0xbd76eeb6	-0.060286246
149	0xbe1768a3	-0.1478601
150	0xbcfc0fb1	-0.030769201
151	0xbdac291f	-0.08406281
152	0x3d600b69	0.05469838
153	0x3d3290ed	0.043595243
154	0x3e43a2d6	0.19105086
155	0xbd6cdec4	-0.057829633
156	0xbb42f710	-0.0029749312
157	0xbd70ba90	-0.05877167
158	0x3e12fe9c	0.14354938
159	0x3c0b3e9f	0.008498817
160	0xbc6f0b5e	-0.0145901125
161	0xbccc4c93	-0.024938857
162	0x3da11fd2	0.07867397
163	0x3dab627f	0.08368396
164	0x3c95174a	0.018199582
165	0xbd2d6fff	-0.042343136
166	0xbc4a81c3	-0.012360039
167	0xbd202559	-0.039098118
168	0xbd94c7e1	-0.072646864
169	0xbcbaa2b2	-0.022782657
170	0x3e205454	0.15657169
171	0x3e2c94d7	0.16853653
172	0x3dbd66f8	0.09248155
173	0x3d21f2f2	0.03953833
174	0xbe036603	-0.12831883
175	0x3be84a6a	0.007088949
176	0xbd8e1c3b	-0.06938978
177	0x3d78ae98	0.06071338
178	0x3a1a0dae	0.0005876672
179	0xbdc5c694	-0.096570164
180	0xbd8e1982	-0.06938459
181	0x3cb830fe	0.022484299
182	0xbe0aaa1f	-0.13541459
183	0xbcd3ae58	-0.02583997
184	0x3dd93d3d	0.106073834
185	0xbded66cb	-0.11591872
186	0xbcd2426d	-0.02566644
187	0xbdec9de4	-0.11553553
188	0x3de5d191	0.11221612
189	0xbe186df9	-0.14885701
190	0xbc43b26d	-0.0119443955
191	0x3cf3e2ca	0.029771227
192	0x3e15be1a	0.14623299
193	0x3d1bd11c	0.03804122
194	0xbdb999b0	-0.09062517
195	0xbdb2eece	-0.08736955
196	0xbbd6cb8b	-0.006555026
197	0xbc3db5c5	-0.011578982
198	0x3dbe6465	0.092964925
199	0x3d77ccbe	0.06049799
200	0x3d99946e	0.07499014
201	0x3d98e19c	0.074649066
202	0xbd98c956	-0.07460277
203	0x3c3d9de8	0.011573292
204	0x3e991c0e	0.29904217
205	0x3db67718	0.08909434
206	0x3cdc5993	0.026898181
207	0xbda8536e	-0.08219038
208	0xbdd6d9c0	-0.10490751
209	0x3ca7cf55	0.020484606
210	0x3d9ba277	0.07599347
211	0xbdbf1088	-0.09329325
212	0xbdf55dc9	-0.11980779
213	0xbd70568c	-0.058676288
214	0x3cbdfca5	0.02319176
215	0xbe0b5d8b	-0.13609903
216	0xbdb8ca9b	-0.09023019
217	0x3bd15675	0.0063884803
218	0x3d54bdbf	0.05193877
219	0xbd759886	-0.05995991
220	0xbdc6a6d5	-0.096997894
221	0xbdccb038	-0.099945486
222	0x3926c158	0.0001590302
223	0xbcb6a3f5	-0.022294978
224	0x3c411312	0.011784332
225	0x3da8eca8	0.082482636
226	0xbe4c3cc6	-0.19945058
227	0xbe817adc	-0.25289047
228	0xbdfb7eaf	-0.12280022
229	0x3e753a4b	0.23948018
230	0x3d6ca20c	0.057771727
231	0xbde8e026	-0.11370878
232	0xbd88f6e0	-0.06687713
233	0xbdc0e67a	-0.0941896
234	0x3e1fdbba	0.15611163
235	0xbdd6e81e	-0.104934916
236	0x3da14c16	0.0787584
237	0x3d457376	0.048205815
238	0xbe5ed5a4	-0.21761185
239	0x3cb7b7d1	0.022426518
240	0x3d40d55c	0.047078475
241	0x3de14bec	0.11000809
242	0x3dac3c57	0.084099464
243	0x3da0da16	0.078540966
244	0x3e460311	0.19337107
245	0x3e9282d2	0.28615433
246	0xbc8b17b2	-0.016979072
247	0x3da021bf	0.078189366
248	0x3d63cf0c	0.055617377
249	0x3cc416a7	0.023936583
250	0xbe6edbe8	-0.23326075
251	0xbb7a8059	-0.0038223474
252	0xbd34a0a3	-0.044098508
253	0x3e09ec7a	0.13469115
254	0xbd3d8e07	-0.046278026
255	0xbddd0692	-0.10792269

layer2.6.bias f4 [7]
0	0xbec83f9f	-0.3911104
1	0xbee209f3	-0.44148216
2	0xbdf8b0c9	-0.12143094
3	0xbe399c64	-0.18126065
4	0x3d1dfd5f	0.03857171
5	0x3dcd55a0	0.10026097
6	0x3e6cd2ec	0.23127335
