Saved_data_files/helpdesk/lr_all_variants/laplacianOnBinary/TimestampPredictor_parameters_laplacianOnBinary_0.0001.pt (torch, 277455 bytes, 7 tensors)

layer1.weight f4 [4, 1]
000000 94 57 7b be 95 7d 86 3e 7e 22 e8 3f 6f 65 8a 40
       -0.24545127 0.26267686 1.8135526 4.324882

layer1.bias f4 [9]
000000 30 0f fa 3f 46 7c 1f 40 2b e1 1a c0 71 05 24 40
       1.9535885 2.49196 -2.4199932 2.562832
000010 c3 2a 5a 40 26 8b 8c be 49 4f fe 3f 91 23 e1 bf
       3.40886 -0.27449912 1.9867946 -1.7588979
000020 44 b5 2c 3f
       0.6746409

layer2.1.weight f4 [256, 9]
000000 3d f8 59 be 74 d4 3c 3d a9 19 c5 3e fe c5 83 3d
       -0.21286102 0.04610105 0.3849614 0.064342484
000010 ae 28 94 3e e3 dd 94 be e7 c1 56 3d 4c ce 5e 3e
       0.28937286 -0.29075536 0.052431013 0.21758384
000020 82 f5 96 bc 30 ce 71 be 50 a3 24 bd c1 fa 86 be
       -0.018427614 -0.2361381 -0.04019481 -0.26363185
000030 34 11 3f bd 7e 83 69 3e 99 25 0c be 9a 3b e1 3c
       -0.046647266 0.22804067 -0.13686217 0.02749424
000040 c0 d7 f8 bd d7 65 c2 3c 51 bc 76 3d 0a 9f 42 be
       -0.12150526 0.023730202 0.060238186 -0.19005981
000050 4f 51 9c 3c 94 1a 32 be 09 34 5a 3d fe 1b 48 be
       0.01908174 -0.17392951 0.05327228 -0.19541928
000060 d6 44 f9 bc 42 c3 b2 bd 31 8a 90 3e 2f 83 a8 bb
       -0.030428331 -0.08728649 0.28230432 -0.0051425914
000070 70 05 26 3e b5 0e 88 3e ad 3a b1 3d 22 0d e2 3e
       0.16213012 0.2657372 0.0865377 0.44150645
000080 d5 cc a2 bc 8e 9e 82 bd f7 20 4b 3e 10 72 d6 3d
       -0.019873062 -0.06377898 0.19836794 0.104709744
000090 8a ba b9 3c ec e9 17 3e 6b 8a 89 bb 9e 8e fa 3c
       0.022671957 0.14835328 -0.004197409 0.030585583
0000a0 cf 65 fd 3e c0 18 4e 3e 67 2d c6 3d 1d 93 06 3e
       0.49491736 0.20126629 0.096766286 0.13142057
0000b0 8c ca 2d 3c 9e f0 2f 3e 70 78 89 3e ff 5b 01 bc
       0.010607373 0.17181632 0.268497 -0.007895469
0000c0 af 41 80 3e 55 91 57 bf 47 f7 8e 3e 58 88 c4 3e
       0.25050113 -0.84206134 0.27923033 0.38385272
0000d0 fe 5c 24 3e 18 ec 92 3e 3e 79 d0 3d fb 3e 94 3e
       0.16051099 0.2869575 0.10179375 0.289543
0000e0 8a 2c 4d 3e 16 88 2b 3e 2a de 7e 3e 39 2d ab 3e
       0.20036522 0.16751131 0.24889436 0.3343294
0000f0 4a 33 77 3e 11 61 22 3b 75 54 ab 3e c1 1d 8d be
       0.24140659 0.0024777094 0.33462873 -0.27561763
000100 db 3e d7 be f0 a9 ec 3d 37 9f 2a 3d fa 9b a4 3e
       -0.42040142 0.115558505 0.041655745 0.3215025
000110 0b 0b 7c ba 03 b6 a8 be 8c 92 82 be 8c bc cf 3d
       -0.00096146826 -0.32951364 -0.2550243 0.10143384
000120 37 ba ed 3d 23 9a 38 3e d4 03 2a bd ee 48 91 3e
       0.11607783 0.18027548 -0.041507557 0.28375953
000130 4a 57 4b bf 78 ad a5 be 52 2a 8c be e4 e6 fe bc
       -0.7943007 -0.3235891 -0.27376038 -0.031115957
000140 d1 97 91 bd 1b a5 25 bf d9 1e d0 3e f3 0f b7 3d
       -0.07109035 -0.64705056 0.40648535 0.08938589
000150 05 cd 14 be db 28 bd 3e 97 56 91 be ed 5a f1 3d
       -0.14531334 0.36945233 -0.28386375 0.11784921
000160 4d c0 bc 3d 53 d1 80 3e 8b d5 6d be 7f c2 91 be
       0.09216366 0.25159702 -0.23225991 -0.284687
000170 7e 34 c5 bc 1d c8 9b be e1 90 ee be 06 cc 49 3f
       -0.024072882 -0.30426112 -0.4659491 0.7882694
000180 89 eb c1 bc f1 b1 1a be 4c 39 a0 be 49 ed b3 3e
       -0.023671882 -0.15106942 -0.31293714 0.35141972
000190 19 54 00 be 12 c8 99 3e 6f 27 7a 3d 65 75 1c 3f
       -0.1253208 0.30035454 0.061072763 0.6111663
0001a0 49 ab e3 bd b6 6d a2 bd c6 f5 a6 3d 3f 18 04 bc
       -0.111166544 -0.07931082 0.08152346 -0.008062421
0001b0 c4 e9 d2 3c 90 58 30 be f2 03 1b be b5 99 d5 bd
       0.025746234 -0.17221284 -0.15138224 -0.10429708
0001c0 ef 91 93 3d 38 fe 74 3e 1b b9 74 3e 7c ac e7 3d
       0.07205569 0.23925102 0.23898737 0.11312196
0001d0 83 4f 21 3e c8 67 09 be 4f e8 47 bd e9 51 c5 3c
       0.15752988 -0.13418496 -0.04880553 0.02408691
0001e0 a7 6c 29 3c b4 e6 80 be 48 05 61 be 21 85 d0 3d
       0.010340846 -0.25176013 -0.21974671 0.10181642
0001f0 17 e9 45 3d 9f 66 57 3e d6 3a 0e 3c 5e d0 eb bd
       0.048317995 0.2103524 0.00868102 -0.11514352
000200 fa 64 60 3e 6f d3 0f be ec 53 26 3f da ce a4 bd
       0.2191352 -0.140455 0.64971805 -0.08047266
000210 61 e7 44 be 2d c9 cf bb be 2b 75 be cb 50 e6 3c
       -0.19228889 -0.0063411207 -0.23942468 0.028114697
000220 07 b5 ee 3d 58 87 78 be 99 f6 0f 3e dd cb 86 bd
       0.11655622 -0.2427038 0.14058913 -0.065818526
000230 69 8a 1b bd c3 0c 41 be 11 99 bf bb 00 8b 87 3d
       -0.037973795 -0.18852524 -0.0058471044 0.06618309
000240 d3 6e 74 be 74 c6 fe 3d 28 03 4c 3e 1f 07 a6 be
       -0.23870401 0.12440196 0.19923079 -0.32427308
000250 62 c7 7b 3e 4c bf 4f 3f a0 3a 9d be ab af 56 bb
       0.24587777 0.8115127 -0.3070879 -0.0032758515
000260 e7 05 7d be 80 a0 09 3c fb 89 83 3b 84 61 03 bd
       -0.24709283 0.008400083 0.0040142513 -0.03207542
000270 5e c1 28 3e 5b 0b e1 3d cb 99 11 3d 73 5d ea 3c
       0.16480014 0.10988494 0.03554706 0.028609013
000280 ce 0b 26 bd 49 9a 17 3e 07 4f dd bd 07 14 70 3e
       -0.0405386 0.14804949 -0.10806089 0.2344514
000290 99 d1 0b 3e 62 f1 1d 3e 9e 2e 94 3e e7 86 39 3d
       0.13654174 0.15424111 0.28941816 0.04529467
0002a0 b4 ac 66 3d 8d 07 20 3e 4f 41 2a be 21 16 80 3d
       0.056317046 0.1562788 -0.16626476 0.06254221
0002b0 be a8 61 bd 30 e1 15 bc 80 b4 eb 3c d9 45 02 3f
       -0.055092566 -0.009147927 0.028772593 0.5088783
0002c0 56 03 99 3e 33 9b b4 3c d3 91 3b 3d da e2 f9 bc
       0.29885358 0.022046661 0.045793366 -0.030503679
0002d0 41 00 1e 3c 0a 7a 07 be 2d d7 0d 3e 38 ed 35 3d
       0.009643615 -0.13230148 0.13851614 0.044415683
0002e0 88 44 51 be c2 14 43 3e 15 4d 68 bc 1a 55 ad 3d
       -0.20436299 0.19050887 -0.014178534 0.084634975
0002f0 62 13 9e 3e 3f 6c 4a bd d0 01 ba 3e 42 67 60 be
       0.30874163 -0.049419638 0.36329508 -0.2191439
000300 1e bd 81 3e cb a4 0f 3e eb 80 84 bd 82 35 bf 3d
       0.25339597 0.14027707 -0.06469902 0.09336378
000310 4e e7 e2 bd 8a ba d2 3d 25 a5 bb 3d 37 48 d8 3d
       -0.11079274 0.10289486 0.09162358 0.10560649
000320 5d c3 c4 bb f8 f1 79 3e 80 fc 39 bf 0f 98 82 be
       -0.0060047344 0.2440871 -0.7265091 -0.25506637
000330 fd 1b 86 3d 34 22 aa 3c 28 e8 4e be 84 fc af bd
       0.06548307 0.020768262 -0.20205748 -0.085930854
000340 25 fd 82 3e 0c 50 b9 be b3 aa c6 3d 8e 96 1c 3f
       0.2558376 -0.36193883 0.09700527 0.6116723
000350 36 b1 0e 3e a1 6b c7 bd 3a 74 3f bd 1f f3 26 3e
       0.13934788 -0.097373255 -0.0467417 0.16303681
000360 33 e7 66 be 14 05 5e be 89 87 49 be ad f9 54 be
       -0.22549133 -0.21681625 -0.19680609 -0.20798369
000370 11 61 d0 be bb 70 55 3f 76 87 5f be 61 21 6b be
       -0.40699056 0.8337514 -0.21829018 -0.22961952
000380 24 d2 a9 be 19 14 e9 bd fb 75 87 3e 9e 3c cc 3d
       -0.33168137 -0.113807864 0.264572 0.09972499
000390 98 5f 2b 3e 47 49 aa bd 88 b8 84 be be f6 b7 3e
       0.16735685 -0.08314758 -0.25922036 0.35930437
0003a0 75 4e 7b be 1d 09 52 be 1e 86 7e 3e 55 05 f2 bd
       -0.24541648 -0.20511289 0.24855849 -0.11817423
0003b0 23 0f ba 3e b2 f0 d0 bd 6a 32 85 3e d1 07 aa bd
       0.36339673 -0.10202159 0.26015025 -0.08302272
0003c0 d1 2a ae 3b fb 6d c2 3d 7e b7 10 be cd c6 31 3c
       0.0053151627 0.09493633 -0.14132497 0.01085062
0003d0 8e e6 22 bc 8f 91 09 be 44 79 a6 3e ed a4 24 3d
       -0.009942664 -0.13434432 0.32514393 0.040196348
0003e0 59 ec 11 be 95 a0 2c 3e 09 5c 17 3d f1 15 dd bd
       -0.14250316 0.16858132 0.036953006 -0.107952006
0003f0 9f 2c 98 be 91 e3 c6 3e e0 78 d6 bb ff 3e a6 3e
       -0.29721543 0.38845494 -0.006545171 0.32469937

layer2.1.bias f4 [256]
000000 52 e5 02 bf a8 7d 9b 40 cf 2d ba bf 34 af 0e c0
       -0.51131165 4.859089 -1.454523 -2.2294436
000010 44 d4 8d 40 87 20 33 c0 77 f2 51 c0 7b 9b e0 bf
       4.4321613 -2.7988603 -3.2804239 -1.7547449
000020 e4 24 33 c0 03 19 83 c0 87 4e 41 c0 0a 7a 45 40
       -2.7991266 -4.096803 -3.020418 3.0855737
000030 08 33 28 bc 79 31 63 bf c5 bc 04 bf 89 c8 05 bf
       -0.010266073 -0.88747364 -0.5185054 -0.5225912
000040 43 80 16 c0 17 32 a4 40 bb eb 66 40 4e e7 c3 40
       -2.3515785 5.1311145 3.6081378 6.1219854
000050 a7 78 81 3e 1e 87 49 40 9b ce 00 c0 14 cc 9e 40
       0.25287363 3.148872 -2.0126102 4.962412
000060 2c 66 2c c0 d2 41 76 40 af db 4b 40 d2 91 22 40
       -2.693736 3.8477674 3.1852834 2.5401502
000070 aa 62 ee bf ce d7 0a c0 4e 86 ac 40 aa 62 10 c0
       -1.862386 -2.1694217 5.3913946 -2.256022
000080 74 6e 1c bf 2f 82 6d 3f 05 9e ab 40 9e d7 1c c0
       -0.6110604 0.9277677 5.3630395 -2.4506602
000090 e8 80 bd 40 f3 5b 57 c0 83 0a d2 be ef b9 a4 40
       5.9219856 -3.3649871 -0.41023645 5.147697
0000a0 18 a5 96 40 18 20 b2 bd 82 ea 9f 40 8e fb 35 c0
       4.707653 -0.08697528 4.9973764 -2.8434787
0000b0 51 a9 74 3f f3 17 1c c0 5d 12 af bd 0e 80 96 3f
       0.95570856 -2.4389617 -0.085484244 1.1757829
0000c0 ef b7 3d bf 1d b6 08 c0 be c8 44 c0 41 d5 ec 3f
       -0.74108785 -2.1361153 -3.0747523 1.850258
0000d0 4a fe 35 bf b9 2b 62 40 07 f8 59 c0 81 fd e9 bf
       -0.7109114 3.5339186 -3.4057634 -1.8280488
0000e0 08 35 fb bf c2 05 4b 3f e5 2a 3e 40 91 04 9d 40
       -1.9625559 0.7930566 2.971368 4.9068074
0000f0 6a 32 34 40 33 c2 8d be 30 93 39 3f 21 79 13 c0
       2.815577 -0.27687225 0.72490215 -2.3042681
000100 a2 17 93 40 be fb b9 40 66 ea 1d bf 82 15 b2 3f
       4.596635 5.8119802 -0.6168579 1.3912814
000110 a7 82 2f 3f 27 24 34 40 aa aa 9d 40 88 a7 07 c0
       0.68558735 2.8147066 4.927083 -2.1196003
000120 10 85 fd bf cd 45 a0 40 54 47 0d c0 c8 5d d5 3f
       -1.9806232 5.0085206 -2.2074785 1.6669245
000130 9c a8 99 40 5c e7 ef 3d 2c 52 01 c0 95 bb 32 c0
       4.801832 0.1171405 -2.0206404 -2.792699
000140 ec 79 74 40 0d 41 c0 bf a9 5f 75 bf 93 df 93 40
       3.8199415 -1.5019852 -0.9584909 4.621042
000150 4b 9a c0 40 12 6b b2 40 94 15 f8 3f 23 e8 58 c0
       6.0188346 5.57557 1.9381585 -3.3891685
000160 de c4 85 40 ad a1 bd 40 9e 6c b7 40 0b d1 9b be
       4.1802816 5.925986 5.732009 -0.30432925
000170 5c c9 b7 bf 4d 21 4e c0 50 92 b5 40 c6 08 b3 40
       -1.4358325 -3.2207825 5.6741104 5.594821
000180 a2 24 38 c0 d3 eb 19 bf 28 bb 81 40 b5 63 2f c0
       -2.877236 -0.60125464 4.054096 -2.7404606
000190 f1 34 12 c0 42 02 8d 40 0f 8a 23 3f da 0a 19 40
       -2.2844813 4.4065256 0.63882536 2.3912873
0001a0 af 03 4d bf e4 f0 51 40 5d a5 40 c0 be 64 a4 3f
       -0.80083746 3.2803278 -3.010093 1.2843244
0001b0 b0 07 34 c0 f6 b1 b0 bf 85 8f 1f c0 ab 85 b5 bf
       -2.8129692 -1.3804309 -2.4931347 -1.4181417
0001c0 1e d1 65 40 05 6f 00 40 9f 00 db bc 23 7e 8e 40
       3.5908885 2.006776 -0.026733695 4.4528975
0001d0 30 8d 38 c0 f8 55 0c c0 03 e6 72 be 75 c2 4b c0
       -2.8836174 -2.192747 -0.23720555 -3.1837437
0001e0 00 5f 2b c0 0b 2b ac 40 47 89 ac bf 08 b4 ce bf
       -2.6776733 5.3802543 -1.3479394 -1.6148691
0001f0 0f ae aa 40 04 21 42 c0 89 98 91 3e 30 3f 12 3f
       5.3337474 -3.033265 0.28436688 0.57127666
000200 ed 65 93 40 3c 39 a7 40 3b 7e d2 3f 13 cd d2 bf
       4.606192 5.2257366 1.6444772 -1.6468834
000210 21 ef 80 bf 5e 0b eb bf ca 6d be 40 d9 6c 9c bf
       -1.0072976 -1.8362844 5.950902 -1.2220718
000220 2e 00 14 c0 e3 54 2c c0 ff cf eb bf c8 3d e4 3f
       -2.312511 -2.692681 -1.842285 1.7831354
000230 32 5e 44 be e5 74 4a c0 74 b5 13 c0 ac 02 13 40
       -0.19176558 -3.1633847 -2.30795 2.297038
000240 11 b6 95 be af a0 2a c0 f0 0e ea 3f ba e9 09 40
       -0.29240468 -2.6660573 1.8285809 2.1548905
000250 61 5d 18 bf 0e 24 a4 40 a8 3d a4 40 b5 e6 15 c0
       -0.59517485 5.129401 5.1325264 -2.3422062
000260 a7 d8 d0 40 bb 44 ab bf 63 e4 b4 40 1e cd 1a c0
       6.526447 -1.338035 5.652879 -2.4187694
000270 3e e8 4a c0 22 b3 05 c0 ec 6b 06 c0 21 a3 af 3f
       -3.170425 -2.0890584 -2.100337 1.3721658
000280 39 d2 a3 40 05 3e d4 bf 66 8d 37 40 aa ed 55 40
       5.119412 -1.6581427 2.8680053 3.3426309
000290 5d 5f e6 bf 36 59 4e c0 e5 ee 3b c0 a5 28 ad 40
       -1.7997853 -3.224195 -2.936456 5.4112115
0002a0 03 23 8b 40 2e f8 95 be 7f 76 cd be 35 cc b5 3f
       4.348024 -0.2929091 -0.40129468 1.4202944
0002b0 29 cf 86 40 9b 79 44 40 71 e8 ae 40 83 4f 9d 40
       4.212788 3.0699222 5.465874 4.915956
0002c0 10 ad 8c 40 52 68 1d c0 3b 67 b7 40 df 88 a1 40
       4.396126 -2.4594922 5.7313514 5.047958
0002d0 e5 07 a7 bf e5 5a c4 3f 83 3e 87 c0 d5 53 81 c0
       -1.3049284 1.5340239 -4.226381 -4.0414834
0002e0 8c d5 6c bf a4 ff de bf 10 5a 93 40 b5 82 19 c0
       -0.92513347 -1.7421765 4.604744 -2.3986027
0002f0 1a 17 f8 bf be 2c ad 40 3f 82 a5 40 56 30 ba 40
       -1.938205 5.4117117 5.172149 5.8184004
000300 2f 17 37 c0 74 c9 86 40 56 64 98 bf 44 f1 ee be
       -2.86079 4.2120914 -1.190562 -0.46668446
000310 a5 18 1d c0 56 f6 b6 40 4a 39 0b c0 bf 27 a6 40
       -2.4546292 5.7175703 -2.1753716 5.192352
000320 10 e2 9d 40 6b b4 b9 40 8d c6 21 bf 47 d4 c7 3f
       4.9338455 5.8032737 -0.6319359 1.5611657
000330 42 de 81 40 28 c1 d9 bf e9 5b 8d 40 08 39 08 c0
       4.058381 -1.7012072 4.4174695 -2.128481
000340 23 78 a2 bf 18 e6 5a 40 62 bc 14 c0 87 c6 0b c0
       -1.2692913 3.4202938 -2.323998 -2.1839921
000350 b4 f5 99 40 7d 89 0c 3f 0f 03 5e be e5 0b 40 c0
       4.811243 0.5489729 -0.21680854 -3.000726
000360 b1 65 6f c0 71 90 04 c0 bf e7 82 40 c8 4d 12 c0
       -3.7405818 -2.071316 4.0907893 -2.2859974
000370 20 13 b0 3f f5 5f b1 40 20 df a5 40 f9 2a fe be
       1.3755836 5.5429635 5.183487 -0.4964216
000380 54 6e 2c c0 46 8a a1 3f 9f cf d0 bf e1 0f 32 bf
       -2.694234 1.2620323 -1.6313361 -0.6955548
000390 fc 13 5d 40 f1 5a 26 c0 a0 31 94 be 32 cc b4 40
       3.4543447 -2.5993006 -0.2894411 5.649926
0003a0 0a 4e 1e c0 d3 11 0a c0 80 dc 65 40 af b1 8e 40
       -2.4735131 -2.157338 3.5915833 4.45919
0003b0 e0 69 ed bf 1c 7c 8b 40 c3 8d d5 bf ee c5 a6 40
       -1.8547935 4.3589 -1.6683887 5.2116613
0003c0 08 bd 15 40 09 f7 2a c0 a7 e5 b8 40 98 e2 0e c0
       2.3396626 -2.6713278 5.7780337 -2.2325802
0003d0 c8 70 3a 3e 09 e0 c9 3f 15 90 0f c0 40 f7 1f c0
       0.18207085 1.5771495 -2.243169 -2.499466
0003e0 2b 04 b2 bf ab 31 34 c0 3d b1 85 40 a0 cf 61 c0
       -1.3907522 -2.8155315 4.1778855 -3.5282974
0003f0 c3 8a 5a 40 68 98 8c 40 bc a7 07 bf 51 90 0f bf
       3.4147193 4.3936043 -0.5299032 -0.56079584

layer2.3.weight f4 [256, 256]
000000 7c bd 25 3c d1 d6 22 bc 43 fd bc bb 86 0b 55 3d
       0.010115977 -0.009938912 -0.005767496 0.052012943
000010 6a 6f 42 3d 5f 43 e3 bd d2 1f b5 3d bf 0a 00 3c
       0.047469534 -0.110968344 0.0884396 0.007815062
000020 cb 7a 04 bc 5e 08 7d bb a7 1d 3c bc 07 4b b5 3d
       -0.008085917 -0.0038609724 -0.011481679 0.08852201
000030 52 55 bf bb 0b 3f 30 bd 10 f3 1c 3d 7f d5 17 bc
       -0.0058390284 -0.043028872 0.03831774 -0.00926721
000040 85 67 05 3c aa 59 9c bb 38 80 b4 bb 57 fa 7d 3d
       0.008142357 -0.004771431 -0.005508449 0.06200632
000050 6e 76 9c bd 85 6a 3e 3d 85 f3 d9 bd 37 ab 9a 3c
       -0.07639776 0.046488304 -0.10642151 0.01888047
000060 5d ec 27 bd fc 38 0c be d3 ba 2d bd 89 b5 cc 3c
       -0.040996898 -0.13693613 -0.042414498 0.024988906
000070 ff f6 73 bb d1 6f 2b bd b4 74 bd 3b 7f 87 7b bd
       -0.0037226079 -0.041854683 0.0057817344 -0.061408516
000080 ae 1b d2 3d 07 de 27 bd a9 6c a1 3d 34 39 c2 3b
       0.10259186 -0.040983226 0.078820534 0.0059272293
000090 3a dc ac 3d 4e b0 22 3d 5e e7 84 3d b1 04 28 bc
       0.084404424 0.03971892 0.06489442 -0.010255025
0000a0 09 2f 9e 3c 91 ee a3 3b 49 52 80 bd 55 d6 05 be
       0.019309537 0.0050028046 -0.06265695 -0.13070042
0000b0 05 8c 66 bd f9 c4 6d bd 34 22 a0 bd 83 1f b0 bd
       -0.056285877 -0.058049176 -0.07819024 -0.085997604
0000c0 6d 9a 52 bd 88 48 8d 3d fb fe 44 bd 3c 8a b6 bb
       -0.051416803 0.068986 -0.04809473 -0.005570678
0000d0 81 71 b2 bd 43 ef fa bd 33 3b d2 3d 37 92 b4 bc
       -0.087130554 -0.12252667 0.102651976 -0.022042377
0000e0 a1 42 13 bd 59 2e 51 3d 26 81 c4 3d 29 38 29 bc
       -0.035952214 0.05106959 0.095949456 -0.010328331
0000f0 50 98 61 3d 0b fa 85 3d 04 0a e3 3c e0 4a bb bd
       0.055076897 0.065418325 0.027714737 -0.09145141
000100 bf 0b 44 3c 68 fc e9 3c 49 4e 94 3c f8 a8 81 bc
       0.011965691 0.02856274 0.018103736 -0.01582764
000110 a5 ad 98 3d 05 21 33 bd ba 65 b4 3c 73 06 09 be
       0.07454995 -0.04373266 0.022021163 -0.13381366
000120 4e d4 99 3c f4 38 75 3d 2b 66 dd 3c 9f 5f 81 bb
       0.018777993 0.059868768 0.027026257 -0.0039481665
000130 c2 4a 01 bd e6 d9 b7 3c 82 bd a4 bc 02 a6 a1 bc
       -0.031565435 0.02244277 -0.020109896 -0.019732479
000140 05 34 7a 3c 31 c3 18 bc 44 4a 3c bc d0 9d 90 bd
       0.0152711915 -0.009323881 -0.011492316 -0.0706135
000150 0c 82 e9 3c 22 8d 7d 3c 48 05 b3 3d ed 59 73 3d
       0.028504394 0.015475543 0.08741242 0.05941193
000160 e8 cb c8 3a 6c 6d aa bd c3 eb 1e 3d da ff 01 bc
       0.0015319558 -0.08321652 0.03879906 -0.007934535
000170 1d 49 8f bd 4b 55 e0 3d 27 bc f9 bb 1f 4e 59 bd
       -0.06996367 0.10953768 -0.0076213065 -0.053053018
000180 3e db 5a 3d 0a 24 93 bd 26 16 e0 3c 86 8f b9 bd
       0.053431742 -0.07184608 0.027354311 -0.09060578
000190 ed 29 21 3d e3 ae e9 bc 47 8b 0b 3d 7b e3 1a 3d
       0.039346624 -0.028525775 0.034068372 0.0378146
0001a0 8a 30 05 3d 3b 79 b3 3c db 8b 1d 3d 5e a9 8a 3d
       0.032516994 0.021908393 0.038463455 0.067705855
0001b0 06 0b b8 3a bf c9 46 ba 3c 6b 35 bc 81 64 57 bc
       0.0014041371 -0.0007583163 -0.01107293 -0.013146521
0001c0 93 bf d5 be 27 92 31 bd 26 1e 6e ba a9 1b 09 bc
       -0.41747722 -0.043352272 -0.0009083472 -0.008368411
0001d0 ab 36 42 3d 5d e9 89 bc 87 a3 1d bd 13 4d 60 bd
       0.047415417 -0.01683491 -0.03848603 -0.054761004
0001e0 9d 4b d7 bc d0 3c ba bd 51 4e a5 3c 32 1a c6 bd
       -0.026281172 -0.0909363 0.020178946 -0.09672965
0001f0 79 02 c8 bc d1 17 af 3d 2e 69 ba bd ab 54 ee bc
       -0.024415242 0.085494645 -0.09102093 -0.029093107
000200 25 42 dd 3d 90 42 47 bd 88 61 1d be c5 e7 ec 3c
       0.10803632 -0.048647463 -0.15369236 0.02891911
000210 90 b4 b7 bd 18 5e f4 3b 18 90 47 bc fe 8a 52 bd
       -0.089699864 0.007457506 -0.012180351 -0.051402085
000220 10 48 8c 3c 27 df fd 3c 39 28 71 bc 64 c2 05 39
       0.017124206 0.030990196 -0.0147190625 0.00012756285
000230 93 5c 01 bd 77 2d 06 bd 16 ab 26 bc 3c b9 01 3c
       -0.031582426 -0.032758202 -0.010172626 0.0079176985
000240 fd 92 8e 3c 42 94 ce bc 96 b6 52 bd 14 31 bc 3d
       0.017404074 -0.02521718 -0.05144366 0.091890484
000250 1f ac 75 3c 9c 16 89 3d 0f aa 00 3b c1 1b 1e bd
       0.01499465 0.066937655 0.0019632613 -0.038600687
000260 85 0d 04 3d c7 89 04 be ea 4c 63 bd 72 26 72 3d
       0.032239456 -0.12943183 -0.055493273 0.059118696
000270 28 79 a9 bd a0 1a 68 bd a9 20 b5 bd dc 40 60 3c
       -0.08275062 -0.056666017 -0.0884412 0.013687339
000280 84 82 bd 3d 77 61 99 bd 7b f9 ef 3c d5 9a 0e bc
       0.092534095 -0.07489293 0.029293766 -0.008703907
000290 7e f8 dd bd 8c 48 b6 3d d7 ae 87 bd 17 d7 3f 3d
       -0.10838412 0.08900556 -0.06625145 0.046835985
0002a0 ee 5d b2 bc 0f a2 aa bc 10 cf bc bd 8e de ef bd
       -0.021773305 -0.020829229 -0.092191815 -0.11712371
0002b0 93 82 79 bc d2 46 53 be 7f d2 14 be 05 c0 75 3d
       -0.015228885 -0.20632485 -0.14533423 0.059997577
0002c0 70 f9 96 3d 38 2d b5 bd 66 48 5a bb 54 10 95 3d
       0.07371795 -0.088465154 -0.0033307313 0.07278505
0002d0 95 c2 39 3d eb 92 50 3d bd 58 18 3c b2 33 ce bb
       0.045351584 0.050921362 0.009298501 -0.0062927837
0002e0 a9 0b a9 3b c7 24 43 3d a5 b8 a1 bc f5 99 ca bd
       0.0051588607 0.047642495 -0.019741366 -0.09892646
0002f0 f4 7e 1b bd 8d 97 d2 3d 8f 25 0e bf a1 fc 3c bc
       -0.03796287 0.10282812 -0.5552606 -0.011534841
000300 40 85 dd 3d 3a 3a 78 3d 1d 21 15 bc 77 a8 d5 3c
       0.10816431 0.060602404 -0.009102133 0.026081307
000310 2a 78 80 bd bf 33 da bb 24 73 75 3d 84 31 6c bd
       -0.062729195 -0.0066590006 0.05992426 -0.05766441
000320 54 06 b9 bc 00 79 bf bd 13 b9 c4 bd 18 cf ce 3c
       -0.022586025 -0.09349251 -0.096056126 0.025245234
000330 c9 e6 cd 3c 94 ba 8a bc b6 83 ec bc f0 5c 1e 3d
       0.025134461 -0.01693467 -0.028871398 0.03866285
000340 de ee e6 3d e9 37 ec 3d c6 f7 76 ba 9d 87 17 bd
       0.11276029 0.115341015 -0.00094210764 -0.036994565
000350 a5 2a af 3d 3d 85 46 bd c7 0c 02 bd e1 85 92 3c
       0.08553056 -0.04846691 -0.031750467 0.017886104
000360 64 86 36 3d 78 0a 4d 3d 92 b2 14 bb a2 cb 7d bd
       0.04456176 0.050058812 -0.0022689444 -0.061961778
000370 dd a8 1e be 11 bf 81 bd 33 47 13 3c 0e ae a6 3c
       -0.15494104 -0.06335271 0.008989143 0.020346668
000380 a2 ec 10 3c c5 ac 0c be a1 33 92 bd 4f f2 3e be
       0.00884548 -0.13737781 -0.07138754 -0.18647121
000390 1b 27 a7 be f4 d4 28 3d aa 02 cf 3d b5 77 ca bc
       -0.32647023 0.041218713 0.1010793 -0.024715284
0003a0 56 ad e0 bb 98 5b 94 bd 6c f2 30 3c d1 79 e2 bb
       -0.0068566008 -0.072440326 0.010799985 -0.0069114943
0003b0 df 4f 3d bc f0 2e 99 be 38 d7 ca bb fc c1 91 3c
       -0.011554687 -0.29918623 -0.006190207 0.017792694
0003c0 76 fc b9 3d 3c b0 9e 3d d7 1a 96 bb 15 2f 80 bc
       0.09081356 0.07748458 -0.0045808363 -0.01564745
0003d0 6c 30 f5 bd e4 dd 94 bd 83 e0 b3 bd a4 b0 c8 3d
       -0.11972126 -0.07268885 -0.087830566 0.097993165
0003e0 c5 0d a4 bc af c0 fe bc b8 0b 88 3d 80 53 c1 bd
       -0.020026097 -0.031097738 0.0664286 -0.094397545
0003f0 c0 1f 65 3d 18 46 ba bc 32 96 63 bd 18 86 c6 bd
       0.055938482 -0.022738501 -0.05556316 -0.09693545

layer2.3.bias f4 [256]
000000 8d e4 3d bf de d4 8c bd 5e c4 e2 3f 84 1c 7a 40
       -0.74176866 -0.06876539 1.7716177 3.9079905
000010 a6 76 83 40 1a 08 8f 40 ac 9f ad bd 5c 3f 83 40
       4.1082335 4.469739 -0.084777206 4.1014843
000020 9f 6f 18 bd 8e 67 85 40 4c 18 0a bf 04 fa e4 be
       -0.037215825 4.168891 -0.53943324 -0.44721997
000030 ad 12 8c 40 22 a6 f9 3c 44 5b 8b 40 4e 1e 6f 40
       4.3772798 0.030474726 4.354891 3.7362247
000040 c5 e6 2a bd 32 d8 29 be 9c 18 a5 be b8 40 46 bf
       -0.041723985 -0.16586378 -0.32245338 -0.774425
000050 89 1e 83 40 55 df 81 be 98 36 94 40 3d fc 41 bc
       4.0974774 -0.253657 4.6316643 -0.011839923
000060 17 7e 17 bf ad 03 b3 be 17 1b b8 3d 61 b6 59 be
       -0.5917677 -0.34963742 0.08989542 -0.21260978
000070 58 a5 66 40 33 ec 8a 3f c7 1f 57 40 10 48 89 40
       3.6038418 1.0853332 3.3613145 4.2900467
000080 0c 74 81 40 72 34 89 40 8e 55 82 40 7d 94 3e be
       4.045416 4.287652 4.0729437 -0.18611331
000090 a7 45 4d be 95 d7 95 40 37 bc 89 be 64 d5 84 40
       -0.20046102 4.682566 -0.2690141 4.1510487
0000a0 1e 00 80 40 d1 f2 80 40 62 03 25 bd eb 19 71 40
       4.0000143 4.0296407 -0.04028643 3.767207
0000b0 91 82 75 40 74 c8 8f 40 fe 69 6d 40 7f 64 02 bd
       3.8360941 4.4932194 3.7095942 -0.03183412
0000c0 f8 cb 25 bb 6b f0 be 3e 48 ba ce bd 6d aa 82 40
       -0.0025298577 0.372928 -0.10094124 4.083304
0000d0 f6 55 a2 be f1 fd 81 40 9c e2 93 bc 4c 1e 50 40
       -0.31706208 4.0622487 -0.018052392 3.2518492
0000e0 ba b9 bf 3d 22 a1 10 bf 95 5b 7a 40 73 1b 3d 40
       0.093615964 -0.5649587 3.9118397 2.9548004
0000f0 bd 2c 5f 40 45 0d 02 3d f8 01 20 bf 54 33 84 bd
       3.4871056 0.031750936 -0.62503004 -0.064551026
000100 7c 6b 84 40 d1 85 62 40 4e f1 6f 40 95 2d dc be
       4.1381207 3.5394175 3.749103 -0.43003526
000110 a4 25 84 be 1e 29 04 bf 97 8d 8a 40 08 09 35 bf
       -0.25809968 -0.5162524 4.329784 -0.70716906
000120 ea db 6b 40 2a 5a 8e 40 2b 95 7b bd be 1f 70 be
       3.6852975 4.4485064 -0.061421555 -0.23449609
000130 b3 15 c3 bd 8c 86 80 40 07 10 ae be 18 51 43 bf
       -0.09525623 4.016424 -0.33996603 -0.76295614
000140 6e a5 8f 40 6f 6a 95 40 1f 7e 7d 40 e0 17 b0 be
       4.488944 4.6692424 3.9608228 -0.34393215
000150 d1 cc d3 3d 38 2b cc 3e 71 dd 86 bd 74 c0 7a bc
       0.103418 0.39876723 -0.06585205 -0.015304673
000160 46 65 1e 40 29 6a 23 bf b7 a8 83 bd 0a 4d 1e bf
       2.4749312 -0.6383386 -0.06428664 -0.618363
000170 c2 74 8b 40 ce 71 2e 3d af 75 77 40 04 dc 66 40
       4.3580027 0.042589 3.8665578 3.6071787
000180 e7 8b 51 40 03 02 0d 3f c0 80 87 40 21 d8 b4 3c
       3.274164 0.55081195 4.2344666 0.022075715
000190 ac aa d1 3f c5 eb 78 40 00 fc b3 be cf 2d cd bd
       1.638021 3.8893902 -0.35153198 -0.10018503
0001a0 ef 23 6c 40 37 17 10 be 42 13 a6 bb 1a 8a 19 be
       3.6896932 -0.14071356 -0.0050682137 -0.14994088
0001b0 3c 0a 91 40 d9 cd ec bd 74 9d dc 3d e4 82 82 40
       4.5324993 -0.115627 0.10772219 4.078478
0001c0 a9 ae 8d 40 b8 0b 71 40 66 d0 ea bd 95 9c 2a bf
       4.427571 3.7663403 -0.1146553 -0.66645175
0001d0 b8 a0 59 be e4 d1 88 40 7b 12 84 40 2b b1 9b be
       -0.21252716 4.2756214 4.127256 -0.30408606
0001e0 18 eb db bd 0e 5e 95 be 78 5f 8d 40 37 db 91 40
       -0.107382 -0.2917332 4.417904 4.5580096
0001f0 e5 a0 84 40 28 e5 95 40 a1 d6 83 40 dd 8b 7c 3e
       4.1446404 4.684223 4.11995 0.24662729
000200 4e 33 65 be 26 a8 86 bf 74 24 16 be 32 ae 88 40
       -0.22382852 -1.0520065 -0.14662343 4.271264
000210 9f 21 5c 40 cf 8f 86 40 a2 02 91 40 f4 f6 89 3f
       3.439552 4.2050548 4.5315714 1.0778489
000220 87 0b 48 40 87 7e 6f 40 1f b6 67 40 f0 51 83 40
       3.1257036 3.7420976 3.6204908 4.103752
000230 db 75 36 be db b0 70 40 4a 05 15 bd 52 61 8a 40
       -0.17818396 3.7607944 -0.036381997 4.32438
000240 f9 41 93 3c 84 4e 58 be 3a f9 70 40 ba c9 21 bf
       0.017975794 -0.21123701 3.7652116 -0.63198435
000250 3a fa 7e 40 94 f2 62 3f c1 02 8c 40 ef 62 55 be
       3.9840226 0.88651395 4.375336 -0.20838521
000260 ab fa 06 be 9f b2 de be 79 38 54 40 34 ed 7d 40
       -0.1318156 -0.43495652 3.3159468 3.9676027
000270 de 43 b5 be 50 63 19 3e 6b 70 10 bf 1b 20 88 40
       -0.3540334 0.14979291 -0.56421536 4.253919
000280 ad b4 9b be 07 fe fc be 27 13 9a be 45 23 8c 40
       -0.30411282 -0.49412557 -0.30092737 4.3793054
000290 26 97 57 40 c1 66 4d be 6f 69 d2 bf e9 f5 6e 40
       3.3686004 -0.20058729 -1.6438426 3.7337592
0002a0 c0 d4 8f 3b 1f 09 80 40 d7 d8 90 40 f7 be af be
       0.0043893754 4.0011134 4.5264697 -0.34325382
0002b0 77 fb 90 be 47 20 71 40 e8 a9 4c bf 6e 3e c7 be
       -0.28316852 3.767595 -0.79946756 -0.38914818
0002c0 c4 0c e6 bd 63 6d 75 40 80 36 96 40 c9 ae e8 bd
       -0.112329036 3.8348014 4.694153 -0.113614626
0002d0 fa 67 9c be f3 3d 89 40 1c e0 5d 40 0b cd 8e 40
       -0.30548078 4.288812 3.4668036 4.4625297
0002e0 92 16 c3 be d2 11 e9 bc 51 e6 86 be 38 46 be bd
       -0.38103157 -0.02845088 -0.26347592 -0.09290737
0002f0 65 62 84 40 42 0c f0 3b 79 9f 06 be 45 33 28 be
       4.137011 0.00732568 -0.13146771 -0.16425808
000300 16 a8 98 be 55 3a 63 40 b2 bd 5b bd 32 fb 84 40
       -0.2981574 3.5504353 -0.053647704 4.1556635
000310 26 e1 8e 40 88 9d 84 be ca 28 6e 40 b9 17 8c be
       4.464984 -0.25901437 3.7212396 -0.2736185
000320 4b ba c7 be 74 da fe be c5 20 ae be d3 6a 4d 40
       -0.39009318 -0.49776042 -0.34009376 3.209645
000330 c6 67 6c bd d7 34 f0 be e9 74 65 3a 6e 61 49 bf
       -0.057716154 -0.46915314 0.0008753078 -0.7866429
000340 bd cc 67 40 c7 61 16 bf 3a 54 83 bd 66 df bf bf
       3.6218712 -0.58742946 -0.06412549 -1.4990051
000350 db 33 19 bd d2 98 f2 be 3e ca bf be 75 69 18 3e
       -0.03740297 -0.47382218 -0.37458986 0.14883979
000360 16 f0 62 40 a2 d3 0d bf fb c5 5c 40 6f 57 8b 40
       3.5459037 -0.5540105 3.4495838 4.354423
000370 41 e2 60 40 14 f9 59 be 27 89 8b 3f af 93 7e 40
       3.5138094 -0.21286422 1.090123 3.977764
000380 18 63 8b 40 41 7c 1c be 8c d2 6e 40 b4 98 f6 bc
       4.3558464 -0.15281774 3.7316008 -0.030102111
000390 23 06 be be 91 10 0e 3c e4 f4 94 40 13 82 7f be
       -0.37114057 0.008670942 4.654894 -0.24951963
0003a0 32 65 c6 bd 34 74 03 3c 0e 12 90 40 97 57 f0 bc
       -0.0968727 0.00802331 4.502204 -0.029338641
0003b0 96 c3 78 bc e4 75 b9 be 0f 74 84 40 bf 8c ae be
       -0.01518335 -0.36222756 4.1391673 -0.34091756
0003c0 d9 c3 ca bd 77 fc 53 40 93 b8 7d 40 14 92 40 be
       -0.09900636 3.3122842 3.9643905 -0.18805724
0003d0 9f b8 fd be c5 7c cf be 50 42 ef be 91 6d be be
       -0.49554917 -0.4052488 -0.4673028 -0.37192968
0003e0 e6 e3 d3 bc 7f e9 6b 40 73 40 7a be 0d d2 4d 40
       -0.025865506 3.6861265 -0.24438648 3.2159455
0003f0 5b 11 88 bd 64 1a f9 be c9 f7 95 40 99 0a 81 bd
       -0.06643935 -0.48652947 4.686497 -0.063008495

layer2.6.weight f4 [1, 256]
000000 25 e6 c2 bd 06 48 0d bd ca 01 7a 3c fc 28 75 3c
       -0.09516553 -0.034492515 0.015259216 0.014963385
000010 cb 1a cf 3c 6c 58 8b 3c 66 0c 2c bd ab ab 88 3c
       0.02528133 0.017009936 -0.04200401 0.01668342
000020 31 2a 22 ba 14 7a cb 3c fa e5 15 3b 70 82 ac bc
       -0.00061860966 0.024838485 0.0022872672 -0.021058291
000030 e4 36 eb 3c 7d 31 d6 bb 84 e7 46 3c 1d 4a a6 3c
       0.028712697 -0.006536661 0.012140159 0.020299012
000040 a9 b3 d2 38 03 b5 47 bc f1 2e 03 3b 64 4e 33 bd
       0.000100470446 -0.012189153 0.0020016993 -0.04377593
000050 71 86 97 3c 3d 86 5c bc 78 9b 1d 3c 6c c6 48 3c
       0.018496724 -0.013459739 0.009619586 0.012254339
000060 69 2f 86 bc c8 48 ed bd 4f 56 cf 3c 27 63 ec ba
       -0.016380029 -0.115861475 0.02530971 -0.0018034921
000070 0a cd d6 3d 1c ec a9 3c ad ec 7c 3d dc 95 c1 3c
       0.10488327 0.020742469 0.06174915 0.023631029
000080 e3 36 04 3d ea 31 33 3c fe 26 ac 3c a8 67 ae 3a
       0.032278907 0.010937193 0.021014687 0.0013306038
000090 dc 11 f3 bb 4f 49 5c 3c 50 47 89 bb 56 e5 57 3e
       -0.0074179005 0.0134452125 -0.0041894093 0.21083578
0000a0 a7 0b f5 3c f9 18 47 3e 1a a5 3d 3d 13 2c ad 3c
       0.029912783 0.1944312 0.04630003 0.02113918
0000b0 d2 bc 1c 3d ca 93 de 3c b0 b2 14 3d 52 1f 5a bd
       0.03826601 0.02717008 0.036303222 -0.053252526
0000c0 5d 2f 56 3c fd e0 4a bb fc c8 77 bb f5 38 69 3c
       0.013072816 -0.0030956857 -0.0037809005 0.014234771
0000d0 fc 3e 89 bd 41 44 46 3e 42 6b 10 bc 10 c8 54 3d
       -0.067014664 0.19361974 -0.008814635 0.051948607
0000e0 80 e2 09 3c 4b 1b 4e bc 8b 14 04 3d a8 70 4e 3d
       0.008415818 -0.012579749 0.032246154 0.050400406
0000f0 4f ac c5 3d f1 4d a2 bc 2d 00 78 bd 93 bf 6d 3a
       0.09652006 -0.019812556 -0.060547043 0.00090693793
000100 07 a0 d7 3c f6 68 02 3d 0f 9f fa 3c 5f 87 3c bd
       0.026321424 0.03183838 0.030593423 -0.046027537
000110 a7 34 04 bd 16 41 d6 bc d9 4b 18 3d 54 09 25 bc
       -0.032276776 -0.026154082 0.03718171 -0.010073025
000120 f2 f6 df 3d bf a2 d0 3c cd 84 1f bd 9e 62 aa bd
       0.10935773 0.025468228 -0.038945008 -0.08319591
000130 87 2e 3b bd 26 44 0e 3e 4e 79 1b bc 00 ca 95 bd
       -0.04569867 0.13893184 -0.0094893705 -0.07313919
000140 cc c6 89 3c 33 cb b4 3c f3 6c cd 3c a8 27 7b bd
       0.016818427 0.02206955 0.025076365 -0.061317116
000150 85 3f 31 3d 93 1a 62 3c de 29 cc bb e0 9f 1f bd
       0.043273468 0.013800281 -0.006230577 -0.038970828
000160 f1 09 3f 3c c1 a3 a1 bd a5 cb 9a 3c cf e7 d6 bc
       0.011660085 -0.07892562 0.018895933 -0.026233582
000170 73 d6 c8 3c 7a 5f e3 bb fa ba ce 3c 26 35 10 3d
       0.02451632 -0.006938872 0.025235642 0.035206936
000180 ff 02 ad 3d 48 d6 06 bb fe bd 0c 3d 99 1f 45 3d
       0.08447837 -0.00205745 0.03436088 0.048125837
000190 89 30 91 bc 72 ac 5a 3c 99 34 a7 bd e2 14 0b bd
       -0.017723339 0.013346778 -0.08164329 -0.033955462
0001a0 07 a8 84 3c 6c e4 c6 bc 62 dc 14 ba 9d 3c e4 bb
       0.016193403 -0.024278842 -0.00056785916 -0.0069652335
0001b0 65 ed 6b 3c 56 2e 6c bc a0 db 02 3a 41 10 17 3d
       0.014399861 -0.014415344 0.0004991833 0.036880735
0001c0 8a fa 7e 3c c3 aa f0 3d 0d 27 46 3b ff b6 81 bd
       0.015562663 0.1175132 0.0030235678 -0.06333732
0001d0 8a 76 97 3a 49 35 22 3d 50 65 05 3d 53 fa 1a bd
       0.0011555713 0.039601598 0.032567322 -0.037836384
0001e0 3d 0f 4a bc 2e 20 a7 ba c8 07 54 3e d5 ba 74 3c
       -0.012332735 -0.0012750679 0.20706093 0.014937122
0001f0 65 cc 70 3e fc 23 c4 3c fc 07 0e 3e a6 6f 88 3a
       0.2351547 0.02394294 0.13870233 0.001040925
000200 17 08 2e bd 79 3f c5 bd 85 2a 91 ba 94 81 ac 3c
       -0.042488184 -0.09631247 -0.0011075294 0.021057881
000210 ab 8f a0 3d 1b 34 e8 3d df 3c 6a 3c e5 68 5b 39
       0.078399025 0.11338063 0.014296739 0.00020924544
000220 b2 c1 0d 3e b9 bb af 3c ac ed 11 3d 70 5f 44 3d
       0.1384342 0.021451818 0.035627052 0.04794258
000230 6b 61 a7 b8 23 1a c6 3d 53 7c d2 ba c6 84 a7 3c
       -7.981326e-05 0.09672954 -0.001605878 0.020449053
000240 57 e9 87 bc 24 47 f3 bb 83 36 21 3e a1 1a d7 bd
       -0.016590757 -0.007424252 0.15743451 -0.10503126
000250 db b6 4a 3d 26 5a 79 3c 76 6a 82 3c 8b ae 07 ba
       0.04949079 0.015219247 0.015919905 -0.000517585
000260 2c 94 75 b9 2c 65 46 bd 53 65 80 3d 96 05 15 3e
       -0.00023420219 -0.04843633 0.06269326 0.14552912
000270 c7 f4 1a bd c2 aa 81 b9 5e 4d 55 bd 63 d1 bd 3c
       -0.037831094 -0.00024732022 -0.052075736 0.023171132
000280 06 06 a0 bd 2e 74 44 3b 97 50 de bc 99 c0 87 3c
       -0.07813649 0.0029976475 -0.027138038 0.01657133
000290 48 dc b0 3d 32 e2 fd ba 58 43 03 bd ff 0f 12 3d
       0.08635765 -0.001936978 -0.032046646 0.035659786
0002a0 fb 38 c6 bc 48 f7 e4 3d b4 4d 89 3c 8c bd d1 bc
       -0.024197092 0.11179978 0.016760685 -0.025603078
0002b0 8f 84 e3 bd d8 66 af 3d 7a 9d d2 bd 4c 8a 73 bd
       -0.11109268 0.08564538 -0.102839425 -0.059458062
0002c0 f3 1d b0 bc ce 23 07 3d bb 36 92 3c 11 27 77 bc
       -0.021498656 0.03299313 0.017848363 -0.015084998
0002d0 0c bc 6d b9 9b 8f 81 3c cd a8 06 3d ef eb 24 3d
       -0.00022672134 0.015815547 0.032875825 0.040264066
0002e0 df 42 56 bc d0 a0 14 bd 67 0d 74 bc bb 86 57 b9
       -0.013077467 -0.036286175 -0.0148957735 -0.00020554189
0002f0 e6 f7 fc 3c da 84 27 3c 56 13 27 bd 3f 58 f2 bc
       0.030879926 0.010224545 -0.040789925 -0.029583095
000300 bb 50 b6 3a 47 72 f6 3c 9a 84 cd bc 81 6e 07 3e
       0.0013909558 0.030083789 -0.025087643 0.13225748
000310 c5 8f b3 3c 50 e6 05 bd 34 04 e0 3d 22 f5 12 bc
       0.02191914 -0.032690346 0.10938302 -0.008969577
000320 ae b7 b2 bc 28 f0 12 bd 66 96 86 bc d9 a6 6f 3d
       -0.0218161 -0.035873562 -0.016429137 0.058508728
000330 20 fb da bc a7 90 14 bd bf 18 79 3a b4 f5 38 bd
       -0.026731074 -0.036270764 0.00095022836 -0.045156196
000340 7a c5 f6 3c 5e 25 21 bd 45 14 00 bb f8 ef 6a bc
       0.030123461 -0.039342277 -0.0019543332 -0.01433944
000350 f0 1c 25 3b 7f 4e a7 bc 42 3e d5 bc a8 3a 37 3d
       0.002519425 -0.020423172 -0.026030663 0.044733673
000360 21 bb 8d 3c ea b1 2b bc e9 9f dd 3d 6f 25 9f 3c
       0.017301144 -0.01047943 0.10821516 0.01942703
000370 32 0a 7f 3d 4c b6 02 3b 11 7e 9e 3c 21 bf 23 3c
       0.062265582 0.0019945083 0.019347223 0.009994299
000380 d2 2c 67 3c d5 2b 16 bb e9 15 46 3d 39 08 cc b9
       0.014109807 -0.002291431 0.04836074 -0.00038916038
000390 ed a9 7d b9 89 f1 12 3d 45 ec 82 3c 20 c2 89 bc
       -0.00024191262 0.035874877 0.015981803 -0.016816199
0003a0 07 11 e7 3a a8 67 3e bd 30 2b aa 3c b4 ac e9 3a
       0.0017628976 -0.046485573 0.020772547 0.0017827959
0003b0 30 92 10 bd 0f ce eb bd c9 bd 0c 3d 5f fa 33 bd
       -0.035295665 -0.11513912 0.03436068 -0.043939944
0003c0 e1 35 3e bc 19 11 9e 3d b5 95 27 3e ea 9e 9c 3a
       -0.011609525 0.07718105 0.16365702 0.0011949216
0003d0 05 d5 05 bd de ed 27 bd 28 a2 32 bd 53 94 30 bb
       -0.032673854 -0.040998332 -0.043611676 -0.0026943877
0003e0 99 e7 32 bd fe 24 6a 3d ee 0e 85 bc 98 26 91 3c
       -0.0436779 0.057164185 -0.01624247 0.017718598
0003f0 5a 19 0c bd ea a0 df bc 50 2a 23 3c 57 32 39 3d
       -0.034203865 -0.02729841 0.009958819 0.045214023
