Saved_data_files/bpi/lr_all_variants/weighted/EventPredictor_parameters_weighted_1e-05.pt (torch, 280583 bytes, 8 tensors)

layer1.weight f4 [4, 1]
0	0x3f84e5a4	1.0382581
1	0x3d067e57	0.03283533
2	0x3f3098d6	0.6898321
3	0xbf4f94fb	-0.810867

layer1.bias f4 [6]
0	0x3d816c81	0.063195236
1	0x3ea779f1	0.3271022
2	0xbf90951f	-1.1295508
3	0xbeb46749	-0.3523505
4	0xbf1225f4	-0.5708916
5	0xbf1a4079	-0.6025463

layer2.1.weight f4 [256, 6]
0	0x3def44c0	0.11683035
1	0xbe193522	-0.14961675
2	0xbe509043	-0.20367531
3	0x3e0f882d	0.1401679
4	0x3db54278	0.088505685
5	0xbe739ea5	-0.23790987
6	0xbe4c5b79	-0.19956769
7	0xbe240ea8	-0.16021216
8	0x3e670863	0.22561793
9	0xbe8d3b49	-0.27584293
10	0xbd4b981a	-0.049705602
11	0xbe40831b	-0.18800013
12	0xbda437df	-0.08018469
13	0xbdd61d31	-0.104547866
14	0xbe989c4c	-0.29806745
15	0x3ec03237	0.3753831
16	0xbe521011	-0.20513941
17	0xbda922e7	-0.0825861
18	0x3e752c9d	0.239428
19	0xbe713755	-0.23556264
20	0x3c70abef	0.01468943
21	0xbe00ebba	-0.12589923
22	0x3d8cab28	0.06868583
23	0x3d6fe932	0.058572
24	0xbeb485ba	-0.35258275
25	0xbebef7fc	-0.37298572
26	0xbdfb6fee	-0.12277208
27	0x3d8dfd83	0.06933119
28	0x3d12451e	0.035710447
29	0x3cba558e	0.022745874
30	0xbed11259	-0.4083431
31	0x3e998978	0.29987693
32	0xbe607dd3	-0.21922998
33	0xbece9bda	-0.4035328
34	0x3e0183c9	0.12647928
35	0xbd88137e	-0.06644343
36	0x3e213efe	0.15746686
37	0x3e61029c	0.21973652
38	0xbdab6867	-0.083695225
39	0xbd3147bc	-0.0432813
40	0xbb57c240	-0.0032922179
41	0x3e018d01	0.12651445
42	0x3ddb839d	0.107184626
43	0x3f02c035	0.51074535
44	0xbda56772	-0.08076371
45	0xbe6753e7	-0.225906
46	0x3e8bc955	0.27302042
47	0x3e48ce16	0.19609866
48	0xbe1b2764	-0.15151745
49	0xbe85eb9a	-0.26156312
50	0xbf2b99e7	-0.6703171
51	0xbe2fdaa6	-0.17173252
52	0x3b4adb05	0.00309533
53	0x3e4b32fb	0.19843666
54	0xbeb9db8c	-0.36300313
55	0x3eccbc16	0.39987248
56	0x3e79bf8d	0.24389477
57	0xbdbca057	-0.0921027
58	0xba0a4b11	-0.0005275468
59	0xbe3d69a8	-0.18497336
60	0x3e8ad043	0.27112016
61	0xbe8ab4ae	-0.27090973
62	0x3db09824	0.086227685
63	0xbe291149	-0.165105
64	0x3a14d26f	0.0005677109
65	0xbd5d5fe1	-0.054046515
66	0x3d83ac87	0.06429391
67	0x3ea3a092	0.31958443
68	0x3e32fb57	0.17478691
69	0x3bcbcdca	0.0062196003
70	0xbd6e4688	-0.058172733
71	0xbd428081	-0.047485832
72	0xbe106ceb	-0.14104049
73	0xbea5a39b	-0.32351384
74	0xbdbd744e	-0.09250699
75	0x3eed4028	0.4633801
76	0xbf1e1dd9	-0.61764294
77	0xbe1c46ff	-0.15261458
78	0x3d877fee	0.066161975
79	0x3eb2a53f	0.34891698
80	0x3e437cae	0.1909053
81	0x3e672d0d	0.2257578
82	0x3ea132e9	0.31484154
83	0xbea25ec5	-0.31712928
84	0x3e998377	0.29983112
85	0x3deaffca	0.11474569
86	0xbe722fe9	-0.23651089
87	0xbe6b6e18	-0.22991216
88	0xbdfcad72	-0.123377696
89	0x3e6ab2a5	0.2291971
90	0x3e0d01f6	0.1377028
91	0x3e4feec5	0.20305927
92	0xbd7984fb	-0.060917836
93	0x3b3639a7	0.002780536
94	0xbd204c68	-0.039135367
95	0x3d7c7aa7	0.061640408
96	0x3e6edc49	0.2332622
97	0xbe947d4b	-0.2900184
98	0xbe9e6a36	-0.30940408
99	0xbe7a0213	-0.24414854
100	0xbe6fadcd	-0.23406143
101	0x3eb4cab7	0.3531091
102	0xbebe903f	-0.37219426
103	0xbe6be6bd	-0.23037238
104	0x3ea96b66	0.3308975
105	0xbed5de2d	-0.4177107
106	0x3de34af0	0.110982776
107	0xbef875c9	-0.48527363
108	0xbea1554a	-0.31510383
109	0x3b49214a	0.0030690008
110	0x3e489fea	0.19592252
111	0xbcc588b4	-0.024113037
112	0xbe260784	-0.16213804
113	0x3e188b58	0.14896905
114	0x3e8a9744	0.27068532
115	0x3eb898a3	0.36053953
116	0xbd60791b	-0.054802995
117	0xbd225095	-0.03962763
118	0xba81f628	-0.0009915279
119	0x3d92315a	0.07138319
120	0x3ec01d67	0.37522432
121	0xbd39f951	-0.045403782
122	0xbeb5952a	-0.35465366
123	0xbda7bd9b	-0.08190461
124	0x3a5741e6	0.0008211419
125	0xbe7f56b9	-0.24935426
126	0xbe0c1654	-0.13680393
127	0x3ee5e53e	0.4490146
128	0xbc92401e	-0.01785284
129	0xbeb48508	-0.35257745
130	0x3db30a34	0.087421805
131	0x3d60baf0	0.054865777
132	0xbcc77f76	-0.02435277
133	0x3c848da3	0.016180819
134	0x3edea8ca	0.4348815
135	0xbdf09a2f	-0.11748158
136	0xbe1b52de	-0.1516833
137	0x3ebac50f	0.3647847
138	0xbec8b67c	-0.39201725
139	0x3dcfcc5f	0.101464026
140	0xbe19f779	-0.1503581
141	0xbf196c0a	-0.5993048
142	0x3c998689	0.01874091
143	0x3dde7474	0.108620554
144	0x3c65ecae	0.01403348
145	0xbe545ec9	-0.20739283
146	0xbcaf0ccc	-0.021368407
147	0x3e0165e6	0.12636527
148	0xbe53e556	-0.20692953
149	0x3e0931dc	0.13397926
150	0x3e45af51	0.19305159
151	0xbe96dad4	-0.29463828
152	0x3e199fe4	0.150024
153	0xbdfb64a0	-0.12275052
154	0xbd54ccf5	-0.051953275
155	0x3c8fedd4	0.01756946
156	0x3eb8b09d	0.36072245
157	0x3efd7da6	0.49509925
158	0xbe81ee87	-0.25377294
159	0xbe45d27d	-0.19318576
160	0x3e64ad00	0.2233162
161	0xbe97d1ff	-0.29652402
162	0x3dbdee2c	0.09273943
163	0x3e5ab865	0.21359403
164	0x3e54972c	0.20760792
165	0xbcf16793	-0.029468333
166	0xbcef3a33	-0.029202556
167	0x3d44c456	0.048038803
168	0x3e284020	0.16430712
169	0x3edd3c23	0.43209943
170	0x3ee06d88	0.43833566
171	0xbe744602	-0.23854831
172	0xbdf51d9a	-0.11968537
173	0x3dc23ad8	0.0948388
174	0x3c25b0a1	0.010112912
175	0x3e050f09	0.12994017
176	0xbe1bc675	-0.15212424
177	0xbdbc9375	-0.09207813
178	0x3e68dd1a	0.22740594
179	0xbf25254f	-0.64510053
180	0x3decdaf6	0.11565201
181	0xbe197644	-0.14986521
182	0xbeb72a99	-0.35774687
183	0x3e93318b	0.28748736
184	0xbe08c3b1	-0.133559
185	0x3e5e08cb	0.21683042
186	0xbeb85b73	-0.3600727
187	0xbef03365	-0.4691421
188	0x3e07268b	0.13198297
189	0x3eb2bfd9	0.34911993
190	0xbeebe02e	-0.46069473
191	0x3d477345	0.048693914
192	0xbe7ed4a3	-0.24885802
193	0x3e5c0e36	0.21489796
194	0xbeacb097	-0.33728477
195	0xbefa4e27	-0.4888775
196	0x3e3cc563	0.18434672
197	0xbe69ed74	-0.22844487
198	0xbea3da26	-0.32002372
199	0xbe0dd25c	-0.13849777
200	0x3d8f9a97	0.070119075
201	0x3dc6fa51	0.09715713
202	0xbedffd10	-0.4374776
203	0xbe84fbee	-0.25973457
204	0xbe0e9bb4	-0.13926584
205	0x3e959931	0.29218438
206	0x3ce276c2	0.027644519
207	0x3d98ea4d	0.07466564
208	0xbe084447	-0.13307296
209	0xbd716e6f	-0.05894321
210	0xbe529807	-0.20565806
211	0x3e4d0c00	0.20024109
212	0xbe03ad84	-0.1285916
213	0x3ddf38c4	0.10899499
214	0x3e16ae96	0.14715037
215	0xbef855e6	-0.48503035
216	0xbebbc689	-0.36674908
217	0xbeabfef5	-0.33592954
218	0x3e94b49a	0.29044038
219	0xbf01ea08	-0.5074773
220	0x3da5dc7b	0.08098694
221	0x3dc81106	0.09768872
222	0x3e5b72ba	0.21430483
223	0xbd1f19fe	-0.038843147
224	0x3e362176	0.17786202
225	0x3df63e02	0.12023546
226	0xbd5f0a94	-0.054453447
227	0xbe0d5353	-0.13801317
228	0xbe219da4	-0.15782791
229	0xbe4f4152	-0.20239761
230	0xbde9ed15	-0.11422173
231	0xbe133a27	-0.14377652
232	0xbeb14520	-0.3462305
233	0x3e633e65	0.2219177
234	0x3e9b7e21	0.30369666
235	0xbe021fdc	-0.12707466
236	0x3a52810b	0.0008030093
237	0x3c805465	0.015665242
238	0xbe97f589	-0.29679516
239	0xbddb1fa3	-0.106993936
240	0x3e9092d1	0.28237012
241	0x3e635655	0.22200902
242	0x3de047a3	0.109511636
243	0xbec5eea0	-0.3865862
244	0xbdb147fc	-0.08656308
245	0x3e4c774c	0.19967383
246	0x3e954582	0.29154593
247	0xbca74d7f	-0.020422695
248	0xbeb9cd38	-0.36289382
249	0x3f0a8155	0.54103595
250	0xbdeaf78f	-0.11472999
251	0x3e9953f3	0.2994686
252	0xbe5b16ad	-0.21395369
253	0xbd9b8db0	-0.07595384
254	0xbdc2263b	-0.09479948
255	0xbf07ff8c	-0.5312431

layer2.1.bias f4 [256]
0	0x3ebb7588	0.36613107
1	0xbddf8a96	-0.10915105
2	0xbf10a905	-0.56507903
3	0x3f0c0816	0.5469984
4	0x3e236d9c	0.15959781
5	0xbeb6db3c	-0.35714138
6	0xbe608edf	-0.21929501
7	0x3ee9dfef	0.4567866
8	0xbe1f3505	-0.15547569
9	0x3ea54380	0.3227806
10	0x3e80fe8d	0.25194207
11	0xbea028a3	-0.31281003
12	0xbd78e5df	-0.060766097
13	0x3cc2c6e6	0.023776483
14	0xbe0cd1e9	-0.1375195
15	0xbe92ab71	-0.28646424
16	0xbbc3a876	-0.00597101
17	0xbdb85096	-0.089997455
18	0xbe8efbd2	-0.279265
19	0x3e84d19f	0.25941178
20	0xbe71d834	-0.23617631
21	0x3e9b03d8	0.3027637
22	0xbe772443	-0.24134926
23	0xbe46cbcb	-0.19413678
24	0x3ea63f5e	0.3247022
25	0x3d01da7a	0.031702496
26	0x3e3027a9	0.17202629
27	0xbe3d1557	-0.18465172
28	0xbda36090	-0.07977402
29	0x3ebda994	0.3704344
30	0xbb2a2ae6	-0.002596551
31	0x3e580342	0.21094993
32	0x3e9d9aad	0.3078207
33	0xbe28e76a	-0.16494527
34	0xbcc87e18	-0.024474189
35	0x3e72c4f6	0.23707947
36	0x3ed47791	0.41497472
37	0xbe941895	-0.28925005
38	0xbe898bc2	-0.2686444
39	0xbf245332	-0.64189446
40	0xbe5d0802	-0.21585086
41	0x3e611a69	0.21982731
42	0x3ee869a0	0.45393085
43	0x3ef44dc9	0.47715595
44	0x3ed5af16	0.41735142
45	0xbdf65882	-0.120286
46	0x3e168aee	0.14701435
47	0xbe15fe2e	-0.14647743
48	0xbdb81eef	-0.08990275
49	0x3e052536	0.13002476
50	0xbe79bf37	-0.24389349
51	0xbd94f394	-0.07273021
52	0x3eecd04f	0.46252677
53	0x3ebbf4de	0.36710256
54	0x3d66e043	0.056366216
55	0xbeaa2b14	-0.3323599
56	0x3ebd5d2c	0.36985147
57	0x3e95281c	0.29132164
58	0xbd400854	-0.046882942
59	0xbf01f82c	-0.50769305
60	0xbec7d14a	-0.39026862
61	0xbee2f54e	-0.44327778
62	0xbed237a7	-0.41058084
63	0xbe3d8f71	-0.1851175
64	0xbe851089	-0.25989178
65	0x3f2ec896	0.6827482
66	0x3e1eb12d	0.15497275
67	0x3dbdb65a	0.092632964
68	0x3dbc7921	0.09202791
69	0xbeee8974	-0.46589243
70	0xbf079730	-0.5296507
71	0xbebdab67	-0.37044832
72	0xbd101997	-0.035180654
73	0xbef10ae9	-0.47078636
74	0xbdc30a6c	-0.09523472
75	0xbebb400a	-0.36572295
76	0xbde367bb	-0.111037694
77	0xbd2fb8ac	-0.042900726
78	0x3d7dd8b0	0.061974227
79	0xbe562f56	-0.20916495
80	0xbd535807	-0.05159762
81	0x3ed5babe	0.41744035
82	0x3efddfc5	0.49584785
83	0x3ec69a7e	0.38789743
84	0xbcaae465	-0.02086086
85	0x3e47c6b8	0.19509399
86	0x3ed66117	0.4187095
87	0x3e17a9ac	0.14810818
88	0x3da93a1a	0.08263035
89	0x3ef0634e	0.46950763
90	0x3ea71624	0.3263408
91	0x3ef640d8	0.48096347
92	0xbd3425e5	-0.04398145
93	0x3e21d32a	0.15803209
94	0x3edaed94	0.42759383
95	0x3e8025d8	0.25028872
96	0xbe818ec4	-0.25304234
97	0xbeab8a1a	-0.335038
98	0x3eca1861	0.39471725
99	0xbf07afe4	-0.5300276
100	0xbe9441f5	-0.2895657
101	0x3ecf6aa6	0.40511054
102	0x3e807bc6	0.25094432
103	0xbf2838ec	-0.65711856
104	0xbe627659	-0.22115459
105	0xbe1174c3	-0.14204697
106	0xbd6eb021	-0.05827344
107	0xbea5283a	-0.32257253
108	0x3d9f863e	0.077892765
109	0xbeaa9b0b	-0.33321413
110	0xbe6c844f	-0.23097347
111	0xbcea6bb9	-0.02861582
112	0xbea4b7e8	-0.3217156
113	0xbe8fade0	-0.28062344
114	0x3ee12acd	0.43977967
115	0xbe370a0d	-0.17874928
116	0x3ee02f24	0.43785965
117	0xbed7c033	-0.42138824
118	0xbdc728a1	-0.09724546
119	0x3daf3359	0.08554716
120	0xbe4952f0	-0.19660544
121	0xbea5734c	-0.32314527
122	0x3ef2355c	0.47306335
123	0x3f8a9d07	1.0829171
124	0xbe715660	-0.23568106
125	0xbe1a9d95	-0.15099175
126	0xbec303b7	-0.38088772
127	0xbe8f4eef	-0.2798991
128	0x3e339e73	0.17540912
129	0x3f04e1d3	0.5190708
130	0xbf248cdc	-0.64277434
131	0xbed48914	-0.41510832
132	0xbcd9a416	-0.0265675
133	0xbee21dbb	-0.44163308
134	0xbe858e9b	-0.26085362
135	0xbe07c98f	-0.13260482
136	0xbf1bcdb9	-0.6086078
137	0xbe0926ad	-0.1339366
138	0xbcfb7490	-0.03069523
139	0xbc049f7e	-0.0080946665
140	0x3ef85a88	0.4850657
141	0xbd1c0ef9	-0.038100217
142	0x3eff19a3	0.49824247
143	0x3dcf6b67	0.10127907
144	0xbf0bc277	-0.54593605
145	0x3effb9db	0.49946484
146	0x3eae6d8e	0.3406796
147	0xbee67454	-0.45010626
148	0xbe281163	-0.16412883
149	0xbe59a23b	-0.21253292
150	0x3efab840	0.48968697
151	0xbe5c7308	-0.21528256
152	0xbe3f0a82	-0.18656352
153	0x3e81272a	0.25225192
154	0xbee85f14	-0.4538504
155	0x3e10e09b	0.1414818
156	0x3de8bda2	0.113642946
157	0x3ebef0ce	0.37293094
158	0x3e8951b6	0.26820153
159	0x3ed0260c	0.40654027
160	0x3e5a9bd2	0.21348503
161	0xbf00a5c8	-0.5025296
162	0x3ea18d9a	0.31553346
163	0xbd358b03	-0.044322025
164	0xb9d1c680	-0.0004001148
165	0x3df8dedf	0.12151884
166	0xbeeca16d	-0.46216908
167	0x3e50fadd	0.20408197
168	0x3f0e22b5	0.5552171
169	0xbe65263b	-0.22377865
170	0xbd85df7d	-0.06536768
171	0xbd8d9b8e	-0.06914435
172	0x3eec0daf	0.4610419
173	0x3df84c23	0.12123897
174	0x3e58cfa9	0.21172966
175	0x3f136f37	0.57591575
176	0x3eddf7b1	0.43353036
177	0xbe4f1e89	-0.20226492
178	0x3e12abeb	0.14323394
179	0x3e86f600	0.26359558
180	0xbefc4158	-0.49268603
181	0x3ec5deca	0.38646537
182	0xbeae6c4c	-0.34067
183	0x3e1ddd5a	0.1541647
184	0x3e7897e1	0.24276687
185	0x3eb5b40a	0.3548892
186	0xbe299527	-0.16560803
187	0xbd3e4adc	-0.04645811
188	0xbf21bdab	-0.63180035
189	0x3eb62808	0.35577416
190	0x3ec0976e	0.37615532
191	0x3cd0da41	0.025494697
192	0xbe7faf56	-0.24969229
193	0x3ccb8776	0.024844866
194	0x3ddf5088	0.10904032
195	0xbe544aa7	-0.20731603
196	0x3b19cc2e	0.0023467648
197	0x3ed59597	0.4171569
198	0xbdc98556	-0.09839885
199	0x3ee2543c	0.4420489
200	0x3c9c59b7	0.019085748
201	0x3d80753d	0.062723614
202	0x3eefdb12	0.46846825
203	0x3ed705f6	0.41996735
204	0x3e161113	0.14654951
205	0xbe44cccc	-0.19218749
206	0x3e60403b	0.21899502
207	0xbd74239f	-0.059604283
208	0x3eadc6bc	0.33940685
209	0xbc5411b7	-0.012943677
210	0xbe4f2859	-0.20230235
211	0xbede5de7	-0.43431017
212	0xbe61da09	-0.2205583
213	0x3ede257f	0.43387982
214	0xbed9869f	-0.4248552
215	0xbea2f98c	-0.31831014
216	0xbeba049f	-0.3633165
217	0xbd94c7bc	-0.07264659
218	0xbe78c8c9	-0.24295343
219	0xbed15bb0	-0.40890265
220	0x3dcfb4e5	0.10141925
221	0xbea83ef0	-0.32860518
222	0xbeda1d5e	-0.4260053
223	0xbf2c3918	-0.6727462
224	0xbe73e92a	-0.23819414
225	0xbe421737	-0.18954168
226	0x3ee812aa	0.4532674
227	0x3ec7bdfb	0.3901213
228	0x3eda324b	0.42616495
229	0xbebe3239	-0.37147692
230	0x3e68cb91	0.22733904
231	0x3f12df1d	0.57371694
232	0x3e94433a	0.2895754
233	0x3e888148	0.26661134
234	0x3ec6acec	0.38803804
235	0x3ecec2cc	0.40382993
236	0xbebec979	-0.37263086
237	0x3f3cc40f	0.7373666
238	0x3dfeef25	0.12447957
239	0x3e7ff6ba	0.24996462
240	0x3e443ac1	0.19163038
241	0xbeb548c8	-0.3540709
242	0x3c95dc55	0.018293539
243	0xbe5e26bd	-0.21694465
244	0x3d7c60f8	0.061615914
245	0xbd653b4c	-0.055964753
246	0x3e8a7457	0.27041885
247	0x3d80a556	0.06281535
248	0x3e63c9c5	0.22244938
249	0x3e5818b5	0.21103175
250	0x3eb86b4f	0.3601937
251	0x3efbcbe0	0.49178982
252	0xbe82b299	-0.25526884
253	0x3d652fff	0.055953976
254	0xbedf7fb3	-0.43652114
255	0x3df0e5bf	0.117625706

layer2.3.weight f4 [256, 256]
0	0xbca38739	-0.01996194
1	0xbc172794	-0.009225745
2	0x3d2a0ab3	0.04151411
3	0xbd8f1f8d	-0.0698844
4	0x3dcf7c09	0.1013108
5	0xbcf79bdb	-0.030225685
6	0xbcb07611	-0.021540673
7	0x3d2ed30d	0.042681742
8	0x3a7041c9	0.0009165076
9	0x3c93057a	0.017946947
10	0xbd91999b	-0.07109376
11	0xbd069f04	-0.032866493
12	0x3be6a82d	0.007039091
13	0x3c73f3a3	0.0148896305
14	0xbd08177f	-0.033225533
15	0xbc6ebb83	-0.014571073
16	0x3cc5859d	0.024111563
17	0xbcf4a5cc	-0.029864214
18	0xbd51a9aa	-0.051187195
19	0xbd20e763	-0.039283168
20	0x3d76352d	0.060109306
21	0xbdad1d72	-0.08452882
22	0x3c53f1c5	0.01293606
23	0xbd7c1980	-0.061547756
24	0xbd681431	-0.05665988
25	0xbd8762b7	-0.06610625
26	0xbcef42ee	-0.02920672
27	0xbdb11c69	-0.08647997
28	0x3c7a219c	0.015266802
29	0xbb21d0f2	-0.0024691192
30	0x3cda353d	0.026636714
31	0x3c12c255	0.008957465
32	0xbd60dde2	-0.054899104
33	0x3c038d5b	0.008029307
34	0x3d78739d	0.060657132
35	0xbc98cff4	-0.018653847
36	0x3bbc4a0d	0.005746132
37	0xbd48714d	-0.048936177
38	0xbdc8f20a	-0.0981179
39	0xbced9bda	-0.02900498
40	0xbd0beeed	-0.034163404
41	0x3d4757b8	0.04866764
42	0xbdd0503b	-0.10171553
43	0x3d5473cf	0.051868256
44	0x3bd7b863	0.00658326
45	0x3d636947	0.055520322
46	0x3cb555d9	0.022135662
47	0xbcfab631	-0.030604454
48	0xbdeab2c2	-0.114598766
49	0xbd7f3056	-0.062301956
50	0x3b38b6f2	0.0028185216
51	0xbb296349	-0.0025846532
52	0x3d9c32b0	0.076268554
53	0xbc0a1a17	-0.008429072
54	0x3bf6c24b	0.0075304857
55	0xbd09a912	-0.033608504
56	0x3d2ad086	0.04170277
57	0x3c823008	0.015892044
58	0xbd5f89c6	-0.05457475
59	0xbc52d18a	-0.012867341
60	0x3dbf612c	0.09344706
61	0xbc53a86a	-0.012918571
62	0xbcf02abd	-0.029317254
63	0x3d197ce6	0.037472628
64	0xbc9a26ea	-0.018817384
65	0xbb948f5d	-0.004533692
66	0x3d3d6ce9	0.046246443
67	0x3d28dee1	0.04122818
68	0xbc405e5c	-0.011741247
69	0x3d6bc3a8	0.05755964
70	0x3c53663a	0.012902791
71	0x3d1af57e	0.037831776
72	0x3dd724ea	0.10505088
73	0x3db0ed2d	0.08638988
74	0xbd4454e1	-0.04793251
75	0xbc6a0df4	-0.014285553
76	0x3db780bf	0.08960103
77	0x3bab8136	0.005233909
78	0x3cf11be8	0.029432252
79	0xbbd703b4	-0.0065617207
80	0x3b5653aa	0.0032703676
81	0xbd877770	-0.06614578
82	0xbd1f599c	-0.038903818
83	0x3cdb67b0	0.02678284
84	0xbcf08832	-0.029361818
85	0x3c50522c	0.012714904
86	0xbd036682	-0.03208018
87	0xbc2eb4d3	-0.010663229
88	0x3cb126c5	0.021624932
89	0xbbd2902b	-0.0064258776
90	0x3d11cec7	0.03559759
91	0xbcf58678	-0.029971346
92	0xbdcf3546	-0.10117583
93	0xbd70e2fb	-0.058810215
94	0xbc99b5ef	-0.01876351
95	0xbc10dbaa	-0.0088414345
96	0xbd0001d9	-0.031251762
97	0x3da983cd	0.08277092
98	0xbd652711	-0.05594546
99	0xbd8fc561	-0.07020069
100	0xbd8ea5fc	-0.06965253
101	0x3d60f175	0.05491777
102	0xbc65c7e4	-0.014024708
103	0xbcac035b	-0.020997694
104	0xbd6164c3	-0.055027734
105	0x3ba8490f	0.0051356624
106	0x3da4cd28	0.08046943
107	0x3b4ecb76	0.0031554378
108	0xbb995b23	-0.004680054
109	0xbd8b9f80	-0.068175316
110	0xbcef41b7	-0.02920614
111	0xbd3a8b47	-0.04554298
112	0x3bba7162	0.005689786
113	0xbd59d5bc	-0.05318235
114	0xbd18849f	-0.037235852
115	0xbd48d83d	-0.049034346
116	0x3d60da9e	0.05489599
117	0x3c7db4bb	0.015484984
118	0xbc72fc8f	-0.0148307225
119	0xbdcc48a5	-0.09974793
120	0xbd86dd40	-0.06585169
121	0x3ccc0f29	0.024909573
122	0x3d1ef885	0.038811225
123	0xbcf4c50a	-0.029879112
124	0x3d45e7fe	0.048316948
125	0xbb4ebb87	-0.003154488
126	0xbca77473	-0.02044127
127	0x3da8b7c7	0.08238178
128	0x3d386398	0.045016855
129	0xbd8e4c9c	-0.06948206
130	0x3d8310ef	0.06399714
131	0xbd34130f	-0.04396349
132	0xbca48bc3	-0.020086175
133	0x3adb306d	0.0016722806
134	0x3c9ecdb5	0.019385198
135	0xbc60ba9b	-0.013716365
136	0xbcff103a	-0.031135667
137	0x3b5b877a	0.0033497498
138	0x3cb3c892	0.021946225
139	0xbb6b3c88	-0.0035894234
140	0xbe1db3fc	-0.1540069
141	0xba81c8d1	-0.0009901767
142	0xbc7f1738	-0.015569501
143	0x3d67bbba	0.056575514
144	0x3b8697b4	0.00410744
145	0x3dab7400	0.083717346
146	0x3cb13603	0.0216322
147	0x3e0314f7	0.12800966
148	0xbab70111	-0.001396211
149	0x3d0b0d44	0.033948198
150	0x3db5c1e9	0.08874876
151	0x3d2f04c8	0.04272917
152	0xbd23d8f3	-0.04000182
153	0xbbb6b7f4	-0.005576128
154	0x3e06f3e6	0.13178977
155	0xbd24ab8c	-0.040202662
156	0xbd7d309e	-0.061813943
157	0xbcb4a398	-0.022050664
158	0x3b212128	0.0024586413
159	0x3d06d34a	0.032916345
160	0x3d836a84	0.064168006
161	0x3d232449	0.039829526
162	0x3dccec6d	0.10006032
163	0x3c4accd7	0.012377939
164	0x3d7b5c95	0.06136759
165	0x3a9c6e2b	0.0011934688
166	0xbda4536e	-0.080237255
167	0xbd871cda	-0.065973
168	0xbdb7c705	-0.08973507
169	0xbc99be61	-0.018767538
170	0x3bb0399b	0.005377961
171	0x3d793167	0.06083813
172	0x3cd659d1	0.026165875
173	0x3a8c0750	0.0010683332
174	0xbc2a5d1a	-0.010398174
175	0x3c1ea65d	0.009683219
176	0xbca255f3	-0.019816374
177	0xbd121718	-0.035666555
178	0x3ce17cb0	0.027525276
179	0xbc593943	-0.013258281
180	0xbdba2688	-0.090893805
181	0x3ce06800	0.027393341
182	0x3cdb6f1e	0.026786383
183	0x3c9bac22	0.019002978
184	0xbe1b46c1	-0.15163709
185	0x3d9bd0f1	0.07608212
186	0x3d6c80e7	0.05774012
187	0xbc3d4157	-0.011551223
188	0xbcf2a1d3	-0.02961818
189	0xbd864b78	-0.06557363
190	0xbca1de16	-0.01975922
191	0xbbe0c43c	-0.0068593305
192	0x3c97d253	0.018532908
193	0xbd5e4e72	-0.05427403
194	0xbdab39ce	-0.08360635
195	0x3dcc79be	0.09984158
196	0x3d603664	0.05473937
197	0x394f1b76	0.00019751288
198	0x3c04f5c5	0.008115237
199	0xbd398f54	-0.045302704
200	0xbcaf51c4	-0.021401294
201	0x3d6b7e9b	0.057493787
202	0xbcbaf000	-0.022819519
203	0xbd51df1d	-0.051238168
204	0x3d00a611	0.031408373
205	0xba379c47	-0.0007004183
206	0xbc8c548f	-0.017130164
207	0xbcb59074	-0.022163607
208	0xbc48e0e4	-0.012260649
209	0xbd2aa32d	-0.041659523
210	0x3d55b358	0.05217299
211	0x3c75f174	0.01501118
212	0xbd1f6c2a	-0.038921513
213	0xbcf66a6b	-0.03008004
214	0xbc06c583	-0.008225801
215	0xbc703f76	-0.014663568
216	0x3c84f2db	0.016229084
217	0x3cc6db96	0.024274629
218	0xba035861	-0.0005010423
219	0x3d1f4215	0.03888138
220	0x3d3b471e	0.04572212
221	0x3d38cfdf	0.045120116
222	0x3d4c53cc	0.049884602
223	0xbe271c62	-0.16319421
224	0x3d5afa13	0.053461146
225	0x3cc87446	0.024469506
226	0x3d73016d	0.05932753
227	0x3c5cfffb	0.013488765
228	0xbd3a6e4e	-0.04551535
229	0x3c816321	0.015794339
230	0x3d898ee3	0.067167066
231	0x3c2fac3a	0.010722214
232	0x3ce7debb	0.028304448
233	0x3d4a3a52	0.049372025
234	0xbc0be202	-0.008537771
235	0xbdb40ea8	-0.08791858
236	0x3ce5d5ab	0.028055986
237	0xbe0de38d	-0.13856335
238	0x3d4ca7fb	0.049964886
239	0xbc6fbb17	-0.014632008
240	0x3d6f1213	0.058366846
241	0xbc2b5013	-0.010456103
242	0xbd266e0a	-0.040632285
243	0xbce071ba	-0.027397979
244	0x3d22d2db	0.03975187
245	0x3cec049b	0.02881079
246	0xb992214f	-0.00027872107
247	0x3dd8bac4	0.10582498
248	0x3d354dbe	0.044263594
249	0x3cce111b	0.02515464
250	0x3cf9b720	0.030482829
251	0x3dae5a51	0.0851332
252	0xbc3c8911	-0.011507289
253	0x3cae14d1	0.02125016
254	0xbd49c7d6	-0.049262844
255	0x3d4c607b	0.0498967

layer2.3.bias f4 [256]
0	0xbe43ec67	-0.19133149
1	0x3e63e894	0.2225669
2	0x3d8abf3b	0.067747556
3	0x3d4c53f5	0.049884755
4	0xbdc4fd58	-0.09618634
5	0x3e4e67a2	0.2015672
6	0xbd9c9efd	-0.07647512
7	0xbd5cb6ed	-0.05388539
8	0x3e37c702	0.17947009
9	0xbd628d13	-0.05531032
10	0xbc454665	-0.012040709
11	0xbd9be3e4	-0.07611826
12	0xbd7ad014	-0.061233595
13	0x3cd03d49	0.025419848
14	0xbde39a72	-0.111134425
15	0x3e025b80	0.12730217
16	0xbe50f361	-0.20405342
17	0x3e25226c	0.16126412
18	0x3ec8b918	0.39203715
19	0x3d6e6afc	0.058207497
20	0x399cb431	0.00029888892
21	0xbdfac24a	-0.12244089
22	0xbdc94e95	-0.098294415
23	0xbe02a125	-0.12756784
24	0xbda87dc6	-0.082271144
25	0xbe007311	-0.12543894
26	0x3e3f9c59	0.18711986
27	0x3e5c0023	0.21484427
28	0x3d2ade09	0.041715655
29	0x3d51df5f	0.051238414
30	0xbde3909d	-0.11111567
31	0xbd9d78dc	-0.07689068
32	0xbdc26657	-0.09492176
33	0xbdb79062	-0.08963086
34	0x3cd250e8	0.025673345
35	0xbdc65f59	-0.09686155
36	0x3e1c7681	0.1527958
37	0xbda10507	-0.07862287
38	0x3d803ffa	0.062622026
39	0x3e658ae6	0.22416267
40	0xbd10f40b	-0.035388988
41	0xbd21fb7f	-0.039546486
42	0xbdc9a582	-0.09846021
43	0x3d1df437	0.03856298
44	0x3e8a7e2f	0.27049395
45	0x3e3e64e9	0.18593182
46	0x3d658e27	0.05604377
47	0x3db842fd	0.08997152
48	0x3e45f213	0.19330625
49	0x3e36b4f0	0.1784246
50	0xbe63c8fb	-0.22244637
51	0x3e43c0c0	0.19116497
52	0x3e8e2e00	0.2776947
53	0x3dd70617	0.104992084
54	0xbd4f9e2e	-0.05068796
55	0x3d2c6c3e	0.042095415
56	0xbea21333	-0.31655273
57	0x3bb0a7df	0.0053911055
58	0x3de44009	0.11145026
59	0xbbe1dbaf	-0.0068926434
60	0x3c4f09e8	0.012636639
61	0xbdad5757	-0.084639244
62	0xbcb9efd1	-0.022697361
63	0xbcc9377d	-0.024562592
64	0x3d0e3cc5	0.034725923
65	0x3da5142c	0.08060488
66	0xbdcdd2b4	-0.10049954
67	0xbd2fc9ee	-0.042917185
68	0x3e54e098	0.207888
69	0xbd0ebaa5	-0.034845967
70	0xbe1f5f29	-0.15563644
71	0xbe4b884d	-0.19876213
72	0x3d12acf7	0.035809483
73	0x3d96aaad	0.073567726
74	0x3d2c984e	0.042137437
75	0xbe290e2e	-0.16509315
76	0x3dd90948	0.105974734
77	0x3e836c47	0.25668547
78	0x3dce54d7	0.10074776
79	0x3d8f81e2	0.07007195
80	0x3e24bf7b	0.16088669
81	0xbdfd6b90	-0.123740315
82	0xbd43cce2	-0.047802813
83	0xbe03db09	-0.12876524
84	0xbc57bba4	-0.013167296
85	0x3e4eded0	0.20202184
86	0xbe0433bc	-0.1291036
87	0xbcb110cc	-0.021614455
88	0xbe0e013d	-0.1386766
89	0x3e391305	0.18073662
90	0xbd767dca	-0.060178556
91	0xbc878a8f	-0.016545562
92	0xbc95ae2f	-0.018271534
93	0xbe85da6c	-0.26143205
94	0x3ec6c258	0.38820148
95	0xbec1335d	-0.377345
96	0xbe0f1921	-0.1397443
97	0x3d4b6914	0.049660757
98	0xbcfbfd65	-0.030760476
99	0x3eb2242b	0.3479322
100	0x3e1bfc75	0.15233023
101	0xbe71f7f4	-0.23629743
102	0x3ddb1d64	0.10698965
103	0xbcb36259	-0.021897482
104	0xbe772971	-0.24136902
105	0xbe22d3e3	-0.15901141
106	0x3ec0de03	0.37669381
107	0xbe2fb9a0	-0.17160654
108	0xbe801a6b	-0.25020155
109	0x3e3a837a	0.18214217
110	0xbe23e83f	-0.16006564
111	0x3e3e1ae8	0.18564951
112	0x3e2d06e5	0.16897161
113	0xbe5fffe4	-0.21874958
114	0xbc7bacf5	-0.01536106
115	0xbc894090	-0.016754419
116	0xbd97c895	-0.07411305
117	0x3d1fc172	0.039002843
118	0xbd50ddf0	-0.050992906
119	0x3d45a454	0.04825242
120	0x3e7cddb5	0.2469395
121	0x3dde4bc6	0.108542964
122	0x3e6931d5	0.22772916
123	0xba2ea735	-0.0006662489
124	0xbe037ce9	-0.12840618
125	0xbe9a1f8a	-0.30102187
126	0x3c1d8327	0.009613789
127	0xbdf9ee39	-0.122036405
128	0xbe88bf02	-0.26708227
129	0x3b365f71	0.0027827884
130	0x3ddcee5b	0.1078765
131	0x3dfd1532	0.12357558
132	0x3e09a380	0.13441277
133	0xbbdbc23b	-0.0067065037
134	0x3cb024a5	0.021501848
135	0xbe4d6c89	-0.20060934
136	0xbe82854c	-0.25492322
137	0x3e60be50	0.21947598
138	0xbe2f6db5	-0.17131694
139	0xbd5cc275	-0.053896386
140	0xbdbd1a38	-0.092335165
141	0xbd8b164e	-0.06791364
142	0xbe3b34db	-0.18281882
143	0xbe162712	-0.14663342
144	0x3e1f24f9	0.15541448
145	0x3d5a6042	0.053314455
146	0xbd1be241	-0.03805757
147	0x3c503d2b	0.012709896
148	0x3db86f62	0.090056196
149	0xbdefc778	-0.117079675
150	0xbe95e6a2	-0.2927752
151	0xbe44f7b4	-0.19235116
152	0x3dc45792	0.09587015
153	0xbe423d12	-0.18968609
154	0xbe498c8c	-0.1968252
155	0x3de15852	0.11003174
156	0x3cd40a0e	0.0258837
157	0xbe90cd60	-0.2828169
158	0xbdb53581	-0.08848096
159	0xbd0749f9	-0.03302953
160	0xbe6226f8	-0.22085178
161	0x3d19bf1f	0.037535783
162	0xbe91dd71	-0.2848926
163	0xbdd3c7c6	-0.10340838
164	0xbdaf074c	-0.08546314
165	0xbd8d7d2e	-0.06908642
166	0xbe8a7736	-0.27044076
167	0xbe32bc95	-0.17454751
168	0xbdbed8cd	-0.09318695
169	0xbda674ed	-0.081277706
170	0x3e0bdf0b	0.13659303
171	0xbc728762	-0.014802786
172	0x3e0ddeba	0.13854495
173	0xbe26da34	-0.16294175
174	0x3cbe33f0	0.023218125
175	0xbca1be03	-0.019743925
176	0xbdf83047	-0.12118583
177	0xbe2c6edf	-0.16839169
178	0x3e0b72c8	0.13618004
179	0x3c7208b6	0.014772585
180	0xbd26f325	-0.040759224
181	0xbca0b260	-0.019616306
182	0xbe419cdd	-0.18907495
183	0xbc0e997b	-0.008703585
184	0x3e28033b	0.16407482
185	0xbdb654e5	-0.08902911
186	0x3d201151	0.039079014
187	0xbd196923	-0.03745378
188	0x3cec12fc	0.028817646
189	0xbd501fb5	-0.05081149
190	0xbe2a02f2	-0.16602686
191	0xbc8b8fbd	-0.017036313
192	0xbe56e324	-0.20985085
193	0x3da2cfb6	0.07949774
194	0xbd65adbd	-0.056073893
195	0x3e027140	0.12738514
196	0xbe07f248	-0.13276017
197	0x3aa5fdf3	0.0012664184
198	0x3dea8f73	0.11453142
199	0xbc83d863	-0.016094392
200	0xbe6119b7	-0.21982466
201	0x3e0213ff	0.1270294
202	0xbe1172c3	-0.14203934
203	0x3e0478c2	0.1293669
204	0xbea47d21	-0.32126716
205	0xbe269ada	-0.16270009
206	0x3c891219	0.016732262
207	0x3d4b16ac	0.04958217
208	0x3db608ba	0.08888383
209	0xbc800bdd	-0.015630657
210	0xbe46a1af	-0.19397615
211	0x3e54462d	0.20729895
212	0xbda06930	-0.07832563
213	0x3e0b15fb	0.13582604
214	0x3e4a290d	0.19742222
215	0x3ca7785d	0.020443136
216	0x3e151461	0.14558555
217	0x3e26d260	0.16291189
218	0xbdc55105	-0.09634594
219	0xbe68649e	-0.22694632
220	0x3cce1f6a	0.025161464
221	0x3e138aa2	0.14408353
222	0x3e3c641c	0.18397564
223	0x3e884cdf	0.26621148
224	0xbd095b38	-0.03353426
225	0xbdea46bb	-0.11439272
226	0xbe63ca95	-0.22245248
227	0x3d9c1cae	0.07622658
228	0x3e5fd95a	0.21860257
229	0x3e13c490	0.14430451
230	0x3e928d97	0.2862365
231	0x3df8b264	0.121434
232	0x3e274e36	0.16338429
233	0x3e6c3ce0	0.23070097
234	0x3dfb7ed4	0.1228005
235	0x3e9af151	0.30262235
236	0xbe8d5753	-0.27605686
237	0xbe02f906	-0.12790307
238	0xbe031003	-0.12799077
239	0xbcacaed9	-0.021079468
240	0xbe5a90f7	-0.21344362
241	0xbce387db	-0.027774742
242	0x3c9511cc	0.018196963
243	0xbd8beb82	-0.06832029
244	0xbe01b952	-0.1266835
245	0x3d2c3f34	0.042052463
246	0x3df000dd	0.11718915
247	0xbba19d8a	-0.00493211
248	0x3cb0bca0	0.021574318
249	0x3e379aae	0.179301
250	0x3e72df76	0.23718056
251	0x3e850491	0.25980046
252	0xbe3d37df	-0.18478344
253	0x3dd76384	0.10517028
254	0xbe2e77e8	-0.17037928
255	0x3e9c9604	0.30583203

layer2.6.weight f4 [7, 256]
0	0x3e2041dc	0.15650123
1	0xbda4052b	-0.08008798
2	0xbe1cd4be	-0.1531553
3	0x3bcf457b	0.0063254214
4	0x3e207b5d	0.1567206
5	0x3bece123	0.007228987
6	0x3df37439	0.11887402
7	0x3df8afdb	0.12142917
8	0xbe271581	-0.16316797
9	0xbc31521d	-0.0108228
10	0x3d0a06e4	0.033697978
11	0x3cf22dbc	0.029562823
12	0x3df76e46	0.1208158
13	0xbd424e05	-0.047437686
14	0x3daa12fa	0.08304401
15	0xbe05bb85	-0.13059814
16	0x3daf66ec	0.08564553
17	0xbd79e878	-0.061012715
18	0xbe9af1fd	-0.30262747
19	0xbd6ac884	-0.057320133
20	0x3c7efdd4	0.015563447
21	0x3e015cd4	0.12633067
22	0x3d34b361	0.04411638
23	0x3e559bc1	0.20860197
24	0xbd0d6f32	-0.034529872
25	0x3cf8506c	0.030311786
26	0xbe02f0a5	-0.12787111
27	0xbdf491f5	-0.119419016
28	0xbdc44ffd	-0.09585569
29	0x3d66f828	0.056389004
30	0x3dfd5464	0.12369612
31	0x3d32e3dd	0.04367434
32	0x3ce4d61c	0.027934127
33	0x3e5312f8	0.20612705
34	0x3b96be40	0.0046003163
35	0x3d52e1e6	0.051484965
36	0xbeba0f48	-0.36339784
37	0xbc43d473	-0.011952507
38	0xbc965277	-0.01834987
39	0xbeb41550	-0.3517251
40	0x3bada327	0.0052989903
41	0x3d89247e	0.066964135
42	0x3cb6ba96	0.022305768
43	0xbdb1d8fa	-0.08683963
44	0xbe0b083a	-0.13577357
45	0xbdbccbdb	-0.0921857
46	0xbe081767	-0.13290177
47	0xbde97c13	-0.114006184
48	0xbe8181f8	-0.2529447
49	0xbd8cf8d5	-0.068833984
50	0x3dc29910	0.095018506
51	0xbce484cf	-0.02789536
52	0xbe75bc94	-0.23997718
53	0xbd8ce0c2	-0.06878807
54	0x3d2f862a	0.04285256
55	0xbd0850df	-0.03328025
56	0x3e875a0b	0.26435885
57	0xbd1537ff	-0.036430355
58	0x3d350016	0.044189535
59	0xbd0d5d1c	-0.034512624
60	0x3c8fe7eb	0.017566642
61	0x3d92fb9a	0.071768954
62	0x3cd6aa96	0.026204389
63	0xbd55a1c3	-0.05215622
64	0xbd0be254	-0.03415139
65	0xbd45960d	-0.048238803
66	0x3d4660cf	0.048432168
67	0xbdb1371f	-0.08653092
68	0xbbd2f4dd	-0.0064378814
69	0xbc68d0a1	-0.014209897
70	0x3e3df70b	0.1855127
71	0x3e1e6898	0.15469587
72	0xbcfbe2b8	-0.030747756
73	0xbdc65bc3	-0.09685471
74	0x3de4a856	0.1116492
75	0xbb5fc27a	-0.0034143017
76	0xbb043e83	-0.0020178861
77	0xbe71be8e	-0.23607847
78	0x3d808090	0.06274521
79	0x3c914bf1	0.017736407
80	0xbbfe24e5	-0.007755863
81	0x3ccb1202	0.02478886
82	0xbd1e8204	-0.03869821
83	0x3bc2307c	0.00592619
84	0x3c03c019	0.008041405
85	0xbd97c430	-0.07410467
86	0x3e1711d0	0.14752889
87	0x3e07c642	0.13259223
88	0x3d2b0235	0.04175015
89	0x3a1d0145	0.0005989264
90	0xbdddb07a	-0.10824676
91	0x3cac4622	0.021029536
92	0x3db7e126	0.089784905
93	0x3d45f306	0.04832747
94	0xbe2dd1f9	-0.1697463
95	0x3ee79024	0.45227158
96	0x3e4e04ac	0.2011897
97	0xbcc441b3	-0.02395711
98	0xbc076bd6	-0.008265456
99	0xbe27fbaf	-0.16404603
100	0xbe0c049d	-0.13673635
101	0x3e6987fc	0.2280578
102	0x3d886e7e	0.066617
103	0x3d482ab3	0.048868846
104	0xbd121fed	-0.035674978
105	0x3df74ded	0.1207541
106	0xbde7b502	-0.113138214
107	0x3d653a7f	0.05596399
108	0x3d1daddc	0.038495883
109	0xbdd63cf2	-0.10460843
110	0x3baddcc0	0.0053058565
111	0x3d7d342c	0.061817333
112	0xbe85ea39	-0.2615526
113	0x3d963a25	0.07335309
114	0xbc09beb9	-0.008407288
115	0xbd70a3c5	-0.058749933
116	0x3d5ba525	0.05362429
117	0x3c709d49	0.014685937
118	0x3d470444	0.048588052
119	0x3c937471	0.01799986
120	0xbe7e1c59	-0.24815501
121	0xbe032e10	-0.1281054
122	0xbea9eaf7	-0.33187076
123	0x3e100841	0.14065649
124	0x3e1ccae3	0.1531177
125	0x3e0a88b8	0.13528717
126	0x3b8b4645	0.00425032
127	0x3d2f59f5	0.0428104
128	0x3da446b0	0.08021295
129	0xbd486219	-0.04892168
130	0xbdfa965f	-0.12235712
131	0xbe40a047	-0.18811141
132	0x3bf0f047	0.007352862
133	0xbd9f475c	-0.077772826
134	0x3d4eb1e8	0.050462633
135	0x3e61caa3	0.22049956
136	0x3ddfc5d4	0.109264046
137	0xbdc67db2	-0.09691943
138	0x3dab0144	0.08349851
139	0xbccbb02f	-0.024864284
140	0x3e07a56e	0.132467
141	0x3cfe781b	0.03106313
142	0x3d4a2570	0.04935211
143	0x3dca2d9d	0.09871981
144	0xbe0433d0	-0.1291039
145	0xbc188e37	-0.00931125
146	0x3c5eb06b	0.013591866
147	0xbdbfe294	-0.09369388
148	0x3d3869f9	0.04502294
149	0x3a9093c0	0.0011030361
150	0x3e9dd92f	0.3082976
151	0x3d98af56	0.07455318
152	0xbd9e2403	-0.077217124
153	0x3df31450	0.11869109
154	0x3e5dae88	0.2164861
155	0xbe165dbf	-0.14684199
156	0x3ce29bcc	0.02766218
157	0x3e991de9	0.29905632
158	0x3d615e88	0.055021793
159	0x3da58b12	0.08083166
160	0x3c5b772c	0.013395112
161	0x3db99f33	0.09063568
162	0x3eb455cb	0.35221705
163	0x3d6e9da8	0.05825582
164	0x3d4bb7b1	0.04973573
165	0x3d244a90	0.04011017
166	0x3edce27c	0.43141544
167	0x3e012a7f	0.12613867
168	0xbc08643f	-0.008324682
169	0x3dedbcda	0.11608286
170	0x3d9760f2	0.07391538
171	0x3c9afad9	0.018918442
172	0xbdb24d13	-0.08706107
173	0x3b35cda8	0.002774099
174	0xbdc18890	-0.09449875
175	0x3e3202e3	0.17383914
176	0x3dfea4b4	0.124337584
177	0x3e265265	0.16242369
178	0xbcad1c7d	-0.021131748
179	0xbc022ac7	-0.007944769
180	0x3ca47978	0.020077452
181	0xba99f805	-0.0011746889
182	0x3c8520fd	0.016251082
183	0xbd30b371	-0.04313988
184	0xbdbe06ea	-0.092786625
185	0xbd02e2f4	-0.03195472
186	0x3c75b647	0.014997072
187	0xbd07c000	-0.03314209
188	0x3da53519	0.08066768
189	0xbdd3476b	-0.10316356
190	0x3de565ef	0.11201083
191	0xbdcc04b8	-0.099618375
192	0x3e178bea	0.14799467
193	0xbbde6016	-0.0067863567
194	0x3d85ef5d	0.065397955
195	0xbd8b4c89	-0.06801707
196	0x3c91fbcb	0.01782026
197	0xbd1b4b97	-0.037913885
198	0x3c6fbe4a	0.014632771
199	0x3d062e88	0.03275922
200	0x3e29e11e	0.16589782
201	0xbd8c0895	-0.068375744
202	0x3c9207e1	0.017826023
203	0xbdf69e1f	-0.12041878
204	0x3e6feccb	0.23430173
205	0x3eb36b77	0.35042927
206	0xbd95b1b0	-0.07309282
207	0xbc10a0b5	-0.008827378
208	0xbb882211	-0.0041544517
209	0xbd89cf0b	-0.067289434
210	0x3dfc9ebc	0.12334964
211	0xbbc0e69e	-0.0058868667
212	0xbd498c3f	-0.049206015
213	0x3d91d12f	0.07119977
214	0xbe329278	-0.17438686
215	0xbd9226a3	-0.071362756
216	0xbbb87d2a	-0.005630155
217	0x3c939b1c	0.018018298
218	0x3e3c077f	0.18362235
219	0x3ead1cec	0.33811128
220	0x3d9ad44d	0.075600244
221	0xbe080328	-0.13282454
222	0xbdfcae52	-0.123379365
223	0xbe144822	-0.14480641
224	0xbd599df7	-0.053129163
225	0x3dae14ce	0.08500062
226	0x3e894588	0.2681086
227	0xbd9c9bf5	-0.07646934
228	0xbe128b27	-0.14310895
229	0xbd358eef	-0.044325765
230	0xbe8f5aaa	-0.2799886
231	0x3d26ccc9	0.040722642
232	0xbde8715c	-0.113497466
233	0xbda46158	-0.08026379
234	0xbdee0ff0	-0.116241336
235	0xbe44ae81	-0.19207193
236	0x3d229de8	0.039701372
237	0x3e617800	0.22018433
238	0x3d9a89a7	0.07545786
239	0x3d121264	0.03566207
240	0x3da33559	0.0796916
241	0x3e0584c8	0.13038933
242	0x3de368d6	0.1110398
243	0x3d5b450c	0.053532645
244	0x3de0ec92	0.10982622
245	0xbd221402	-0.039569862
246	0xbdc16542	-0.094431415
247	0x3d6fa8d8	0.05851063
248	0x3dcfbd5d	0.1014354
249	0xbdf3d54e	-0.11905919
250	0xbea55eb7	-0.32298824
251	0xbe9df9bb	-0.30854592
252	0x3d7ee17a	0.06222675
253	0x3c9c5960	0.019085586
254	0x3e963dd8	0.29344058
255	0xbcc76af3	-0.02434299

layer2.6.bias f4 [7]
0	0xbf010559	-0.50398785
1	0xbf32b3fc	-0.69805884
2	0xbdfe8c44	-0.12429097
3	0x3d1a58cb	0.037682336
4	0xbc41d8a1	-0.0118314335
5	0xbdcd093c	-0.10011527
6	0x3e9748aa	0.29547626
