Saved_data_files/bpi/lr_all_variants/weighted/TimestampPredictor_parameters_weighted_0.001.pt (torch, 274447 bytes, 7 tensors)

layer1.weight f4 [4, 1]
0	0x3ccdb4c9	0.02511062
1	0xba3a365f	-0.0007103439
2	0xbeed9276	-0.46400803
3	0xc2867230	-67.22302

layer1.bias f4 [6]
0	0xc23a26a6	-46.537743
1	0x418cca8d	17.598902
2	0xc26a849f	-58.629513
3	0x40eac69c	7.3367443
4	0x411655a7	9.395911
5	0x40b4b35e	5.6468954

layer2.1.weight f4 [256, 6]
0	0x3baf05cd	0.0053412677
1	0x3d98727e	0.07443713
2	0x3dd0ebc4	0.10201219
3	0x3d8ad705	0.06779293
4	0x3d48f1c6	0.049058698
5	0x3e37f007	0.17962657
6	0x3e83f81f	0.2577524
7	0x3eeab61e	0.4584207
8	0x3ee9755e	0.45597357
9	0x3ddf1f79	0.10894675
10	0x3e327800	0.17428589
11	0x3e972ae2	0.29524904
12	0x3f80bece	1.0058229
13	0x3f8c988e	1.0984056
14	0x3eb865a4	0.36015046
15	0xbe86c50a	-0.26322204
16	0x3dba331b	0.09091779
17	0x3d9b3b30	0.075796485
18	0x3f29d409	0.66339165
19	0x3f438df7	0.76388496
20	0x3d86452a	0.06556161
21	0x3ba04491	0.0048909863
22	0xbd3597b0	-0.044334114
23	0xbc2cff84	-0.010558967
24	0x3f403f47	0.75096554
25	0x3e16e1b0	0.1473453
26	0x3dfa1137	0.12210315
27	0x3e0e4098	0.13891828
28	0xbc219f2a	-0.009864608
29	0x3dce34cd	0.10068665
30	0x3ab811a1	0.001404334
31	0xbb4bae53	-0.0031079247
32	0x3daeb42a	0.08530457
33	0xbd7cc0f7	-0.061707463
34	0xbdbdfd74	-0.09276858
35	0x3e05812f	0.13037561
36	0x3e1ea063	0.1549087
37	0x3c881855	0.016613165
38	0x3d090fd8	0.033462375
39	0x3cf04a1c	0.029332213
40	0x3d03c4a9	0.03216997
41	0x3cf6f692	0.03014687
42	0xbac969d3	-0.0015366621
43	0x3c55e128	0.01305417
44	0x3ddc4a70	0.10756385
45	0x3c961244	0.018319257
46	0x3c07d15a	0.008289659
47	0x3c262bf7	0.010142318
48	0x3e60fd13	0.2197154
49	0x3f3f521c	0.74734664
50	0x3eb45437	0.352205
51	0xbe18d13a	-0.14923564
52	0xbd994d32	-0.07485427
53	0x3cf1ebb2	0.029531334
54	0xbdbdab37	-0.09261172
55	0x3f366c9a	0.7125946
56	0xbd90e7ee	-0.07075487
57	0x3d88d615	0.06681458
58	0xbdd3d0e3	-0.10342576
59	0xbe80f44a	-0.25186378
60	0xbf18bab8	-0.5965991
61	0x3f572012	0.8403331
62	0x3f95b134	1.1694703
63	0x3f92f0dc	1.1479754
64	0x3f2bd5c6	0.6712307
65	0xbe87952a	-0.2648099
66	0x3f0fa042	0.5610391
67	0x4001c5da	2.027701
68	0x3efa70f9	0.48914316
69	0x3e3d84fc	0.18507761
70	0x3cf4a4e4	0.029863782
71	0x3ed96933	0.42463073
72	0x3e267ff8	0.16259754
73	0x40303336	2.7531257
74	0x3d071193	0.032975744
75	0x3b64e8e8	0.0034928862
76	0x3de5bf7e	0.11218165
77	0xbd31f4d4	-0.043446377
78	0x3f874721	1.0568582
79	0x3d258809	0.040412936
80	0x3dd08f9c	0.10183641
81	0x3e0c8817	0.13723789
82	0x3db2a9cc	0.087237924
83	0x3e03989a	0.12851182
84	0x3ee5011b	0.44727406
85	0x3d4334c4	0.047657743
86	0x3e0905f4	0.13381177
87	0xbd1f9807	-0.038963344
88	0x3d815834	0.063156515
89	0x3dd151c5	0.102206744
90	0x3f090f5e	0.53539073
91	0x3f261e43	0.64889926
92	0x3ee4f172	0.44715458
93	0x3e4d31af	0.20038484
94	0x3cc59582	0.024119142
95	0x3be746fe	0.0070580235
96	0x3ebfbfc1	0.37450984
97	0x3fac1894	1.3445001
98	0x3e908400	0.28225708
99	0x3dfc35b4	0.123149306
100	0xbdac7f6b	-0.084227405
101	0x3e868b27	0.2627804
102	0x3de53176	0.111910746
103	0x3eb825f7	0.35966465
104	0xbe9cbb9b	-0.30611882
105	0x3e5ec9e4	0.21756703
106	0x3da6752d	0.08127818
107	0xbeee6de4	-0.46568215
108	0x3c58ef08	0.013240583
109	0x3c9333a1	0.017968955
110	0x3dc79db7	0.097468786
111	0x3b1460e3	0.0022640757
112	0x3e49e8d1	0.19717719
113	0x3e4d3f6f	0.20043729
114	0xbbb0526e	-0.00538092
115	0x3c4276e3	0.011869165
116	0x3dc19906	0.09453015
117	0xbb8c8c00	-0.0042891502
118	0xbe09ba31	-0.13449933
119	0x3da2ca01	0.079486854
120	0xbd8f75f0	-0.07004917
121	0xbe27fec1	-0.16405775
122	0x3e01f997	0.12692867
123	0xbec7018f	-0.38868377
124	0x3e069b1c	0.13145107
125	0xbe6cd96e	-0.23129818
126	0xbd076067	-0.03305092
127	0xbd1a4a81	-0.03766871
128	0xbdd0575d	-0.10172913
129	0xbd55e9a3	-0.052224766
130	0xbdebaa85	-0.115071334
131	0x3e8f8ba9	0.2803624
132	0x3f9b280e	1.2121599
133	0x3fde624a	1.7373745
134	0x3f7155bd	0.9427145
135	0xbe28a558	-0.16469324
136	0x3f5cb41a	0.86212313
137	0x3f234f3d	0.63792783
138	0xbc37bfb9	-0.011215144
139	0x3b8ec39d	0.004356815
140	0x3d431d13	0.04763515
141	0x3c860de6	0.01636405
142	0xbd838c7a	-0.06423278
143	0x3bdf209d	0.0068093077
144	0x3e17d90a	0.14828888
145	0xbc6dbd77	-0.014510504
146	0x3be1bc78	0.0068889223
147	0x3dc86059	0.09784002
148	0xbd5fd004	-0.05464174
149	0x3c937caa	0.01800378
150	0xbd33c8fa	-0.043892838
151	0x3f07d811	0.53064066
152	0x3d99e3cd	0.07514153
153	0x3daa7d85	0.08324722
154	0x3d3af55d	0.045644153
155	0xbdb2adcb	-0.08724555
156	0xbc305605	-0.010762696
157	0x400478dc	2.0698767
158	0x3edd174a	0.4318183
159	0x3ea8754c	0.3290199
160	0xbd207783	-0.039176475
161	0x3e88987d	0.2667884
162	0x3d245706	0.040122055
163	0xbd1cb113	-0.03825481
164	0xbd811d4d	-0.06304417
165	0x3c18aee8	0.009319045
166	0x3e022af2	0.12711695
167	0x3dc19b87	0.094534926
168	0x3e56f7b7	0.20992933
169	0x3f870cf4	1.0550828
170	0x3b3b7232	0.0028602001
171	0xbcdd26c5	-0.026996026
172	0xbc4054e1	-0.011738987
173	0xbeb3b9af	-0.35102603
174	0xbf0f4b3e	-0.55974185
175	0x4033e1f1	2.8106654
176	0x4021cb95	2.5280507
177	0x40200d99	2.50083
178	0xbe2d71c0	-0.16937923
179	0x3f98f374	1.1949296
180	0xbc382924	-0.011240277
181	0x3dfd1b18	0.12358683
182	0x3d8fb617	0.07017153
183	0x3b98944c	0.0046563502
184	0x3dbc40bc	0.091920346
185	0x3ddabf64	0.10681036
186	0xbd1b518c	-0.037919566
187	0x3f32f56b	0.6990573
188	0x3df38360	0.11890292
189	0x3d8f77e7	0.070052914
190	0x3d556c2f	0.052105125
191	0xbc3db0ba	-0.011577779
192	0x3eb6202e	0.35571426
193	0x3bc16163	0.005901502
194	0x3e3cfd54	0.18456012
195	0x3e84bc1c	0.25924766
196	0x3c82e619	0.01597886
197	0xbd48434d	-0.048892308
198	0x3e5da8fb	0.21646492
199	0xbd971bd6	-0.07378356
200	0x3dc607d9	0.096694656
201	0xbda97a71	-0.08275307
202	0xba174bc8	-0.0005771485
203	0x3d10b10c	0.035325095
204	0xbda4ea1e	-0.08052467
205	0x3f7d262a	0.9888636
206	0xbda29248	-0.07938057
207	0x3d3de09a	0.046356775
208	0x3dce660f	0.1007806
209	0x3e01ee21	0.12688495
210	0xbd49a8fd	-0.049233425
211	0x3f127abe	0.5721854
212	0xbd6a5f31	-0.057219688
213	0xbd6843f4	-0.05670543
214	0x3e05bb77	0.13059793
215	0x3dac2d5e	0.084070906
216	0x3e8ada6a	0.27119762
217	0x40107113	2.2569015
218	0x3d448d9e	0.04798662
219	0x3ceb8a58	0.02875249
220	0x3cb7d950	0.02244249
221	0xbd2d3217	-0.042284098
222	0xbd83ae3b	-0.06429716
223	0x3f465132	0.77467644
224	0xbce1fcc6	-0.027586352
225	0x3e428dde	0.1899943
226	0x3e13f8f3	0.14450435
227	0xbdc3aebc	-0.09554812
228	0x3df4a2fe	0.11945151
229	0x3c348200	0.011017323
230	0x3d067f56	0.03283628
231	0x3dbcee7a	0.09225173
232	0xbc8ac4b8	-0.016939506
233	0xbd2729c7	-0.040811326
234	0x400e8f02	2.2274785
235	0xbcda5b96	-0.026655
236	0x3dd63c45	0.10460714
237	0x3f9874fa	1.1910698
238	0xbe9a34ec	-0.301185
239	0xbf00e834	-0.50354314
240	0x402826c4	2.627366
241	0x403a22ee	2.908382
242	0x400d84f4	2.2112398
243	0x3f937a06	1.1521614
244	0x3f5d21d3	0.86379737
245	0x40267eea	2.6014962
246	0xbddd024c	-0.10791454
247	0xbfec3e52	-1.8456519
248	0xbf1c454f	-0.61043257
249	0xbee23b88	-0.44186044
250	0xbf566b64	-0.83757615
251	0x3fd48fe1	1.6606408
252	0x3bd6d19b	0.0065557486
253	0x3d1b0326	0.0378448
254	0x3e30a601	0.17250825
255	0x3de2a8b6	0.11067335

layer2.1.bias f4 [256]
0	0x4267d79c	57.960556
1	0xc1005187	-8.019904
2	0xc164fe6d	-14.312116
3	0xc1049f22	-8.288851
4	0xc0676e73	-3.6161163
5	0x42a94762	84.63942
6	0x429782d3	75.755516
7	0x42ca4dd2	101.15199
8	0xc1513973	-13.076526
9	0x42a0564d	80.16856
10	0xc17b37e3	-15.701144
11	0xc1626193	-14.148822
12	0x425a62ee	54.59661
13	0x412fa9e8	10.978981
14	0x4230c0cb	44.188274
15	0xc093bca5	-4.616778
16	0xc187f1c4	-16.99305
17	0xc0adac2f	-5.4272685
18	0x429b18fd	77.548805
19	0x42a6ac60	83.33667
20	0xbe2c1bc7	-0.16807471
21	0x42bfd3bb	95.913536
22	0xc1175f4b	-9.460765
23	0x42ad0d04	86.52542
24	0x42849ac4	66.30228
25	0x427ab3d3	62.67561
26	0x3f11a83a	0.5689732
27	0x428dad28	70.838196
28	0xc0cc1254	-6.3772373
29	0xc0ec57aa	-7.385701
30	0x424c0315	51.00301
31	0x429cfa2d	78.488625
32	0x41d886e6	27.065868
33	0x422632ea	41.54972
34	0xc13af7b3	-11.685473
35	0x429bd2ea	77.91194
36	0x4241c0ad	48.43816
37	0x42b123e9	88.57014
38	0x4233ebc4	44.98024
39	0xc0e9b7ab	-7.3036704
40	0xc1d0708e	-26.054958
41	0xc19797fc	-18.949211
42	0x4225fb44	41.495377
43	0x427b4e2e	62.826347
44	0xc1086ffa	-8.527338
45	0xc0903787	-4.5067782
46	0x429d4be7	78.64825
47	0x425b5811	54.836002
48	0x41d21405	26.259775
49	0xc16641ac	-14.391033
50	0x42fc29cd	126.08164
51	0x41ca33f3	25.275366
52	0xc0fde830	-7.934593
53	0x4296824a	75.25447
54	0x4225e367	41.472073
55	0x42a20e3b	81.027794
56	0x4220dbe7	40.21475
57	0x428decc9	70.96247
58	0x426d845c	59.379257
59	0x4211bc25	36.433735
60	0xc0912218	-4.535412
61	0x423b2b97	46.79257
62	0xbfafcf2d	-1.37351
63	0x42b12c80	88.586914
64	0x41e0e557	28.111982
65	0x42a342de	81.6306
66	0xc04a1229	-3.1573584
67	0xc11011d8	-9.004356
68	0xc0aa7a65	-5.3274407
69	0x424d52a1	51.330692
70	0x4286cda4	67.40164
71	0x423b5839	46.836155
72	0x42828344	65.25638
73	0x42007e94	32.12361
74	0xc10cd09d	-8.800931
75	0x42a34c76	81.64934
76	0x426b98be	58.899162
77	0xc0f1afd6	-7.5527143
78	0xc0ee3c43	-7.444856
79	0xc0492316	-3.1427665
80	0x42ae45a5	87.136024
81	0xc1053f06	-8.327887
82	0x4275f9fe	61.494133
83	0xc0e8b4aa	-7.2720537
84	0x42bce176	94.44035
85	0xc13c0ae5	-11.75266
86	0x42aa5df4	85.1835
87	0xc1de645d	-27.799006
88	0xc124ff7c	-10.312374
89	0xc1cac1f9	-25.344713
90	0x41e1c475	28.220926
91	0xc1964fe7	-18.789015
92	0xc12c81b8	-10.78167
93	0x3ff0886b	1.8791631
94	0x422fcb72	43.948677
95	0x41f2cccc	30.349998
96	0xc0a039f4	-5.0070744
97	0x425def4f	55.4837
98	0xc17244b8	-15.141777
99	0x4201d15f	32.454464
100	0xc191dc37	-18.232527
101	0xc1c70bfc	-24.880852
102	0x41ef139c	29.884575
103	0x42a17610	80.73059
104	0x42a5b82e	82.859726
105	0x428f15c4	71.54251
106	0x425d0a77	55.26022
107	0x42a0aed6	80.34148
108	0x4233241a	44.785255
109	0xc0e56668	-7.168751
110	0x4261e8d0	56.477356
111	0x4287593c	67.674286
112	0x42b6ab14	91.33414
113	0x4241fe03	48.49806
114	0xbe42ae01	-0.1901169
115	0xc0f5f18f	-7.685737
116	0xc14e1453	-12.879962
117	0x42a8a4be	84.32176
118	0x42bd02ad	94.505226
119	0xc052523f	-3.28627
120	0x42956ccf	74.71252
121	0x42b2f316	89.47478
122	0xc0cfbefc	-6.4920635
123	0x41dc4cd1	27.537508
124	0x429a59e5	77.175575
125	0xc15d287a	-13.822382
126	0xc0df1cbc	-6.9722576
127	0xc0faba0d	-7.8352113
128	0xbf5b6d55	-0.857137
129	0xc06e5619	-3.724005
130	0xc1bc1aea	-23.513142
131	0x42979147	75.783745
132	0x42612088	56.28177
133	0x429d069e	78.512924
134	0xc131a4d2	-11.102739
135	0xc151bd2c	-13.108685
136	0xc14ff8a7	-12.998206
137	0xc19f0f78	-19.882553
138	0xc19f8de6	-19.944286
139	0x42c10a0c	96.51962
140	0x42c5a808	98.828186
141	0xc0ae23ce	-5.4418707
142	0xc107d23c	-8.488827
143	0xc1100d65	-9.00327
144	0x418e1337	17.759382
145	0x4061056b	3.5159557
146	0x4213d3c5	36.956806
147	0x42bd8f0d	94.779396
148	0xc10ed134	-8.926075
149	0x42855780	66.6709
150	0x4293942f	73.78942
151	0x42a151c7	80.65972
152	0x42884093	68.12612
153	0x42cbf7c4	101.98392
154	0x42822fa5	65.093056
155	0xc0b72765	-5.723559
156	0x41bb9982	23.449955
157	0x412054b7	10.020682
158	0x42b6f3d1	91.476204
159	0xc13e1ce2	-11.882051
160	0xc0e1ea48	-7.059849
161	0xc10ffc99	-8.999169
162	0x423c91b8	47.142303
163	0x42a703eb	83.50765
164	0x4155afb3	13.355395
165	0xbf4c513c	-0.79811454
166	0xc10409a0	-8.25235
167	0x42a7733a	83.72505
168	0x4207e397	33.972256
169	0x41bb8c7f	23.443602
170	0xc1b2053e	-22.25256
171	0x429f69c9	79.70661
172	0x42abca76	85.89543
173	0x423c7cc7	47.121853
174	0x425cb36e	55.175224
175	0x42afb43c	87.85202
176	0xc1010828	-8.064491
177	0xc080b647	-4.0222507
178	0x41e49ae8	28.575638
179	0x42af3049	87.59431
180	0xc01c4c32	-2.4421506
181	0x4218acfb	38.168926
182	0x429ecf30	79.40466
183	0x426dcfc5	59.4529
184	0x428da5e5	70.82401
185	0x428aae01	69.33985
186	0x426b0d33	58.76289
187	0x409527c3	4.6611037
188	0x42962255	75.067055
189	0xc137525b	-11.457606
190	0x4243f364	48.987686
191	0x42b58b63	90.77224
192	0xc1b4326b	-22.524618
193	0xc1170734	-9.439259
194	0x4290baa0	72.3645
195	0xc0e87b4a	-7.26505
196	0x42593c64	54.308975
197	0xc18a884e	-17.316555
198	0xc0d6241c	-6.691908
199	0xc1747570	-15.278671
200	0x42a45995	82.174965
201	0xc16f2c1e	-14.948271
202	0x422b6811	42.851627
203	0x42bdab4a	94.83455
204	0x420f8ff3	35.890575
205	0xc1654755	-14.329915
206	0xc1029508	-8.161385
207	0x4297c3f2	75.882706
208	0x42be3989	95.11237
209	0x3fe940a0	1.8222847
210	0x419e7d2d	19.811121
211	0xc0b31d44	-5.5973225
212	0xc0ba30ed	-5.8184724
213	0x42a1ffff	80.99999
214	0xc0e1f2d2	-7.060891
215	0x4278afc4	62.171646
216	0xc073673a	-3.8031754
217	0x42384a9f	46.072872
218	0x42a6ba15	83.36344
219	0x42e758d5	115.6735
220	0xc15ec657	-13.923423
221	0x42ac6cce	86.21251
222	0x429db03a	78.84419
223	0xc0aa4c93	-5.3218474
224	0x42ea203f	117.06298
225	0xc0b3cfa4	-5.6190968
226	0x4282145e	65.03978
227	0x42333127	44.798
228	0xc1028129	-8.156533
229	0xbc98c9e3	-0.018650955
230	0x4204852a	33.130043
231	0x3e829245	0.2550222
232	0xc150e1b4	-13.055103
233	0xc13f60b5	-11.96111
234	0xbf804406	-1.0020759
235	0xc0d0ab32	-6.520898
236	0x42776efd	61.858387
237	0x4267ddfb	57.966778
238	0xc1864ad8	-16.786545
239	0xc140e2ab	-12.055339
240	0x4298fdfc	76.49606
241	0x42ba5670	93.16882
242	0xc133ebcf	-11.24507
243	0xc1c6f4d4	-24.869545
244	0x40fb7ccb	7.8589835
245	0x424c55bc	51.083725
246	0x424bf026	50.98452
247	0xc18be7d3	-17.488195
248	0x42a3b498	81.85272
249	0xc056c9c6	-3.3560653
250	0xc1824c7e	-16.28735
251	0x422659e5	41.587788
252	0xc14a5ca2	-12.647615
253	0x4289e363	68.944115
254	0x42027f91	32.624577
255	0x42ba4858	93.1413

layer2.3.weight f4 [256, 256]
0	0x3db870ee	0.09005915
1	0xbf154dcf	-0.5832185
2	0xbe4fdddf	-0.20299481
3	0xbec65df3	-0.38743553
4	0x3e1fba3d	0.15598388
5	0x3da562bb	0.08075472
6	0xbecf1c2e	-0.40451187
7	0xbe29ab10	-0.16569161
8	0xbe9a1d68	-0.3010056
9	0xbd3465e4	-0.044042483
10	0xbf6a6c03	-0.9157106
11	0xbe8a6b65	-0.2703506
12	0xbf9f8f92	-1.2465689
13	0x3f225ba9	0.6342111
14	0xbf5404be	-0.82819736
15	0xbee86622	-0.4539042
16	0xbd6b1ce9	-0.057400618
17	0x3d896e74	0.067105204
18	0xbeaa08ca	-0.3320983
19	0x3ebab5a6	0.36466712
20	0x3e9ee776	0.31035966
21	0xbe85461e	-0.26030058
22	0x3e37ff0a	0.17968383
23	0xbe2eadb5	-0.17058451
24	0x3d11a074	0.03555341
25	0xbe5bfaae	-0.21482345
26	0x3f86d6dc	1.053432
27	0x3e02032d	0.12696524
28	0x3f4dd1d8	0.8039832
29	0xbebd7108	-0.37000299
30	0xbe6ef513	-0.23335676
31	0xbe96e95b	-0.2947491
32	0x3e08864d	0.13332482
33	0x3e1f2d8e	0.15544721
34	0xbe52acf8	-0.20573795
35	0xbeb17f32	-0.34667355
36	0xbd6faf89	-0.058517013
37	0x3e933674	0.28752482
38	0x3e8ee088	0.2790568
39	0xbef2be4c	-0.4741081
40	0xbef38cf4	-0.47568476
41	0xbdaa630a	-0.083196715
42	0x3eb6cc8e	0.35702938
43	0xbeaf74ef	-0.342689
44	0x3f114e0c	0.56759715
45	0x3eba8d10	0.36435747
46	0xbf4b1ccd	-0.7934082
47	0xbe872d23	-0.26401624
48	0xbdbdb8a9	-0.09263737
49	0x3f3303d3	0.6992771
50	0x3f224992	0.6339351
51	0xbe61021c	-0.21973461
52	0xbdef1a80	-0.11674976
53	0xbf2ce162	-0.67531407
54	0x3e4e1b41	0.20127584
55	0xbeecb610	-0.46232653
56	0xbec0d7a2	-0.37664515
57	0x3e8de195	0.27711168
58	0xbdfb6242	-0.122746006
59	0x3f5878b2	0.84559166
60	0xbd7c7a7b	-0.061640244
61	0xbfa1f3cf	-1.265253
62	0xbe18a9c1	-0.14908506
63	0xbf3b5b48	-0.7318616
64	0xbf587965	-0.84560233
65	0xbe7fa1fc	-0.24964136
66	0x3e8dfce5	0.27732006
67	0x3eaef840	0.34173775
68	0x3ddbd270	0.10733497
69	0xbe18b5e4	-0.14913136
70	0xbea59750	-0.32342005
71	0xbea82389	-0.3283961
72	0xbdf4bc0d	-0.1194993
73	0x3ebd3aeb	0.36959013
74	0x3f91948e	1.137346
75	0xbeeadf42	-0.45873457
76	0xbeb0a721	-0.3450251
77	0x3ee10e20	0.4395609
78	0xbec76965	-0.38947597
79	0xbdb485e2	-0.088145986
80	0x3e7a08ea	0.24417463
81	0x3f6783ef	0.9043569
82	0xbe0dd551	-0.13850905
83	0x3cf2af3d	0.029624576
84	0x3e6828fc	0.22671884
85	0x3edf350d	0.43595162
86	0x3dd0286f	0.10163962
87	0x3eebec97	0.4607894
88	0x3e5ee881	0.2176838
89	0xbe98dad7	-0.29854462
90	0x3f3564b5	0.7085679
91	0x3efa57e4	0.4889518
92	0xbf21df78	-0.6323161
93	0xbe0981e2	-0.13428453
94	0xbed45c8f	-0.41476867
95	0x3ea893ed	0.32925358
96	0x3e2e02fd	0.16993327
97	0x3e0ef710	0.13961434
98	0x3eaa3706	0.33245105
99	0xbecea735	-0.40361944
100	0xbeea2513	-0.4573141
101	0xbf939a30	-1.1531429
102	0x3efd576d	0.49480763
103	0xbdabcef6	-0.08389084
104	0xbc1bdb9d	-0.009512809
105	0xbec89ba1	-0.39181235
106	0x3d4af358	0.049548477
107	0x3e43b7f4	0.19113141
108	0xbe107fe2	-0.14111283
109	0xbeb9339b	-0.36172184
110	0xbe8463ea	-0.25857478
111	0xbf636ccb	-0.8883788
112	0xbe74f14b	-0.23920171
113	0x3da11951	0.07866157
114	0xbea7a800	-0.3274536
115	0x3f0c40ba	0.54786265
116	0x3e8e5b45	0.27804008
117	0xbdb6129f	-0.088902704
118	0x3ed2970c	0.41130865
119	0x3ec163c9	0.37771443
120	0xbdfff0e3	-0.12497117
121	0xbd0b88bd	-0.03406595
122	0x3d004f6b	0.03132574
123	0xbe661ab1	-0.2247112
124	0xbf51b586	-0.8191761
125	0xbe86d96b	-0.26337752
126	0x3f2e67a5	0.681269
127	0x3de12066	0.10992508
128	0x3e9086cf	0.2822785
129	0xbe9ce7c6	-0.3064558
130	0xc03a142f	-2.907482
131	0xbd4492ab	-0.047991436
132	0x3f4a22a1	0.7895909
133	0x3f01ed02	0.5075227
134	0x3e97219d	0.29517832
135	0x3e0f8d14	0.14018661
136	0x3f465eb3	0.7748825
137	0x3efaa50e	0.48954052
138	0x3eac6569	0.3367112
139	0x3e1f9a77	0.15586267
140	0xbf658108	-0.8965001
141	0xbf4d8c24	-0.8029196
142	0x3eab73e5	0.33486858
143	0x3ebfc59b	0.37455449
144	0xbeda296a	-0.4260972
145	0xbe721f73	-0.2364481
146	0xbefa1777	-0.48846027
147	0xbe54736d	-0.20747156
148	0x3f06190b	0.5238196
149	0xbd79c6a0	-0.06098044
150	0x3ed74ecf	0.42052314
151	0x3eafbc0e	0.34323162
152	0xbed46668	-0.4148438
153	0x3f1e213a	0.6176945
154	0xbf1ce0da	-0.61280596
155	0x3ef74669	0.48295906
156	0xbec8dc53	-0.39230594
157	0xbe000e46	-0.12505445
158	0xbf5ccb61	-0.8624783
159	0xbec08596	-0.37601918
160	0xbf13a844	-0.5767863
161	0xbecfe5ad	-0.40604916
162	0x3d3251ea	0.04353515
163	0x3f0dea2a	0.5543543
164	0xbf4ee791	-0.8082209
165	0xbeffe8ee	-0.499824
166	0x3ec45cf6	0.38352174
167	0xbd1e8f9c	-0.038711175
168	0xbea25d94	-0.3171202
169	0x3ecce730	0.40020132
170	0xbd6101cf	-0.054933365
171	0xbf1d0667	-0.61337894
172	0xbfaad666	-1.3346679
173	0xbf10cc26	-0.56561506
174	0xbd0c5337	-0.034259047
175	0x3f538c11	0.826356
176	0x3e86d566	0.26334685
177	0xbe93dd58	-0.2887981
178	0xbec000b1	-0.37500528
179	0x3eae2e8b	0.34019884
180	0x3f66c292	0.9014064
181	0x3c53266c	0.012887578
182	0x3f04feff	0.51951593
183	0xbf2c4c31	-0.6730376
184	0xbc97c573	-0.018526768
185	0xbf716c99	-0.9430633
186	0x3e9de07f	0.3083534
187	0x3da03f0b	0.078245245
188	0xbe99ac7b	-0.30014405
189	0x3daed925	0.08537511
190	0x3da19c95	0.07891194
191	0xbf314a14	-0.6925366
192	0xbf189fab	-0.59618634
193	0xbeffa0c6	-0.49927348
194	0xbd346da0	-0.04404986
195	0x3ef1ac58	0.472018
196	0xbe66ebbb	-0.22550862
197	0xbe57a8af	-0.21060441
198	0xbe775e18	-0.24156988
199	0x3eccba2a	0.39985782
200	0xbf20d0a2	-0.6281835
201	0x3ebdf4b4	0.37100756
202	0xbedd900a	-0.43273956
203	0x3ebd05fd	0.3691863
204	0xbecdc79c	-0.40191352
205	0x3e779bbc	0.24180502
206	0x3f2880e3	0.65821666
207	0xbe3dce87	-0.18535815
208	0x3d219c0f	0.03945547
209	0x3dcd4889	0.100236006
210	0xbf050ccc	-0.5197265
211	0xbe2b1f2c	-0.1671111
212	0x3ecac741	0.39605144
213	0x3e886af5	0.26644102
214	0xbeb3de2b	-0.35130438
215	0xbeeb541a	-0.45962602
216	0xbf15a536	-0.58455217
217	0x3ebf7caf	0.37399814
218	0xbd4d98d3	-0.050194573
219	0x3f3e3b20	0.7430897
220	0xbf625a93	-0.88419455
221	0xbe3b0863	-0.18264918
222	0x3e1ba2b4	0.15198785
223	0x3f01e3fb	0.50738496
224	0x3eecfede	0.46288198
225	0x3eaa2480	0.33230972
226	0xbf31cab5	-0.6944993
227	0xbd7ab66f	-0.06120914
228	0xbe99b6cf	-0.30022284
229	0x3e5e4e5d	0.2170958
230	0xbebb5121	-0.36585334
231	0x3d881ef8	0.06646532
232	0xbf057fa7	-0.52147907
233	0x3e8b07f0	0.27154493
234	0x3e85033c	0.2597903
235	0xbe9f4254	-0.31105292
236	0x3cabde07	0.020979894
237	0xbe8c39ea	-0.27387935
238	0x3e6b9073	0.23004322
239	0xbe85c3df	-0.26126
240	0x3de510a7	0.11184817
241	0xbf418f8c	-0.7560966
242	0xbe2ad6e0	-0.16683531
243	0x3d8cc0d0	0.068727136
244	0xbe2693ff	-0.16267394
245	0xbea733b8	-0.32656646
246	0x3d98fad0	0.07469714
247	0xbf6ddc13	-0.9291393
248	0xbd611f11	-0.054961268
249	0x3e40756e	0.18794796
250	0x3f1eeccb	0.6208007
251	0x3f0e9f63	0.55711955
252	0xbd24e4ae	-0.04025715
253	0x3d8e9fca	0.06964071
254	0x3decb369	0.11557657
255	0x3f0f74cc	0.5603759

layer2.3.bias f4 [256]
0	0x4295500e	74.65636
1	0xbe25aed7	-0.16179977
2	0xbbd53188	-0.0065061487
3	0x4260c511	56.192448
4	0x423278a2	44.617805
5	0x424d9ed0	51.40509
6	0x42b3fd67	89.99493
7	0xbe7de591	-0.24794604
8	0x4131cac7	11.112006
9	0x4293f335	73.97501
10	0x424d3598	51.302338
11	0xbe37cb0f	-0.17948554
12	0xbe324005	-0.17407234
13	0x41411f8f	12.070205
14	0x4107bced	8.483624
15	0x411b111a	9.691675
16	0xbdcd7bf8	-0.10033411
17	0x3fc99b26	1.5750473
18	0xbd13953e	-0.036031
19	0xbcd0d067	-0.025489999
20	0x4190dcd5	18.107828
21	0x4291a0c2	72.81398
22	0x425afa49	54.74442
23	0xbdbb833b	-0.091558896
24	0x3e73e279	0.23816861
25	0x3e6d60e2	0.23181489
26	0x415830ac	13.511883
27	0xbe1886d5	-0.14895184
28	0x4243fda8	48.99771
29	0x41f487ff	30.566404
30	0x3f8604ab	1.0470175
31	0xbe945315	-0.28969637
32	0xbed4676d	-0.41485158
33	0x3e660dd8	0.22466218
34	0xbe97a86a	-0.29620677
35	0x40cd2de1	6.4118505
36	0x42284d26	42.07534
37	0xbf0c64e8	-0.5484147
38	0xbe177300	-0.14789963
39	0xbe4fc12c	-0.20288533
40	0x3dfcbe96	0.12341039
41	0x42897832	68.73476
42	0xbe788f97	-0.24273525
43	0x40f51e09	7.6599164
44	0x40685671	3.630276
45	0xbed332e6	-0.4124977
46	0x42410078	48.250458
47	0x428460c2	66.18898
48	0x428574c5	66.728065
49	0x3f9b463a	1.2130806
50	0xbd75bba6	-0.05999341
51	0x422b5450	42.832336
52	0x41b3163b	22.385855
53	0xbf0524c6	-0.52009237
54	0x4271a514	60.41121
55	0xbe287eb6	-0.16454586
56	0xbeb7ca7e	-0.35896677
57	0x41abc465	21.470896
58	0x41d80889	27.004168
59	0xbe647839	-0.22311486
60	0xbd688683	-0.056768905
61	0x42123524	36.551895
62	0x42a2bb3e	81.36571
63	0x3fe8bb6d	1.8182198
64	0xbda395ec	-0.0798758
65	0x3d3e1404	0.046405807
66	0x42731feb	60.78117
67	0x428fcf47	71.90484
68	0xbe7dc311	-0.24781443
69	0xbc4c8bf0	-0.012484536
70	0x40adb59e	5.42842
71	0x3c166389	0.0091790045
72	0x3bf888d3	0.00758467
73	0xbdff88ab	-0.12477239
74	0x428d585a	70.67256
75	0xbe6f4983	-0.23367886
76	0x408baaa8	4.364582
77	0xbe81e309	-0.25368527
78	0x3f444d91	0.76680857
79	0x41367c1d	11.405301
80	0x3e5aa207	0.21350871
81	0x3e25d11a	0.16193047
82	0x4265edc3	57.48219
83	0x3ededa18	0.43525767
84	0xbe009f9c	-0.12560886
85	0xbd0e4661	-0.034735087
86	0x405e7388	3.4758015
87	0x3ed63379	0.41836146
88	0x4227584b	41.836224
89	0x41e3b4be	28.463253
90	0x3fe8cf66	1.8188293
91	0x401f7cae	2.4919848
92	0x42023bd5	32.55843
93	0x414443aa	12.26652
94	0x40e754f4	7.2291203
95	0x40b20d46	5.5641203
96	0xbe39eb26	-0.18156108
97	0x41232113	10.195575
98	0x42690863	58.25819
99	0x3eb45cea	0.35227138
100	0xbe21da6d	-0.15805979
101	0x42ac4fd3	86.15591
102	0x41810016	16.125042
103	0xbe121a40	-0.14267826
104	0x4204ee4c	33.23271
105	0x420f33da	35.800636
106	0x42c6955b	99.29171
107	0x4058ada5	3.3855984
108	0x3fff8463	1.9962276
109	0x3ee2e438	0.44314742
110	0x426f5e08	59.841827
111	0x42237a77	40.869595
112	0xbdad8daf	-0.084742896
113	0xbe054e50	-0.13018155
114	0x42b2697d	89.20603
115	0x4105dbd5	8.36617
116	0xbdcb4f0a	-0.09927185
117	0xbe976f02	-0.2957688
118	0xbdf86a11	-0.121296056
119	0xbdf43398	-0.11923903
120	0x3f27b3ae	0.65508544
121	0x3f74a703	0.9556734
122	0x4117ef55	9.495931
123	0xbec09691	-0.37614873
124	0x3f881287	1.0630654
125	0x3f636a6a	0.8883425
126	0x4248291a	50.04014
127	0x411e6b9b	9.901271
128	0xbe391949	-0.18076052
129	0x424c34bf	51.05151
130	0x424617b4	49.523148
131	0x428cf823	70.48464
132	0x3f8bc665	1.091992
133	0x415fa120	13.976837
134	0xbe7cd28e	-0.24689695
135	0x4284ca79	66.395454
136	0x4019545a	2.3957734
137	0x4186840d	16.814478
138	0x410125f5	8.071767
139	0x418d0b00	17.630371
140	0x3e4da696	0.20083079
141	0xbe100388	-0.14063847
142	0x4056ec91	3.3581889
143	0x41752ca0	15.323395
144	0x4269ac40	58.418213
145	0xbe30184e	-0.17196772
146	0x3d8f7dce	0.07006417
147	0x409ef2ce	4.9671392
148	0xbe86e411	-0.26345876
149	0x42801e40	64.05908
150	0x41ebdca8	29.482742
151	0x3e375337	0.17902838
152	0x40eddd80	7.4332886
153	0x415acb96	13.674704
154	0xbe4cf2c0	-0.20014477
155	0x3eb5c9f5	0.35505643
156	0x3f6e2f5e	0.93041027
157	0x3ecfc4c0	0.40579796
158	0x4140a756	12.0408535
159	0x3dfa3171	0.122164614
160	0xbe364e75	-0.17803366
161	0xbd71f405	-0.059070606
162	0xbe17f691	-0.14840151
163	0xbd423fe9	-0.04742423
164	0x423b932d	46.893726
165	0xbbea085c	-0.00714211
166	0xbe14a87e	-0.145174
167	0xbe8c54f6	-0.2740857
168	0xbd5d92cd	-0.05409508
169	0xbd8786ff	-0.06617545
170	0xbd8fae6e	-0.07015692
171	0xbd216703	-0.03940488
172	0xbe866cfb	-0.2625502
173	0x426d1366	59.268944
174	0xbdcf91a7	-0.10135203
175	0xbe09c0a4	-0.13452393
176	0xbe9916d7	-0.29900238
177	0xbec0ab1f	-0.37630555
178	0x3fdfcba9	1.7484027
179	0x41c4b73c	24.58947
180	0x3f91194a	1.1335843
181	0xbdc5819a	-0.0964386
182	0x3fb4e8f7	1.4133595
183	0x40096d97	2.1473138
184	0xbe3fc03c	-0.18725675
185	0x4052004b	3.281268
186	0x427273ca	60.613075
187	0xbee3f60f	-0.44523665
188	0xbae70cd2	-0.0017627722
189	0x402d127f	2.704254
190	0x42c3cd7b	97.90133
191	0xbe2b96e3	-0.16756777
192	0x3e14b317	0.14521442
193	0x42294133	42.31367
194	0x41a8a075	21.078348
195	0x3df29d17	0.11846369
196	0xbe0d1c01	-0.13780214
197	0x41d08d07	26.068861
198	0xbd85d5f1	-0.06534947
199	0x3cef85ac	0.029238544
200	0xbdd4e165	-0.10394553
201	0x4230a997	44.165615
202	0x3ff90c7a	1.9456933
203	0x3e9e7569	0.30948952
204	0x3fc3cad3	1.5296272
205	0x3f347ddd	0.7050455
206	0xbeaffa19	-0.34370497
207	0x3fc1529f	1.5103339
208	0x4252edf0	52.73236
209	0xbe0526a7	-0.13003026
210	0x40085f1b	2.1308048
211	0xbe24f357	-0.16108452
212	0x3feffc37	1.8748845
213	0x42b5c128	90.87726
214	0x408f3185	4.474795
215	0xbd92f52e	-0.071756706
216	0x42b60efa	91.02925
217	0xbe20546a	-0.15657201
218	0x3f6934d8	0.9109626
219	0xbec4e9d0	-0.38459635
220	0x40d83e88	6.757633
221	0x3f81173d	1.0085217
222	0xbe4971e3	-0.1967235
223	0x4256c42b	53.69157
224	0x41e72b44	28.896126
225	0xbe360738	-0.17776191
226	0xbdd9364d	-0.1060606
227	0x3f9219db	1.141414
228	0x414b19ef	12.693831
229	0xbe09f99e	-0.13474128
230	0x429332a3	73.5989
231	0x3e8d7389	0.2762721
232	0x401adf52	2.4198804
233	0xbe699a37	-0.22812735
234	0xbd97e690	-0.07417023
235	0xbe832f36	-0.25621957
236	0x42761ede	61.530144
237	0x41806c30	16.052826
238	0xbe28f96a	-0.16501394
239	0x3e29198a	0.16513649
240	0x42b59078	90.782166
241	0x41027653	8.153888
242	0x4007cdd3	2.1219375
243	0x41041997	8.2562475
244	0x41b4704f	22.554838
245	0xbd066a15	-0.03281601
246	0x3fdafb36	1.7107913
247	0x3dad5fdd	0.0846555
248	0xbea58390	-0.32326937
249	0xbe51d86c	-0.20492715
250	0x4002b757	2.0424402
251	0xbe3d7fb8	-0.18505752
252	0x3ea91e0a	0.3303073
253	0x3ea0b829	0.31390503
254	0xbc510020	-0.012756377
255	0xbd92f752	-0.07176079

layer2.6.weight f4 [1, 256]
0	0x3d2ebfd9	0.04266343
1	0xbcc33256	-0.023827713
2	0xbcc141a3	-0.023590868
3	0x3c16723b	0.009182508
4	0x3d7b30f3	0.06132598
5	0xbdf60b42	-0.12013866
6	0x3d84ab36	0.064779684
7	0xbbbaefed	-0.005704871
8	0x3cf2b345	0.029626498
9	0x3eefe2f1	0.4685283
10	0x3dae946e	0.085244045
11	0xbc902d38	-0.017599687
12	0xbc5e0398	-0.0135506615
13	0x3bd5db0f	0.006526358
14	0xbceaa0c4	-0.028641112
15	0x3b9b7e00	0.004745245
16	0x3bbd8422	0.0057835737
17	0x3c4f4cee	0.012652619
18	0xbc852039	-0.016250717
19	0x3c97e883	0.018543487
20	0xbbbd0aba	-0.005769101
21	0x3c750124	0.014953885
22	0xbce2fbee	-0.02770802
23	0x3cbcd9d9	0.023053097
24	0x3c3e2ddd	0.011607614
25	0x3bd228bf	0.0064135487
26	0x3cf0b4b0	0.029383034
27	0x3cfd04ca	0.030886073
28	0x3bf774c0	0.0075517595
29	0x3be6024b	0.0070193163
30	0x3cb4fe6c	0.022093974
31	0x3bd5ffa3	0.0065307184
32	0xbc1834db	-0.0092899455
33	0x3cc50909	0.02405216
34	0x3cbc5d90	0.022993833
35	0xbca02dc4	-0.019553073
36	0x3d3accf0	0.0456056
37	0xbc55a2f1	-0.013039337
38	0xbbb30776	-0.005463536
39	0x397a7b49	0.00023887785
40	0xbba94bd9	-0.0051665124
41	0x3cfc3333	0.030786132
42	0xbd460d9a	-0.048352815
43	0x3ca0d4d3	0.019632732
44	0xbcb7acd3	-0.022421276
45	0x3cf37470	0.029718608
46	0x3e1e032f	0.15430902
47	0x3dcc0dc0	0.0996356
48	0x3dc01620	0.0937922
49	0xbc12a54a	-0.008950541
50	0xbc3b5734	-0.011434365
51	0x3da3fe62	0.08007504
52	0xbd71e047	-0.05905178
53	0x3b974bfe	0.0046172133
54	0x3d864b25	0.065573014
55	0xbcace3a0	-0.021104634
56	0xbccbc381	-0.024873497
57	0x3d587b00	0.052851677
58	0x408504a5	4.156817
59	0xbb2a242f	-0.0025961509
60	0x3b6a8c69	0.0035789257
61	0x3cb65ff6	0.022262555
62	0xbca898f9	-0.020580756
63	0xbcc5cb96	-0.024144929
64	0x3ceaa84a	0.0286447
65	0xbca24f6a	-0.019813258
66	0x3cab58d0	0.020916373
67	0x3d89cfd1	0.06729091
68	0xbcf8f2ea	-0.030389268
69	0x3c90fc62	0.01769847
70	0x3cf10848	0.029422894
71	0x3c4f85e7	0.012666202
72	0x3ce67f64	0.028136916
73	0x3ce8bd94	0.02841071
74	0x3dfbb320	0.12290025
75	0xbce0ef2a	-0.027457792
76	0x3cf6a47f	0.030107735
77	0x398f9abf	0.0002739038
78	0x3c555062	0.013019653
79	0xbbbc210d	-0.0057412446
80	0x3bdc61e2	0.0067255357
81	0xbc8b30f6	-0.01699112
82	0xbd83c526	-0.064340875
83	0xbaf5c9b6	-0.0018752131
84	0x3d172b1e	0.036906354
85	0x3ceef71a	0.029170562
86	0x3d872d4f	0.06600439
87	0x3cce4142	0.025177602
88	0xbc3bf13b	-0.011471088
89	0x3dedba01	0.11607743
90	0x3bcf6341	0.0063289707
91	0xbba75f11	-0.0051077683
92	0xbc9b8d62	-0.018988315
93	0x3c93eaed	0.018056357
94	0x3c153a46	0.009108132
95	0xbd610c13	-0.054943155
96	0xbc07ff03	-0.008300546
97	0xbc778121	-0.01510647
98	0x3d19709b	0.037460905
99	0x3c470f7e	0.01214969
100	0x3c6afe71	0.01434289
101	0x3ce753fe	0.028238293
102	0xbcbadbf5	-0.022809962
103	0xbbf43500	-0.007452607
104	0x3c8d13eb	0.017221412
105	0x3d05e48c	0.032688662
106	0x3c2c6e22	0.010524305
107	0x3b12f463	0.0022423498
108	0xbcc7d782	-0.024394754
109	0xbc8db866	-0.017299842
110	0x3dac44a6	0.08411531
111	0xba723032	-0.0009238749
112	0x3cc65d96	0.024214547
113	0x3c9aa12d	0.018875683
114	0x3e516c0d	0.20451374
115	0x3ca37438	0.019952878
116	0xbcddcdb8	-0.027075633
117	0xbc830fb1	-0.015998693
118	0xbc2ffa11	-0.010740773
119	0xbb9078f9	-0.0044089523
120	0x3d4d0656	0.05005487
121	0xbbc79ed8	-0.0060919337
122	0x3cabbf4c	0.02096524
123	0xbb9295c2	-0.004473419
124	0xbb65b57a	-0.0035050795
125	0x3ceb889e	0.028751668
126	0xb98da410	-0.00027015852
127	0x3cd9ab7a	0.026571024
128	0xbc920457	-0.017824335
129	0x3dc0ae47	0.09408241
130	0x3cf92079	0.030410992
131	0x3e05aeee	0.13055012
132	0xbaca5852	-0.0015437698
133	0x3c9ed62d	0.019389236
134	0xbcae6bbf	-0.021291612
135	0x3d8300c3	0.0639663
136	0xbc8190f7	-0.015816195
137	0x3c6afc7a	0.014342422
138	0x3c73c391	0.01487817
139	0x3cb4f6cb	0.022090336
140	0x3cd5425c	0.02603262
141	0xbc86b8d7	-0.01644556
142	0x3cf6a2a0	0.030106843
143	0x3da05712	0.07829107
144	0xba0ce11c	-0.000537412
145	0xbcbc5cbd	-0.02299344
146	0x3bf4b82a	0.007468243
147	0xbb921ecc	-0.0044592377
148	0x3b1a8b9e	0.0023581753
149	0x3d98743d	0.07444046
150	0xbd8ab178	-0.06772131
151	0x3c27e09f	0.010246425
152	0x3ceca06c	0.028885089
153	0x3cea6093	0.028610503
154	0xbc0aae01	-0.008464337
155	0xbce8eeec	-0.02843424
156	0x3c19562b	0.009358923
157	0x3cdd42d1	0.0270094
158	0xba78753f	-0.000947792
159	0xbc99a8df	-0.018757282
160	0x3bdb3eed	0.006690851
161	0x3ba11fa9	0.0049171043
162	0xbba00ce8	-0.004884351
163	0x3c5bcaa5	0.013415013
164	0xbc72adf7	-0.014811984
165	0xbc8776b6	-0.016536098
166	0xbcfcf7de	-0.030879911
167	0x3b951010	0.004549034
168	0xbbab7f5a	-0.0052336873
169	0xbcfc42f4	-0.030793644
170	0xbce1f6b5	-0.02758346
171	0xbc9a6d2b	-0.018850883
172	0x3cc470f1	0.023979636
173	0x3df6b9a1	0.12047125
174	0x3ba13e60	0.0049207658
175	0xbc8b6c21	-0.017019333
176	0x3c9b5cce	0.018965151
177	0xbc21995c	-0.009863224
178	0x3c15a5b7	0.009133748
179	0xbc97f6da	-0.018550325
180	0x3ceace17	0.028662724
181	0x3cce8d89	0.025213974
182	0xbc960fbc	-0.01831805
183	0x3b5a9a39	0.0033356084
184	0x3b07f555	0.0020745595
185	0x3d434c52	0.047680207
186	0xbb62f33e	-0.0034629847
187	0xbd48ebc9	-0.049052987
188	0x3cb7cb8f	0.022435931
189	0xbc427017	-0.011867545
190	0x3ae8fdca	0.001777583
191	0x3c082fc4	0.008312169
192	0xbcd347d8	-0.025791094
193	0x3e030b59	0.12797298
194	0x3d9188bd	0.07106159
195	0xbb9a1fdb	-0.0047035045
196	0x3c1d3ddd	0.009597269
197	0x3d922957	0.07136791
198	0x3ce39353	0.02778021
199	0xbbbdbee9	-0.0057905805
200	0xbcc35dc0	-0.023848414
201	0x3f22acec	0.6354511
202	0xbcb9ba28	-0.022671774
203	0x3c92a44d	0.01790061
204	0xbc9b80cc	-0.018982314
205	0x3b8bd867	0.0042677405
206	0x3ca4e21d	0.02012735
207	0xbcc96d41	-0.02458823
208	0x3cc2b906	0.023769867
209	0xbd0b7581	-0.034047607
210	0x3c2161ea	0.009850005
211	0xbc51107c	-0.012760278
212	0xbc51bea5	-0.012801801
213	0x3d45176a	0.048118033
214	0xbcbcec47	-0.023061885
215	0xbc4f5fa4	-0.01265708
216	0x3bce9cda	0.0063053193
217	0xbcde6ad6	-0.027150553
218	0x3c735f0a	0.014854202
219	0xbd3277d3	-0.043571305
220	0x3e0597d4	0.13046199
221	0x3cd2f2e5	0.025750587
222	0xbb5a730f	-0.003333274
223	0x3e1e40f4	0.15454465
224	0xbda885f9	-0.08228678
225	0xbcad8e81	-0.021186115
226	0xbceac9f4	-0.028660752
227	0xbcf18c5f	-0.02948588
228	0xbbc2f525	-0.0059496337
229	0x3ce38437	0.027773006
230	0x3ccc6763	0.024951642
231	0x3b979317	0.004625689
232	0xbd0231fd	-0.031785954
233	0xbcab96d8	-0.020945951
234	0x3cc5074e	0.024051335
235	0x3c49dcda	0.0123207215
236	0x3d6ecb1c	0.05829917
237	0x3ddc222c	0.10748705
238	0xbc20fff1	-0.009826646
239	0x3bebdef0	0.007198207
240	0x3dff9cad	0.124810554
241	0x3cfcc59b	0.030855944
242	0xbc1b0ca9	-0.009463468
243	0x3e26f54d	0.16304512
244	0x3dc5351f	0.09629273
245	0x3c832741	0.016009929
246	0xbcf5e491	-0.030016216
247	0x3cc446c0	0.023959517
248	0x3b52ac57	0.003214618
249	0x3c08767a	0.008329028
250	0xbc3ceaa0	-0.011530548
251	0x3babf8bb	0.005248157
252	0x3c3c14e1	0.011479587
253	0xbcf22b13	-0.029561555
254	0x3a5db7df	0.000845788
255	0xbcdc63da	-0.026903082
