Saved_data_files/bpi/lr_all_variants/weighted/TimestampPredictor_parameters_weighted_1e-05.pt (torch, 274447 bytes, 7 tensors)

layer1.weight f4 [4, 1]
0	0x3c9d3768	0.019191459
1	0x3ca2c8ad	0.01987108
2	0xbfb5b031	-1.4194394
3	0xc06b0bd0	-3.672596

layer1.bias f4 [6]
0	0xc02bf27a	-2.6866746
1	0xc04b2cb3	-3.1746032
2	0xc02ee61d	-2.732795
3	0xc09b014d	-4.843909
4	0xc0703e2b	-3.7537944
5	0xc077999b	-3.8687503

layer2.1.weight f4 [256, 6]
0	0xbe0c15e4	-0.13680226
1	0xbd2dce10	-0.042432845
2	0xbebee8c7	-0.3728697
3	0x3eb7a07c	0.35864627
4	0x3e7a2874	0.24429494
5	0xbe94184a	-0.2892478
6	0xba197fd1	-0.0005855533
7	0xba7a8532	-0.0009556591
8	0x3e684725	0.2268339
9	0x3d5f63c0	0.05453849
10	0x3efc4ae3	0.49275884
11	0x3e1cf0cc	0.15326232
12	0x3ebadd24	0.36496842
13	0xbef7d32c	-0.484033
14	0x3ddaf345	0.10690931
15	0x3e1d8a83	0.1538487
16	0xbe5b4435	-0.21412738
17	0xbe9cd0fc	-0.30628192
18	0xbec625fb	-0.38700852
19	0x3ea9cc82	0.3316384
20	0xbec87101	-0.39148715
21	0x3e954c18	0.29159617
22	0xbc972e4e	-0.018454697
23	0x3e3a89dd	0.18216653
24	0x3ed73a93	0.42036876
25	0xbe8db7e2	-0.27679354
26	0xbed5f4e8	-0.4178841
27	0xbd1e85ca	-0.03870181
28	0xbde13230	-0.10995901
29	0x3e91bf98	0.28466487
30	0x3e89e9b7	0.26936123
31	0x3ea59956	0.3234355
32	0xbebe9d54	-0.37229407
33	0xbd1dd92a	-0.038537182
34	0x3e5ed3a1	0.21760418
35	0x3c1a3f44	0.009414498
36	0xbe3c712f	-0.18402551
37	0xbf0ea753	-0.55724066
38	0xbde571c7	-0.11203342
39	0xbe50180c	-0.20321673
40	0xbe740535	-0.23830111
41	0x3debf777	0.115218095
42	0xbeb2f93a	-0.3495577
43	0x3ea8ea47	0.3299124
44	0xbe77e88b	-0.24209802
45	0xbeb9b215	-0.36268678
46	0xbdf5279a	-0.11970444
47	0xbd800145	-0.06250242
48	0x3d6adec0	0.057341337
49	0xbd010996	-0.031503282
50	0xbe0c09e5	-0.1367565
51	0xbe1f8bfe	-0.15580747
52	0xbe726ed8	-0.23675096
53	0x3ed87c4c	0.4228233
54	0x3aa02eb2	0.0012220948
55	0xbe76192d	-0.24033041
56	0x3e368a26	0.17826137
57	0xbddece86	-0.10879235
58	0x3ee3c3c1	0.44485286
59	0x3eb0edad	0.34556332
60	0xbec75259	-0.38930014
61	0x3d1f08fb	0.038826924
62	0x3d500ccc	0.050793454
63	0x3c570aa9	0.0131251
64	0xbeb30eea	-0.34972316
65	0xbeca9e50	-0.39573908
66	0xbe60d67b	-0.21956818
67	0x3ef3bb80	0.4760399
68	0x3d3ed754	0.04659207
69	0xbdb61627	-0.08890944
70	0xbe90b81b	-0.2826546
71	0xbebde47f	-0.3708839
72	0xbd2357c2	-0.039878614
73	0x3e9fc325	0.3120357
74	0xbde0e346	-0.10980849
75	0x3ec023ce	0.37527317
76	0x3ea2a8ab	0.31769308
77	0x3d3e9803	0.04653169
78	0x3d3c8597	0.04602584
79	0x3ecb6fde	0.39733785
80	0x3e54e52a	0.20790544
81	0xbea258a2	-0.31708246
82	0x3d9e71fa	0.07736583
83	0xbe38fd9a	-0.18065491
84	0x3e9c9f8f	0.30590484
85	0x3de2be94	0.11071506
86	0xbe1de4a0	-0.15419245
87	0x3e945172	0.28968388
88	0xbe95ccf4	-0.2925793
89	0x3ea47ffc	0.32128894
90	0xbe957e3d	-0.29197875
91	0xbcd81d32	-0.026381109
92	0xbd4329a1	-0.047647122
93	0xbe13ed20	-0.14445925
94	0x3e7e6ef3	0.24847011
95	0x3e06375f	0.1310706
96	0x3ebdded9	0.37084082
97	0x3e585f12	0.21130016
98	0xbecbdd54	-0.39817297
99	0x3df854ac	0.12125525
100	0xbe921c67	-0.28537294
101	0xbc5861cb	-0.013206909
102	0x3eb4eb2e	0.35335678
103	0xbead953e	-0.33902925
104	0x3e4fb6b2	0.20284536
105	0x3e06522e	0.13117287
106	0xbe909a77	-0.28242847
107	0x3e3e03f4	0.18556195
108	0x3e9fc530	0.3120513
109	0x3e5eef2a	0.21770921
110	0xbe5b4736	-0.21413884
111	0xbd8ba9eb	-0.06819519
112	0x3d040387	0.032229926
113	0x3ea3245b	0.31863675
114	0x3d0ebb73	0.034846734
115	0x3e4812bb	0.19538395
116	0x3e27bebd	0.16381355
117	0x3e900ab4	0.28133166
118	0xbe5b4125	-0.2141157
119	0xbd6000de	-0.054688327
120	0x3db13559	0.086527534
121	0x3eb9bc01	0.36276248
122	0x3e500232	0.20313337
123	0xbe9a5748	-0.30144715
124	0xbe4df763	-0.20113902
125	0x3e11e307	0.1424676
126	0xbecf3886	-0.4047281
127	0xbe3e020f	-0.18555473
128	0x3da1358d	0.07871542
129	0xbece6487	-0.4031107
130	0xbe1ae159	-0.15125026
131	0x3c9d0f8d	0.019172454
132	0xbe9ca5c6	-0.30595225
133	0x3ecaa6a2	0.39580256
134	0xbeb0dc51	-0.34543088
135	0x3ece130f	0.40248916
136	0x3e7dbe53	0.24779634
137	0x3e8bdcd1	0.27316907
138	0x3e83c6b5	0.2573754
139	0xbec4c274	-0.38429606
140	0xbe475c76	-0.19468865
141	0x3e94ae20	0.29039097
142	0x3ccd624f	0.025071291
143	0xbde07e7e	-0.109616265
144	0x3a9f2b86	0.0012143708
145	0xbf0595a3	-0.5218145
146	0xbecb33c3	-0.3968793
147	0xbe908fe5	-0.28234783
148	0xbdf55229	-0.119785614
149	0x3daacaee	0.08339487
150	0x3a93e2cc	0.0011282801
151	0xbeb7ce4c	-0.3589958
152	0x3e8dd190	0.27698946
153	0x3ecf1750	0.40447474
154	0x3ed318ca	0.4122985
155	0x3ec9fe75	0.39451948
156	0x3dcedaa7	0.101002984
157	0xbd1d38a0	-0.03838408
158	0x3e1b9471	0.15193345
159	0xbe188ba8	-0.14897025
160	0xbe12877d	-0.14309497
161	0x3e3d3771	0.1847818
162	0x3a76c5d7	0.00094136357
163	0xbe7ff43c	-0.24995512
164	0xbad92c10	-0.0016568918
165	0x3ebca459	0.36844137
166	0x3f02307a	0.5085522
167	0x3ec18ca8	0.37802625
168	0xbd892620	-0.06696725
169	0xbe09f9bb	-0.13474171
170	0xbe926f33	-0.28600463
171	0x3e3db952	0.18527725
172	0xbeb6668c	-0.35625112
173	0x3ec510c0	0.38489342
174	0x3e659056	0.22418341
175	0xbf358f75	-0.70922023
176	0xbd138c60	-0.036022544
177	0xbe021aa2	-0.12705472
178	0xbe3e016b	-0.18555228
179	0xbdb28e78	-0.0871858
180	0x3ed22759	0.41045645
181	0x3e51b313	0.20478468
182	0x3eb08c5e	0.34482092
183	0xbeac9377	-0.33706257
184	0xbeb34992	-0.35017067
185	0xbe9c7500	-0.30558014
186	0xbeb67224	-0.35633957
187	0x3eb24940	0.3482151
188	0xbed4c549	-0.41556767
189	0xbe9fa7ec	-0.31182802
190	0xbd8de685	-0.06928734
191	0xbe32faf5	-0.17478545
192	0xbebb5223	-0.36586103
193	0x3ee00711	0.4375539
194	0xbebffae6	-0.37496108
195	0xbeba260b	-0.3635715
196	0x3c4589d3	0.012056786
197	0xbdf6d40d	-0.12052164
198	0x3e5a3b9a	0.21311799
199	0x3ebd515b	0.36976132
200	0x3ea74f0d	0.32677498
201	0xbdc40ae8	-0.09572393
202	0xbea68a49	-0.32527378
203	0x3e4c429a	0.19947281
204	0x3ec7b5a7	0.39005777
205	0x3e7b44d5	0.24537976
206	0xbdcc23af	-0.099677436
207	0xbebd4200	-0.36964417
208	0x3dd87106	0.105684325
209	0xbe6ea27e	-0.23304173
210	0xbe1ee977	-0.15518747
211	0x3edad75d	0.42742434
212	0xbe9d466f	-0.307178
213	0xbe9ca55d	-0.30594912
214	0x3e1bfa79	0.15232266
215	0xbea0548e	-0.3131451
216	0x3e0686ad	0.13137312
217	0x3eafbf72	0.3432575
218	0x3e642cad	0.22282667
219	0x3d450d07	0.048108127
220	0xbd10f26a	-0.035387434
221	0x3efc6e22	0.49302775
222	0x3e48e960	0.19620275
223	0xbe7f6f4d	-0.24944802
224	0x3db4b5f1	0.08823765
225	0xbe68ac6f	-0.22722028
226	0xbe80c8e1	-0.25153258
227	0xbebb2a9d	-0.3655595
228	0x3b1e278a	0.0024132454
229	0xbf239566	-0.6389984
230	0xbe58bbe2	-0.21165422
231	0xbe10de8a	-0.14147392
232	0x39ba29b7	0.00035507765
233	0x3e907c74	0.2821995
234	0xbed86b65	-0.42269436
235	0xbe242cbe	-0.16032693
236	0xbdea8e3a	-0.11452909
237	0x3e8909e7	0.26765367
238	0x3e9777e1	0.29583648
239	0xbe65a2c1	-0.22425367
240	0xbe804bfc	-0.2505797
241	0xbf1a2d7d	-0.6022566
242	0x3dbeea97	0.09322088
243	0xbee01ec7	-0.4377348
244	0xbd49ec43	-0.049297582
245	0x3e50235b	0.20325987
246	0x3d9d77cb	0.07688864
247	0xbdc644d0	-0.09681094
248	0xbe8281ee	-0.25489753
249	0x3e8161fb	0.25270066
250	0x3ebe7c56	0.37204236
251	0xbdc33543	-0.09531643
252	0xbe1c5b4a	-0.15269199
253	0xbe1b82a7	-0.15186559
254	0x3efc06d3	0.49223956
255	0xbc862059	-0.016372846

layer2.1.bias f4 [256]
0	0x400b3d08	2.1756
1	0xc02f7d81	-2.7420352
2	0x40e975fe	7.2956533
3	0x405401ca	3.3126092
4	0x40ffe140	7.9962463
5	0x4086f073	4.2168517
6	0x3f8fa6c0	1.1222763
7	0x40e68dc8	7.2048073
8	0xbf5e3100	-0.8679352
9	0xbfd94c04	-1.6976323
10	0xc070e8bc	-3.764205
11	0xbe632b28	-0.22184432
12	0xbe2d6fcf	-0.16937183
13	0x3fa56e73	1.2924331
14	0x3fb1757e	1.3863981
15	0x40e400c7	7.125095
16	0x403eca52	2.9810987
17	0x40b067d6	5.5126753
18	0x3fefc304	1.8731389
19	0xc0574ac9	-3.3639395
20	0x40d88504	6.7662373
21	0xc03d5695	-2.9584095
22	0xc00afd27	-2.1717012
23	0x40fb2fa8	7.8495674
24	0xbf5085db	-0.8145425
25	0xc0909300	-4.5179443
26	0x4012ea7e	2.2955623
27	0xc05e7b5b	-3.476279
28	0x407589c0	3.8365326
29	0x41235ede	10.210661
30	0x40bacafe	5.8372793
31	0x40c8c5cc	6.274145
32	0x40537d82	3.3045354
33	0x408c05b8	4.375698
34	0x4048da18	3.1383114
35	0x4098723d	4.763945
36	0xc09e8add	-4.954451
37	0xc01d6ad4	-2.4596453
38	0x3ea0b6c8	0.3138945
39	0x40f74fe3	7.728502
40	0xc0248aa3	-2.5709617
41	0x4089b2c7	4.3030734
42	0xbf0f40bd	-0.5595816
43	0x40509299	3.2589476
44	0x40906022	4.511735
45	0x40915626	4.541766
46	0x40c8ee29	6.2790723
47	0xc099e27b	-4.8088965
48	0x40a61530	5.1900864
49	0x40ec8038	7.3906517
50	0xc06055a6	-3.5052276
51	0x40d9ad61	6.8024144
52	0x40cf46c8	6.4773903
53	0x411ccbb7	9.799735
54	0x40e97dd9	7.2966123
55	0x4100b699	8.0445795
56	0x400b26f1	2.1742518
57	0x40986d9b	4.7633796
58	0x3f112f55	0.5671285
59	0xbf544834	-0.82922673
60	0x411b2074	9.695423
61	0x41144784	9.26746
62	0x3f1aec4a	0.605168
63	0x40f280e3	7.5782332
64	0x4056863e	3.3519435
65	0x4107e86a	8.494242
66	0x40cd0bbe	6.4076834
67	0x40cc74ab	6.3892417
68	0x406c101a	3.6884828
69	0x40927413	4.576669
70	0x410bfa73	8.748645
71	0x40c97f60	6.2967987
72	0x4038d02d	2.887706
73	0xc05932e4	-3.393731
74	0x3f99244c	1.1964202
75	0xbf475b2e	-0.77873504
76	0x3fb8599a	1.4402344
77	0x4081fce9	4.062123
78	0x40c7f4eb	6.248647
79	0x4121aae3	10.10422
80	0x40c7466a	6.2273455
81	0x40cd3eec	6.413931
82	0xc0188052	-2.382832
83	0x3fa8dc01	1.319214
84	0xc06ff2c8	-3.7491932
85	0xc00dde02	-2.2166753
86	0x40d22364	6.56682
87	0x41207b74	10.03014
88	0xbfdc1972	-1.7195265
89	0x40c0b110	6.021614
90	0xc02738a1	-2.6128314
91	0x40434a9a	3.0514283
92	0x408e5f19	4.4491086
93	0xc01d0eb2	-2.454022
94	0x3eb81b85	0.35958496
95	0x4089bd5f	4.3043666
96	0x410ed097	8.925925
97	0x409923bb	4.7856116
98	0x3f343bc6	0.7040371
99	0x40c2e4bb	6.090421
100	0x40ec8fbe	7.3925467
101	0xc0b4dd5a	-5.6520205
102	0x411fe97f	9.994506
103	0xc085174b	-4.1590934
104	0x40e41bf6	7.128413
105	0x406e8e38	3.7274303
106	0xbfe6cb47	-1.8030785
107	0xc06accde	-3.668754
108	0xc0a04d86	-5.0094633
109	0x3f1061da	0.5639931
110	0x4080d817	4.026378
111	0xc0358565	-2.8362668
112	0x409ea9b3	4.958215
113	0x40d2a269	6.5823255
114	0xc07ba8a5	-3.9321682
115	0xc06d5040	-3.708023
116	0x3fd1f0dd	1.6401631
117	0xbdc4a548	-0.096018374
118	0xc0843ac0	-4.1321716
119	0x40cfd10b	6.494268
120	0xc06334ac	-3.5500898
121	0xc03b202c	-2.9238386
122	0xc0052d2e	-2.0808825
123	0x40b0cf6d	5.5253205
124	0x40d2d596	6.5885725
125	0xc0bad57c	-5.83856
126	0x40fadb28	7.8392525
127	0x410fc614	8.985859
128	0xc0908183	-4.5158095
129	0x40967c48	4.702671
130	0x40ed88e6	7.422961
131	0x40b587db	5.672834
132	0xc094492c	-4.633932
133	0x4048ce83	3.1376045
134	0x404c2f37	3.1903818
135	0xbf182a3a	-0.5943943
136	0x40c9761d	6.295668
137	0x3e718c17	0.23588596
138	0x3fd2bbbd	1.6463543
139	0x40f3a09d	7.613356
140	0xc03f19c7	-2.9859483
141	0xc0bc29d6	-5.880107
142	0x410d5919	8.834252
143	0xc04315e6	-3.0482116
144	0xc02b6de4	-2.6785822
145	0x3e25a796	0.1617721
146	0x3efbb8c6	0.49164408
147	0xbd3ed959	-0.046593998
148	0xc0688a66	-3.6334472
149	0x3f14e160	0.58156395
150	0xbdddc2b2	-0.10828151
151	0xc041f4c4	-3.0305643
152	0x40ee3404	7.4438496
153	0x40fe1507	7.940067
154	0xc052155a	-3.2825532
155	0x40cadc57	6.339397
156	0x40da842e	6.828635
157	0xc096244e	-4.6919317
158	0x3fb365a6	1.4015396
159	0x40e20cc5	7.064059
160	0x40a67128	5.201313
161	0xbe63a404	-0.22230536
162	0x40f9d372	7.807061
163	0x40476d2e	3.1160388
164	0x407a4aab	3.9108074
165	0x404be2e4	3.1857233
166	0x40ca6167	6.32439
167	0xbff34b75	-1.9007403
168	0x3fe6dd52	1.8036292
169	0x40d117b2	6.5341425
170	0x4085424a	4.164342
171	0x404c393d	3.1909935
172	0x40d59bf7	6.6752887
173	0xbf117bf9	-0.5682979
174	0xc0a2d5e4	-5.0886097
175	0x40a618b8	5.1905174
176	0x4092d08e	4.5879583
177	0x40f8e83f	7.7783504
178	0xc04f088b	-3.2348964
179	0xbf78c342	-0.9717294
180	0xc0173caf	-2.3630788
181	0x40760dbf	3.844589
182	0x40d277c0	6.577118
183	0x40dbd1f6	6.86938
184	0x410d4fc0	8.83197
185	0x3fc46235	1.534247
186	0xc084f3c5	-4.154757
187	0x3fe9d934	1.826941
188	0x40a9c22b	5.304952
189	0xc09adeed	-4.8397126
190	0x40f6d075	7.7129464
191	0x3ff955b1	1.9479276
192	0x40ce749e	6.4517355
193	0x3fa73994	1.3064446
194	0xc082a792	-4.0829554
195	0x40d0a4da	6.5201235
196	0x40e39f88	7.113224
197	0x40a4d441	5.15091
198	0xc080b434	-4.0219975
199	0xc01debf4	-2.4675264
200	0x40d036ef	6.5067058
201	0xc091c1cd	-4.5549073
202	0xc06bdd67	-3.6853883
203	0xc04f6d52	-3.2410474
204	0x3f515e6b	0.81784695
205	0x40843d67	4.1324954
206	0x4114f9e2	9.311007
207	0x408b3b05	4.3509545
208	0xbfdef929	-1.7419788
209	0x3e1e6154	0.15466815
210	0x40e37718	7.108288
211	0x4000dfec	2.013667
212	0x41070b6f	8.440291
213	0xc0ab7d19	-5.3590207
214	0x40d21522	6.5650797
215	0x40802f01	4.005738
216	0xc05115ee	-3.2669635
217	0x40cf52d7	6.4788623
218	0x408d281b	4.4111457
219	0xbfc65824	-1.5495648
220	0x40d91d15	6.7848
221	0x411d206d	9.820416
222	0x3fbf14cc	1.4928222
223	0x4106db09	8.428475
224	0xbf4bd76f	-0.796256
225	0x409a0bac	4.813925
226	0x3fcb40bc	1.587913
227	0xc05505da	-3.3284822
228	0x40d69675	6.7058663
229	0x4119ca3b	9.611873
230	0x40d3778a	6.608342
231	0xc03e789d	-2.9761117
232	0x40e5b42d	7.178244
233	0x41077adc	8.467495
234	0xc0119454	-2.2746782
235	0x40540a5b	3.313132
236	0x4111e1ac	9.117596
237	0x40a7833a	5.234769
238	0x40dd0849	6.9072614
239	0x3fabde16	1.342715
240	0x3fce192b	1.6101431
241	0x3f90c492	1.1309988
242	0x40398010	2.8984413
243	0x409b8ea7	4.8611636
244	0xbd83822b	-0.06421312
245	0xc070752d	-3.7571518
246	0x401377a8	2.3041782
247	0x40b0c97e	5.524596
248	0xbf818c4e	-1.0120943
249	0xc08582ce	-4.1722174
250	0xc07cd99b	-3.9507816
251	0xc034b2f6	-2.823423
252	0x40d69b36	6.7064466
253	0x409614cd	4.690039
254	0x40b367b6	5.60641
255	0xc06b9818	-3.681158

layer2.3.weight f4 [256, 256]
0	0x3d05e916	0.03269299
1	0xbdb4f78b	-0.088362776
2	0x3d9ae0eb	0.07562431
3	0x3b97f339	0.0046371487
4	0x3c7be42a	0.015374223
5	0x3c3bc833	0.011461305
6	0xbbc58586	-0.00602788
7	0x3d426245	0.047457
8	0xbc856c48	-0.016286984
9	0xbca9fc64	-0.020750232
10	0x3d25669e	0.040381067
11	0x3bf6dc3b	0.0075335777
12	0xbd14f259	-0.036363933
13	0xbbb20615	-0.005432854
14	0xbb2f670d	-0.0026764304
15	0x3d5ea7a6	0.0543591
16	0xbd4a72a8	-0.04942575
17	0x3c4f0fa9	0.012638011
18	0xbd278cd7	-0.0409058
19	0xbd44ca14	-0.04804428
20	0x3c13011e	0.008972434
21	0x3d37a282	0.044832714
22	0x3cb7a195	0.022415916
23	0x3d19a14d	0.037507344
24	0xbd039351	-0.032122914
25	0xbdc7a1d5	-0.09747664
26	0xbbd9f0f1	-0.006651037
27	0xbe0ef9a2	-0.13962415
28	0x3d174931	0.036935035
29	0xbb84f54f	-0.0040575634
30	0x3d11a0bc	0.03555368
31	0x3d5b82c3	0.0535915
32	0xbd20141a	-0.03908167
33	0xbc1e2b23	-0.009653839
34	0x3da0247e	0.0781946
35	0x3c32c9a5	0.010912334
36	0xbcaf91f6	-0.021431904
37	0x3ce1ea95	0.027577678
38	0x3d5b2662	0.0535034
39	0xbcc7e2cf	-0.024400143
40	0xba6b4a18	-0.00089755794
41	0xbc5c9ece	-0.013465596
42	0x3c904b31	0.017613979
43	0x3d11af4c	0.035567567
44	0xbcecaec0	-0.028891921
45	0xbce92dc7	-0.028464211
46	0x3d83ff5e	0.06445192
47	0xbd953b3a	-0.07286687
48	0x3c13d902	0.009023907
49	0xbcaaa232	-0.020829294
50	0xbdc7e077	-0.0975961
51	0xbc3ea735	-0.011636545
52	0xbc68dbea	-0.014212588
53	0x3d331f5d	0.043731082
54	0x3c393902	0.011305096
55	0xbbc6f527	-0.006071705
56	0xbca56959	-0.020191835
57	0x3d0c5558	0.034261078
58	0xbc9bfc04	-0.019041069
59	0xbdc5328b	-0.09628781
60	0xbc708341	-0.014679731
61	0x3dc72c9b	0.09725305
62	0x3d6be0cb	0.057587426
63	0x3d393c01	0.04522324
64	0xbd08e4c6	-0.0334213
65	0x390ff6d0	0.00013729488
66	0xbc7bb589	-0.015363106
67	0x3db13aec	0.086538166
68	0xbcdd7f87	-0.027038349
69	0x3d11bba0	0.035579324
70	0xbb4b35d2	-0.0031007421
71	0xbd0d151d	-0.034443963
72	0xbd6355a3	-0.05550159
73	0xbd920b40	-0.07131052
74	0xbd8004d1	-0.06250919
75	0xbbb3c0b1	-0.005485617
76	0xbcb8e560	-0.022570312
77	0xbd1ef19b	-0.03880463
78	0xbd05608a	-0.03256277
79	0x3db81716	0.08988778
80	0x3c2653fb	0.010151858
81	0x3d086866	0.033302687
82	0xbd8635f1	-0.06553257
83	0xbd3d39c2	-0.04619766
84	0x3da4c7b7	0.08045905
85	0xbd2120e4	-0.039338008
86	0xbd1e17d2	-0.038596936
87	0x3de9920c	0.11404809
88	0xbcb91562	-0.022593204
89	0x3b72418e	0.0036965343
90	0x3d4b903b	0.049698096
91	0xbc1f4cbd	-0.009722886
92	0x3d7d0707	0.06177428
93	0x3d5e4708	0.05426696
94	0x3d296664	0.041357413
95	0xbd13f5f9	-0.03612325
96	0x3d93136d	0.071814395
97	0x3ca01de1	0.019545497
98	0xbc10763f	-0.008817255
99	0xbb960fb6	-0.0045795096
100	0x3d98d2d7	0.074620895
101	0xbd155965	-0.036462206
102	0x3d86bd1e	0.0657904
103	0xbc9ac884	-0.018894441
104	0x3d6a3fc4	0.057189718
105	0x3d30fdf5	0.043210942
106	0xbd836374	-0.064154536
107	0xbc95f358	-0.018304512
108	0xbcb89e68	-0.022536471
109	0x3cdd54db	0.027018001
110	0xbd33cbfc	-0.043895707
111	0xbc136fd2	-0.008998828
112	0x3cfede5e	0.031111892
113	0xbd2be1ec	-0.041963503
114	0xbd434c6a	-0.047680296
115	0xbcd82ef3	-0.026389575
116	0x3c8c9f70	0.01716587
117	0x3cf43d50	0.029814392
118	0x3d42d939	0.04757044
119	0x3c0a8681	0.00845492
120	0x3aa7a285	0.0012789523
121	0xbd4b070e	-0.049567275
122	0x3ce52605	0.02797223
123	0xbd7a1b11	-0.06106097
124	0x3bb3a149	0.005481873
125	0xbe1b8d5a	-0.1519064
126	0x3cebbcfa	0.028776634
127	0x3cc6de16	0.02427582
128	0xbd6cbb33	-0.057795715
129	0x3d46a199	0.048493955
130	0xbab9205c	-0.0014124024
131	0xbd60fd12	-0.054928847
132	0xbd54ceb0	-0.051954925
133	0x3d6249b5	0.055246074
134	0x3cadfed6	0.02123968
135	0x3cc478bc	0.023983352
136	0x3d1ed681	0.038778786
137	0xbd330e99	-0.043715093
138	0xbd85c99b	-0.06532594
139	0xbaa9f3ee	-0.0012966373
140	0x3c41be31	0.01182513
141	0xbd820bc0	-0.063498974
142	0xbbbeee21	-0.005826727
143	0xbbb256ef	-0.005442492
144	0xbc5c5976	-0.0134490635
145	0xbb64da75	-0.003492025
146	0xbd39c9e4	-0.045358554
147	0xbd506877	-0.050880875
148	0x3d16bede	0.03680312
149	0xbd32fb2e	-0.043696575
150	0xbd10d69c	-0.035360917
151	0xbd7a0c70	-0.061047018
152	0xbd1c70eb	-0.038193624
153	0xbd0c164f	-0.034200963
154	0x3ca5c744	0.020236619
155	0xbc26ce68	-0.010181047
156	0x3db9ce58	0.0907256
157	0xbca53e4a	-0.020171303
158	0x3c796acd	0.015223217
159	0xbd362c61	-0.044475917
160	0xbd903a68	-0.0704239
161	0xbc3ac308	-0.011399038
162	0xbc97a7b9	-0.018512594
163	0x3d012695	0.031530935
164	0x3d9625c9	0.07331426
165	0xbcdca23f	-0.026932834
166	0x3d5d383b	0.054008704
167	0xbd78a1d6	-0.060701214
168	0xbd918506	-0.0710545
169	0xbd198999	-0.03748474
170	0xbcd11844	-0.025524266
171	0xbd13ba64	-0.036066428
172	0x3b2e036b	0.002655233
173	0x3dd06dbb	0.101771794
174	0xbd6f612c	-0.05844228
175	0x3ce75fee	0.028243985
176	0xbc87a095	-0.016556064
177	0xbb672c50	-0.0035274215
178	0x3d526925	0.051369805
179	0xbc7155cd	-0.014729929
180	0x3c0f543f	0.008748113
181	0x3c223503	0.009900334
182	0x3d417ab6	0.047236167
183	0x3d4e49f3	0.050363492
184	0xbd53deeb	-0.051726263
185	0xbca58899	-0.020206736
186	0x3c8e3705	0.01736022
187	0xbcbb89ce	-0.022892859
188	0xbd53438a	-0.051578082
189	0x3cb4583b	0.022014728
190	0xbc6d1474	-0.014470208
191	0xbd4dc29b	-0.05023442
192	0x3d13e7fd	0.036109913
193	0x3d29d735	0.041465003
194	0xbe553ab2	-0.20823172
195	0xbceb09ea	-0.02869125
196	0x3b8a6556	0.004223506
197	0x3a132c60	0.00056142174
198	0xbbf03ed2	-0.0073317075
199	0x3c8065df	0.015673576
200	0xbd030f98	-0.031997293
201	0xbda37ed6	-0.079831764
202	0x3c09b6d6	0.008405408
203	0x3d0cc88d	0.034370948
204	0xbd84f709	-0.06492431
205	0x3931fddd	0.00016974607
206	0x3d18a22f	0.037264045
207	0x3cf93a8a	0.030423421
208	0x3cdcc5f9	0.02694987
209	0xbd2f6df7	-0.04282948
210	0x3b76e510	0.0037673153
211	0x3cbaa46b	0.022783479
212	0xbc23eebc	-0.010005649
213	0xbd7e89a6	-0.06214299
214	0x3ca7f0fc	0.020500652
215	0x3d060387	0.032718208
216	0x3c8b120d	0.01697638
217	0x3ca540a8	0.020172432
218	0x3d8a1975	0.06743137
219	0x3d1d2227	0.03836265
220	0x3d1dbd32	0.03851051
221	0x3e50b17c	0.20380205
222	0xbca63d1c	-0.020292811
223	0x3c8d484c	0.017246388
224	0x3d066e1e	0.03281986
225	0x3c51a430	0.012795493
226	0x3c7544f9	0.014970058
227	0xbc87e206	-0.016587269
228	0x3c9d3fa1	0.01919538
229	0x3d9ad0b4	0.07559338
230	0xba127a4f	-0.00055876834
231	0xbd531c91	-0.051540915
232	0x3ba43b8e	0.0050119823
233	0x3c0d4f1b	0.008624817
234	0x3c19e125	0.009392058
235	0xbd1c1885	-0.03810932
236	0xbc977dd2	-0.018492613
237	0x3d4b0ac9	0.049570832
238	0x3ccb4a2d	0.024815643
239	0xbc2e8d7f	-0.0106538525
240	0xbd08c1fd	-0.033388127
241	0x3d513c88	0.051083118
242	0x3d042719	0.03226385
243	0xbca62558	-0.020281479
244	0x3dbac47e	0.09119509
245	0xbdb083b1	-0.08618868
246	0xbd2d78b9	-0.04235146
247	0x3d5f31b4	0.05449076
248	0x3db84cbd	0.08999012
249	0xbbe9a662	-0.00713043
250	0x3cff6bae	0.031179275
251	0xbda45ddd	-0.080257155
252	0xbd674b4e	-0.0564683
253	0x3abe12ac	0.0014501414
254	0x3cfae0e5	0.030624816
255	0xbd310793	-0.043220114

layer2.3.bias f4 [256]
0	0x40d297b2	6.5810175
1	0xc039465e	-2.8949199
2	0xbfc465ce	-1.5343568
3	0x40801dac	4.003622
4	0x40e20555	7.063151
5	0x40dea8e9	6.958119
6	0x40cc6908	6.387821
7	0xbf64db31	-0.8939696
8	0x40a396be	5.112151
9	0x40e3622a	7.105733
10	0x40d85bda	6.7612123
11	0xbe61bff3	-0.22045879
12	0xbcc3d0f2	-0.023903344
13	0xbee3801c	-0.44433677
14	0x40da6515	6.824839
15	0xbfa105d9	-1.257991
16	0x40df0b7f	6.9701533
17	0x3c879b85	0.01655365
18	0x40e1e141	7.058747
19	0x40df5974	6.9796696
20	0xc004efdd	-2.07714
21	0x40c4918f	6.1427684
22	0xbe6338ac	-0.22189587
23	0x40d8a17e	6.7697134
24	0x40ddb562	6.9283915
25	0x40dabc0c	6.835455
26	0x40e15dc7	7.0426974
27	0xbe126a73	-0.1429842
28	0xbe75458f	-0.23952316
29	0xbe0988b5	-0.13431056
30	0xbfad3aab	-1.3533529
31	0x3fb642e1	1.423916
32	0xbd1fa9e9	-0.0389804
33	0xbd168892	-0.036751337
34	0x40b6239c	5.691847
35	0x40be0089	5.9375653
36	0xbfce0e00	-1.6098022
37	0xbe64087d	-0.22268863
38	0x40df9e6e	6.9880896
39	0x40bd84df	5.9224696
40	0x40d5c143	6.6798415
41	0x40cd7913	6.4210296
42	0x3c5fa959	0.0136512155
43	0x40dad802	6.838868
44	0x40d7a1e5	6.7385125
45	0x40cc395c	6.382002
46	0x40d862e2	6.7620707
47	0xbfbe2057	-1.4853619
48	0x40dee1d9	6.9650693
49	0x40ddd84b	6.932653
50	0x40c94765	6.289965
51	0x3bb6dff7	0.005580898
52	0x40ca0149	6.312657
53	0x40e4a044	7.1445637
54	0xbd3005b6	-0.042974196
55	0x40d69057	6.7051196
56	0xbd065639	-0.032797072
57	0xbd95ba81	-0.073109634
58	0x40db0ffd	6.8457017
59	0xbdfc03aa	-0.12305386
60	0x40bd211c	5.9102917
61	0xbd579c52	-0.052639313
62	0x40b390ad	5.6114106
63	0xbf5e3163	-0.8679411
64	0x40c55152	6.166177
65	0xbd15e939	-0.03659937
66	0x40dee462	6.9653788
67	0xbfe275c8	-1.7692194
68	0x40d8747d	6.7642198
69	0xbdf76205	-0.120792426
70	0xbf4cef90	-0.80053043
71	0xbf00b4dd	-0.50275975
72	0x40c062b9	6.012051
73	0x40b9330f	5.7874827
74	0xc01f30c4	-2.4873514
75	0xbda4abb0	-0.08040559
76	0xbea9e5f3	-0.3318325
77	0xbefefd96	-0.49802846
78	0x40d97c04	6.7963886
79	0x40d30234	6.594019
80	0x40c86544	6.2623615
81	0xbdd7becf	-0.10534441
82	0xc01cdf29	-2.4511206
83	0x40b80ae8	5.7513313
84	0x40d77d6f	6.7340617
85	0x40dbcf82	6.8690805
86	0x40dac523	6.8365645
87	0xbcc6d88b	-0.024273178
88	0x3ce94096	0.02847318
89	0x40de7f84	6.953066
90	0x40d4ed95	6.6540017
91	0xbe1280b8	-0.14306915
92	0x40d7570c	6.729376
93	0x40e2cdc3	7.0876174
94	0xbd11d2dc	-0.03560148
95	0xbd1a55b4	-0.03767939
96	0x40db7f82	6.859315
97	0x40c74864	6.2275867
98	0x4091b0f0	4.552849
99	0xbdb4c5b8	-0.08826774
100	0x40dba690	6.8640823
101	0x40bcdfc2	5.902314
102	0xbfe0bccb	-1.7557615
103	0xbe46a313	-0.19398145
104	0x40a8088b	5.251043
105	0x40e232e9	7.0687146
106	0x40ceeadd	6.46617
107	0x40dca011	6.8945394
108	0x40de0e80	6.93927
109	0x40e44ddd	7.134505
110	0xbe1dc3c7	-0.15406714
111	0x40d95d4c	6.792639
112	0xbcfe0c44	-0.031011708
113	0xbd163452	-0.03667099
114	0x40d0911e	6.5177145
115	0x40d96266	6.7932615
116	0xbe9b9c76	-0.30392808
117	0xbc9930e6	-0.018700074
118	0x40ccea8e	6.403632
119	0x40d88d17	6.767223
120	0xbed9d35c	-0.42544067
121	0xbe0491b0	-0.129462
122	0xbefeaf68	-0.497432
123	0x40dc575b	6.8856635
124	0x40e24b59	7.0716977
125	0xbf45a812	-0.7720958
126	0x3cf011e7	0.029305412
127	0x40d7d544	6.7447834
128	0x40c66bf4	6.200678
129	0x40e4cc42	7.149934
130	0x40dde8c0	6.934662
131	0x40c55db6	6.1676893
132	0x40cf869f	6.4851832
133	0x40d7b8f1	6.741326
134	0x40dce571	6.903008
135	0xbd2d1879	-0.042259667
136	0x40d365dd	6.6061845
137	0x40dbb413	6.8657317
138	0x40b96842	5.793977
139	0x40b20a1f	5.5637355
140	0x40b9a691	5.801583
141	0x40cb2ee3	6.3494735
142	0x40c61145	6.189608
143	0x40dae525	6.8404717
144	0x40bd4f03	5.915895
145	0x407adb97	3.9196527
146	0x40da3b18	6.8197136
147	0x40d438c8	6.6319313
148	0xbd854125	-0.06506566
149	0x40e0f419	7.029797
150	0x40df24ef	6.9732585
151	0x40b7fc09	5.749516
152	0x3c96a4c0	0.018389106
153	0x3c3bd2a9	0.0114637995
154	0x40cec3a1	6.4613805
155	0x40ce3c44	6.4448566
156	0x40de7f60	6.9530487
157	0xbd04f033	-0.032455634
158	0xbe07e83a	-0.13272181
159	0xbcacd55b	-0.02109783
160	0xbdecc104	-0.11560252
161	0xbdfb878a	-0.122817114
162	0xbe5c906d	-0.21539469
163	0xbd9c13e9	-0.07620985
164	0x40d91d6c	6.7848415
165	0x40a524e2	5.1607523
166	0x40c422d0	6.1292496
167	0xbd6e381f	-0.05815899
168	0xbe6a6074	-0.22888356
169	0xbf18cd21	-0.59688
170	0x40dcd894	6.9014378
171	0x3c8d692a	0.01726206
172	0x40ca3019	6.3183713
173	0x402f8fc4	2.7431498
174	0x40d89a21	6.7688146
175	0x40d40c18	6.6264763
176	0x40db8419	6.859875
177	0x40c1ed69	6.0602307
178	0xbe3fbdf6	-0.18724808
179	0xbe13ece7	-0.1444584
180	0xbf08ff96	-0.53514993
181	0x40e02c31	7.0053945
182	0xbd4bdfd3	-0.049774002
183	0x40dd9257	6.9241138
184	0xbd92c107	-0.07165723
185	0x40dee030	6.9648666
186	0x40e54ef9	7.16589
187	0x40d769a4	6.7316456
188	0x40d7018d	6.7189393
189	0xbc47d463	-0.012196633
190	0xbfcfa80d	-1.622316
191	0x40dc0be0	6.8764496
192	0xbf24c507	-0.6436314
193	0x40d542ee	6.66442
194	0xbd9b229b	-0.0757496
195	0xbf243a4f	-0.6415147
196	0x40c8bb76	6.2728834
197	0x40dfeeb4	6.9978886
198	0xbdbddfa2	-0.0927117
199	0xbe50144b	-0.20320241
200	0xbc977046	-0.018486153
201	0x3cfa41cc	0.030548953
202	0x40dee35b	6.9652534
203	0x40d9f915	6.8116555
204	0xbe24116f	-0.16022275
205	0x40e2ea3d	7.0910935
206	0x40d2e632	6.5906
207	0x3f10fd0f	0.56636137
208	0x40c1eb83	6.059999
209	0x40c1b641	6.053498
210	0x40e1f1bb	7.060758
211	0x40dd8662	6.922654
212	0xbce7e12c	-0.028305613
213	0xbdfeaac5	-0.124349155
214	0xbe016430	-0.12635875
215	0x40d5ab71	6.677178
216	0xbdb82c73	-0.08992853
217	0x40d6599b	6.698438
218	0x40d7cc50	6.7436905
219	0xbb9f7af0	-0.00486695
220	0xc01514df	-2.3293989
221	0x40de028c	6.937811
222	0xbce8b637	-0.0284072
223	0x40db91b1	6.8615346
224	0x40dcad28	6.896137
225	0x40d06213	6.511972
226	0xbfbfc789	-1.4982768
227	0xbf907bc4	-1.128777
228	0x40e1dc94	7.058176
229	0x3c886245	0.016648421
230	0x40e0a603	7.020265
231	0xbff353e6	-1.9009979
232	0xbdeb7c51	-0.11498321
233	0x40df3ea9	6.976399
234	0xbe04a728	-0.1295439
235	0xbe1c11da	-0.15241185
236	0x40d4fbea	6.655751
237	0x40cee283	6.4651504
238	0x40ac86f0	5.391472
239	0xbc7d3583	-0.015454653
240	0x40d5ca2d	6.6809297
241	0xbe9123ff	-0.28347775
242	0xbe0609f0	-0.13089728
243	0x40dbe67f	6.8718867
244	0x40cfaada	6.489606
245	0x40d40eb3	6.6267943
246	0x40a94014	5.289072
247	0x40df1e18	6.9724236
248	0x40dfd2cf	6.9944835
249	0xbf8ca7ef	-1.0988749
250	0x40e285cf	7.078834
251	0xbdb8ffaf	-0.09033143
252	0xbd1f7e00	-0.038938522
253	0xc013e6ee	-2.3109698
254	0xbd33f44c	-0.04393415
255	0xbd539f39	-0.05166552

layer2.6.weight f4 [1, 256]
0	0x3d9acf81	0.075591095
1	0xbdaf22ad	-0.08551536
2	0xbdf81697	-0.12113684
3	0x3c0a1e88	0.008430131
4	0x3c24564a	0.010030339
5	0x3b80aef5	0.0039271065
6	0x3c57a18c	0.013161074
7	0xbd9a5490	-0.0753566
8	0x3c230871	0.009950743
9	0x3c112953	0.00885995
10	0x3cb17dfb	0.021666517
11	0xbc28950e	-0.010289444
12	0xbd06332b	-0.03276364
13	0xbd061532	-0.032735057
14	0x3be4130a	0.0069602774
15	0xbd8f88d4	-0.0700852
16	0x3c816a96	0.015797894
17	0xbd2dd408	-0.042438537
18	0x3c2ad2b7	0.010426215
19	0x3d322747	0.04349449
20	0xbdb84f24	-0.0899947
21	0x3d7abda4	0.06121601
22	0xbcc2bb49	-0.023770945
23	0x3c180f37	0.009280971
24	0x3c1e2fac	0.009654921
25	0x3b9e3ec5	0.00482926
26	0x3d42fd33	0.04760475
27	0xbd005344	-0.03132941
28	0xbba762f2	-0.0051082307
29	0xbcfef9d2	-0.031124983
30	0xbd723521	-0.0591327
31	0x3cb8d285	0.022561321
32	0xbcf3fa1d	-0.02978235
33	0xbbf36bc6	-0.007428619
34	0x3d2f7d9f	0.04284441
35	0x3bc96900	0.00614655
36	0xbe25e9ce	-0.1620247
37	0xbbf9c5a1	-0.007622436
38	0x3d04832d	0.03235166
39	0x3c4af12d	0.012386602
40	0x3c7d655b	0.01546606
41	0x3d2cf5cf	0.04222661
42	0xbd56a3fa	-0.052402474
43	0x3cbc5b9a	0.022992898
44	0x3c2b0a6c	0.0104394965
45	0x3c2777af	0.010221406
46	0x3bf77217	0.0075514424
47	0xbdb3aa44	-0.0877271
48	0x3bcbc053	0.006217995
49	0x3c1aa5ff	0.009438991
50	0x3c852e20	0.016257346
51	0xbd17dd57	-0.03707632
52	0x3c761b8a	0.015021214
53	0x3bba588b	0.0056868247
54	0xbd3aaa51	-0.045572583
55	0x3d15ddc4	0.036588445
56	0xbd03781d	-0.03209697
57	0xbc89a2fb	-0.016801348
58	0x3d11eb1f	0.03562462
59	0xbc8c705e	-0.017143425
60	0x3d5edf07	0.054411914
61	0xbd4f2b84	-0.05057861
62	0x3c22df8e	0.009940995
63	0xbbaddc71	-0.0053058197
64	0x3c58906b	0.013218026
65	0xbd63d314	-0.05562122
66	0x3babb2ac	0.005239805
67	0xbd9316e6	-0.07182102
68	0x3c983ac4	0.01858271
69	0xbb13ae91	-0.002253447
70	0xbd06837b	-0.032840233
71	0xbd2ce0a0	-0.042206407
72	0x3bc34c92	0.0059600556
73	0x3d0cc219	0.034364793
74	0xbdcc3aa4	-0.09972122
75	0xbd0214b0	-0.03175801
76	0xbb5e21f9	-0.003389476
77	0xbbf838cf	-0.0075751315
78	0x3c8cf31d	0.01720577
79	0x3bf7f423	0.007566945
80	0x3cd298fc	0.025707714
81	0xbce70e00	-0.028204918
82	0xbd8f3879	-0.06993193
83	0x3d911efe	0.070859894
84	0x3c18e6e5	0.009332393
85	0x3cb4efaf	0.022086946
86	0x3cfbf565	0.030756662
87	0xbbc0ed0b	-0.0058876327
88	0xbd571aac	-0.05251567
89	0x3c46d295	0.012135168
90	0x3c849cc7	0.016188039
91	0xbb338d54	-0.002739747
92	0x3db4b4b1	0.08823527
93	0x3abd7f91	0.0014457573
94	0xbd362c1f	-0.04447567
95	0xbd0ceb31	-0.034403984
96	0x3bcd9c2a	0.0062747197
97	0x3cc761fc	0.024338715
98	0x3be0f8a8	0.0068655796
99	0xbd0fad54	-0.035077408
100	0x3bd20506	0.0064092902
101	0x3ba26559	0.0049559292
102	0xbdd953ab	-0.106116615
103	0xbd4d4762	-0.050116904
104	0x3da277aa	0.0793298
105	0x3d20f2dc	0.03929411
106	0x3d4fbcfc	0.05071734
107	0x3c9222d8	0.01783888
108	0x3b4bfe69	0.0031126982
109	0x3b610cdc	0.003433994
110	0xbce3abad	-0.027791822
111	0x3bd4ccaf	0.0064941267
112	0xbd4d3f6e	-0.05010932
113	0xbcc44661	-0.02395934
114	0x3d1915eb	0.03737442
115	0x3d1556a1	0.03645957
116	0x3c8f5bf2	0.017499898
117	0xbd286118	-0.04110822
118	0x3c847b5f	0.01617211
119	0x3b98bb96	0.004661034
120	0xbd5cd9c7	-0.053918626
121	0xbd142a17	-0.036172953
122	0xbd73f669	-0.059561167
123	0x3c229b13	0.009924668
124	0x3b5616fd	0.003266751
125	0xbdef16c4	-0.11674264
126	0xbd08b51a	-0.033375837
127	0x3d8ed789	0.06974704
128	0x3bdd5135	0.0067540654
129	0x3c4aa89f	0.012369304
130	0x3cc3f67c	0.023921244
131	0x3c848dd8	0.016180918
132	0x3c58b5cb	0.013226937
133	0x3c5ee9fe	0.013605593
134	0x3c8fb59f	0.017542658
135	0xbd1e7b9c	-0.0386921
136	0x3c94d6a9	0.018168764
137	0x3c429448	0.011876173
138	0x3bf9efa8	0.007627446
139	0x3cd024b3	0.025408125
140	0x3d353a61	0.044245128
141	0x3ca20ac8	0.019780532
142	0x3cae06ea	0.021243531
143	0x3d140d78	0.036145657
144	0x3b70198f	0.0036636328
145	0x3c06abd9	0.008219683
146	0x3bc78265	0.0060885423
147	0x3cdeaf0a	0.027183075
148	0xbd6373ea	-0.055530466
149	0x3b35498f	0.0027662253
150	0x3bfe16df	0.0077541913
151	0x3d72081a	0.059089758
152	0xbd65d663	-0.05611266
153	0xbd21af33	-0.039473724
154	0x3ce1f6a0	0.02758342
155	0x3ce8ebde	0.028432783
156	0x3ba5d3b0	0.0050606355
157	0xb8c210b5	-9.253753e-05
158	0xbd1bd37b	-0.03804348
159	0xb85a536a	-5.2052936e-05
160	0xbcffc1ee	-0.031220403
161	0xbcf7c1a8	-0.03024371
162	0xbc1e4082	-0.009658935
163	0xbccf9f83	-0.025344616
164	0x3c00e0ba	0.007866079
165	0x3d2d18d9	0.042260025
166	0x3bf4791d	0.007460727
167	0xbcd4b6cc	-0.02596607
168	0xbbd93e0b	-0.0066297106
169	0xbde074f9	-0.10959811
170	0x3cb02e18	0.021506354
171	0xbd1d1876	-0.038353406
172	0x3c830ced	0.015997374
173	0x3ce9b995	0.028530875
174	0x3cc8b840	0.02450192
175	0x3b8d532b	0.004312893
176	0x3bbf2fa1	0.005834535
177	0x3aa54d0c	0.0012611463
178	0xbca98340	-0.020692468
179	0xbc4d2145	-0.012520139
180	0xbc275b31	-0.010214613
181	0x3ccf8c49	0.025335448
182	0xbd0d4d76	-0.0344977
183	0x3b17e9f1	0.0023180211
184	0xbd0606ea	-0.032721438
185	0x3bc11541	0.0058924262
186	0x3ba3c390	0.004997678
187	0x3b97cb3b	0.0046323813
188	0x3d58ee92	0.052961893
189	0xbcbc6459	-0.022997068
190	0xbe21525a	-0.15754071
191	0x3d43e236	0.047823153
192	0xbd354e5a	-0.044264175
193	0x3bbfef1f	0.005857363
194	0xbcb90a5c	-0.022587948
195	0xbd6b14a0	-0.057392716
196	0x3ce241e8	0.027619317
197	0x3b645e3c	0.0034846207
198	0xbc145106	-0.009052521
199	0xbb5eb538	-0.0033982527
200	0xbd2d2cdc	-0.04227911
201	0xbc3767ec	-0.0111942105
202	0x3c930078	0.01794456
203	0x3cf787e5	0.030216167
204	0xbd4bad65	-0.04972591
205	0x3c1ab6b0	0.00944297
206	0x3d08bbb9	0.03338215
207	0x3d11b162	0.035569556
208	0x3bb6acb7	0.0055747884
209	0x3ca14f63	0.019691175
210	0x3b219872	0.0024657515
211	0x3c678556	0.014130911
212	0xbc4c62a8	-0.012474693
213	0xbc6fbfd0	-0.014633134
214	0xbc89a6a4	-0.016803093
215	0x3c338bc4	0.010958616
216	0xbd0bed16	-0.03416165
217	0x3b4d6122	0.0031338413
218	0x3bd28b7d	0.0064253197
219	0xbd0799ea	-0.03310577
220	0xbe05f894	-0.13083106
221	0x3ba80c75	0.005128438
222	0xbd5aeed7	-0.05345043
223	0x3d0ce469	0.034397516
224	0x3c0a765f	0.008451073
225	0x3d268abc	0.04065965
226	0xbe07f664	-0.13277584
227	0xbd99d7a4	-0.07511833
228	0x3bbcac47	0.0057578417
229	0xbd595201	-0.05305672
230	0x3c40698d	0.011743915
231	0xbdb7ef86	-0.08981232
232	0xbcbdb8a9	-0.023159342
233	0x3bb96c21	0.005658642
234	0xbc81a45e	-0.015825447
235	0xbd236002	-0.039886482
236	0x3c41119d	0.0117839845
237	0x3c8913df	0.016733108
238	0x3c5f460b	0.013627539
239	0xbcb0af03	-0.021567827
240	0x3bf3fd85	0.0074459934
241	0xbce7c121	-0.028290333
242	0xbcd4a45e	-0.025957283
243	0x3d9a7824	0.07542446
244	0x3bdcb6ce	0.006735659
245	0x3cf71744	0.030162461
246	0x3c405c7f	0.011740803
247	0x3c11c0e7	0.008896089
248	0x3bf5ec08	0.0075049438
249	0xbcc9165e	-0.024546798
250	0x3beb7feb	0.00718688
251	0xbc27e546	-0.010247534
252	0xbc8c3591	-0.017115386
253	0xbe0d0da4	-0.13774735
254	0xbcbb4259	-0.022858785
255	0xbd295b37	-0.041346755
