Saved_data_files/helpdesk/lr_all_variants/weighted/EventPredictor_parameters_weighted_0.0001.pt (torch, 286735 bytes, 8 tensors)

layer1.weight f4 [4, 1]
0.984942 0.55784243 0.5467331 0.6535185
00000000: 2925 7c3f c3ce 0e3f b3f6 0b3f fd4c 273f

layer1.bias f4 [9]
-0.57438016 -0.9650371 -0.6688164 -0.81211466 -0.9290591 -0.63515514 0.8644755 -0.38713616
-0.329868
00000000: 940a 13bf ac0c 77bf 8d37 2bbf bfe6 4fbf
00000010: d1d6 6dbf 8799 22bf 444e 5d3f b636 c6be
00000020: 75e4 a8be

layer2.1.weight f4 [256, 9]
0.9144175 -0.07700606 0.6765021 0.07328175 -0.07042479 0.0072079385 -0.118402526 -0.31975237
-0.014382372 0.03411909 0.3696441 -0.14929585 -0.2579163 0.27092987 0.27471352 -0.32571363
-0.14549616 -0.0854472 -0.043167334 0.10682006 -0.13279492 0.0848885 0.3591846 -0.025101686
-0.31979263 -0.0142841805 0.09831156 0.050398063 -0.3598709 0.09879181 -0.2874714 -0.048863415
0.16041234 0.003778421 0.23764631 -0.1479391 -0.06849573 0.0572442 0.49302205 -0.0104583055
-0.27055916 0.0037687141 0.054362837 0.4591091 -0.581589 0.048232447 -0.4442147 -0.036986724
-0.014503935 0.009737698 0.005327621 -0.20046668 0.11409184 0.028479384 0.41600543 -0.07088789
0.017380668 0.1654752 0.06675946 -0.021592777 -0.27449837 -0.16124944 -0.02498002 0.2754834
0.2983487 0.23959741 -0.11783381 0.37279433 -0.013880279 -0.3887967 -0.08082967 -0.1697267
-0.07292542 -0.14280097 0.09463934 -0.094537504 -0.39276028 -0.04100524 0.44702008 0.18941276
0.1611148 -0.851648 -0.12482628 -0.7452283 0.073986344 -0.083642714 0.24214788 0.28934246
-0.51787126 0.30446413 -0.042215593 0.046197448 0.32474434 0.22269842 -0.33225495 0.0014121864
0.12350962 0.5038286 -0.109550826 -0.7682272 -0.11370414 -0.61808044 0.25602448 0.35017535
-0.046901125 0.112046525 -0.35165146 -0.13591646 0.37258083 0.23691273 0.24546011 0.0030586792
0.013344575 -0.1512842 -0.0110144075 -0.2699146 0.13352825 0.09575266 -0.05867895 -0.37783602
0.2311971 0.16356288 0.055725057 -0.006266489 -0.5165289 -0.45775998 0.0135119585 -0.06342732
0.040297028 -0.15037516 -0.6258552 0.03841663 0.22123528 0.2654273 0.017384617 0.004915165
-0.041004404 0.1219823 0.096808486 -0.014073922 -0.047916625 0.16851474 -0.48083445 -0.015489293
0.1891351 0.14772072 -0.18845107 -0.00860474 0.4702496 -0.009225185 -0.252598 -0.026026903
0.00057010347 0.76067775 -0.3293718 0.37987834 0.02273594 0.13581346 0.086454496 -0.16989854
0.26981232 -0.008799669 0.043240234 0.09793826 0.05506023 0.18573442 -0.118126824 -0.42363718
-0.10698147 -0.5231315 -0.011776356 0.9840766 -0.24391149 0.8804965 0.17399089 -0.008134044
0.012791527 -0.034305792 0.36862436 0.001604417 -0.05591581 -0.38391373 0.16051908 -0.0029076617
0.01862239 -0.25829348 0.53741175 0.30393338 0.11453371 -0.002888026 -0.45296246 0.13808013
0.06487945 0.19818394 -0.06348039 0.34041083 0.06846737 -0.06391438 -0.08181333 -0.20927669
0.1915532 0.18385464 -0.22012211 -0.25389093 0.036084 0.09737799 -0.017543871 -0.047336325
-0.032710005 -0.24775515 -0.019895809 0.2600901 0.35000452 -0.008329955 -0.3640806 -0.011991213
0.036682926 -0.17842229 0.20951536 -0.056780405 -0.35022688 -0.29790124 0.51615906 0.24002804
0.016491612 0.7197907 -0.21819356 0.40284 0.05602106 -0.32478905 -0.38500214 0.23297694
0.27287242 0.028949164 -0.025359454 -0.1572892 0.19024363 -0.37977326 0.12170609 0.085933484
0.2873317 0.5172441 -0.09934361 0.12594412 -0.32158664 0.23748975 -0.23771897 -0.18610582
-0.104706 -0.067804895 0.098442495 -0.25423747 0.46178487 -0.028579643 0.384964 -0.030260669
00000000: 4417 6a3f 5ab5 9dbd 3e2f 2d3f be14 963d
00000010: df3a 90bd 9230 ec3b 067d f2bd 95b6 a3be
00000020: 0aa4 6bbc 75c0 0b3d fe41 bd3e 03e1 18be
00000030: 9b0d 84be 52b7 8a3e 40a7 8c3e f0c3 a6be
00000040: f2fc 14be f1fe aebd 3bd0 30bd 7ac4 da3d
00000050: 64fb 07be 06da ad3d 0be7 b73e 0da2 cdbc
00000060: dcbb a3be 3208 6abc 9257 c93d 336e 4e3d
00000070: 0041 b8be 5c53 ca3d 742f 93be 0125 48bd
00000080: 2243 243e 639f 773b 8e59 733e 597d 17be
00000090: 7d47 8cbd e578 6a3d 636d fc3e 5059 2bbc
000000a0: bb86 8abe 88fc 763b 91ab 5e3d 5910 eb3e
000000b0: 04e3 14bf 638f 453d 1c70 e3be 647f 17bd
000000c0: eaa1 6dbc de8a 1f3c 5393 ae3b 2347 4dbe
000000d0: fca8 e93d 994d e93c aafe d43e ac2d 91bd
000000e0: e761 8e3c 5572 293e 2fb9 883d 56e3 b0bc
000000f0: 0d8b 8cbe 931e 25be e6a2 ccbc 290c 8d3e
00000100: 29c1 983e 0659 753e da52 f1bd e6de be3e
00000110: 1c6a 63bc 5c10 c7be 078a a5bd d6cc 2dbe
00000120: ec59 95bd 6b3a 12be 45d2 c13d e19c c1bd
00000130: e017 c9be 1cf5 27bd d1df e43e 6bf5 413e
00000140: 47fb 243e 9a05 5abf eca4 ffbd 48c7 3ebf
00000150: 2786 973d df4c abbd 9df5 773e b224 943e
00000160: 3693 04bf b9e2 9b3e 42ea 2cbd 8939 3d3d
00000170: e444 a63e 0e0b 643e 521d aabe 1d19 b93a
00000180: 9df2 fc3d e9fa 003f 2f5c e0bd 8aaa 44bf
00000190: b7dd e8bd 853a 1ebf a415 833e 2f4a b33e
000001a0: 651b 40bd a678 e53d a90b b4be af2d 0bbe
000001b0: eac2 be3e 4099 723e e559 7b3e 1f74 483b
000001c0: 34a3 5a3c 3fea 1abe c675 34bc 3f32 8abe
000001d0: a1bb 083e f819 c43d 5759 70bd b973 c1be
000001e0: efbe 6c3e 077d 273e f53f 643d 1f57 cdbb
000001f0: 3d3b 04bf 845f eabe 4361 5d3c 2fe6 81bd
00000200: 7f0e 253d f2fb 19be 0c38 20bf c25a 1d3d
00000210: 808b 623e 16e6 873e 2f6a 8e3c 640f a13b
00000220: 3cf4 27bd dbd1 f93d 8743 c63d 4f96 66bc
00000230: 3944 44bd 218f 2c3e ef2f f6be cec6 7dbc
00000240: a2ac 413e 1a44 173e 51f9 40be e5fa 0cbc
00000250: 8ec4 f03e 3b25 17bc 8654 81be 5f36 d5bc
00000260: ff72 153a c7bb 423f 6ca3 a8be 6a7f c23e
00000270: b940 ba3c af12 0b3e 0e0f b13d e2f9 2dbe
00000280: d724 8a3e 7d2c 10bc ac1c 313d db93 c83d
00000290: d686 613d 2a31 3e3e 7aec f1bd f9e6 d8be
000002a0: 1a19 dbbd f2eb 05bf 9ef1 40bc 72ec 7b3f
000002b0: efc3 79be 3868 613f ab2a 323e a744 05bc
000002c0: 8e93 513c 3b84 0cbd 55bc bc3e 4d4b d23a
000002d0: fa07 65bd 5790 c4be 1d5f 243e 788e 3ebb
000002e0: fc8d 983c 0b3f 84be d193 093f 289d 9b3e
000002f0: a690 ea3d 0945 3dbb b2ea e7be e164 0d3e
00000300: 84df 843d bbf0 4a3e 0202 82bd 544a ae3e
00000310: 9f38 8c3d 8be5 82bd bf8d a7bd a14c 56be
00000320: 8626 443e 6444 3c3e b167 61be fefd 81be
00000330: d1cc 133d 1d6e c73d 2ab8 8fbc bce3 41bd
00000340: edfa 05bd 87b3 7dbe 89fc a2bc 882a 853e
00000350: cb33 b33e 5d7a 08bc c668 babe cb76 44bc
00000360: d640 163d 55b4 36be 328b 563e 9292 68bd
00000370: f050 b3be 8386 98be 0023 043f e9c9 753e
00000380: 6b19 873c 3444 383f 226e 5fbe 0b41 ce3e
00000390: 5776 653d c04a a6be 001f c5be 8291 6e3e
000003a0: efb5 8b3e cc26 ed3c a1be cfbc 6c10 21be
000003b0: 3acf 423e a471 c2be 0b41 f93d e5fd af3d
000003c0: 241d 933e 1c6a 043f aa74 cbbd 7ff7 003e
000003d0: 01a7 a4be 8330 733e 9a6c 73be 8692 3ebe
000003e0: 1970 d6bd 4bdd 8abd 389c c93d 6a2b 82be
000003f0: 116f ec3e db1f eabc 001a c53e 39e5 f7bc

layer2.1.bias f4 [256]
0.35136908 0.18723552 -0.14440367 0.31405014 0.30020118 0.56461805 -0.69245064 -0.65045065
0.084441856 -0.5283942 -0.0036193212 0.10613216 -0.097250015 -0.33579865 0.554743 -0.19472744
-0.8419242 0.22141309 -0.27617264 0.61577624 -0.05804015 0.024980782 0.13881011 -0.274625
0.109585576 0.5709695 -0.17015126 0.43747106 -0.49808276 0.32299286 0.44953537 -0.2832654
0.24414048 0.054952163 0.6497763 0.37734798 -0.22780274 0.13731231 -0.36487818 0.29331702
0.6534069 0.2664655 0.5612358 -0.114773504 -0.3887544 -0.53746015 -0.82732815 0.06845809
-0.07510787 -0.1352492 0.78720707 0.74648845 -0.30088654 0.27076167 0.28574646 0.349539
-0.20669457 0.26756668 -0.48652914 0.14535171 -0.15707527 0.41552937 -0.013464429 0.7691325
0.7325916 0.56615055 -0.28547755 0.43969992 -0.07218247 0.059588592 -0.43741053 0.3764637
0.8069838 0.061192118 0.64051 -0.45718297 0.507314 0.16725081 0.5437679 0.31081074
-0.33692545 0.13681448 0.6374084 0.53560704 -0.003007964 0.60132146 0.0824111 0.05305155
-0.3965098 -0.25246668 -0.2082236 -0.23440528 -0.0003529031 0.06830209 0.48844627 0.45341325
0.50462544 -0.10528379 0.24315912 0.8346634 -0.008377962 0.42451683 -0.21746106 -0.3101065
-0.6376627 -0.28044033 -0.4693408 0.16866829 0.35884574 0.4821887 0.14395145 -0.30956024
0.12512901 -0.10597692 -0.011940772 -0.23894057 0.31771886 -0.4518489 0.537187 -0.012568632
0.03966909 0.14144409 -0.18116978 -0.6524883 0.092872515 -0.23153672 -0.22820042 0.51072294
-0.007669042 0.70983255 0.28652155 -0.3336041 0.3296923 -0.23102936 -0.07550885 0.8196536
-0.016553536 0.80193853 0.36884716 -0.18485709 -0.13400248 -0.5249944 -0.1195316 -0.09500847
0.48236656 -0.062826 0.087277256 -0.2828261 0.065891445 0.042759154 -0.09816193 -0.13273828
-0.3160574 -0.20689939 0.54622525 0.35025045 -0.32317927 -0.39168492 -0.5169922 -0.37660676
-0.15428495 0.55502295 -0.39178678 0.7442453 0.017657924 -0.4503715 -0.21003659 0.21518072
-0.7102496 -0.45458716 -0.43036574 0.09007748 -0.1943195 -0.19861163 0.20081751 -0.060521953
0.25447044 -0.021324374 0.36745766 0.34676448 -0.11152766 0.14668502 0.20222177 -0.2917645
-0.5525465 0.5361107 0.45883292 0.35666075 0.15781356 0.19448799 0.5428642 0.6194119
0.33864996 -0.59541774 -0.5961603 -0.3924474 -0.03969142 -0.3420955 -0.031460647 -0.09402022
-0.37580684 0.07443327 -0.24588333 -0.1968412 -0.47390416 0.08152445 0.1336802 0.26072553
0.26312745 -0.11513195 0.20407328 0.47665465 0.62440616 -0.27548915 -0.3984985 0.57299906
0.03766524 -0.48167074 0.19230871 -0.057975985 0.60703033 -0.27778757 0.03763925 -0.0303868
-0.46184686 0.56870973 0.17888658 -0.2897381 -0.19592738 0.41881537 -0.29555535 0.724966
0.08278397 -0.078653485 0.40292674 0.28964108 -0.55316395 0.64626426 0.024834817 -0.24096614
-0.21088362 0.50149566 -0.3696058 0.11858423 -0.07620413 -0.3339015 -0.6959962 0.30792305
0.19080795 0.5019652 0.2783515 -0.10998756 0.0572066 0.33821633 0.094602495 -0.6073064
00000000: a6e6 b33e abba 3f3e 8ede 13be 2ecb a03e
00000010: f8b3 993e cf8a 103f 7244 31bf ef83 26bf
00000020: daef ac3d d844 07bf 2232 6dbb d15b d93d
00000030: 042b c7bd cded abbe a303 0e3f a166 47be
00000040: 5888 57bf 1dba 623e 8066 8dbe 83a3 1d3f
00000050: 82bb 6dbd 7fa4 cc3c 3d24 0e3e a69b 8cbe
00000060: 676e e03d 0f2b 123f 223c 2ebe 35fc df3e
00000070: b404 ffbe 525f a53e 8029 e63e 2a08 91be
00000080: f6ff 793e 8515 613d bd57 263f c133 c13e
00000090: 1f45 69be 999b 0c3e 50d1 babe a62d 963e
000000a0: ad45 273f 2b6e 883e 26ad 0f3f 5f0e ebbd
000000b0: d10a c7be fd96 09bf c7cb 53bf c133 8c3d
000000c0: 28d2 99bd c47e 0abe 6786 493f de19 3f3f
000000d0: cd0d 9abe 46a1 8a3e 5c4d 923e c7f6 b23e
000000e0: bea7 53be 80fe 883e 591a f9be 14d7 143e
000000f0: 57d8 20be 44c0 d43e e999 5cbc dee5 443f
00000100: 208b 3b3f 3eef 103f 1d2a 92be 5920 e13e
00000110: 67d4 93bd 2b13 743d 46f4 dfbe dabf c03e
00000120: 7e96 4e3f 96a4 7a3d 77f8 233f e313 eabe
00000130: 55df 013f cc43 2b3e 6034 0b3f 9622 9f3e
00000140: 7e81 acbe 1819 0c3e 322d 233f 8b1d 093f
00000150: 4321 45bb 34f0 193f 27c7 a83d 954c 593d
00000160: 5503 cbbe 5043 81be 9138 55be f007 70be
00000170: da05 b9b9 f7e1 8b3d a115 fa3e c825 e83e
00000180: 222f 013f 079f d7bd b4fe 783e 80ac 553f
00000190: b843 09bc 455a d93e 1dae 5ebe 47c6 9ebe
000001a0: dd3d 23bf e095 8fbe 704d f0be 61b7 2c3e
000001b0: a1ba b73e 70e1 f63e 0268 133e ae7e 9ebe
000001c0: d221 003e 6d0a d9bd 3aa3 43bc d6ac 74be
000001d0: 0cac a23e bd58 e7be 1685 093f aaec 4dbc
000001e0: 0e7c 223d b8d6 103e 9284 39be 7909 27bf
000001f0: f233 be3d f617 6dbe 5fad 69be bdbe 023f
00000200: 964c fbbb 96b7 353f f4b2 923e 28ce aabe
00000210: 6ecd a83e f692 6cbe 62a4 9abd d1d4 513f
00000220: 489b 87bc d84b 4d3f 89d9 bc3e 2d4b 3dbe
00000230: f237 09be 0866 06bf fccc f4bd cd93 c2bd
00000240: c0f8 f63e ebaa 80bd 6bbe b23d 95ce 90be
00000250: 18f2 863d 3924 2f3d 1f09 c9bd 8bec 07be
00000260: 47d2 a1be 6fdd 53be 6bd5 0b3f 0754 b33e
00000270: c177 a5be ed8a c8be 9a59 04bf 9ad2 c0be
00000280: e0fc 1dbe fc15 0e3f 4798 c8be dc86 3e3f
00000290: 5aa7 903c 1897 e6be d513 57be 5658 5c3e
000002a0: ebd2 35bf a6bf e8be e658 dcbe 8b7a b83d
000002b0: b1fb 46be d960 4bbe 1ba3 4d3e dee5 77bd
000002c0: f349 823e 74b0 aebc 6923 bc3e 1d8b b13e
000002d0: 9d68 e4bd 9934 163e 3913 4f3e 2862 95be
000002e0: b073 0dbf 8d3e 093f 26ec ea3e 3d9c b63e
000002f0: e199 213e dc27 473e 26f9 0a3f c791 1e3f
00000300: 8763 ad3e 4c6d 18bf f69d 18bf deee c8be
00000310: 7893 22bd 2427 afbe e1dc 00bd ac8d c0bd
00000320: c169 c0be 7870 983d d7c8 7bbe bd90 49be
00000330: 91a3 f2be 4af6 a63d 76e3 083e d17d 853e
00000340: a4b8 863e 4dca ebbd 96f8 503e 140c f43e
00000350: 15d9 1f3f ea0c 8dbe ff07 ccbe 11b0 123f
00000360: de46 1a3d 8c9d f6be 93ec 443e 3a78 6dbd
00000370: 5766 1b3f 2c3a 8ebe 9d2b 1a3d bded f8bc
00000380: 3177 ecbe f696 113f 0b2e 373e 8d58 94be
00000390: 30a1 48be f86e d63e 0853 97be 5f97 393f
000003a0: a48a a93d 1415 a1bd 6a4c ce3e d64b 943e
000003b0: 279c 0dbf 9371 253f 6372 cb3c d4bf 76be
000003c0: e0f1 57be 0562 003f f93c bdbe 4adc f23d
000003d0: e910 9cbd 23f5 aabe cf2c 32bf 17a8 9d3e
000003e0: 2963 433e cb80 003f 1684 8e3e 2841 e1bd
000003f0: 7851 6a3d b12a ad3e f4be c13d 6f78 1bbf

layer2.3.weight f4 [256, 256]
-0.06301744 -0.00012630396 -0.047618747 0.20617646 -0.0009772101 -0.0025345525 -0.025388949 0.04035718
-0.11566927 0.019290203 0.10537287 0.17243901 0.00036455918 -0.082408935 0.006626547 0.05882775
0.06482678 0.0030132127 -0.16693209 -0.02493265 -0.098625705 -0.055267766 -0.024810573 0.07115078
0.018305881 -0.06480075 0.06655856 0.033654984 -0.062348846 -0.16491875 0.037275836 0.058501314
-0.02688305 -0.009377945 -0.09284421 0.035083678 -0.1430293 0.052943774 -0.06281032 -0.029849995
0.08501959 0.025217371 0.0730454 -0.18098111 0.026870798 -0.074964605 0.052738335 0.08053163
-0.08905904 -0.066285275 -0.016755119 0.022516396 0.044375625 -0.034986548 0.017399054 0.06365782
0.03579193 0.017010313 0.034380585 0.056108356 0.027346496 -0.010046895 -0.039149497 -0.04805006
-0.12198568 -0.027697641 -0.13930996 -0.051155332 -0.03999538 -0.015428044 0.11934241 -0.021921013
0.1026592 0.06781752 -0.03563646 0.124927804 0.09371558 -0.11048587 -0.07575283 0.048211314
-0.08304239 -0.003282863 -0.0815986 0.070222154 0.02595334 0.032558236 -0.14537019 -0.037210427
-0.06751114 0.012737091 -0.020510068 0.06797302 0.04790346 0.09164053 0.07682821 -0.08425697
0.07357447 0.046409678 -0.05572242 -0.118632704 0.004095006 0.053524867 -0.0011360178 -0.106922254
0.012379041 -0.06836505 -0.03535437 -0.10573523 -0.022518162 0.02973539 -0.114024416 -0.008632454
0.033171207 0.056467593 0.12711845 0.130763 0.011392601 -0.021177221 -0.038512412 0.036866307
-0.079428375 0.06726888 0.05897195 0.09614053 0.024470521 -0.069836155 0.064232066 0.066549174
0.049436726 0.015639907 0.081627905 0.0757729 0.17639506 0.04466396 -0.14749373 -0.0036731823
0.08919727 -0.08133739 0.014936909 -0.10585874 -0.0056704357 0.12935701 -0.12539262 0.06769003
-0.11416169 -0.0041016038 0.0044338577 -0.051039882 -0.08241664 0.02239196 0.05718576 -0.06906624
0.09636981 0.106384784 0.0025889839 -0.004511428 0.026843136 0.05648512 -0.05614948 0.05727046
0.004204132 -0.060895555 -0.06056934 -0.012573039 -0.038515825 0.010040349 0.12104554 0.040850393
0.016638733 0.07287544 -0.07635785 0.021376802 0.08593811 -0.012087398 -0.06800843 -0.081939094
-0.06637632 0.041101307 -0.038306035 -0.06094443 0.07741318 -0.015219829 -0.038248334 0.22597069
0.04272807 -0.0944197 -0.09208182 0.04271012 -0.058630843 -0.03586848 0.017470082 -0.027533207
0.17795482 -0.05994714 -0.03994241 0.06648939 -0.00036941151 0.022336805 0.05134926 -0.16481479
0.06915834 -0.13871211 0.04137323 0.037145205 -0.021893369 0.043276846 0.072828904 -0.06735827
-0.004824439 0.04162014 -0.042747192 0.054386925 -0.07608857 -0.05512569 0.0036540192 -0.01620571
0.028472474 0.09596738 0.023552569 0.10198831 -0.062480934 0.018881664 0.024780774 -0.08434142
0.05316045 -0.055888228 0.0037429105 -0.017137911 0.08915351 -0.026869506 0.045551337 0.08656434
0.024951357 -0.059897132 -0.101398 0.0017630975 0.10637499 -0.009665465 -0.0908754 0.15217268
-0.04372833 -0.105339184 -0.10332042 0.07635021 0.06559198 0.026507424 0.015024084 -0.028083604
0.13395306 -0.033728912 0.017637264 0.010858291 -0.09458654 -0.028443113 -0.10468622 0.041597594
00000000: 4a0f 81bd 7670 04b9 e00b 43bd ec1f 533e
00000010: bb15 80ba bc1a 26bb 7cfc cfbc 924d 253d
00000020: 03e4 ecbd 7d06 9e3c bbcd d73d da93 303e
00000030: 4e22 bf39 04c6 a8bd 8123 d93b 5ef5 703d
00000040: e7c3 843d 5279 453b 3ff0 2abe 8f3f ccbc
00000050: 46fc c9bd 7460 62bd 8b3f cbbc 80b7 913d
00000060: 37f6 953c 41b6 84bd db4f 883d cfd9 093d
00000070: 8161 7fbd 76e0 28be 8cae 183d 139f 6f3d
00000080: d839 dcbc f4a5 19bc 1b25 bebd e7b3 0f3d
00000090: 4676 12be 92db 583d b2a2 80bd fa87 f4bc
000000a0: c01e ae3d a994 ce3c d498 953d 1d53 39be
000000b0: 2620 dc3c 0b87 99bd 2704 583d c4ed a43d
000000c0: 9664 b6bd 93c0 87bd 0842 89bc 4e74 b83c
000000d0: 37c3 353d 0e4e 0fbd 7688 8e3c 085f 823d
000000e0: 8f9a 123d 3659 8b3c a8d2 0c3d e0d1 653d
000000f0: c205 e03c bb9b 24bc 395b 20bd 24d0 44bd
00000100: a1d3 f9bd 2ae6 e2bc 45a7 0ebe 4188 51bd
00000110: 32d2 23bd e8c5 7cbc cb69 f43d b293 b3bc
00000120: fd3e d23d e9e3 8a3d 89f7 11bd 26da ff3d
00000130: f4ed bf3d 6a46 e2bd 4d24 9bbd 3a79 453d
00000140: 2112 aabd 4d25 57bb 2b1d a7bd a2d0 8f3d
00000150: 199c d43c c95b 053d ecdb 14be f669 18bd
00000160: 4843 8abd 3baf 503c bb04 a8bc 7035 8b3d
00000170: 6b36 443d 08ae bb3d 1c58 9d3d eb8e acbd
00000180: 36ae 963d 1318 3e3d 313d 64bd b4f5 f2bd
00000190: 662f 863b e43c 5b3d 6fe6 94ba 0efa dabd
000001a0: 76d1 4a3c fa02 8cbd becf 10bd b68b d8bd
000001b0: 0278 b8bc a297 f33c a285 e9bd 236f 0dbc
000001c0: 88de 073d 904a 673d 572b 023e bce6 053e
000001d0: 08a8 3a3c da7b adbc 31bf 1dbd 2001 173d
000001e0: 58ab a2bd 44c4 893d 928c 713d 54e5 c43d
000001f0: 6776 c83c 4206 8fbd 1a8c 833d ef4a 883d
00000200: 2a7e 4a3d 431f 803c 882c a73d d22e 9b3d
00000210: e8a0 343e 8ef1 363d 9908 17be c6b9 70bb
00000220: 0fad b63d 3894 a6bd f0b9 743c 78cc d8bd
00000230: 10cf b9bb 2a76 043e ec66 00be 12a1 8a3d
00000240: 9bcd e9bd bf66 86bb e549 913b 320f 51bd
00000250: 0eca a8bd 586f b73c 9e3b 6a3d 9a72 8dbd
00000260: 895d c53d 44e0 d93d f1ab 293b 9ad4 93bb
00000270: 23e6 db3c f15c 673d fffc 65bd 6e94 6a3d
00000280: d1c2 893b 9e6d 79bd 8e17 78bd 26ff 4dbc
00000290: c5c2 1dbd 4780 243c b9e6 f73d be52 273d
000002a0: f44d 883c b83f 953d 8161 9cbd 671e af3c
000002b0: 5200 b03d 390a 46bc 0148 8bbd afcf a7bd
000002c0: 4ff0 87bd d859 283d cae6 1cbd dea0 79bd
000002d0: cd8a 9e3d 975c 79bc 49aa 1cbd dc64 673e
000002e0: a103 2f3d 1e5f c1bd 6595 bcbd cff0 2e3d
000002f0: e526 70bd d4ea 12bd 6b1d 8f3c 528d e1bc
00000300: ca39 363e 228b 75bd a79a 23bd 972b 883d
00000310: 93ad c1b9 adfb b63c 9a53 523d 35c5 28be
00000320: e3a2 8d3d 8c0a 0ebe fa76 293d 9225 183d
00000330: b959 b3bc 1043 313d 5227 953d 22f3 89bd
00000340: 5416 9ebb e179 2a3d ae17 2fbd d3c4 5e3d
00000350: 53d4 9bbd 7acb 61bd 4578 6f3b d6c1 84bc
00000360: 1b3f e93c 8c8a c43d 51f1 c03c 3fdf d03d
00000370: 02ec 7fbd b8ad 9a3c 0d01 cb3c 32bb acbd
00000380: c6be 593d 0eeb 64bd 9e4b 753b ce64 8cbc
00000390: 1e96 b63d 701d dcbc 0a94 3a3d a548 b13d
000003a0: ca66 cc3c b256 75bd c1a9 cfbd bc17 e73a
000003b0: 21db d93d e65b 1ebc e21c babd 28d3 1b3e
000003c0: 7a1c 33bd 12bc d7bd a899 d3bd 805d 9c3d
000003d0: 1755 863d 1926 d93c 9327 763c 960f e6bc
000003e0: fe2a 093e 5427 0abd 067c 903c f9e6 313c
000003f0: 96b6 c1bd 8801 e9bc bb65 d6bd 3d62 2a3d

layer2.3.bias f4 [256]
-0.3162964 0.10056074 -0.09102037 0.32817286 -0.071579196 0.03967135 0.05170816 0.0051190853
-0.1023282 0.27249286 0.01454078 -0.10492191 0.12186729 -0.118432306 -0.18814045 -0.029760854
-0.024367133 0.22693314 0.02186618 0.10417177 0.08045202 -0.081077516 0.122769795 -0.11295226
0.09593681 0.18765733 0.011770743 -0.06591303 -0.15636903 -0.0040442664 -0.06843465 -0.2627763
-0.05535316 0.16754483 -0.061279953 0.028600411 0.08757814 -0.1548265 0.051315583 0.024309544
0.06422332 0.014116639 -0.10750326 -0.13802905 -0.05608654 0.11570578 -0.04963113 -0.4162674
0.28595877 0.23310283 -0.26230496 0.14064707 -0.06900455 -0.261402 0.017607639 0.085856706
0.026289258 0.29871407 0.06451599 -0.17107327 -0.066873126 0.16020389 0.08594894 -0.22703983
-0.021580579 0.11166465 -0.11686609 -0.1734404 0.06324833 -0.06843605 0.16731922 0.049458414
-0.02729107 0.09062922 -0.10301179 -0.015410314 0.10241205 -0.029319225 0.32609034 -0.0631016
0.049675 -0.06881114 -0.03200644 -0.041923765 0.1541566 -0.20629969 0.06630503 -0.047613155
-0.16557784 0.13508023 0.13882266 0.14359938 -0.07621918 -0.08261242 -0.057950556 0.048908804
0.15620728 -0.20604451 0.09502884 0.13557678 -0.15709323 -0.0074147023 -0.023115251 0.12733006
0.19570456 -0.00045155693 -0.23388404 0.02823617 -0.09024611 0.03845001 -0.085596815 -0.10728863
-0.090142086 -0.0475932 -0.3025401 0.39369443 -0.3341477 0.043995187 0.22442313 -0.05992334
0.075262316 0.027728628 -0.003372186 0.20280223 0.3313485 0.22401948 0.10098138 0.06984541
0.21578261 0.11664271 0.13575634 -0.026305033 -0.1344032 -0.061378356 -0.12146871 -0.14916244
-0.10445533 0.06482529 -0.059149537 0.096877925 -0.051050346 -0.30455488 -0.038637053 -0.057424393
-0.09733727 0.29262057 -0.12345105 -0.12213508 0.21916637 -0.14420676 -0.035007555 0.039134603
0.047820106 -0.109094314 0.24742967 -0.069767065 0.21432857 0.042296488 0.16067034 0.0115736155
0.007796217 0.094254985 -0.14395486 0.29836822 0.07714619 -0.15206212 0.06423958 0.031404354
0.1588307 -0.10685979 -0.13213831 -0.2874913 -0.10672501 -0.30409974 0.09247905 0.15167752
0.17910317 0.111123115 0.006237395 -0.10359198 0.10443139 0.051790845 -0.07367937 0.20787053
-0.050092105 0.16788232 -0.14738108 0.0072145443 0.10460573 0.0071109976 -0.024312435 -0.0579224
-0.010120447 -0.0005694323 0.10473836 -0.002061388 -0.11749923 -0.13147956 0.071227476 -0.097994715
-0.14908883 0.13183144 -0.10182989 -0.08324187 0.06993966 0.097925015 0.18663976 0.16141178
0.13186318 -0.20904699 0.063998066 -0.047886055 -0.08836657 -0.018033268 0.37883234 0.039278366
-0.22099695 -0.093099065 0.2823014 0.010152037 -0.07011155 -0.034475673 -0.14459878 0.10923733
-0.119496815 0.22407097 -0.07773149 0.03038394 0.09481894 0.051888652 0.02642107 -0.14872578
-0.18855403 -0.16800873 0.094213426 0.1746456 -0.06817763 0.14605792 0.07720153 0.15429649
-0.09534094 -0.18092588 0.12693235 0.07417626 0.0348166 0.22333448 -0.0215536 0.06717118
0.15655756 -0.096563675 0.019320082 -0.050333623 -0.29057905 0.3467962 0.15891394 -0.12063144
00000000: 9af1 a1be caf2 cd3d e368 babd 4606 a83e
00000010: 1d98 92bd 6d7e 223d f0cb 533d 00be a73b
00000020: 7391 d1bd 2f84 8b3e 743c 6e3c 4ce1 d6bd
00000030: 8f95 f93d a38c f2bd e4a7 40be 09cd f3bc
00000040: 959d c7bc 2961 683e b420 b33c 0258 d53d
00000050: 07c4 a43d f80b a6bd bb6e fb3d 8453 e7bd
00000060: 857a c43d 3e29 403e 13da 403c 69fd 86bd
00000070: 341f 20be c485 84bb 7727 8cbd 9d8a 86be
00000080: ffb9 62bd df90 2b3e b000 7bbd 694b ea3c
00000090: 2b5c b33d d78a 1ebe 4a30 523d cf24 c73c
000000a0: 8487 833d 7a49 673c ab2a dcbd 7d57 0dbe
000000b0: 00bb 65bd 27f7 ec3d 034a 4bbd 0021 d5be
000000c0: 3069 923e 82b2 6e3e d64c 86be c905 103e
000000d0: 4252 8dbd 7cd6 85be e53d 903c a4d5 af3d
000000e0: 925c d73c 0df1 983e f620 843d d52d 2fbe
000000f0: c7f4 88bd 7d0c 243e ff05 b03d 217d 68be
00000100: c1c9 b0bc 70b0 e43d 7d57 efbd 5c9a 31be
00000110: 5788 813d 3328 8cbd bb55 2b3e e894 4a3d
00000120: 8691 dfbc d09b b93d d8f7 d2bd 8b7b 7cbc
00000130: 69bd d13d df2e f0bc 50f5 a63e 693b 81bd
00000140: 0378 4b3d dbec 8cbd 2f19 03bd 41b8 2bbd
00000150: 3adb 1d3e 3a40 53be eeca 873d 0306 43bd
00000160: 3d8d 29be 7952 0a3e 8727 0e3e b70b 133e
00000170: cd18 9cbd b330 a9bd 905d 6dbd 9954 483d
00000180: cdf4 1f3e 55fd 52be 7b9e c23d a4d4 0a3e
00000190: 0cdd 20be 08f7 f2bb 325c bdbc d062 023e
000001a0: c766 483e f2be ecb9 4c7f 6fbe 8a4f e73c
000001b0: f4d2 b8bd c27d 1d3d 624d afbd 24ba dbbd
000001c0: 6a9c b8bd 16f1 42bd 89e6 9abe 5192 c93e
000001d0: 6815 abbe 4c34 343d 2dcf 653e 2d72 75bd
000001e0: 2123 9a3d 2627 e33c e5ff 5cbb 63ab 4f3e
000001f0: 83a6 a93e 5d65 653e 53cf ce3d 1c0b 8f3d
00000200: 1ef6 5c3e 60e2 ee3d b603 0b3e a77d d7bc
00000210: fea0 09be df67 7bbd 96c4 f8bd 0abe 18be
00000220: adec d5bd 1fc3 843d c946 72bd ef67 c63d
00000230: 2b1a 51bd 9eee 9bbe e341 1ebd d735 6bbd
00000240: c358 c7bd 5dd2 953e e7d3 fcbd f521 fabd
00000250: 266d 603e f0aa 13be 1564 0fbd 9b4b 203d
00000260: 04df 433d d76c dfbd 345e 7d3e 09e2 8ebd
00000270: f378 5b3e 153f 2d3d c486 243e 439f 3d3c
00000280: 6977 ff3b c208 c13d e768 13be b8c3 983e
00000290: d2fe 9d3d 2cb6 1bbe 0a90 833d daa1 003d
000002a0: 84a4 223e 4ed9 dabd 444f 07be 0f32 93be
000002b0: a492 dabd f6b2 9bbe a865 bd3d 5a51 1b3e
000002c0: d266 373e 8494 e33d 1063 cc3b 0828 d4bd
000002d0: 20e0 d53d a322 543d 36e5 96bd 03dc 543e
000002e0: 612d 4dbd 58e9 2b3e 11eb 16be fc67 ec3b
000002f0: 873b d63d 5f03 e93b df2a c7bc 0a40 6dbd
00000300: 3bd0 25bc f445 15ba 1181 d63d 5a18 07bb
00000310: 70a3 f0bd 94a2 06be b6df 913d 74b1 c8bd
00000320: beaa 18be d2fe 063e 308c d0bd b77a aabd
00000330: 863c 8f3d e98c c83d 7e1e 3f3e 2149 253e
00000340: 2407 073e 6a10 56be 6b11 833d 2b24 44bd
00000350: 88f9 b4bd 81ba 93bc 50f6 c13e 5ae2 203d
00000360: 064d 62be b9aa bebd cf89 903e bb54 263c
00000370: a596 8fbd 5d36 0dbd b411 14be d2b7 df3d
00000380: bfba f4bd dc72 653e b031 9fbd bee7 f83c
00000390: 6f30 c23d 3289 543d 0071 d83c 924b 18be
000003a0: 4f14 41be 7b0a 2cbe f8f2 c03d 4cd6 323e
000003b0: b7a0 8bbd 3590 153e d61b 9e3d e6ff 1d3e
000003c0: 1c42 c3bd a244 39be 8efa 013e b9e9 973d
000003d0: da9b 0e3d cbb1 643e 2d91 b0bc 0b91 893d
000003e0: a050 203e 2dc3 c5bd 2645 9e3c a12a 4ebd
000003f0: c7c6 94be 468f b13e 56ba 223e 9e0d f7bd

layer2.6.weight f4 [10, 256]
-0.026992215 -0.025538148 -0.020774908 -0.028756278 -0.006653242 0.026339846 0.07518612 -0.02216402
-0.099132165 0.01438617 -0.02381991 -0.11907651 0.102265514 0.03710678 0.10856899 -0.052301716
0.0092156995 -0.082885906 -0.105939984 0.1047737 -0.021543711 -0.0039357394 -0.05562574 0.007692997
0.05220268 0.088731825 0.038824536 -0.016714588 -0.05152693 0.023077544 0.009533101 -0.025764083
-0.060494106 -0.09335357 -0.013792957 -0.035138503 0.044239223 6.739896e-05 0.07819899 -0.021986611
-0.082761176 0.0009233096 -0.021741837 0.08166534 0.047569603 -0.11758774 0.07268001 0.074838474
-0.054975104 -0.05461175 -0.09809372 -0.039482314 -0.021695966 0.011746352 0.06643467 0.021980664
0.098763086 -0.051519528 0.003405996 -0.039859697 -0.02139098 -0.113063976 0.05502907 0.05848724
-0.043018535 0.0023732348 0.027772766 -0.007137179 -0.06879785 0.0154520925 -0.021020267 -0.08481233
0.04176313 -0.084347434 0.023459803 0.07641116 -0.021933345 0.04675306 -0.057634823 -0.019679556
-0.047040828 0.06064253 -0.014020917 -0.04161875 -0.047039 -0.0015874971 -0.025484582 -0.008970535
-0.050438367 -0.0013812666 0.026155164 0.035608552 -0.033058662 -0.01402398 -0.0757292 0.02969483
-0.017322725 -0.015960706 -0.003615637 0.037050568 -0.011082519 0.110048525 -0.01325164 -0.054212518
-0.015105964 0.12310704 -0.06597254 0.014052756 0.094853535 -0.028393079 -0.028985351 -0.07253144
-0.039973866 0.03154046 0.062311813 -0.06106053 0.07639269 0.08401232 -0.0182878 0.008989397
0.070339955 -0.087903254 0.10437319 0.038280535 0.0024215172 0.029676937 -0.017763332 -0.09527264
-0.04285668 -0.010807347 0.041707423 -0.04058746 0.07319064 -0.013025242 0.026933761 0.101108044
0.0220466 0.022504678 -0.03785112 0.03594368 0.008418128 0.052740104 -0.035321437 0.010354676
0.039946392 -0.048338197 0.055122722 0.019338133 0.009954036 -0.009627627 -0.0228591 0.053832524
0.048767243 -0.07498418 0.015422887 -0.07424009 0.04615044 0.078619905 -0.05231112 -0.024631826
0.08245578 -0.080641106 0.11635266 -0.0888296 0.01336591 0.119291164 0.040728834 -0.09726819
-0.057218503 0.05683407 0.07384421 0.08753337 -0.050529137 0.0193001 0.014842654 0.01565287
0.02458028 0.04688188 -0.04457907 -0.02009329 -0.040431257 -0.018992206 0.012081393 0.0861754
0.078252025 -0.04271695 -0.04409867 0.009824649 0.077348806 -0.039024428 -0.06545191 -0.0030883357
0.060591944 -0.01695643 0.066947505 0.019252358 0.0035895603 0.043037258 0.037997752 -0.06130079
0.037427135 0.027423635 0.084474824 -0.07647016 -0.018638358 -0.08730708 -0.00751459 0.043978993
0.06966127 -0.068626255 -0.021977564 -0.089323536 -0.097958595 0.05471802 -0.055527184 -0.0033765538
0.02025892 0.054753345 0.033198807 0.03541871 0.07253792 -0.024061907 -0.018191628 0.0071957214
-0.024785616 0.011624097 0.11418127 -0.0059802695 0.107606836 -0.07820806 -0.06144012 -0.02580134
0.059172045 -0.020523045 -0.0074211336 -0.056382023 0.050496098 -0.04220182 -0.15529816 0.01121166
0.052397523 0.031480644 -0.057358142 -0.04589347 0.0018923904 -0.06188437 -0.08124314 0.019729212
0.0038191644 0.008524434 0.05019997 0.020943347 0.11359189 -0.10124084 0.04470162 0.015475144
00000000: c71e ddbc 6135 d1bc 2430 aabc 4992 ebbc
00000010: 7003 dabb a9c6 d73c 2efb 993d 5291 b5bc
00000020: ce05 cbbd f8b3 6b3c f921 c3bc 63de f3bd
00000030: 9570 d13d 47fd 173d 6b59 de3d 533a 56bd
00000040: 72fd 163c 16c0 a9bd 10f7 d8bd 9893 d63d
00000050: 707c b0bc 60f7 80bb d1d7 63bd 8915 fc3b
00000060: 7ad2 553d 08b9 b53d 7a06 1f3d 08ed 88bc
00000070: e70d 53bd 1e0d bd3c b930 1c3c 330f d3bc
00000080: abc8 77bd 2830 bfbd dbfb 61bc 64ed 0fbd
00000090: 3034 353d 8b58 8d38 cb26 a03d 441d b4bc
000000a0: b17e a9bd 420a 723a f01b b2bc 2840 a73d
000000b0: 58d8 423d d7d1 f0bd 42d9 943d ea44 993d
000000c0: 932d 61bd 92b0 5fbd 5ce5 c8bd 35b8 21bd
000000d0: bdbb b1bc c573 403c e60e 883d cb10 b43c
000000e0: 4d44 ca3d 2406 53bd 2137 5f3b ec43 23bd
000000f0: 233c afbc 168e e7bd 2966 613d 5190 6f3d
00000100: 3434 30bd 4688 1b3b b683 e33c ffde e9bb
00000110: e3e5 8cbd c62a 7d3c b232 acbc 16b2 adbd
00000120: d10f 2b3d 59be acbd c62e c03c 747d 9c3d
00000130: 8fad b3bc 2380 3f3d 7e12 6cbd 0537 a1bc
00000140: e2ad 40bd 4d64 783d fdb7 65bc 6c78 2abd
00000150: f7ab 40bd 9013 d0ba 0bc5 d0bc 27f9 12bc
00000160: 7698 4ebd 9e0b b5ba 5b43 d63c 46da 113d
00000170: 8568 07bd d6c4 65bc e917 9bbd 9242 f33c
00000180: 63e8 8dbc 07c0 82bc 53f4 6cbb 56c2 173d
00000190: 7493 35bc 1f61 e13d 681d 59bc f20d 5ebd
000001a0: 017f 77bc 8b1f fc3d 9c1c 87bd 883d 663c
000001b0: 9242 c23d 9a98 e8bc b072 edbc 5d8b 94bd
000001c0: a3bb 23bd 9230 013d ac3a 7f3d 9b1a 7abd
000001d0: c573 9c3d a70e ac3d 4cd0 95bc 4448 133c
000001e0: 650e 903d 9f06 b4bd 9cc1 d53d 0dcc 1c3d
000001f0: 51b2 1e3b 0c1d f33c 6884 91bc 4d1e c3bd
00000200: 7c8a 2fbd 4c11 31bc 67d5 2a3d 093f 26bd
00000210: f9e4 953d d367 55bc 31a4 dc3c bc11 cf3d
00000220: 129b b43c bb5b b83c c709 1bbd ae39 133d
00000230: 30ec 093c 0206 583d 36ad 10bd a9a6 293c
00000240: d49e 233d 46fe 45bd 5dc8 613d 016b 9e3c
00000250: 4116 233c 32bd 1dbc 0243 bbbc 7e7f 5c3d
00000260: 29c0 473d 4e91 99bd 47b0 7c3c 300b 98bd
00000270: 3e08 3d3d 7903 a13d 2f44 56bd afc8 c9bc
00000280: 93de a83d 2a27 a5bd 4e4a ee3d 4bec b5bd
00000290: b1fc 5a3c ed4e f43d 47d3 263d 8b34 c7bd
000002a0: f35d 6abd d7ca 683d a23b 973d b244 b33d
000002b0: a4f7 4ebd 3e1b 9e3c 9a2e 733c 733a 803c
000002c0: 955c c93c 3707 403d 8b98 36bd af9a a4bc
000002d0: 3f9b 25bd 8b95 9bbc 09f1 453c ba7c b03d
000002e0: 9942 a03d f8f7 2ebd cfa0 34bd 91f7 203c
000002f0: 0d69 9e3d 14d8 1fbd a70b 86bd ad65 4abb
00000300: 422f 783d 36e8 8abc c61b 893d 1fb7 9d3c
00000310: d43e 6b3b d647 303d 88a3 1b3d 8a16 7bbd
00000320: 324d 193d 88a7 e03c 2301 ad3d 639c 9cbd
00000330: 78af 98bc 0ece b2bd f33c f6bb 5123 343d
00000340: 91aa 8e3d ec8b 8cbd 4b0a b4bc 42ef b6bd
00000350: 849e c8bd 0120 603d 7970 63bd 2c49 5dbb
00000360: 09f6 a53c 0b45 603d 79fb 073d 3613 113d
00000370: c38e 943d 7a1d c5bc 9c06 95bc 16ca eb3b
00000380: 340b cbbc ff72 3e3c dfd7 e93d 23f6 c3bb
00000390: f960 dc3d 8c2b a0bd a3a8 7bbd 555d d3bc
000003a0: 635e 723d f21f a8bc fb2c f3bb d6f0 66bd
000003b0: ffd4 4e3d d1db 2cbd 7b06 1fbe 1cb1 373c
000003c0: c99e 563d d9f1 003d 5ff0 6abd cbfa 3bbd
000003d0: 160a f83a 777a 7dbd ce62 a6bd 289f a13c
000003e0: f24a 7a3b 11aa 0b3c 7c9e 4d3d 6291 ab3c
000003f0: dda2 e83d 5c57 cfbd 0c19 373d 758b 7d3c

layer2.6.bias f4 [10]
-0.1338007 -0.30884856 -1.6099197 -0.22432093 -0.25329354 0.10936307 -0.3365887 0.20946881
-0.33932346 0.1065275
00000000: 0d03 09be 6621 9ebe d911 cebf 63b4 65be
00000010: b1af 81be bff9 df3d 5b55 acbe fe7e 563e
00000020: cebb adbe 172b da3d
