Saved_data_files/helpdesk/lr_all_variants/weighted/EventPredictor_parameters_weighted_1e-05.pt (torch, 286735 bytes, 8 tensors)

layer1.weight f4 [4, 1]
000000 5c 44 29 3f aa 8e 18 3f 67 e4 48 bf bd d8 f6 3e
       0.66119933 0.5959269 -0.78473514 0.48212233

layer1.bias f4 [9]
000000 82 d2 bb be e2 da 84 3e 0c b9 b7 3e 69 da a7 be
       -0.36684042 0.25948244 0.35883367 -0.3278382
000010 75 be c5 3d 45 e3 da be af 2c ba 3e 17 4b 1f be
       0.096554674 -0.42751518 0.36362216 -0.15555988
000020 cf bc a9 3e
       0.33151862

layer2.1.weight f4 [256, 9]
000000 3e 76 89 3d 72 bb 2e 3e 50 e0 84 be 4f db 10 3d
       0.06712006 0.17063692 -0.25952387 0.0353654
000010 63 63 1a 3e 09 da 83 3e 2c 28 8e 3e cc 80 b4 bd
       0.15076976 0.25752285 0.27765024 -0.088136286
000020 fd 97 5c 3e 3b b5 22 3e 14 18 78 be dc 3e f9 3d
       0.21542354 0.15889446 -0.24227935 0.121701926
000030 84 55 a1 3e 27 5f 15 3d 45 a9 9b 3e 5f 41 48 3d
       0.31510556 0.036467697 0.3040258 0.048890468
000040 48 c4 40 3e 12 38 2e be f1 90 e6 3d e7 eb da ba
       0.18824875 -0.17013577 0.11258114 -0.0016702384
000050 00 6f e6 bd aa 1c c4 be d0 fc 15 be 41 eb 49 be
       -0.1125164 -0.3830312 -0.14647222 -0.19718648
000060 18 7f d8 3b 58 4a 20 be 97 c0 83 3e fe 38 e4 3e
       0.0066069476 -0.1565336 0.25732872 0.44574732
000070 86 ca 84 be ae f3 6f be aa ff 55 3d ad 6b e0 bc
       -0.25935763 -0.234328 0.052245773 -0.027395094
000080 ed 36 68 3e e7 0b 2a 3e ce 2b 09 be 2f b2 85 be
       0.22677203 0.16606103 -0.13395616 -0.26112506
000090 d7 48 ab bd cb 0f 73 3d ad 44 b9 be 14 25 5c be
       -0.083635025 0.059341233 -0.36185208 -0.21498519
0000a0 16 c3 80 3e 00 11 dd be 33 4d 6b 3d d9 0f 98 be
       0.2514884 -0.43177032 0.05744667 -0.2969959
0000b0 d6 17 31 bd 39 2c a6 be 5d 57 d1 3e 2c fc 02 bd
       -0.043235622 -0.32455614 0.40886965 -0.03197877
0000c0 ce 22 8f be cc b9 58 be 5e 9f 5d be 6a 4b 07 3e
       -0.2795624 -0.21164626 -0.21642825 0.13212362
0000d0 8f 66 95 3e c7 f7 52 3d 84 ba 80 3d fe 60 7f bc
       0.29179808 0.05150583 0.06285575 -0.01558709
0000e0 41 63 df be 94 b9 6e bd 3f 20 f4 be b5 79 6b be
       -0.43630412 -0.05828245 -0.47680852 -0.22995646
0000f0 4f f8 f5 bd e0 55 6d be 18 39 bb be c9 2d 8c bd
       -0.12010252 -0.2317729 -0.36566997 -0.0684467
000100 c0 a8 11 3d 26 d0 99 3d 7e e6 03 3e e7 7e 86 be
       0.035561323 0.07510404 0.12880895 -0.26268694
000110 74 50 20 be 77 15 c8 3d 28 c0 20 3e 56 06 2e 3e
       -0.1565569 0.09769719 0.15698302 0.16994604
000120 4e 37 7c bc 22 1a d2 3e cd 22 c0 3e 61 bf c5 be
       -0.015394045 0.41035563 0.3752655 -0.38622573
000130 f3 24 e1 3d 02 dc 15 3e a5 09 75 bd 98 5a 22 be
       0.10993376 0.14634708 -0.05982365 -0.15854871
000140 d9 87 0c be 25 dc af bd fe 99 8f bb 4c af 47 3e
       -0.13723697 -0.08586911 -0.004382371 0.19500464
000150 aa 60 7c 3e c0 1e ec 3c de e1 57 be a3 91 3b 3e
       0.2464625 0.028823256 -0.21082255 0.18317275
000160 63 48 58 3e ce 37 71 be c6 73 ea 3e 30 65 40 be
       0.21121363 -0.23556444 0.45791453 -0.187886
000170 80 5c 1f 3e b5 70 64 3e 30 60 9f be c5 44 49 be
       0.1556263 0.2230862 -0.31128073 -0.1965514
000180 bf a3 18 3e 82 84 b1 3d 9c 0b 4f 3e 5f e4 cd 3d
       0.14906214 0.08667852 0.20219272 0.10053324
000190 dd 98 a7 bc f9 10 bd 3e 8e 8c b9 3d 8f e1 65 3e
       -0.020458633 0.36927012 0.09060012 0.22449325
0001a0 ba bb 6b bc 72 fd 1d be e0 37 bd bd e2 9e 64 be
       -0.014388019 -0.15428713 -0.09239173 -0.22326234
0001b0 3b ed 1b 3e a9 48 4c 3e 14 7a 58 be bd 10 7e 3b
       0.15227215 0.19949593 -0.21140319 0.00387673
0001c0 cc aa 2c 3e 93 c3 12 3a e9 4e 46 bb 2c 0d 22 be
       0.16862029 0.0005598601 -0.0030259436 -0.15825337
0001d0 31 a1 fa 3d f7 9d 78 3d 68 7e 4d 3e 86 53 cc be
       0.12237776 0.060697522 0.20067751 -0.39907473
0001e0 7e f5 b8 3e 86 57 0d be 5d 2c b7 3e 46 57 f3 bd
       0.36124796 -0.13802919 0.35776034 -0.118818805
0001f0 26 8d 19 3e 4e 0b 6b 3c 1b 91 f8 be e4 4f 86 3e
       0.1499525 0.014345957 -0.48548207 0.26232827
000200 12 f9 5a bd 4b 40 0b bc f4 11 06 bd b3 b6 1d 3d
       -0.05346019 -0.008499215 -0.032731965 0.038504314
000210 71 6e ae 3e bb 34 21 3e 46 ad 90 be fb 58 81 3c
       0.34068635 0.15742771 -0.28257197 0.0157895
000220 2c 9f a1 3d d3 8f b2 be f0 17 db 3d 93 f8 e6 be
       0.07891688 -0.34875354 0.10697925 -0.45111522
000230 b2 bc a6 3e 10 de 55 3d 58 cd be 3d 3e 7a 9e bd
       0.32565838 0.05221373 0.0931651 -0.077381596
000240 03 89 9a 3e e2 21 7c 3e c0 57 e4 be d2 b4 59 3e
       0.30182657 0.246223 -0.44598198 0.21260384
000250 a7 d4 98 3e 93 2b a2 be 91 90 a2 3e 22 ee a7 be
       0.2984974 -0.3167387 0.3175092 -0.32798868
000260 2c cd d7 3d 0a 03 7f 3e 93 19 4a 3e 7b d9 37 3e
       0.1053718 0.24903503 0.19736318 0.17954056
000270 31 e4 98 3d 8f 4a 82 3e 6e a8 bd 3d 6f 64 53 be
       0.07465399 0.2544751 0.09260641 -0.20643781
000280 d3 00 60 be 4c 9e 73 be f8 4d 72 bd 4d ed 5f bd
       -0.21875314 -0.23790854 -0.059156388 -0.054669667
000290 ee 9b c5 be 07 5f 32 3e 1a f9 3a bd ce e5 44 3e
       -0.38595527 0.17419063 -0.045647718 0.19228289
0002a0 ca 4e 4e 3e b0 d9 ae 3e 69 94 9c be 7d c1 0f bf
       0.20147243 0.34150457 -0.30581978 -0.56154615
0002b0 c1 d1 bc bc 46 b2 2b bd 18 a6 d4 be d0 6d 56 3e
       -0.023049237 -0.04191806 -0.4153297 0.20940328
0002c0 d6 2d 77 be ed cb 99 bd ea 83 78 be 2e 4c 1f bd
       -0.24138579 -0.07509599 -0.24269071 -0.03889101
0002d0 cd b6 10 bd 10 ca 3b ba b7 ba 17 be 2c 02 2f 3e
       -0.035330582 -0.00071635935 -0.1481732 0.17090672
0002e0 0a f1 85 be c6 0c 92 3e a2 0d 98 3e d1 3d 8a be
       -0.2616046 0.2852537 0.296979 -0.27000287
0002f0 82 65 07 be 28 ad 0e 3e f5 39 5c 3e 95 d1 8e 3e
       -0.13222316 0.13933241 0.21506484 0.27894273
000300 62 1f 7d be 2c bc 9c 3e 55 38 4f be 7d 38 a7 3e
       -0.24719003 0.30612314 -0.20236333 0.32660285
000310 c1 24 97 bd ff 2a 8a 3e 84 79 36 bd e4 bb ad bc
       -0.07380057 0.26985928 -0.04454948 -0.021207757
000320 e2 dc d8 be 80 bf 35 3e 27 72 f3 bb 0b 1e eb bd
       -0.4235602 0.17748833 -0.0074293795 -0.114803396
000330 7a d4 a0 3d 89 ea 49 3d 81 a1 85 be 3d c9 23 3e
       0.07853027 0.049295936 -0.2609978 0.15994735
000340 a5 e4 9e 3e 15 b0 73 be e9 36 e4 be 5e d3 c7 bd
       0.31033817 -0.23797639 -0.44573143 -0.09757112
000350 76 86 be be 12 60 e0 bd 89 db b0 bd 24 af c3 3e
       -0.3721196 -0.10955824 -0.08635623 0.3821956
000360 72 34 38 be 4b 86 6d 3e a2 ab 23 be d7 67 2a 3e
       -0.17988756 0.2319576 -0.15983441 0.16641174
000370 6c 72 c6 3d fd 69 4e 3e db c3 50 3e 1e 3a ef bd
       0.09689793 0.20157619 0.20387213 -0.11681007
000380 33 35 5a bd e2 ee 83 be 1e 7c 4d bd 82 9e 81 3e
       -0.05327339 -0.2576819 -0.050167195 0.25316244
000390 22 3e 96 be bf 74 f8 3d da 56 88 3e e8 c9 6f be
       -0.2934428 0.121316426 0.26628762 -0.23416865
0003a0 d6 2e e9 3d 1f b4 46 be 06 aa 85 be 32 ef b2 be
       0.11385886 -0.19404648 -0.2610628 -0.34948117
0003b0 73 0f 8e 3e ef ed 36 3d f1 57 9e bc dc ae e5 bd
       0.27746162 0.044660505 -0.019329043 -0.112149924
0003c0 93 8e 8c be ec 99 22 3e e7 56 e0 bd 7b 43 9d 3e
       -0.27452525 0.15879029 -0.10954075 0.30715546
0003d0 12 39 65 3e 46 a2 16 be 22 0f 64 3e ce e7 26 bc
       0.22385052 -0.1471034 0.22271398 -0.0101871025
0003e0 d4 5c 5c 3c f6 25 0a bd 0b b2 06 be 3e d3 78 3e
       0.013449866 -0.03372761 -0.13153856 0.24299332
0003f0 0a dc ca 3d af 7f 73 bc 21 22 ee bc 14 b3 b3 3e
       0.0990525 -0.014861985 -0.029069008 0.35097563

layer2.1.bias f4 [256]
000000 0c fb 0a 3e 55 8b ae 3e 8d 23 b8 3e 32 6a af bd
       0.1357233 0.34090677 0.35964623 -0.08565177
000010 95 31 c2 3d 2e dc 9f 3d 2d 5a a5 be 91 a2 53 be
       0.09482113 0.07805668 -0.3229536 -0.20667483
000020 6f cb f7 3d 81 da d2 bd 45 4a 9f be 5d 21 5b bc
       0.12099349 -0.102955826 -0.3111135 -0.013374654
000030 61 b4 f7 3e 0c 9c b6 bd 5b 6e ef 3d 13 3f 01 bf
       0.48379806 -0.08916482 0.116909705 -0.5048687
000040 b4 21 cd bd 24 8d 66 3e bd 8c ab bd b7 94 87 3e
       -0.10016194 0.22514778 -0.08376453 0.26480648
000050 81 79 7e 3e e7 2b 01 3e e5 42 42 bd 08 ed 2d 3f
       0.24851038 0.12614404 -0.047427077 0.67939806
000060 39 ed 49 be 2b 0f 7a bd 0c a6 c4 3d 11 7b 83 3e
       -0.197194 -0.06104962 0.096019834 0.2567983
000070 1f b6 75 be cd 25 0e 3e 6b 3b 8a 3e f9 94 43 be
       -0.23995255 0.13881607 0.26998457 -0.19099797
000080 d1 f1 06 3f 5a 3b 00 be 6e 91 5e be fd 43 c1 3d
       0.5271273 -0.12522641 -0.21735165 0.09436796
000090 33 3a d5 bd aa 47 86 3e 0a 48 e7 3c 3a ce cf bd
       -0.10411491 0.2622655 0.028232593 -0.101467565
0000a0 ce 6e 9b 3e d5 76 90 3d 24 df aa 3e 63 40 48 be
       0.30357975 0.070539154 0.33373368 -0.19555812
0000b0 bb a7 1b 3e 51 df a8 bc 71 17 b1 3d 46 71 54 3d
       0.15200703 -0.020614298 0.08647049 0.05186584
0000c0 6f 82 2e be c3 9b e1 3e 98 37 f1 3e 2d 23 9d bc
       -0.17041944 0.4406415 0.47112727 -0.019181812
0000d0 75 70 80 3e 2c d1 67 3e 58 01 84 be a1 ef 9d 3e
       0.25085798 0.22638386 -0.25782275 0.30846885
0000e0 c8 b4 63 3e 07 21 32 3d cf da 6f 3e f8 1c 80 bd
       0.22236931 0.04348853 0.23423313 -0.06255525
0000f0 9b 1d 8b 3e 6b 57 a4 be 53 7d 23 bd 50 b5 14 bd
       0.27171025 -0.32097945 -0.03991444 -0.036305726
000100 60 33 2f 3e 1b 27 9a be a0 a7 69 3e aa 8d 77 3c
       0.17109442 -0.3010796 0.2281785 0.015109459
000110 a3 f8 19 bf 6b bc d7 3e 10 65 4a be be db 4d 3e
       -0.60145015 0.4213594 -0.19765115 0.20103356
000120 4d 00 6b 3e 9b da 81 3e 31 98 75 bd 65 6e 26 be
       0.22949333 0.25362095 -0.059959594 -0.1625305
000130 02 8b 9b 3e fc 54 57 bd 5d 48 8d 3e 3a f3 a6 be
       0.30379492 -0.05257128 0.2759427 -0.32607442
000140 6f 8e 04 bf 0a 80 fe be 5a e6 17 3e 18 25 a4 be
       -0.51779836 -0.4970706 0.14833966 -0.3205955
000150 a1 cf 1f 3e 78 47 e1 3c 2c 28 04 3f c5 ef 62 be
       0.15606548 0.0274999 0.516238 -0.22161777
000160 c2 d5 bb be 77 4b c4 3e ba bc 66 be c6 c1 76 3f
       -0.36686522 0.38338825 -0.22532931 0.96389425
000170 a4 66 79 be 7c c7 e4 3e 71 3e a6 be eb 26 9c bc
       -0.2435556 0.44683444 -0.32469514 -0.019061526
000180 a4 55 f1 bd 5d 06 9b 3d f2 3a 4b 3e 05 4f e0 3e
       -0.11783913 0.07569573 0.19846705 0.43810287
000190 15 3c d4 3e 3f 81 07 3f 59 35 80 3e 72 d5 0c 3e
       0.4145209 0.5293159 0.250407 0.13753298
0001a0 26 8f 50 3e 09 a4 e7 3d 0b 5c 29 3e 13 80 b6 be
       0.20367107 0.11310584 0.16539018 -0.35644588
0001b0 26 27 7a be 32 4b c9 3e 26 2a db be 83 9f 62 3e
       -0.24428996 0.39315182 -0.42805594 0.22131161
0001c0 a1 e1 75 bd 83 07 4c 3a 8c 29 4d 3e 01 4f b1 3e
       -0.06002963 0.0007783102 0.2003538 0.34630588
0001d0 2a 06 23 be 2b 9f a2 be f1 77 f1 bd 55 09 90 3e
       -0.1592032 -0.3176206 -0.11790455 0.2813212
0001e0 84 d6 89 3d cd 7f 68 bd c8 46 35 be 31 50 36 bc
       0.06730369 -0.056762505 -0.17702782 -0.011127518
0001f0 39 3d 3d bc 0d 78 38 3e 4c 62 62 3e 72 25 07 bf
       -0.011550241 0.18014546 0.2210781 -0.5279151
000200 73 82 c2 3e a8 64 70 be a4 6a 2e be 22 f1 cd be
       0.3799015 -0.23475897 -0.17032868 -0.40223032
000210 3f b6 3a bd 1b 06 2c 3c 94 1b 6a 3f 39 43 da 3e
       -0.04558396 0.0104995025 0.9144833 0.42629412
000220 48 9a dc 3d cf 78 fe bd fc 13 69 bf 2f c4 0e 3e
       0.10771614 -0.12425386 -0.9104612 0.13942026
000230 b6 88 13 bf ae a7 36 be b0 4e 96 bf 8e 6e 44 bd
       -0.5763048 -0.17837402 -1.1742764 -0.047956996
000240 26 bb 62 3f 6c 3c 15 3e a8 51 a2 be 33 4a 07 3f
       0.88566816 0.1457383 -0.31702924 0.52847594
000250 38 8e 17 be 99 13 18 3c 0f 2a 4f 3d 7e f7 cf 3e
       -0.14800346 0.009282016 0.05057722 0.4061851
000260 b8 ec d2 bd 8b de a8 3d e9 88 c5 3e 7e f6 77 be
       -0.10299057 0.08245572 0.38581017 -0.24215123
000270 75 fd 7e be 3a 8b a5 3e 92 f1 de be 8c 54 b5 be
       -0.24901374 0.32332784 -0.4354368 -0.35416067
000280 20 50 d7 3e 8a 12 97 3e 41 11 04 bf 73 55 51 3e
       0.42053318 0.29506332 -0.5158883 0.20442753
000290 26 b4 a0 3e 62 02 ab 3e 27 00 a7 3e a2 84 a0 bd
       0.31387442 0.33400255 0.32617304 -0.07837798
0002a0 3a a7 5b 3e db 53 37 3e 6a f1 da 3e ef 86 c3 3e
       0.2145051 0.17903082 0.4276231 0.38188884
0002b0 91 b1 d1 3d 70 b8 63 be c1 c2 c5 be 0e 86 3a bf
       0.10238946 -0.22238326 -0.38625148 -0.728608
0002c0 ba 19 a6 be f7 1a 1b 3d 5d 48 07 3e c4 02 8c 3e
       -0.32441503 0.037867513 0.13211198 0.2734586
0002d0 c1 1c 2b be fd 5d a9 3d 77 38 82 bd d7 0c 41 be
       -0.16710187 0.0826988 -0.06358426 -0.18852554
0002e0 4d 37 de bb 38 b2 2a 3e 72 1a 15 3e cf 9b 55 be
       -0.0067814947 0.16669548 0.1456087 -0.20860218
0002f0 81 ba d0 3d 77 92 13 3f 2d 49 ce bd 0b 35 ff bd
       0.10191823 0.5764536 -0.10072551 -0.12461289
000300 0f b3 d3 be a2 e2 a9 3e ae c6 5f bf 8d 51 8e 3e
       -0.41347548 0.3318072 -0.87412536 0.27796593
000310 7b 83 db bd c5 2d f1 bc 53 31 3d bd f8 0f 0a 3e
       -0.10718437 -0.02944077 -0.046189617 0.13482654
000320 18 e7 14 3b 2a d8 af 3e db 54 13 bd d7 a1 f6 3d
       0.002272075 0.34344608 -0.035969596 0.12042587
000330 2f 69 7a 3e a5 c1 de 3e 80 1f 4e be d6 de be 3e
       0.24454187 0.43507114 -0.20129204 0.37279385
000340 60 d0 a2 3e 43 4d 9b 3e e0 c0 1a be 28 67 b5 3e
       0.31799603 0.30332384 -0.15112638 0.35430264
000350 f6 cf 04 3d b7 f2 cb be ad d4 b1 bd e9 a6 0c be
       0.03242489 -0.39833614 -0.08683143 -0.13735546
000360 51 f0 c8 be 22 cb c4 3e fd fe 73 3e 86 97 98 bc
       -0.39245847 0.38436228 0.23827739 -0.01862694
000370 59 a4 5f 3d 0d b1 f7 3e 72 6d bb bc c6 8c 2c 3e
       0.054600094 0.48377267 -0.022879336 0.16850576
000380 2c 9b 5f be eb 87 ed 3c 09 31 e3 3d 71 26 07 3f
       -0.21836537 0.028995475 0.11093337 0.5279303
000390 48 2e 7b be 99 a6 99 be e9 4c 9c 3e 25 34 c6 3e
       -0.24529374 -0.30009916 0.30527428 0.38711658
0003a0 dd ef 2e bd 55 44 63 3e ff ec ff ba 53 81 a4 3e
       -0.04270922 0.22194035 -0.0019525586 0.32129917
0003b0 2d ac ef be f4 e1 3c bc 9a 5d 9b 3d 05 b6 15 be
       -0.46811047 -0.011528481 0.075862125 -0.14620216
0003c0 6b 83 ca 3e 29 53 88 3e 6d 5b d4 3e 20 01 56 bd
       0.3955339 0.26625946 0.41476002 -0.052247167
0003d0 7f a5 f5 3e c9 37 92 be d9 83 be be c2 1a 9a be
       0.47977826 -0.28558186 -0.37209967 -0.3009854
0003e0 d3 48 4a 3f 46 35 8a bd dc d6 96 3e 05 81 02 3e
       0.7901737 -0.06748442 0.294608 0.1274453
0003f0 1a 91 dc 3d 88 f6 cd bc 0e e4 a8 3e 32 e6 85 3d
       0.107698634 -0.02514197 0.32986492 0.06538047

layer2.3.weight f4 [256, 256]
000000 00 b7 da bc cf 1e 37 bd bc 6a 4e bc 9e b9 e9 bb
       -0.02669859 -0.044707116 -0.01259869 -0.007132723
000010 04 a7 78 bd 8a 16 d3 bc 68 49 02 bc 2a 20 fd bc
       -0.060706154 -0.025767583 -0.007952072 -0.030899126
000020 22 cf 8c 3b 7d 3d 83 bd bb 4e 23 bd 0e 95 f3 bc
       0.004297153 -0.06408212 -0.039870005 -0.02973416
000030 ac f8 82 3d 05 53 cf 3c 6e 0e 48 3c 3f 61 d9 3b
       0.06395087 0.025308141 0.012210472 0.006633907
000040 16 cc 86 3c f4 44 44 3c f1 48 7f 3d 5f 52 79 bd
       0.016454738 0.01197933 0.06232542 -0.06086957
000050 1f 15 e0 bc cf 73 09 bd 98 c7 0c 3d 77 cb b9 3c
       -0.027353821 -0.03355771 0.034370035 0.022680027
000060 3e ce ed bc a1 de 05 3c b2 41 9c bc 8b 22 4c bc
       -0.029029008 0.008170755 -0.019074295 -0.012459408
000070 3f cb 11 bc a9 ff 3f bd cd e0 00 bd fe 90 79 bc
       -0.008898555 -0.046874676 -0.031464387 -0.015232323
000080 99 77 48 bd 28 55 a4 bd bd 67 89 3c bf cd 83 bd
       -0.048942182 -0.08024055 0.0167731 -0.06435727
000090 42 e0 4b bd 54 16 e3 3c 1a a7 bf 3c c6 40 9b 3c
       -0.049774416 0.027720608 0.02339511 0.018951785
0000a0 e0 26 ac 3b ed a0 0a 3d 32 69 74 3a 60 d7 2f bd
       0.0052536577 0.033844877 0.00093235367 -0.042930007
0000b0 bb 96 1b bd 36 68 14 3c 00 2a 6e bd c3 22 8c 3c
       -0.037985545 0.009058049 -0.058145523 0.01710642
0000c0 80 5e f5 bc 09 f7 93 bc f6 f6 da 3c e7 18 51 3d
       -0.029952288 -0.018062131 0.026729088 0.05104914
0000d0 24 be c8 bc 83 b5 c0 bc 2e d6 83 3d 1c c7 be 3c
       -0.024504729 -0.023524052 0.06437336 0.023288302
0000e0 65 53 8a bc 03 ad c6 bb 4b 7e 65 3d 79 88 1c bd
       -0.016885469 -0.006063105 0.056028645 -0.038216088
0000f0 3c ed 77 bd 4f 14 84 3c e8 31 f2 bb 7c e1 26 bd
       -0.06052898 0.016122965 -0.007391203 -0.040742382
000100 19 7f 2d bd d4 90 1a 3d 87 00 dc 3b 67 75 2c bb
       -0.042357538 0.037735775 0.00671393 -0.0026315094
000110 8e ef 2f 3d 60 51 94 bc c8 15 ce bc 75 63 0a bd
       0.042953067 -0.018105209 -0.02515687 -0.033786256
000120 83 4b d5 3a c8 fb 4a 3d ac aa 23 bc 9a a6 43 bd
       0.0016273115 0.049556524 -0.009989422 -0.047766306
000130 78 db 8a 3b b0 81 95 bc ea 64 bc 3c 8a b8 1e 3d
       0.0042375885 -0.018250316 0.022997338 0.03875021
000140 7d c8 02 bd 04 0e 8a bd 82 f5 8c 3b 83 be 2b 3d
       -0.03192948 -0.067409545 0.0043017277 0.041929733
000150 81 61 a0 bc 97 5a b5 bc 31 21 8b bc 89 24 c0 3b
       -0.019577743 -0.022137923 -0.0169836 0.0058637303
000160 15 28 b2 bb 08 c7 6b 3c 6b 32 be 3c 78 10 38 bc
       -0.005436907 0.0143907145 0.0232174 -0.011234395
000170 30 b4 8c bd 80 1f 8b bd a4 94 e8 3c 27 62 b4 bc
       -0.068703055 -0.067931175 0.02839119 -0.022019459
000180 c2 57 e8 3c 4a a0 8d bc 13 25 c1 3c 38 a6 9c 3b
       0.028362159 -0.017288346 0.023577249 0.004780557
000190 45 6c 68 bd c7 6c 4d 3c b2 20 f1 3c 37 fb 25 bc
       -0.05674388 0.012538142 0.029434536 -0.010130695
0001a0 d3 18 89 3d e7 62 6b 3d 6b 29 26 3d 44 75 9e ba
       0.06694188 0.057467368 0.040566843 -0.0012089391
0001b0 d8 64 5e bd 2d dc 3c bc 17 23 e3 bc 8d 3b 76 bd
       -0.05429539 -0.011527103 -0.027726693 -0.060115386
0001c0 31 61 2d 3d 87 e9 8e bd 2c e0 3c bd f2 7f 3c 3d
       0.042329017 -0.069781356 -0.046112224 0.046020456
0001d0 d6 ac 96 3c 31 23 96 3d 78 0f ef bc 93 d9 92 bc
       0.018392961 0.07330931 -0.02918218 -0.017926013
0001e0 5d 5e 1e bd 49 c2 b2 3c 7b 2f eb bc 21 1c 16 bc
       -0.03866421 0.021821158 -0.028709164 -0.00916198
0001f0 7b 2e 00 3c 06 a3 89 3d 58 63 bd 3d ea fa 95 3d
       0.007823582 0.067205474 0.09247464 0.07323249
000200 6f c6 a1 bd 91 e7 c1 3c 9c 7a 94 3b 9f 71 3f bd
       -0.07899176 0.02366999 0.0045312177 -0.046739217
000210 a1 e8 34 bd a3 3b 7a bd 16 e1 49 3c d3 74 a2 bc
       -0.044167165 -0.06109203 0.012321731 -0.019831097
000220 85 6c eb bc d5 f0 59 bd 73 f7 5c bd b3 63 e8 3c
       -0.02873827 -0.05320819 -0.053946923 0.028367853
000230 2c 88 62 3d 18 b7 0f 3b 62 61 6d 3d 97 54 3f 3d
       0.055305645 0.00219292 0.0579542 0.04671153
000240 76 8b 2a 3d b4 90 95 ba 7e e6 c0 3c 21 40 22 3d
       0.041636907 -0.0011410923 0.023547407 0.03961194
000250 1d 58 29 3d f9 44 93 bb 3d a6 ed 3c 9b 00 97 3d
       0.041343797 -0.004494306 0.029009933 0.07373162
000260 25 f8 34 bd 43 ab 4c bd 22 b1 d8 3d 12 74 eb 3b
       -0.04418196 -0.049968015 0.105806604 0.0071854675
000270 f1 97 7a 3c 4d 3a ff 3a 1e f3 1f 3c b6 86 f6 bb
       0.015295015 0.0019472331 0.0097625535 -0.007523383
000280 83 26 ed 3c 8f 15 ba bd d0 e2 cc bd 64 17 22 bd
       0.028949028 -0.09086143 -0.100041986 -0.03957309
000290 12 13 39 bd 83 1d 6f 3c 07 a2 e2 bb c0 dd 03 3b
       -0.045184202 0.0145944385 -0.006916288 0.0020121187
0002a0 dc 2c 99 3c d6 07 b8 bc ad e1 dc 3c 48 e7 2d 3d
       0.018698148 -0.022464674 0.02696308 0.042456895
0002b0 c7 f8 70 bc b1 b5 aa bd 03 a1 8d bc 68 72 64 bc
       -0.014707751 -0.08335436 -0.01728869 -0.013943292
0002c0 c6 0a 2f bd 1c 72 85 3b 6c 0b 68 3d bf c7 c4 3c
       -0.042734884 0.004072441 0.056651518 0.024021028
0002d0 fa c5 84 bd 27 70 4c bd 59 ce df bb 1b ec 4c 3d
       -0.064830735 -0.049911644 -0.0068300185 0.050029855
0002e0 4f fb 05 bd 50 c6 5c bd 57 5d 5a bd 7b 19 85 3c
       -0.03271037 -0.053900063 -0.053311672 0.016247502
0002f0 cd c9 62 3d cd 89 14 3d 3f 7e 57 bc 2f 52 10 bd
       0.055368233 0.03626423 -0.013152658 -0.035234626
000300 40 53 f4 bc 35 a1 ed bc 3d 8c 2f 3c 3a d6 f0 3c
       -0.029824853 -0.029007534 0.010714588 0.029399026
000310 1e 0a 4e 3d a3 6a 72 bc 7f 4f ce 3b 3f 42 6f bd
       0.050302617 -0.014795932 0.0062960978 -0.058412787
000320 f4 74 77 3d 79 01 a7 bc 15 14 9c bd 70 5a 1b 3d
       0.06041427 -0.020386444 -0.07621018 0.037928045
000330 b0 83 24 3b e9 8d a9 3d a0 6e 67 3d a9 bb 55 bd
       0.0025102906 0.0827902 0.056501985 -0.05218092
000340 44 3e 4d bd 4f c8 3f bd 23 db 86 3d 41 db 46 3d
       -0.05010821 -0.04682189 0.06584766 0.04854894
000350 ae fd 69 3a ef 3c b8 3b 16 dd d8 bb 5e 39 c7 3c
       0.0008926046 0.005622498 -0.0066181524 0.024319347
000360 f4 22 69 3c a3 54 86 bd 16 ea 16 3b fb 93 9c bd
       0.014229525 -0.06559112 0.002302771 -0.076454125
000370 71 d3 26 bd d1 58 b9 3c 1d 38 c7 bc b2 6b 2e bc
       -0.04072899 0.022625359 -0.02431875 -0.010645794
000380 39 73 33 3d 90 5d 96 bb 5e 8a 2f 3d 67 26 c1 bc
       0.043811057 -0.0045887902 0.042856567 -0.023577882
000390 db a0 4b ba 3a 27 2b bd b4 24 a1 bc 89 64 8c bc
       -0.0007767805 -0.041785456 -0.019670822 -0.017137783
0003a0 2a 26 88 3c 1f e0 3a bd 70 b8 bb 3c de f2 26 bd
       0.01661976 -0.045623895 0.022915095 -0.04075896
0003b0 2e 1e a0 3b a5 86 0b 3d e6 66 57 bd 69 09 23 3d
       0.00488641 0.034063954 -0.052588366 0.039803896
0003c0 85 70 3b bd 98 bc 19 3c 54 02 7f bd a3 f8 08 3c
       -0.045761604 0.009383343 -0.06225808 0.008360061
0003d0 c5 97 e6 38 66 a8 61 bd 5c 84 2d bd 5c 95 0f bd
       0.00010995524 -0.055092238 -0.042362556 -0.03505455
0003e0 93 f4 21 3c a7 dc b7 bc 68 eb 28 bb 40 14 47 bd
       0.009884971 -0.022444082 -0.0025775079 -0.048603296
0003f0 01 58 89 bc 49 a8 c3 3c ca d0 23 3c 63 0b e0 bc
       -0.016765596 0.023883956 0.00999851 -0.02734918

layer2.3.bias f4 [256]
000000 0b eb b4 be 47 8f 43 be 9c 62 2c be 26 a0 6e be
       -0.35335574 -0.19097625 -0.16834491 -0.2330328
000010 9a f4 33 3e f3 a7 56 3e 36 00 c5 3e 58 bf ea 3d
       0.17573777 0.20962505 0.38476723 0.11462277
000020 1f 17 d4 3c f0 34 9f be d9 f0 91 be 25 24 5c be
       0.025889931 -0.31095076 -0.28504065 -0.21498163
000030 27 5d 97 3e 5f 31 13 bd fb af c4 3d c0 e1 ac 3e
       0.29563257 -0.035935756 0.09603878 0.33765984
000040 34 20 0b bf 20 11 00 3d ea ab ae 3e da 97 26 3e
       -0.54346013 0.03126633 0.34115535 0.16268864
000050 1f 67 dc 3a e1 9e f8 be 62 52 c8 be 33 77 b8 be
       0.00168154 -0.48558715 -0.39125353 -0.36028442
000060 1c 81 fe be eb 28 b5 3e 99 b4 4a 3e 25 f3 03 be
       -0.49707878 0.3538278 0.19795455 -0.12885721
000070 41 d2 c8 be e1 d5 6c 3e 79 53 f1 be df fe 77 3e
       -0.3922291 0.23128463 -0.47133997 0.2421832
000080 67 e5 a7 be f8 97 96 be a0 81 92 3d 1f c1 b8 be
       -0.32792208 -0.29412818 0.0715363 -0.3608484
000090 43 bd ac 3a 48 7b d3 be d0 c1 51 be ea 43 3c be
       0.0013178963 -0.41304994 -0.2048409 -0.18385282
0000a0 a6 28 ba be a6 c3 9c 3e 2b bc cd 3d 4c 07 95 be
       -0.36359137 0.30618018 0.10045656 -0.2910713
0000b0 ea cf 5f be ca 4b d2 3d f3 27 cd be f4 86 dd be
       -0.21856657 0.10268362 -0.4006954 -0.43267024
0000c0 41 69 0b bf 3d f1 bd bd 79 88 52 3e 01 ab 5f be
       -0.5445748 -0.09274528 0.20559873 -0.21842577
0000d0 ca e8 dd be f7 7b 9a 3e 35 8a a2 3e fa 3a 7e 3e
       -0.43341666 0.30172703 0.3174607 0.24827185
0000e0 42 dd ae be 51 cc bd 3e 4b 17 e3 3c 21 7c 12 3f
       -0.3415318 0.37069944 0.027721068 0.57220656
0000f0 07 38 df be d9 3f be 3e 79 b6 7c 3e 66 79 e2 3e
       -0.43597433 0.37158087 0.24678983 0.44233245
000100 79 17 dd bd 28 94 d6 3e d9 ee 07 bf c3 fc 88 3e
       -0.10795493 0.4190991 -0.5309883 0.26755342
000110 b0 13 24 3e 57 d4 ae 3e 3b d5 fe 3e 9f 5d 6e bd
       0.16023135 0.34146377 0.49772057 -0.058194753
000120 76 96 68 3e 23 5b 4e be f0 ec c5 3e d8 be a6 3e
       0.22713646 -0.20151953 0.3865733 0.32567477
000130 9a 70 b0 3e 7c 0e 2d 3d 8b c2 77 be 0c ba 8c 3e
       0.34460908 0.04225014 -0.24195306 0.27485693
000140 37 1b b3 be 7c 78 20 bd 4b 68 19 bc 2e 1d 03 3f
       -0.349817 -0.039177403 -0.009363244 0.512164
000150 d8 d1 d0 bc 62 b0 94 be e7 1c 37 3e 77 e5 93 3e
       -0.025490686 -0.2904082 0.17882119 0.28886005
000160 e0 85 bf 3e a7 33 9c 3e df ef 08 be 12 3b c0 3d
       0.37406826 0.30508158 -0.13372754 0.09386267
000170 01 d3 9c 3e 16 21 02 bf 61 52 d6 bd 5c 3a 0a be
       0.30629733 -0.50831735 -0.10464931 -0.13498825
000180 7a 9a c4 3e a9 16 b9 bd 06 28 06 3f c8 48 d2 3d
       0.38399106 -0.09037525 0.5240482 0.10267788
000190 56 a0 fc 3e e6 fa 53 be 62 df 73 bc 85 f8 87 bc
       0.49341077 -0.20701179 -0.014884802 -0.016597996
0001a0 9f 1f ee 3b 60 41 0c 3e 50 f8 8b be c5 61 20 be
       0.007266953 0.13696814 -0.27337885 -0.15662296
0001b0 33 6d 02 3e 66 61 81 be ba 46 0a be 16 74 b7 3c
       0.12736969 -0.25269622 -0.13503543 0.022394221
0001c0 4a 45 b8 be 73 31 db bc 58 0a d1 3e 12 9e 9d 3e
       -0.35990363 -0.026756978 0.40828204 0.3078466
0001d0 73 8a af bd 4e c9 44 bd 2d c1 b1 be 65 41 20 3e
       -0.08571329 -0.04804354 -0.34717694 0.15649946
0001e0 9d fc 99 3e 5e 28 a1 be 7f 27 72 be ad e2 87 be
       0.3007554 -0.3147611 -0.23647879 -0.26540127
0001f0 22 dc 7a 3d 55 a4 19 3e 4e d3 91 be d9 b3 0b 3f
       0.06124509 0.15004094 -0.28481525 0.545713
000200 54 f7 14 be a1 03 a3 3d 8c 88 b9 be 97 5d ea 3e
       -0.14547473 0.079596765 -0.3623699 0.45774528
000210 94 f8 4a be af 1a 96 bd 75 7c c9 3e 19 a4 37 3e
       -0.19821388 -0.07329308 0.39352766 0.17933692
000220 5a a9 71 3e a6 81 bf 3d 3e 88 04 3f f9 ca e5 3e
       0.23599759 0.093509 0.5177039 0.44881418
000230 1f 62 01 3e 94 05 fe be 41 c3 2a 3c 5c 1f cc bc
       0.12635086 -0.4961363 0.010422529 -0.024917297
000240 09 23 07 3f 32 91 64 3e 26 23 0c bd 4a 98 d2 3e
       0.52787834 0.22321013 -0.034213208 0.41131812
000250 7b e9 58 3c 79 a7 a0 be 06 8d 48 be 38 b9 ea 3e
       0.01323926 -0.31377771 -0.19585046 0.45844436
000260 78 ed 96 3e 38 3a d2 be 79 25 ec 3e a2 4d 10 3d
       0.2947805 -0.41060042 0.4612234 0.035230286
000270 86 a2 12 3e d2 d8 a9 bd e6 6a cc be c3 cc ae be
       0.1431981 -0.08293308 -0.39925307 -0.34140596
000280 cd b9 1a bf b0 c9 c9 3c ac 42 01 3e 84 12 fd bd
       -0.6043976 0.024632305 0.1262309 -0.12357047
000290 4e 8d fa be e7 62 9d be 6f 9a b3 be 04 80 3a 3e
       -0.48935932 -0.3073952 -0.3507876 0.18212897
0002a0 46 9f be be a4 23 5b be 9e b0 6c 3e f0 78 99 be
       -0.3723089 -0.21400315 0.23114249 -0.2997508
0002b0 69 85 81 3d 53 97 20 bf 10 25 64 3d f4 ce 07 bf
       0.06324274 -0.627309 0.055699408 -0.5305016
0002c0 99 e5 70 bd da 01 8a 3e b5 3f 04 3e f9 9b 50 bd
       -0.05881271 0.26954538 0.12914927 -0.050929997
0002d0 aa 67 0a be 6c 9f 11 3f 4f b9 a7 bc 82 39 11 3e
       -0.13516107 0.56883883 -0.020474104 0.14182094
0002e0 c7 f3 0b bd 6b a1 b2 3e 74 f3 ba 3d e0 e4 a2 3e
       -0.03416803 0.34888777 0.09128466 0.31815243
0002f0 fc 60 61 3e d5 ad ba be d9 c3 aa 3e 59 80 8a 3e
       0.22009653 -0.36460748 0.33352545 0.27051046
000300 ed f3 4d be ce e9 d5 bd 06 60 9b be 25 1f df be
       -0.20112582 -0.10444985 -0.30346698 -0.4357845
000310 09 c7 73 be 77 47 e9 3e 42 ac ea bd dc 04 4d be
       -0.23806395 0.45562336 -0.11458637 -0.20021385
000320 84 9a 9e 3e 65 88 de 3e e0 7b dc 3d ce c5 f1 be
       0.3097726 0.43463436 0.10765815 -0.47221226
000330 38 44 0c bf 9e 41 3d be 00 8b 03 bf b7 2a 94 be
       -0.54791594 -0.18482062 -0.5138397 -0.2893884
000340 23 02 8f 3e f5 c7 41 3d cf 53 cb 3e c0 66 c9 3d
       0.27931318 0.047309835 0.39712378 0.09834051
000350 33 05 44 be 9f 07 c4 bd 47 83 29 be 1f b3 fe 3e
       -0.19142608 -0.09571766 -0.16553985 0.49746034
000360 36 8a 58 bd 20 01 9b bd 23 5c 94 bd 3d a3 e1 be
       -0.052866183 -0.07568574 -0.07244136 -0.44069853
000370 ad 3c 03 be fc 1f 62 be 23 72 ef be e3 81 61 be
       -0.12816115 -0.22082514 -0.46766767 -0.22022204
000380 fe 9c 60 bd d4 f2 db 3e 86 4c c5 3e ac 69 ea be
       -0.05483722 0.429587 0.38534945 -0.45783746
000390 6f 0b 0a bf 61 01 d1 3c d8 0d 72 bd 64 09 26 3e
       -0.53923696 0.025513353 -0.059095234 0.1621452
0003a0 64 69 ea be 7a 9e 37 be 70 8f 84 3e 6d 11 6a 3d
       -0.45783532 -0.17931548 0.25890684 0.057145525
0003b0 60 ff 58 bd f0 27 e7 3d 9d 1a a2 be a6 80 3d be
       -0.05297792 0.11286914 -0.3166093 -0.18506107
0003c0 3a c3 09 3d 9b ab 66 be ac a5 d4 be b3 93 4d 3d
       0.03363345 -0.225264 -0.41532648 0.050189685
0003d0 62 2e a6 3e 26 1b 7b be 5b cc 46 be 56 b6 53 3e
       0.32457262 -0.24522075 -0.19413893 0.20675024
0003e0 ee 4e 4e be 00 7a 02 bf 42 65 92 3e 3d 9f ef bc
       -0.20147297 -0.5096741 0.2859288 -0.029250735
0003f0 c8 6b 01 bf 72 16 a9 be a9 a8 c3 3d 94 89 01 3f
       -0.50555086 -0.33024937 0.09553654 0.5060055

layer2.6.weight f4 [10, 256]
000000 8f 1b e2 3c 31 83 a1 3d d1 48 d5 3d 50 81 89 3d
       0.027601032 0.07886351 0.10414279 0.067141175
000010 38 d6 fa 3c 1d 07 4f bc 33 dc 19 bd 94 d9 9f bb
       0.030619726 -0.012635973 -0.037563514 -0.0048782323
000020 a9 8a aa bc 56 f4 0f 3e 00 8e b8 3d cf 0c 8d 3d
       -0.020818071 0.1405805 0.09011459 0.06887209
000030 01 40 0f bd d6 42 d7 3c 48 fb a5 3c 6b 16 1e be
       -0.03497315 0.026276987 0.020261422 -0.1543824
000040 da 7b c4 b9 78 37 06 bd 33 e5 6f 3b 00 4c 8c 3c
       -0.0003747631 -0.032767743 0.003660512 0.017126083
000050 fe a9 ba bd 97 dc 98 3d b1 05 1f 3e 2b 25 28 3e
       -0.09114455 0.07463949 0.15529515 0.16420428
000060 ff 06 13 3c 59 dd 24 bd f9 04 1b bd f6 40 15 3c
       0.008973836 -0.040250156 -0.03784654 0.009109726
000070 86 3e 02 3d f7 b4 5e bd 4c af 47 3d e5 af a5 bd
       0.03179791 -0.0543718 0.04875116 -0.0809019
000080 37 86 2b 3e 32 de 75 3d 8e 90 55 ba 05 10 a4 3d
       0.16750418 0.060026355 -0.00081468455 0.08010868
000090 36 08 9a bd c4 6f 25 3d 5d dd ab bd 0f cb f3 bc
       -0.07521097 0.04038979 -0.08391831 -0.029759912
0000a0 18 51 0c bd 40 50 42 bd 12 12 1d 3c 91 f2 ec 3d
       -0.034257025 -0.047439814 0.009586828 0.11569703
0000b0 3e 4d d2 3d f7 1d 96 3d b3 cc 7a 3d fa fa 48 3e
       0.10268639 0.07329934 0.061230373 0.1962699
0000c0 89 45 87 3d 3d 8f a5 3d 40 5a 20 bd f2 de e6 3d
       0.0660506 0.08083961 -0.03914857 0.11272992
0000d0 02 95 31 3d eb dd 3d 3d 17 18 bb bd 7a 2e 91 bd
       0.043354996 0.046354216 -0.09135454 -0.07088943
0000e0 68 87 fe 3d 48 47 97 bd f5 00 89 bd ff 40 9a bc
       0.124281704 -0.07386643 -0.06689636 -0.01882982
0000f0 47 b5 66 3c 35 2e 67 bd 2a 99 6e bd ec 14 87 bd
       0.014081306 -0.05644055 -0.058251537 -0.065957874
000100 16 b2 9e 3d 15 a8 3b bd f5 88 88 3c a1 73 2b bd
       0.07748811 -0.045814592 0.016666869 -0.04185832
000110 59 6b 41 bd 73 cb 05 be b7 00 51 bd 92 3b 2d 3d
       -0.047221515 -0.13065891 -0.051026072 0.04229314
000120 e7 b4 a3 bd b7 00 35 3d fe 9c 87 bc 0a 86 ec bc
       -0.07993489 0.044190135 -0.016554352 -0.028872509
000130 b2 f2 05 bd 0a 40 b2 bd ea 9c 89 3c 4e be 3c bd
       -0.032702155 -0.08703621 0.016798455 -0.046079926
000140 35 d3 ba bc a4 2b 25 bc 67 e9 86 bd 07 52 c5 bc
       -0.02280579 -0.0100812055 -0.06587487 -0.024086965
000150 78 cb 82 bd dc 2d 48 3e 95 f6 d8 3c e4 56 2b bd
       -0.06386465 0.19548744 0.026484767 -0.041830912
000160 08 11 e3 bd 36 cb 8a bc 31 ea 14 bd 68 88 1a 3d
       -0.11087233 -0.016942602 -0.036356155 0.037727743
000170 f8 74 08 bd 6e 79 14 bd 10 06 99 bc 32 52 d9 3d
       -0.033314675 -0.036248617 -0.018679649 0.10611381
000180 9b 90 09 be b7 12 52 3d 03 c1 c3 bd 6f 78 0c 3d
       -0.13434069 0.05128738 -0.095582984 0.034294542
000190 61 2e 53 3d a7 4e 98 3c a1 ad 74 3d 18 67 86 bd
       0.051557902 0.018592192 0.059735898 -0.06562632
0001a0 34 59 3a 3d a9 fb 82 bd e3 a2 a5 3d aa b7 28 3d
       0.045495227 -0.063956566 0.08087709 0.04119078
0001b0 3d b2 28 bd a0 22 00 bb 72 61 9e 3d 67 c0 2d 3c
       -0.041185606 -0.0019551888 0.0773343 0.010604954
0001c0 0e 20 32 3d 20 ee 36 3d ca 94 8a bd 62 a7 11 bd
       0.0434876 0.044660687 -0.067666605 -0.03556002
0001d0 cb ff 3c 3d c1 45 be bc d7 a5 db 3d d1 b0 9c bd
       0.04614238 -0.02322662 0.10724991 -0.076509126
0001e0 66 ef a9 bd cc 82 7b 3e a5 5c d0 bc fd 52 3f 3d
       -0.08297615 0.24561614 -0.025434801 0.046710003
0001f0 2c bc a8 3c 84 b5 9c bc d0 23 b7 3c 42 4f 1d 3c
       0.02059754 -0.019129522 0.022355944 0.009601416
000200 ef 2d c0 3d cb a1 d4 bc 58 26 2f 3d c2 61 8e 3d
       0.09383761 -0.025956055 0.042761177 0.069522396
000210 6a cd 12 bd fe ee 4f 3d ba 64 7a bd 94 ef a0 bd
       -0.03584043 0.05076503 -0.061131217 -0.07858196
000220 a7 10 57 bd a5 74 c9 bd d6 23 b0 bc 1a dc c7 bd
       -0.052506115 -0.09836701 -0.021501463 -0.09758778
000230 5e 71 46 bd bb 2f 26 3e af 2e 4d bb a5 66 57 bc
       -0.04844796 0.16229145 -0.0031308343 -0.013147031
000240 6d 84 55 bd 1c 18 b9 bd 23 44 c2 3d c4 7d 71 3d
       -0.052128244 -0.090378016 0.09485652 0.05895783
000250 1d 5d 82 bd 18 53 6f bb c0 0b 0b 3e 1a 43 33 bc
       -0.06365416 -0.0036518034 0.13578701 -0.010941291
000260 8c ae f4 bd a2 ed d0 3d d9 c4 8c bd 9a e9 73 3c
       -0.11947355 0.10201575 -0.06873483 0.014887238
000270 0b 5e a2 3d 11 c9 0c bc 6a f9 17 3e b4 94 7f 3c
       0.079280935 -0.00859286 0.14841238 0.015599418
000280 d1 3a e5 3c 50 29 a6 3c 2e 30 92 bc 30 87 77 bc
       0.027982147 0.020283371 -0.01784524 -0.015107915
000290 41 40 74 3d 01 37 ad bc 9e 68 ee 3d b9 6d d0 3c
       0.05963159 -0.021144392 0.11641048 0.025442945
0002a0 66 8b 32 bb 90 b5 0b 3e b3 a8 52 3a 30 ff 69 bc
       -0.0027243732 0.1364348 0.00080360024 -0.014282033
0002b0 46 8b 17 bc 8b e9 cc bc b6 1b ee bc 49 0b 1b bc
       -0.009249514 -0.025013706 -0.029065948 -0.00946314
0002c0 c9 0b aa 3d 56 b0 21 bd 4b b2 b9 bd db 87 80 bd
       0.08303029 -0.039474808 -0.0906721 -0.062759124
0002d0 02 27 b0 3c 20 56 14 3d 04 4a bb bd 71 d7 15 bd
       0.021502975 0.036214948 -0.09144977 -0.036582414
0002e0 d6 2a 91 bb 73 6c 8e bd df 12 10 3d 07 38 b1 bd
       -0.0044301553 -0.06954279 0.035174247 -0.086532645
0002f0 46 c8 92 bd d4 ec 5f bc 10 ec b0 bd 8e 69 74 bc
       -0.071671054 -0.013667304 -0.08638775 -0.014917744
000300 78 60 76 3d c9 9e 44 3d b5 6f 06 bd 56 a9 95 3d
       0.060150594 0.04800299 -0.032821376 0.07307689
000310 72 c6 e6 3d ed d3 8e bd 5f 87 b2 bd 96 89 62 3d
       0.11268319 -0.069740154 -0.08717226 0.055306993
000320 68 fb ca bd bf fb 9c bd 1f 4d 14 3d ec e8 21 3d
       -0.09911233 -0.07665204 0.03620636 0.039528772
000330 21 8c 14 3d 64 a9 f8 3d 6a 52 85 3d b2 73 a1 3d
       0.03626645 0.12141684 0.0650986 0.07883395
000340 42 ca 93 bd a6 99 9f 3d ec e6 9a bd 33 52 c1 3c
       -0.07216312 0.07792978 -0.07563576 0.023598766
000350 7d f4 12 3d 9f bc 3e 3c 10 36 15 3d 7b eb 37 bd
       0.035877693 0.01164165 0.03642851 -0.044902306
000360 ec 99 d1 3c c4 7a 82 3d ce 23 b7 3d 9f dd a9 3d
       0.025586091 0.06371072 0.08942376 0.08294224
000370 a5 90 0a 3d 19 ba 46 3d e9 a6 d4 bc e8 6f 0b 3e
       0.03382935 0.04851732 -0.025958495 0.13616908
000380 c8 19 8c bd ef ec dd 3c b7 c0 e6 bd ff 4c 24 3c
       -0.06840855 0.027090518 -0.11267226 0.010028123
000390 84 99 05 3d c4 82 8c 3d 73 ca 88 3d 18 f1 b1 3d
       0.032617107 0.06860879 0.06679239 0.08688563
0003a0 c6 a5 74 3d c7 a6 cc 3c 7a 69 a9 3c ec 37 34 3b
       0.059728406 0.02498187 0.020680178 0.0027499152
0003b0 9a f1 ad 3d b6 b7 e7 bc 23 17 1a 3d 48 c0 27 bd
       0.084933475 -0.028285842 0.03761972 -0.040954858
0003c0 2d df 07 bc d8 d8 63 3d dd 6c d1 3d a1 ba 86 bd
       -0.008292955 0.05562672 0.10225842 -0.065785654
0003d0 6a d9 3a bd c8 02 ab 3c 2e 5b ba 3d ae dc 9c bb
       -0.0456175 0.02087535 0.090994224 -0.0047870493
0003e0 01 12 ae 3d 2a 11 b0 3d d8 aa 03 3c 3b 26 4e 3a
       0.08499528 0.08597024 0.008036338 0.0007863973
0003f0 03 38 00 3e 10 32 5b 3d b5 b0 32 3d bb 15 f9 ba
       0.12521367 0.05351454 0.043625552 -0.0019003669

layer2.6.bias f4 [10]
000000 e4 f5 51 be b5 b9 c3 be d4 3e c5 bf 59 26 df be
       -0.20503956 -0.3822762 -1.5409799 -0.43583944
000010 e0 9e 16 bf d4 eb 13 3e c2 3e 10 bf 13 b2 3c 3d
       -0.58836174 0.1444543 -0.5634576 0.046068262
000020 79 ec a7 bd c7 ef e7 3d
       -0.081994005 0.11325031
