Saved_data_files/helpdesk/lr_all_variants/weighted/TimestampPredictor_parameters_weighted_1e-05.pt (torch, 277514 bytes, 7 tensors)

layer1.weight f4 [4, 1]
00000000: 520b 4dbc 73d0 723e 40ad 39bf e781 283e
-0.012514906 0.2371233 -0.72529984 0.16455804

layer1.bias f4 [9]
00000000: f18a 5fbf f5e7 593d 5010 12bf 61ed a3bc
00000010: 9250 493d 78a4 11be 5c6a e73e ec87 d63e
00000020: ccba 86be
-0.8732138 0.053199727 -0.5705614 -0.020010652 0.049149103 -0.14222896 0.45198333 0.41900575
-0.2631439

layer2.1.weight f4 [256, 9]
00000000: 8b5e 4d3e 8217 31be 8e5b cebc e4d6 8a3e
00000010: 6ec2 a13d 837f e73d 55d4 853e d6c2 263e
00000020: c3a6 823e 9fab 043e c7dc af3e c416 4c3e
00000030: 8392 a33d 8c49 d73e 1d1d 953e 9874 fc3b
00000040: b536 243e da46 e8bd cb1a 61be 5506 44be
00000050: 73ae 613e f315 5b3e 059f 393e 3b61 fdbd
00000060: d052 843e 10e0 963d 295c e3bd cefd 41be
00000070: 4fd1 b43e 49fe 253d 466a 233e 9d13 c8bc
00000080: e1c9 d43e f60b 063e 0d04 463e e3a4 3fbe
00000090: 7e74 1ebd c883 77bd 0336 37be 48fd e2be
000000a0: 5729 a0be 9d5d 92be bf26 92be ae86 633e
000000b0: b36d 40be bace 18bd b5c0 af3e 2961 b73d
000000c0: c01d 5c3e 3218 2f3e 86e3 b7be bb79 b43e
000000d0: 7a3b 04bd 90de ec3c 236e 80bd 62b0 4fbe
000000e0: 58d4 163b 738e a7be bb26 46be 1a08 5b3e
000000f0: 11c4 3abe 2bf3 20be d31c 2c3e 8dd4 9f3d
00000100: c0ae f6bd ddf6 f2be feb1 52be 50e9 92bc
00000110: be93 b7bd bed3 32be 04ea a1bd 6367 563e
00000120: 0bd2 00be b343 b9bd 0a97 debe ff5d 3c3c
00000130: 77f9 8ebe 5ff1 213e 9330 2b3e 5c20 3f3e
00000140: a37a db3c 65eb 36be 4343 d1be 8e99 c33d
00000150: 9ea5 f2be 7bf2 16bd 8849 ff3d 4a29 343d
00000160: 2ffb 9b3e 4dcb abbd 929f 97be f4ac 2c3e
00000170: 01d3 b7be 0c21 9b3e 0ae3 7a3e a632 a43e
00000180: 7281 143d c396 283e 351b 483e be4e a3be
00000190: 7451 22be 1276 e0be 687e 463e b7bc 803e
000001a0: ecf3 1c3e 16eb 213d 9dc2 5dbe 4916 b4be
000001b0: 066b cb3b 6882 313e 5d6e 943b b0d8 903e
000001c0: 239a 123f a37c fbbb 1cae fd3e bb3a 6e3e
000001d0: 28ed 8f3e 231a 893e 53c3 c53e 2e05 a93c
000001e0: 6346 3fbe 4cb6 b53e 417e 6a3e 0fe1 adbd
000001f0: 0a95 753d 116e a53e b542 55be ad4c 42bd
00000200: 6eaa e2be f5dd 8c3d c046 fabd bbe9 92bd
00000210: d45a 1fbe 1a75 663e ed36 09be 2ba2 02be
00000220: a72c 2bbd 3764 b93e e094 cc3d 6712 4cbe
00000230: 8e30 283e 32e2 dbbd 8fd2 2e3e 13f7 2dbe
00000240: 9ff2 763e 4122 ac3e 214b a23e ac08 873e
00000250: 4259 99bd ec4d c9bd 6844 d23e 6e0d 1bbd
00000260: 0795 8a3e 0afd 363e 0753 dbbc bb1a 48be
00000270: 8a62 ee3d 3c23 f1bd 2d74 99be db6d 98be
00000280: 3720 273e 3b53 9b3e d55c 163d c371 533e
00000290: 902d c73e d26c a13d 99eb cc3d 21c1 083e
000002a0: c3bd 82be db24 abbc 947a 543e 3b93 a23e
000002b0: e2c9 d83d a07c 923d 76f1 b33e f0c7 443e
000002c0: 091e a0bd d270 283e 3f49 953e ae1d 38be
000002d0: 7165 613e c5ef 4abd 8901 0a3e f3a5 a9be
000002e0: 99d0 b5be 98d1 853e 890d e23d 0df2 8cbe
000002f0: 63c9 a9bd 9fb8 8cbe 3b4f 17be 5c51 d8be
00000300: ac33 8f3e 2748 2abe cda4 313e 4ddd 43be
00000310: c7d3 6f3e 833f 553c 1884 7cbe 536b 25be
00000320: 0455 4cbc e9cd afbd 1c76 a0bd 306f 83be
00000330: e5fa 9bbe 8630 633d 3372 7a3e 0930 213e
00000340: acdd 54be a3dc c5be 6e47 113e 8703 9bbe
00000350: 12d3 c2bd cc61 b73d be49 a3bc 9004 e7bd
00000360: 828a 533e 3e1e 95be a5ac 723e 5ee2 a5be
00000370: 6674 5b3e 1833 85be 8845 18be 7d92 40be
00000380: 603a a3bd cadf 94be ff5a 5dbe dce0 0b3e
00000390: 3cd7 873d c649 083e 3a07 71be 8fdc 283e
000003a0: 635d 213e 30c2 c53c 80ef 4f3c 7553 853d
000003b0: b2e6 8f3e c314 abbe b0ba 71be 98ff 553e
000003c0: 711d 8abe eb4d 713e 82b2 a3be 91dd 9bbe
000003d0: 0848 6ebd 2e7f 3c3e 4422 8ebe bef5 443e
000003e0: cd76 48be 6598 8c3e e00b 873e 7010 6b3c
000003f0: feb0 51be 7e6b c73d 6d1c 943e 0835 bdbd
0.20055597 -0.17294124 -0.025190141 0.27117074 0.07898413 0.11303618 0.2613856 0.16285262
0.25517854 0.12956093 0.34348127 0.1993056 0.07986929 0.420483 0.29123774 0.0077043287
0.16036494 -0.11341639 -0.21982877 -0.1914304 0.22039203 0.21395092 0.18127067 -0.12372061
0.2584443 0.07366955 -0.111015625 -0.18944475 0.3531594 0.04052571 0.15958509 -0.024423415
0.4156027 0.130905 0.19337483 -0.18715243 -0.038685314 -0.06042841 -0.17891698 -0.44333863
-0.3128154 -0.28587046 -0.28545186 0.22219345 -0.18791847 -0.037306525 0.3432671 0.08954079
0.21495724 0.17099074 -0.35915774 0.35249123 -0.032283284 0.02891472 -0.06271007 -0.20282128
0.002301475 -0.32725868 -0.19350712 0.21389809 -0.18238856 -0.15717761 0.1680787 0.07804213
-0.1204505 -0.47453967 -0.20575711 -0.017933518 -0.089637265 -0.17463586 -0.07905963 0.20937876
-0.12580125 -0.09046116 -0.4347461 0.01149702 -0.27924702 0.15814732 0.16717748 0.18664688
0.026791876 -0.17863233 -0.4087163 0.095507726 -0.4739198 -0.03685234 0.12465197 0.04398469
0.30465075 -0.08388386 -0.2961393 0.16862851 -0.3590317 0.3029865 0.24500671 0.32069892
0.03625626 0.16463761 0.19541629 -0.31896013 -0.15851384 -0.4384008 0.19384158 0.25143978
0.15327424 0.039530836 -0.2165627 -0.35173252 0.0062078265 0.17334902 0.004529758 0.2829032
0.57266444 -0.00767477 0.49546897 0.23264591 0.28110623 0.26777753 0.38625583 0.020632353
-0.18679194 0.35490644 0.22899725 -0.08490192 0.059956588 0.32310537 -0.20826228 -0.047436405
-0.44270653 0.068782724 -0.12220526 -0.07173487 -0.15561992 0.22505608 -0.13399859 -0.12757175
-0.04179063 0.3620927 0.09989333 -0.19928895 0.16424772 -0.10736503 0.17072509 -0.16988783
0.2411599 0.33619884 0.31697944 0.26373804 -0.07487728 -0.098293155 0.41067815 -0.037854604
0.27066824 0.17869964 -0.026772989 -0.19541447 0.116398886 -0.117742985 -0.29971448 -0.29771313
0.16320883 0.30336937 0.036709625 0.20648865 0.3890195 0.07882084 0.10005874 0.13354923
-0.25535402 -0.020891597 0.20749885 0.31752953 0.10585381 0.071526766 0.35145158 0.19216895
-0.07818229 0.16449288 0.29157445 -0.17980072 0.22011353 -0.04954507 0.13477148 -0.33134422
-0.3551071 0.2613647 0.11037738 -0.2752842 -0.082903646 -0.27484605 -0.14776318 -0.42249572
0.2796911 -0.16629086 0.17348023 -0.19127388 0.2342063 0.013015631 -0.24659765 -0.16154222
-0.012471441 -0.08584196 -0.078350276 -0.25670767 -0.30464855 0.055466197 0.24457626 0.1574098
-0.20787686 -0.38644895 0.14187405 -0.3027613 -0.09512915 0.089542 -0.019932624 -0.11280167
0.20658305 -0.29124635 0.23698671 -0.32399267 0.21431121 -0.26015544 -0.14870274 -0.18805881
-0.079701185 -0.29076988 -0.21616744 0.13659996 0.066328496 0.13309392 -0.23537913 0.16490386
0.1575828 0.024140447 0.012691379 0.06510059 0.28105694 -0.33414277 -0.23606372 0.20898283
-0.26975587 0.2356488 -0.31972128 -0.3044248 -0.058174163 0.1840789 -0.27760518 0.19234368
-0.19576569 0.27460018 0.26376247 0.014347181 -0.20477673 0.097372994 0.28927937 -0.092386305

layer2.1.bias f4 [256]
00000000: d3e4 04bf bcd5 28bf 012f a73e 1f45 91bf
00000010: e42f 73bf 298f 6bbf 0208 8abf 5984 6a3f
00000020: f15d 9d3f 74e4 81bf 56b4 463f 0d18 d13f
00000030: 35e8 12bf 803f 49bf e596 8d3e 49d3 643f
00000040: b984 33bf f904 093f 4ab1 72bc d82c 50bf
00000050: b3b5 c9be b078 423f 71be d53f ee18 803f
00000060: a240 c4be 2a56 b8be 73e7 cabe fb8d 3fbe
00000070: 6351 a23f 2255 3fbe 5c51 1e3f 159f 9a3f
00000080: c830 a4be 17cc af3f 97dc d5be 7541 2cbf
00000090: 8257 f1be 886f d9bc 3e0b c1be 8de9 3abe
000000a0: 157c a6be d8d3 4cbf ef7e d53f 3309 6c3f
000000b0: e3bc adbf d812 3abe f4a1 933f 84be 4cbf
000000c0: b6b7 843f 088b 06bf f4a1 fc3e e51b 8f3f
000000d0: a685 13bf be7e 3cbf 0b28 f6be c8e7 29bf
000000e0: 1953 a1be a6b4 c33e 29c0 0cbf f371 be3f
000000f0: f668 52bf ebd9 9a3f 0dbe 0b3f a7ec 2abf
00000100: 6fd2 38bf caf3 e73e 3830 3fbf 5a75 e6be
00000110: b462 1dbf 7688 a5be f05d 75be 6697 b23f
00000120: 3977 ac3f 3c48 8c3f f1c7 7c3f 9368 993f
00000130: 4264 703e f922 c73f c0c9 babf 30d9 57be
00000140: 2fb0 b13f 10f4 1c3f 0d26 6d3e 7847 a63f
00000150: 069b 57bf 664a d5be 92fe 58bf 6d94 783f
00000160: 25fe 483f 04f1 86bf cf07 00bf 7c03 9ebe
00000170: dc9b a33f c8c4 a53f ff14 5ebf bd69 ca3f
00000180: e62b 9cbf 5c29 18bf 2a49 1ebf 7e49 1b3f
00000190: 697d 04bf fe5f 10bf 303c 89be 4a21 babe
000001a0: 68e6 3c3f c9e4 bcbd 2eed 1abf eddb 68bf
000001b0: 16bc e73f 816d ae3f 284e 3bbe 3cc3 9c3f
000001c0: 0b3b a1be d32d 22bf 7fd6 17bf 2491 cbbe
000001d0: fcf9 2dbf 32d1 ff3d 16be 9d3f c11b 4b3f
000001e0: 7615 0ebf 2efb 27bf 749c 863f 93f0 fbbe
000001f0: 982a ecbd 7fd8 05bf 74f9 5dbf 1a56 0d3f
00000200: ec17 3cbf 06ae c23f f48d c13e e220 18bf
00000210: 4698 79bd 85cc bb3f 1ea6 22bf 9123 4dbc
00000220: 6db4 ad3f 08fb 20bf d97d 12bf 2fb4 a03f
00000230: 2158 873f 74b3 61be c2f1 6abf 5f60 2c3f
00000240: 7f7b 57be 302a 7e3e 3441 4ebf d909 38bf
00000250: 8e90 8d3f 6a12 ba3f c077 8c3f 31a9 be3f
00000260: e325 553e d6b3 5abf d09f 5cbf fabb a83f
00000270: 6258 a4be 915d e63f 8531 d63f 9d7a 3b3f
00000280: 71a1 00bf e0ff 81bf 0daf b1bd cfb7 013f
00000290: 8d05 02ba 6a13 723f c491 2d3f e2ae 46bf
000002a0: 07d2 b13f af3a 573f 800b 44bf bddb f03c
000002b0: 4cae cbbd 9c06 55be 73af dfbe 3d1a 02bf
000002c0: ff9a 423f 0d8f 893f 7a13 33be d82b 24bf
000002d0: 0df1 423f 6791 953f 4f8b 05be 1aa4 8e3f
000002e0: 8fbd 12bf ec5e a3be 5f51 883f 60a7 203f
000002f0: 8490 98be 5b9e a6bf 4d7f 82bc 3f09 06bf
00000300: 68cc 39bf bb7e 2cbf 9b96 40bd a610 983f
00000310: fecc 933f 780f 553f 24ac debe a00f 3a3f
00000320: 9859 853d f056 edbe a1fc 343f 8134 c33f
00000330: 5dad cebe b82a ce3f a375 afbf a171 c1bb
00000340: 8f89 0e3f 46a0 38bf b63f 323f e347 e5be
00000350: ca84 103f c85c 9a3f 0114 243f 1026 753f
00000360: a826 6e3f 3b49 92bf c48d 51be f47e ecbe
00000370: cdd3 c83f 3546 7d3f 62db b53f b152 78bf
00000380: 287d 993f 65b1 853f 0d04 933f f587 803f
00000390: d9ef 393f 6894 af3f eeb4 b0bd d659 b7bf
000003a0: c3ed d7be fb3f 22bf c466 1d3d a56b ac3f
000003b0: 0b66 a83e bd4c 4c3f 0ae6 4c3e 298c 8bbe
000003c0: 9fab e1be 17fc 303f a3f1 683f f1ad f5be
000003d0: c629 df3f 702e b43f d840 a53f 3935 ad3f
000003e0: a8a8 833e 0d69 a93f 5422 80bf 6ede 9cbf
000003f0: 895f 3fbe 90bf 9f3f d03f 723f 0ea6 e5bd
-0.5191166 -0.6595113 0.3265305 -1.1349219 -0.9499495 -0.9201532 -1.0783694 0.91608196
1.2294294 -1.0147843 0.7761892 1.6335465 -0.5738557 -0.7861252 0.27654186 0.89384896
-0.70124394 0.5352321 -0.014812777 -0.81318426 -0.39396438 0.75965405 1.6698743 1.0007608
-0.3833056 -0.36003238 -0.39629707 -0.18706505 1.2681087 -0.1868482 0.61842895 1.2079798
-0.32068467 1.3734158 -0.4176986 -0.6728738 -0.47137076 -0.02654244 -0.3770389 -0.18253155
-0.32516542 -0.8001075 1.6679362 0.92201537 -1.3573269 -0.18171251 1.1533799 -0.79978204
1.0368564 -0.52555895 0.4934231 1.1180388 -0.57625806 -0.73630893 -0.48077425 -0.66369295
-0.3150871 0.3822376 -0.54980713 1.4878525 -0.8219141 1.2097753 0.5458687 -0.6676735
-0.72196096 0.45303184 -0.7468295 -0.45011407 -0.61478734 -0.32330674 -0.23961616 1.3952453
1.3473884 1.0959544 0.98742586 1.1985039 0.23475745 1.5557548 -1.4592819 -0.21078944
1.3881892 0.6130991 0.23159046 1.299056 -0.8422092 -0.41658324 -0.84763443 0.9710148
0.78512794 -1.0542302 -0.50011915 -0.30862033 1.278194 1.2950678 -0.8675079 1.5813519
-1.2200897 -0.5943811 -0.6183039 0.60659015 -0.5175386 -0.5639647 -0.26803732 -0.36353523
0.7378907 -0.09223325 -0.6051816 -0.9096058 1.8104274 1.3627168 -0.18291533 1.2247081
-0.3149036 -0.6335117 -0.5931167 -0.3975917 -0.6795957 0.12491073 1.2323635 0.79339224
-0.55501497 -0.65617645 1.0516496 -0.4920698 -0.115315616 -0.5228347 -0.8670876 0.55209506
-0.73474 1.5209358 0.37803614 -0.59425175 -0.060936235 1.467179 -0.63534725 -0.012520687
1.3570687 -0.62883043 -0.5722328 1.2554988 1.057377 -0.22041112 -0.91775143 0.6733455
-0.21043204 0.24820781 -0.8056824 -0.71890026 1.105974 1.453687 1.0974045 1.4895383
0.20815234 -0.8543066 -0.86181355 1.3182366 -0.3209868 1.7997304 1.6733862 0.7323397
-0.5024634 -1.0156212 -0.086759664 0.50671095 -0.00049599336 0.94560874 0.67800546 -0.776106
1.389222 0.8407392 -0.7658005 0.029401654 -0.09945354 -0.20803303 -0.43688545 -0.50821286
0.76017755 1.0746781 -0.17487898 -0.641294 0.76149064 1.1684998 -0.13041423 1.114383
-0.57320493 -0.31908357 1.0649832 0.62755394 -0.29797757 -1.3017076 -0.015929842 -0.5235786
-0.72577524 -0.67380875 -0.04701863 1.1880081 1.1546934 0.8322673 -0.43490708 0.7268009
0.06511229 -0.4635539 0.7069798 1.5250398 -0.4036664 1.6106787 -1.3707775 -0.005903438
0.5567865 -0.7211956 0.69628465 -0.44781408 0.5645262 1.2059565 0.64093024 0.95761204
0.93027735 -1.1428598 -0.20464236 -0.46190608 1.5689636 0.9893525 1.4207575 -0.9700118
1.199132 1.0444762 1.1485611 1.0041491 0.72631603 1.3717165 -0.086282596 -1.4324291
-0.42173585 -0.63378876 0.038428083 1.347035 0.32890353 0.79804593 0.20009628 -0.2725537
-0.4407625 0.6913466 0.9099371 -0.4798427 1.7434623 1.4076672 1.2910414 1.3531867
0.25714612 1.3235184 -1.0010476 -1.225538 -0.18688788 1.2480335 0.9462862 -0.11213313

layer2.3.weight f4 [256, 256]
00000000: de80 173d a90b bd3c 87cf 483d 40bc 403d
00000010: fd29 4fbd 2d03 163d c2ea 3f3c 54ab 0ebd
00000020: 58ef fcbb ac5f d03c 79e9 e2bc 878a fa3b
00000030: 4235 a2bc c7f2 03bd 86b9 55bd e93c eebb
00000040: 7fd6 20bc 1820 c23c b66d 173d d581 e23b
00000050: 9371 0bbd 083e 573d e2f5 65bd 3502 773d
00000060: c66a 3c3d b5da 6a3c 6513 353d 5019 e83b
00000070: 0d12 ab3b 7a05 04ba a1c7 3c3d 26d6 b93d
00000080: 4be9 0abd 353a 8e3d ccfa 94bc f4d6 05bd
00000090: b066 98bd 647e 8ebd 8877 6d3c 49df 94bc
000000a0: 5024 95bd a603 ef3c 25d5 8cbb 940e 2bbd
000000b0: 1d77 1fbd 7b30 283d d32f 8d3b 4461 b33b
000000c0: b37d 51bd d47e 89bd d748 b8bc 88a2 6a3c
000000d0: ab74 183d b508 0bbd d59d edbd d193 9fbd
000000e0: a8cb eabc 32b5 d0bb 01d7 5c3d 43a0 7dbb
000000f0: 926e 843b 8d1a 82bc 076b 00bd edc5 ca3c
00000100: 1a86 5cbd 157a f43c cc18 ac3c c701 3ebd
00000110: 0baf 9cbd 8ae0 1bbc 9841 253d d0bc c7bc
00000120: 8781 5f3c 600a 2c3d 700c 0b3d 06ad a3bc
00000130: c8da 34bd 5c24 493d a488 4a3c c9b4 a13c
00000140: 5c89 0a3d f132 453c e986 06bc 58a7 7bbd
00000150: 580b c73c 852e f53c 7045 80bd 2483 803d
00000160: 0db8 b9bc 2deb d3bc b535 bd3c 1172 49bc
00000170: 5e38 d9bc 0004 8ebc f498 8fbd b162 e4bc
00000180: 30b8 f63c 2b04 6dbd e0ee 4e3b 6959 38bd
00000190: d7fa 02bd c8f7 7ab9 4e8f 81b9 4b30 71bd
000001a0: 118a bdbc c0e9 4a3d a284 f3bc 9f98 dcbc
000001b0: fb11 73bc 5f87 8fbc 5695 773c 1e9b 623d
000001c0: 4e8a a9bb 45ce e53c 73e1 9ebc f9b5 ab3c
000001d0: 5143 88bc 6d44 2fbd 2e7e 4b3d df5e 583d
000001e0: 2c40 6bbb bc01 59bd 8686 853d 1ebe 93bd
000001f0: e0f4 d4bc 1fd1 123d 4267 09be d0cd 703d
00000200: 91dd 25bd f30c 6d3d 1445 f43b ffc0 53bc
00000210: 194e 98bd 7018 f0bc 8303 23bd 2c59 d63c
00000220: 0c83 3c3d 4c94 1f3c 819a 123c 00cd dcba
00000230: e5c4 f9bb 58e6 843c 8c47 a43c 05e7 213c
00000240: 83e6 413d adf3 973b 27ec fb3a 8f71 703d
00000250: 367a 41bd 2540 423d f78b 203d f6e4 2a3d
00000260: 1c18 c13c 4caa 243d 6a4a 043d bf77 803d
00000270: 963c 87bb dd28 5e3d 221e e9bc 500e a0bc
00000280: 286f 523b a4e1 a4bd 4009 283d 33e0 ca3c
00000290: b021 ebbc fa18 323d a2ec c33c 316e 22bd
000002a0: eb4a a8bb 1f9d 8639 c4ad ccbd 8728 8fbd
000002b0: d683 813c 0373 aebc dd6d 8e3c 7f3e 8dbd
000002c0: 8f79 0b3d 0f40 753a 5f3e c13c 9e19 45bd
000002d0: bc20 9b3d d7ec 463d 4f51 693d 6563 223d
000002e0: 3482 893a 7c0e 68bd 6ebd e83b 1ced 0ebd
000002f0: d9c0 273d 0215 9c3c aa40 723d 19e5 ad3c
00000300: ff53 06bd 1323 1c3d aaa4 5d3d 117e e6bc
00000310: fe6f fcbc ca2b 46bd 826f 75bd 9e34 83bc
00000320: 5891 18bd 0576 3fbc 218a cbbb daaf be3d
00000330: a127 0abd d222 95bb 44a6 b5bd fee6 233d
00000340: 90a3 013b ae75 853c 2b94 213d 553c 96bc
00000350: 65c8 2c3b 932e 853d 973d bebc da4a 75bc
00000360: d432 2b3c 5acf f8bd f910 593d 2c30 1a3c
00000370: cd4e d8bb 037c b23c b8ba be3c dc60 c2bc
00000380: 42c1 513d 3d71 a9bc 13b4 03bd be06 093d
00000390: 0c10 813d 7e76 073b 3803 903b 95fb 82bd
000003a0: 03f9 b83c 6044 2bbd 18ef fe3c a457 853d
000003b0: c4e2 693c d4bb 593d 03e7 6b3d 9fbf ce3b
000003c0: 0f99 6ebd f425 7abc 3209 c93b 6898 cabc
000003d0: 0166 5d3d 2691 773d dfb9 4b3d 6657 693d
000003e0: b014 543d c4a5 22bc e7bb 0fbd c979 bf3c
000003f0: 4212 153d 5f9e 0cbd add2 57bd c4cf 733d
0.03698813 0.023076849 0.04902604 0.04705453 -0.050577153 0.036624122 0.0117136855 -0.03483136
-0.0077189617 0.025436245 -0.027699219 0.0076459083 -0.019800786 -0.032213952 -0.052178882 -0.0072704447
-0.009816765 0.023696944 0.036969863 0.00691245 -0.03404386 0.052549392 -0.056142695 0.06030484
0.046000265 0.01433437 0.04420795 0.0070830956 0.0052206577 -0.00050362165 0.04608882 0.09074049
-0.03391389 0.06944696 -0.018185996 -0.0326757 -0.07441461 -0.06957701 0.0144938305 -0.018172877
-0.07282317 0.029176544 -0.0042978697 -0.04176195 -0.038931955 0.04106186 0.0043086796 0.0054742415
-0.051145267 -0.06713644 -0.02249567 0.014320977 0.03722064 -0.03394385 -0.1160237 -0.077918656
-0.028661564 -0.0063692564 0.05391598 -0.003870026 0.0040415013 -0.015881801 -0.03135207 0.024752581
-0.053838827 0.02984337 0.021007918 -0.046388414 -0.07650574 -0.0095139835 0.04034576 -0.024382025
0.013641722 0.042002082 0.03394741 -0.019979965 -0.04415396 0.04910694 0.012361679 0.019739525
0.033822402 0.012036071 -0.008210876 -0.06143889 0.024297401 0.029929409 -0.06263244 0.06275013
-0.02267077 -0.025868976 0.023096899 -0.012295262 -0.026516136 -0.017335892 -0.07011595 -0.027879091
0.030117124 -0.057865303 0.0031575486 -0.045007143 -0.0319775 -0.00023934164 -0.00024711568 -0.058883946
-0.023137124 0.049539328 -0.02972633 -0.026928244 -0.01483583 -0.017520605 0.015111288 0.055323713
-0.005173958 0.028052459 -0.019394612 0.020960795 -0.016633661 -0.042789865 0.04968088 0.05282485
-0.0035896404 -0.05298017 0.06519799 -0.07213996 -0.025995672 0.035843965 -0.13418296 0.058790028
-0.040494505 0.057873677 0.007454524 -0.012924432 -0.07436771 -0.029308528 -0.03979827 0.026165567
0.046023414 0.009739947 0.008947969 -0.0016845763 -0.0076223486 0.016223118 0.020053647 0.0098817395
0.047338974 0.0046372027 0.0019220159 0.058702048 -0.04723569 0.047424454 0.03919598 0.04172226
0.023571067 0.04020147 0.03229753 0.0627284 -0.0041270955 0.05423819 -0.028456751 -0.019538075
0.0032109711 -0.0805085 0.041024446 0.02476511 -0.028702587 0.04348085 0.023916546 -0.039655868
-0.005135884 0.00025675536 -0.09994081 -0.06990152 0.015809935 -0.021295076 0.017386371 -0.06896686
0.034051474 0.0009355554 0.023589311 -0.048120134 0.07574603 0.04856571 0.056962308 0.03964557
0.0010491074 -0.05665444 0.00710266 -0.034894094 0.0409554 0.019052986 0.0591437 0.021227406
-0.03279495 0.038119387 0.054112114 -0.028136285 -0.03081512 -0.048381604 -0.059920795 -0.0160163
-0.037247986 -0.011685853 -0.0062115346 0.09310885 -0.0337292 -0.00455127 -0.08869603 0.040015213
0.0019781329 0.016291466 0.039447945 -0.018339315 0.0026364562 0.06503024 -0.023222728 -0.014971459
0.01044913 -0.12148924 0.052994702 0.009410899 -0.0066011907 0.021787649 0.023282394 -0.023727827
0.051209696 -0.020683879 -0.032154154 0.033453695 0.06301889 0.0020669992 0.004394915 -0.06395642
0.022579676 -0.041813254 0.031119868 0.06510857 0.014275257 0.053157642 0.057593357 0.006309464
-0.058251437 -0.015267838 0.0061351294 -0.024730876 0.054052357 0.06044116 0.049737807 0.056968115
0.05177754 -0.009927217 -0.035091307 0.023373501 0.036394365 -0.034330722 -0.05269115 0.059524313

layer2.3.bias f4 [256]
00000000: b1ef 923f d725 a13f a632 edbe ae5a 05bf
00000010: 56f9 02bf c5a3 dbbe 4d47 a6be 74f1 e8be
00000020: 3dc5 ab3f 6f0e 22bf c5d5 bbbe b74a 513f
00000030: 5344 b4be da96 48be 32a0 463f 87fc c9be
00000040: 7b96 933f fba5 893f 8024 a13f 7608 0fbf
00000050: 21f8 853f 07b3 54bd 9e6f 993f 5f26 683e
00000060: 5d31 de3e 3c10 a4be 3e5c 04bf 413e 633f
00000070: d31e 933f b728 e3be bb9d 973f 7e5f ccbe
00000080: 155a fdbe 147e dabe eff3 ebbe 1972 7c3f
00000090: a59f 873f 4397 623f afa0 983f 90cc a43f
000000a0: c28b b8be 3d76 983f 91ca 53be daa2 f03d
000000b0: 7f55 ac3f eaff 91bb e645 8b3f 976e 8b3f
000000c0: 74cc 50be bcb5 a2be 716a a13f a55b 29bf
000000d0: 3061 b1be b5f9 803f 0aa4 673f 877c cebe
000000e0: 5616 f9be dba2 39bf abbd f13d a4ff d2be
000000f0: 7f74 9a3f 3b0e 9e3f 88c2 3dbf 71ed 4b3f
00000100: 8c83 1a3f 18f8 acbe 2129 b13f 6b3f 903f
00000110: 39f6 7f3f f233 b6be da44 843f 1d29 fbbe
00000120: 32ea f1be b319 0fbf f416 973f 0ec5 a13f
00000130: 3229 b5be 3dbc 8e3f 633a a63f 36b9 0f3f
00000140: 8a59 b1be faca 653f 23f0 16bf fbaa 9dbe
00000150: fe8a 983f 358c a13f 34de a73f 675a 873b
00000160: a2e3 b4be 3e82 8d3f b666 973f 6a54 7ebe
00000170: 6995 08bf 115a 723c 8896 873f 569f 00bf
00000180: 78d6 95bd 989f 95be 22e7 473f 064c a3be
00000190: 52ee adbe ee54 9dbe fe78 09bd f546 10bf
000001a0: 505c 4d3f 8bb6 8f3f 211c 00bf 8dc1 a73f
000001b0: 41c1 f2be 6a7c fabe 6fac 0cbf fffd eebe
000001c0: a1b4 933f f398 cc3e c337 7e3f 3cc0 63be
000001d0: 3eaa 943f 6db1 3e3f 4883 e8be 346a 0dbf
000001e0: fa76 76be ca01 a03f 4920 983f 3a78 3a3e
000001f0: b9d3 8e3f 26ae 943f ece4 b9be d531 10bf
00000200: 46f8 973f 1c0a ffbe cdfd bfbe ebab 5b3f
00000210: 3f84 8dbe 964f ab3f c9c3 01bf 037d f2be
00000220: 279e 9dbe bdd8 963f 15dd 853f fbaf 49be
00000230: 18f9 50be 6229 be3d 4b38 9cbe da04 893f
00000240: f6ff 9b3f 8a4b 063e 93af a93f 05cc 8b3f
00000250: ad3d b63e 79f1 0bbf c96b bf3e 92ce 55be
00000260: cadb e8be da22 04bf 1802 993f 13ae b9be
00000270: 4e9b 8f3f 0244 0bbf d1da 7f3d 9c11 c5be
00000280: 2d91 953f b1ee e6be 6f30 343f 1d55 903f
00000290: c631 983f 92c4 933f 66c2 0bbf 93b9 993f
000002a0: e0c0 cfbe d22e ebbe d23e 9d3f 1e80 90be
000002b0: d3ae ebbe 175b 933f f556 1ebe e7cd d1be
000002c0: 2362 dabe c6d9 a83f 6b66 f1be 2bfe 8a3f
000002d0: 9260 a53f 3816 c8be 8cdc 863f 76a8 893f
000002e0: a1e6 62be 4697 663f 7d3e e5be 8977 fbbe
000002f0: 1538 a73f 528f 2abe 38ac 25be 57e3 9f3f
00000300: ca94 e2be c595 0cbf 6e58 a23f 6510 9a3f
00000310: 6a60 9e3f c2e7 cebe 53ab 993f 1527 bfbe
00000320: 95b7 903f 3a57 9c3f 5ec0 37bf 5a94 a1be
00000330: dbd2 98be afc5 a5bc 6d87 81be 0a15 a63f
00000340: d452 cfbe 49ce 763f 743c 9f3f 7c83 923f
00000350: 0c29 4e3f bddc 973f 0ee4 813f 0425 ddbd
00000360: 402d eebe 335a b2be 2fa3 8e3f 0ddb dabe
00000370: 8e8a 0ebf 0a2a 0f3c 89f2 813f 15a4 743f
00000380: 8d10 883f f552 c2be abdd 78be eeee dcbe
00000390: f1fd a6be e8b5 e83e 8029 acbe 6db3 953f
000003a0: e523 923f f121 adbe 7687 96be 2c2d 9f3f
000003b0: 09e0 8d3f 95ae 973f 53a4 1c3f 6f0f 913f
000003c0: e40d d4be fd74 e6be 753e c5be aaa8 01bf
000003d0: ae27 a3be 66bf f3be 3871 523d 8102 6e3f
000003e0: a31d aa3f 49ab af3f 06b7 18bf 26dc 7d3f
000003f0: d158 8d3f 99c9 8a3f 09c1 a53f 7426 dcbe
1.1479398 1.2589673 -0.46327704 -0.5209149 -0.51161706 -0.42898384 -0.32476273 -0.45496714
1.3419567 -0.63303274 -0.3668653 0.8175463 -0.35208377 -0.19588795 0.7758819 -0.39450476
1.1530298 1.0753778 1.2589264 -0.55872285 1.0466348 -0.051928546 1.1987188 0.22670887
0.43397036 -0.32043636 -0.5170325 0.88766867 1.1493782 -0.44367 1.184501 -0.39916605
-0.4948279 -0.42674315 -0.46084544 0.986116 1.0595595 0.8851206 1.1924037 1.2874928
-0.36044127 1.1911083 -0.20682742 0.117498115 1.3463591 -0.004455556 1.0880706 1.0893124
-0.20390493 -0.31779277 1.2610608 -0.66155463 -0.3464446 1.0076205 0.9048468 -0.40329382
-0.48649853 -0.7251412 0.118037544 -0.41210663 1.2066802 1.2348093 -0.74124956 0.7965918
0.60356975 -0.3378303 1.3840677 1.1269354 0.9998508 -0.35586506 1.0333512 -0.49054804
-0.4724899 -0.5589859 1.180388 1.2638261 -0.35382992 1.1151196 1.2986568 0.56141984
-0.34638625 0.8976284 -0.5896017 -0.3079451 1.1917417 1.2620913 1.3114686 0.00413065
-0.3532992 1.1055372 1.182822 -0.24836889 -0.5335298 0.014791981 1.0592813 -0.5024313
-0.07316297 -0.29223323 0.78087056 -0.3189394 -0.33970886 -0.3072886 -0.033562653 -0.5635827
0.8021898 1.1227583 -0.5004292 1.3105942 -0.47413066 -0.48923045 -0.5495061 -0.4667816
1.1539499 0.3996044 0.99303836 -0.222413 1.1614454 0.7448948 -0.4541266 -0.5524018
-0.24068823 1.2500546 1.1884853 0.18209925 1.1158363 1.1615646 -0.36307466 -0.5632604
1.1872642 -0.498124 -0.37498322 0.858092 -0.27639958 1.3383663 -0.5068937 -0.47361
-0.30784723 1.1784893 1.0458094 -0.19696037 -0.20407522 0.09285237 -0.30511698 1.0704606
1.2187488 0.13114753 1.3256706 1.0921637 0.3559393 -0.54665333 0.3738692 -0.20879582
-0.45480186 -0.5161568 1.1953764 -0.3626562 1.121927 -0.54400647 0.06246454 -0.38489997
1.1684929 -0.45103982 0.70386404 1.1275975 1.189019 1.1544363 -0.54593503 1.2009758
-0.4057684 -0.4593416 1.2284796 -0.28222746 -0.46031818 1.1512173 -0.15462859 -0.40977404
-0.42652997 1.3191459 -0.4714845 1.0858816 1.2920096 -0.39079452 1.0536056 1.0754535
-0.2215829 0.90074575 -0.44774237 -0.49114636 1.306399 -0.16656235 -0.16178977 1.2491254
-0.44254142 -0.5491603 1.2683237 1.2036253 1.2373173 -0.40411192 1.2005409 -0.37334505
1.1306025 1.221412 -0.71777904 -0.31558496 -0.2984837 -0.020235864 -0.25298634 1.2975171
-0.4049288 0.96408516 1.2440324 1.1446376 0.8053138 1.1864239 1.0147722 -0.10798076
-0.46518898 -0.34834442 1.114355 -0.42745247 -0.5568017 0.00873805 1.0152141 0.9556287
1.0630051 -0.37953916 -0.2430331 -0.4315104 -0.32615617 0.45451283 -0.33625412 1.1695381
1.1417204 -0.33814958 -0.29400223 1.243566 1.1083995 1.1850153 0.6118824 1.1332835
-0.41416848 -0.4501113 -0.38524213 -0.50647986 -0.3186621 -0.47606963 0.051377505 0.9297257
1.3290294 1.3724147 -0.5965427 0.99164045 1.104273 1.0842773 1.2949535 -0.42998087

layer2.6.weight f4 [1, 256]
00000000: 0a43 ba3d a70d ef3d 7f7e a4bd 628d eebc
00000010: 7888 2ebd 9d8b c5bc 0960 b2bd 9e55 dcbd
00000020: 8886 3e3d 502f ccbd ebad 46bd d91b 073e
00000030: 55bb 35bd a30a b1bd 7bff e23d f033 dabd
00000040: 11e9 803d a117 9d3d 6c86 a83d 60e1 cabd
00000050: 6c5e 8a3d 0382 f6bc ba9e 883d a0e1 463d
00000060: 0cfc b33d afca aabd c197 c7bd d9f3 1a3e
00000070: 2bd2 d83d 813d 25bd f5ca 143e 2617 91bd
00000080: b993 a0bd a299 59bd 8490 82bd 7bdc 263d
00000090: 2f7a d63d e93d c93d e669 c93d 0aff 3a3d
000000a0: 3be2 babd 2dfb 383d 0ded babd be4e 653d
000000b0: 7998 a03d ecc1 d7bb 2c48 ea3c 19c2 f33d
000000c0: d3ef 91bc f3e3 3abd ff53 853d 6dca 91bd
000000d0: 2d0b b5bd 7f33 d73d 2fda 1b3e 461e 47bd
000000e0: d2b2 3dbd 739b 93bd df43 083d eac1 1cbd
000000f0: fda2 503d 310f ee3d 0f37 bbbd 7310 aa3d
00000100: 40ec da3c c002 71bd 7a8f eb3c 091a b83d
00000110: e370 393d 4788 94bd 20a2 1d3e a1c0 91bd
00000120: 3733 11bd c4b0 8abc 8dc5 a73d f888 473d
00000130: c4fb abbd a4b5 d03d c170 6d3d 6a46 d23c
00000140: f547 b8bd e2d4 f73d 339b abbc 0c0a dabd
00000150: 9cc9 4c3d da94 c63d a492 cf3c a316 d0bc
00000160: 0bfd b1bd e13a bb3d 9582 b13d 81e3 acbd
00000170: 1487 a7bd 68a1 553d f5fc e13d 02b0 b9bd
00000180: 2ea7 14bc 5784 3fbd cdf4 fa3d a799 6ebd
00000190: 753d c2bd 9db1 ffbc acbd 55bc ee89 a7bd
000001a0: 215d 853d 4f66 c63d 0627 f0bd 48cc c33d
000001b0: ea8f a3bd a2e1 00bd 229e 2cbd 87ac a8bd
000001c0: 9027 a33d c835 3f3d 00e8 cd3d 8420 a9bc
000001d0: 539c d93d 2e83 593d 2393 a7bd b077 e7bd
000001e0: 61b8 acbd ea58 523d 1970 1d3d dad8 b13c
000001f0: 7535 9d3d bbec b73d 4d35 1fbd c0c2 91bc
00000200: e84b aa3d 9f13 99bd 7da9 c7bc 0f6b 3b3d
00000210: b887 38bd f9f8 ed3d fadf 75bd 5f6f e0bc
00000220: 34df 9dbd 44be db3d 6803 d63d 38a8 28bd
00000230: 3d25 a9bd 2296 e63c aac0 b2bd 3743 033e
00000240: 989d d43d acb3 8f3d fe65 b03d 2a7a 9d3d
00000250: b917 793d b756 83bd 15c6 853d b3b0 a0bc
00000260: 155f c7bd f7a2 ddbd 1e5f e63d 6e15 aebd
00000270: 7844 063e 79cb f6bc 1eb7 e03c 6c5c 72bc
00000280: 9086 943d eaa6 b1bc 59b0 ad3d ce32 eb3d
00000290: 00d8 573d 8d4e ce3d 7c97 93bd b12c fd3c
000002a0: f4de 88bd 5bf9 09bd 050f a43d e651 64bd
000002b0: a047 47bd 1242 ad3d bd77 3ebd 66ca 77bd
000002c0: 2b6d bdbd 06e2 563d c580 84bd 6274 033e
000002d0: 2a60 0c3e a24b b7bc 5430 e63d f92e e83d
000002e0: 0bb3 c7bd fa23 af3d 22a6 2cbd 2002 eabd
000002f0: 7130 013d 1714 6cba ba29 59bd b52d 723d
00000300: af05 8ebd cd8b 7abc 1652 223d 9fe2 aa3d
00000310: 68b6 9c3d 3c96 b4bd cd5a 333d defb 85bd
00000320: 8f80 e03d e3a7 bc3d 0dc9 06bd 6210 b2bd
00000330: 1ef4 c6bd c030 cdbc 89a2 9dbd 36c9 b03d
00000340: 52fc 79bd 8da6 7e3d 1486 813d b3db c73d
00000350: 43e8 d63d 5d2a 9c3d 6c33 df3d 66ec 1c3d
00000360: 3af3 6ebd 3ea7 e1bc 3c60 c63d 623d d5bd
00000370: 0c9c e6bd 461e 45bd 2e72 8b3d 2933 a33d
00000380: bdd3 343d 1a2c 0dbd 8ab7 85bd 3835 8fbd
00000390: 65a9 babd 7965 753d 89b4 9ebd 783d bd3d
000003a0: 9218 9f3d 1152 a9bc 6a60 11bd 93f2 a93d
000003b0: ea15 133e 7200 843d d114 fe3d 7275 e03d
000003c0: 2de2 a3bd 1777 aebd 63ef 2bbd e2c2 7ebd
000003d0: 5b7d 1cbd 90f7 72bd a8e6 08bc 8bad 583d
000003e0: 6f76 073d 98a0 253d 22d9 c0bd 50fe e03d
000003f0: 1b86 403d 1df3 8e3d c634 953d 1034 43bd
0.09094818 0.11672526 -0.0803194 -0.029120151 -0.042610615 -0.024114424 -0.087097235 -0.10758518
0.046515018 -0.09969962 -0.048505705 0.13194217 -0.044368107 -0.08644607 0.11083885 -0.106544375
0.06294454 0.076705225 0.08228764 -0.09906268 0.06756291 -0.030091291 0.066709 0.048555017
0.087883085 -0.0833944 -0.09745742 0.15132083 0.10586961 -0.040341858 0.14530547 -0.07084493
-0.07840676 -0.05312503 -0.063752204 0.04073761 0.104725234 0.098262616 0.09834652 0.04565338
-0.09125181 0.045161415 -0.09127245 0.055983298 0.07841582 -0.0065843966 0.028598867 0.119022556
-0.017814552 -0.045627546 0.065101616 -0.07118688 -0.08840022 0.10507869 0.15219949 -0.048612855
-0.046313114 -0.07207384 0.033267852 -0.03827087 0.050936688 0.11623991 -0.09141361 0.08303919
0.02672398 -0.058840513 0.028754938 0.08989341 0.045273673 -0.07252555 0.15393877 -0.07116819
-0.035449233 -0.016929992 0.08191977 0.048714608 -0.0839763 0.10190895 0.05796886 0.025668342
-0.089981 0.12101151 -0.020948028 -0.106464475 0.049996957 0.0969636 0.025338478 -0.025401419
-0.08690842 0.0914209 0.08667485 -0.084418304 -0.08180061 0.052155882 0.11034576 -0.09066774
-0.009073062 -0.04675707 0.12253723 -0.058252003 -0.09484378 -0.031212622 -0.01304571 -0.08180605
0.065119036 0.096874826 -0.11726193 0.09560448 -0.07986434 -0.03146518 -0.042142995 -0.08236032
0.0796653 0.04668215 0.10054016 -0.020645387 0.106255196 0.05310362 -0.08182361 -0.113021255
-0.08433605 0.051354326 0.038436983 0.021709848 0.07676212 0.089807 -0.03886919 -0.01779306
0.08315259 -0.074744456 -0.02437281 0.045756396 -0.045051306 0.116197534 -0.060028054 -0.027396856
-0.07708588 0.1072965 0.104498684 -0.04117605 -0.08259056 0.02814776 -0.08728154 0.12818609
0.10381621 0.070166916 0.086132035 0.076893166 0.06081364 -0.06413024 0.06531922 -0.019615507
-0.09734932 -0.10822099 0.11248611 -0.08500181 0.13112056 -0.03012632 0.027431067 -0.014792543
0.07252228 -0.021686036 0.08480901 0.114842996 0.052696228 0.10073576 -0.07206628 0.0309051
-0.0668315 -0.03368507 0.08010677 -0.055742167 -0.04865229 0.084598675 -0.04650091 -0.060495757
-0.09249338 0.052461646 -0.06469873 0.12837365 0.13708559 -0.022374932 0.112396866 0.11337084
-0.097509466 0.08551784 -0.042150624 -0.114261866 0.031540338 -0.0009005679 -0.05301831 0.05912562
-0.06934678 -0.01529212 0.039629065 0.08344006 0.07651979 -0.088177174 0.043787766 -0.065421805
0.109620206 0.09211709 -0.03290658 -0.08694531 -0.097145304 -0.02504766 -0.07697017 0.08632128
-0.061031647 0.062170554 0.063244015 0.09758701 0.10493519 0.07625268 0.1089848 0.038311385
-0.058337428 -0.027545568 0.09686324 -0.104120985 -0.11260232 -0.048124574 0.068088874 0.079687424
0.04414724 -0.034465887 -0.06529148 -0.069925725 -0.09114341 0.059911225 -0.07749278 0.0924024
0.07768358 -0.020669015 -0.03549234 0.082982205 0.14363828 0.064453974 0.12406314 0.10959901
-0.08002124 -0.08518808 -0.041976344 -0.062197573 -0.038205486 -0.059318125 -0.008355774 0.05289988
0.03307193 0.040436357 -0.09416415 0.10986006 0.047002893 0.06979964 0.07285456 -0.047657073
